checkpoints/run_0/1d_cnn_ckpt_4.pth (torch, 52296 bytes, 7 tensors)

model_m.0.weight f4 [8, 1, 8]
0	0xbd12a0b8	-0.035797805
1	0xbeb3b871	-0.35101655
2	0xbeaf6eba	-0.34264165
3	0x3e8341c6	0.2563612
4	0x3ea1a34d	0.315699
5	0xbe6ad58e	-0.22933027
6	0x3ea66ca7	0.3250477
7	0x3e703fc8	0.2346183
8	0xbea35939	-0.3190401
9	0xbe2326a4	-0.15932709
10	0x3df6b73e	0.120466694
11	0x3c9b2839	0.018940078
12	0x3df597a2	0.11991812
13	0x3e0c9479	0.13728513
14	0x3e469c4f	0.19395564
15	0xbe122fcb	-0.14276044
16	0x3de2b035	0.11068765
17	0xbd22499e	-0.039620988
18	0xbd4e91e8	-0.050432116
19	0xbea9e1ef	-0.33180186
20	0x3ea71c84	0.32638943
21	0x3c96f116	0.018425506
22	0x3d9b7217	0.0759012
23	0x3e1ca52f	0.15297388
24	0xbe260f2e	-0.16216728
25	0xbe294841	-0.16531469
26	0x3e2ab314	0.16669875
27	0xbe30f53a	-0.17281047
28	0x3ea763e0	0.32693386
29	0xbeb31d25	-0.34983173
30	0xbe444aa2	-0.19169095
31	0xbe6f5456	-0.23372015
32	0xbdd9e717	-0.1063978
33	0xbe7e5a5e	-0.2483916
34	0xbe994103	-0.29932413
35	0x3ea4c9cb	0.32185206
36	0xbeab3a9f	-0.33443162
37	0xbe62b997	-0.2214111
38	0xbe857e69	-0.26073006
39	0xbdc3dd82	-0.09563734
40	0xbe811a78	-0.25215507
41	0xbcacca4c	-0.021092556
42	0xbe8a2771	-0.26983216
43	0x3ea510c1	0.32239345
44	0x3e94f96d	0.29096547
45	0xbe9cbdc7	-0.3061354
46	0x3e9d42f8	0.30715156
47	0xbe5a0e88	-0.21294606
48	0x3cf94fc1	0.030433537
49	0x3dc45ca0	0.09587979
50	0xbd9f2790	-0.07771218
51	0xbe9a5d12	-0.30149132
52	0xba879c38	-0.001034624
53	0x3eaff1a3	0.34364042
54	0x3eaf7a6b	0.34273085
55	0xbe0fbb27	-0.14036237
56	0x3d1a243a	0.037632205
57	0xbe49413c	-0.19653791
58	0xbd877d60	-0.0661571
59	0xbcecbb34	-0.02889786
60	0x3eaa6e1b	0.3328713
61	0x3e0a21f5	0.13489516
62	0xbe568acb	-0.20951383
63	0xbe9518b5	-0.29120412

model_m.0.bias f4 [8]
0	0xbe06fba5	-0.13181932
1	0x3d073c10	0.033016264
2	0xbe3db05c	-0.18524307
3	0xbea47a67	-0.32124636
4	0x3d2c193d	0.042016257
5	0x3eab527d	0.3346137
6	0x3e6259bc	0.22104543
7	0xbe89ec36	-0.26938027

model_m.3.weight f4 [16, 8, 8]
0	0x3d16f884	0.036858097
1	0xbd870f8e	-0.06594764
2	0xbb84b120	-0.0040494353
3	0x3d247a10	0.04015547
4	0x3d91b8e0	0.0711534
5	0xbdac2006	-0.084045455
6	0xbd9f0006	-0.07763676
7	0xbcf11240	-0.029427648
8	0x3bb842f1	0.0056232144
9	0xbc0ab5f7	-0.008466235
10	0x3d363b0d	0.04448991
11	0x3ca16d02	0.0197053
12	0xbd684e24	-0.056715146
13	0x3c7d0648	0.015443392
14	0x3dafe882	0.08589269
15	0xbd5ad14c	-0.053422257
16	0x3ce187a0	0.027530491
17	0xbcf18280	-0.029481173
18	0xbbd60c20	-0.006532207
19	0x3dd21acc	0.10259017
20	0xbd1b40c0	-0.037903547
21	0x3dd3a62c	0.10334429
22	0x3d09bbd8	0.033626407
23	0xbd1fade4	-0.038984194
24	0xbc8c56b0	-0.01713118
25	0xbdd15fa6	-0.102233216
26	0x3d50d6b4	0.050986007
27	0x3b9edee0	0.004848346
28	0xbd8c8da0	-0.0686295
29	0xbdead126	-0.11465673
30	0xbdbb0e2c	-0.091335624
31	0xbdcdc478	-0.10047239
32	0x3cc21a2f	0.023694126
33	0x3d345426	0.044025563
34	0x3d68c898	0.056831926
35	0x3ba44fd6	0.0050144
36	0x3d50d580	0.05098486
37	0xbd13909f	-0.036026593
38	0x3c1404ae	0.009034319
39	0x3deb7342	0.11496593
40	0x3dd6cf20	0.10488725
41	0xbdcf3863	-0.10118177
42	0x3dabf255	0.083958305
43	0xbd9cef39	-0.076628156
44	0xbd9c401a	-0.07629414
45	0xbd2943bd	-0.041324366
46	0xbd3d9567	-0.04628506
47	0xbd89763b	-0.06712004
48	0x3dfba4d6	0.12287299
49	0x3d398cdd	0.045300353
50	0x3dfc3e15	0.12316529
51	0xbde0f81e	-0.109848246
52	0x3d9ad0f4	0.07559386
53	0x3d9c12ba	0.07620759
54	0x3de992e1	0.11404968
55	0xbccfb3dd	-0.02535432
56	0xbc8830a8	-0.016624764
57	0xbd571808	-0.052513152
58	0x3da1a792	0.078932896
59	0xbd9c0e56	-0.07619922
60	0x3d2fe670	0.04294437
61	0xbd398f50	-0.04530269
62	0x3d378078	0.04480025
63	0xbc3673f0	-0.01113604
64	0xbd4dff90	-0.05029255
65	0xbdaa7c88	-0.08324534
66	0xbddc69b8	-0.10762352
67	0xbdd60c9a	-0.10451622
68	0x3de4fddc	0.11181232
69	0x3c994e48	0.018714085
70	0xbdf7a6b8	-0.12092346
71	0x3dc0a322	0.09406115
72	0xbd96acdf	-0.07357191
73	0x3dc6a435	0.09699289
74	0xbd95e284	-0.07318595
75	0xbb08e296	-0.002088701
76	0xbca19528	-0.019724444
77	0xbd812dcb	-0.063075624
78	0xbd17e607	-0.037084606
79	0x3d3175ae	0.04332512
80	0x3de27944	0.11058286
81	0xbcb317a8	-0.021861866
82	0xbc3da9a0	-0.011576086
83	0xbd156c4c	-0.036480233
84	0xbdee5960	-0.11638141
85	0x3dda4166	0.10657005
86	0x3de90fd8	0.11379975
87	0x3d2927fc	0.041297898
88	0xbdc80854	-0.097672135
89	0xbcfcd878	-0.03086494
90	0xbdbe7340	-0.09299326
91	0x3daea8f6	0.085283205
92	0x3db9ca22	0.09071757
93	0xbda077ac	-0.078353256
94	0xbd50f6b0	-0.05101651
95	0xbdb2af80	-0.0872488
96	0xbd25d144	-0.040482774
97	0xbc369cb9	-0.011145764
98	0xbd67d6f1	-0.05660147
99	0x3d1441db	0.036195617
100	0x3d7637a3	0.060111653
101	0xbdee8b2f	-0.11647641
102	0x3da95110	0.082674146
103	0x3d473367	0.048633005
104	0xbd9279b2	-0.07152118
105	0x3d96c52b	0.073618256
106	0x3dce9d23	0.10088565
107	0x3d77a5cb	0.060460847
108	0x3ddcbbcb	0.10778006
109	0x3dc79501	0.09745217
110	0x3d6b9fe2	0.057525523
111	0xbd88d0a3	-0.06680419
112	0x3d878576	0.066172525
113	0x3d85005b	0.064942084
114	0xbd50211a	-0.050812818
115	0xbdc4f6ee	-0.096174106
116	0xbd5ae75b	-0.053443294
117	0xbdef166a	-0.11674197
118	0xbd8ca333	-0.06867065
119	0xbdeb676e	-0.11494337
120	0x3d8087d0	0.06275904
121	0x3dff46bc	0.124646634
122	0x3deb9a88	0.11504084
123	0x3ccc6538	0.024950609
124	0xbd97afa4	-0.07406548
125	0xbcaebf38	-0.021331415
126	0x3c57ddc0	0.013175428
127	0xbde085ca	-0.10963018
128	0xbd13a930	-0.03605002
129	0x3b855f00	0.004070163
130	0x3ce4c8e0	0.027927816
131	0x3dc1d466	0.0946434
132	0xbd84b742	-0.06480266
133	0xbd12b6e0	-0.035818934
134	0xbdbe67e8	-0.09297162
135	0x3ca96c40	0.0206815
136	0xbc03141c	-0.0080004
137	0xbcc389a6	-0.023869347
138	0x3c5bac47	0.013407773
139	0xbc90f81e	-0.017696436
140	0x3d9195cf	0.07108652
141	0xbd67d2b5	-0.05659743
142	0x3b80e173	0.0039331256
143	0x3b6a6d87	0.003577085
144	0x3d81f6c0	0.06345892
145	0x3d0a9da8	0.03384176
146	0xbde6cf80	-0.11270046
147	0xbdea185e	-0.11430429
148	0xbdf9c776	-0.12196247
149	0xbdab7a16	-0.083728954
150	0xbd4ea6d4	-0.05045207
151	0xbd0fd018	-0.035110563
152	0xbdf5aa6c	-0.11995396
153	0xbdb36b4a	-0.08760698
154	0x3ccf3040	0.025291562
155	0x3d9c2f4e	0.0762621
156	0xbddf6f54	-0.10909906
157	0xbcc8bb50	-0.02450338
158	0x37c62000	2.361834e-05
159	0x3d2ce448	0.042209893
160	0xbc84c73a	-0.01620828
161	0xbd65760b	-0.056020778
162	0xbc378d62	-0.011203142
163	0xbd8b788e	-0.06810103
164	0x3da7311e	0.08163665
165	0x3c4ce1af	0.012504979
166	0x3dafb759	0.08579893
167	0xbc1f5a67	-0.009726143
168	0x3d92f1ca	0.07175024
169	0xbcfc0b69	-0.03076716
170	0x3d4fa2d9	0.050692413
171	0x3d418432	0.047245212
172	0x3db95d49	0.09050996
173	0xbd8bab76	-0.06819813
174	0xbc27a7b6	-0.0102328565
175	0x3b924d6e	0.0044647967
176	0x3d5d3324	0.05400385
177	0xbdb0dec1	-0.08636237
178	0x3d1d8aa3	0.038462292
179	0xbc4437a2	-0.0119761545
180	0x3ce38a5b	0.027775934
181	0x3d4f0e37	0.050550666
182	0x3bd639c5	0.0065376484
183	0xbd866a2d	-0.0656322
184	0xbd0ca1b0	-0.034333885
185	0x3df3b43a	0.1189961
186	0x3dd46b26	0.103719994
187	0xbd9ede4a	-0.07757242
188	0x3db8e868	0.09028703
189	0x3d8f8394	0.070075184
190	0xbdbb6960	-0.09150958
191	0xbdc6bb1c	-0.09703657
192	0x3da13052	0.078705445
193	0xbc877c18	-0.016538665
194	0x3def9b54	0.11699548
195	0xbbdcd040	-0.0067386925
196	0xb9b68200	-0.00034810603
197	0xbd72c180	-0.059266567
198	0xbc3e4db0	-0.011615202
199	0xbd8635e6	-0.06553249
200	0xbd2bbdd1	-0.04192907
201	0x3d1e399e	0.038629167
202	0xbdc9cc11	-0.09853376
203	0x3db7626c	0.08954319
204	0x3dc97dd7	0.09838455
205	0xbc764e8d	-0.015033376
206	0xbdabde19	-0.08391971
207	0xbb1a994b	-0.0023589905
208	0x3cbac7d0	0.022800356
209	0x3d9410d6	0.07229774
210	0x3c458da0	0.012057692
211	0x3d8f7542	0.07004787
212	0x3de0fc00	0.10985565
213	0x3de345c4	0.11097291
214	0xbd25c678	-0.040472478
215	0x3c9cf328	0.019158915
216	0x3dc3e722	0.095655695
217	0x3d94cfa4	0.07266167
218	0x3cf492b0	0.029855102
219	0x3dedb770	0.116072536
220	0xbd3bbfac	-0.04583709
221	0x3df2a4bc	0.11847827
222	0xbc13c290	-0.009018555
223	0x3da7ba2e	0.08189808
224	0x3d805a21	0.06267191
225	0xbced0887	-0.02893473
226	0xbdac354d	-0.08408604
227	0xbca91e06	-0.0206442
228	0xbd8ddb3e	-0.06926583
229	0xbdb9488b	-0.090470396
230	0x3ca1428b	0.01968505
231	0xbd159b4f	-0.036525067
232	0x3df6671d	0.12031386
233	0x3bb92490	0.0056501105
234	0x3d48caf2	0.04902167
235	0xbd0ba039	-0.034088347
236	0x3cf6e70a	0.030139465
237	0x3dfe11e7	0.12405758
238	0xbc3d7f3c	-0.01156598
239	0xbd441892	-0.047874995
240	0xbd1b13df	-0.037860747
241	0x3bf45eb9	0.007457581
242	0x3d5b57b0	0.053550422
243	0x3d9fde15	0.07806031
244	0xbd25233d	-0.04031681
245	0x3dcda1b5	0.10040609
246	0xbca41dea	-0.020033795
247	0x3d15f6e6	0.036612414
248	0x3d81219a	0.06305237
249	0xbd151b3c	-0.036402926
250	0x3d1eaf58	0.03874144
251	0x3da6f564	0.08152273
252	0xbd577a20	-0.0526067
253	0x3bd221c0	0.0064127147
254	0xbd0b529c	-0.03401433
255	0xbd0973ac	-0.03355758

model_m.3.bias f4 [16]
0	0x3d70db99	0.058803175
1	0x3de75e59	0.11297292
2	0x3d94dcd0	0.07268679
3	0xbd69c188	-0.05706933
4	0x3d7d00c6	0.061768316
5	0x3db7d2ef	0.08975779
6	0xbd897372	-0.067114726
7	0xbb95dd40	-0.004573494
8	0x3d980cbb	0.07424303
9	0xbdd21d1c	-0.102594584
10	0x3c104559	0.008805596
11	0xbd9b4834	-0.07582131
12	0xbdfce422	-0.123482004
13	0x3ca7a988	0.020466581
14	0xbd21e194	-0.03952177
15	0x3da3ac07	0.07991796

model_m.6.weight f4 [32, 16, 8]
0	0xbd9eb1ba	-0.077487424
1	0xbd947222	-0.072483316
2	0xbcc326ed	-0.023822272
3	0x3cd40c9c	0.025884919
4	0x3c6efb30	0.014586255
5	0xbc9661a2	-0.018357102
6	0xbd13b1f6	-0.03605839
7	0xbd652db0	-0.055951774
8	0xbda1c56a	-0.07898982
9	0x3da4f1be	0.08053921
10	0x3d39464b	0.045233052
11	0xbd5db67d	-0.054129113
12	0x3c6e0638	0.01452785
13	0x3a78df07	0.0009493683
14	0xb90e1592	-0.00013550211
15	0xbc289c3a	-0.010291154
16	0xbd9120a1	-0.070863016
17	0x3d9249c3	0.07142975
18	0xbd1a26c7	-0.037634637
19	0x3c94ac60	0.018148601
20	0x3d7ce4c9	0.061741624
21	0xbda646f9	-0.08119006
22	0xbd459507	-0.048237827
23	0x3ce3254d	0.027727747
24	0x3ba03bb5	0.00488993
25	0xbd0d2ab1	-0.03446454
26	0xbbd3bb01	-0.0064615016
27	0xbd1add41	-0.03780866
28	0x3da84742	0.08216716
29	0xbd798cb6	-0.060925208
30	0x3c9fe35d	0.019517595
31	0xbd4709c8	-0.048593313
32	0x3c7c33b6	0.015393188
33	0x3d17b7da	0.03704057
34	0xbd142b32	-0.036174007
35	0x3dad35a6	0.08457498
36	0xbc989a53	-0.018628275
37	0xbda880af	-0.082276694
38	0x3d82c4ab	0.06385168
39	0xbd2757ec	-0.040855333
40	0xbc1f46c8	-0.009721465
41	0xb8dca958	-0.0001052196
42	0xbcb505fd	-0.022097582
43	0x3d853940	0.0650506
44	0x3c8e98d4	0.017406859
45	0xbc8a220e	-0.016861942
46	0x3c46ecba	0.012141401
47	0xbcefbfbe	-0.029266234
48	0x3cd8d0d5	0.026466766
49	0x3cfb4edf	0.030677257
50	0x3d8ef6a2	0.06980635
51	0xbd311d8e	-0.043241076
52	0x3d4201a2	0.04736484
53	0x3d76e296	0.060274683
54	0x3c0f70a1	0.00875488
55	0x3bb2cc6f	0.0054564993
56	0xbd35369a	-0.044241525
57	0xbd802b1a	-0.06258221
58	0xbd919648	-0.07108742
59	0xbd3e7c3d	-0.0465052
60	0x3c1b39cf	0.009474232
61	0xbd362b95	-0.044475157
62	0xbd15183e	-0.036400072
63	0xbcca826b	-0.024720391
64	0xbd9127da	-0.07087679
65	0xbd7cb5aa	-0.061696686
66	0x3d4428f4	0.04789062
67	0x3d32fbc7	0.043697145
68	0x3d92345e	0.071388945
69	0xbc8293db	-0.015939644
70	0x3da69ed4	0.08135763
71	0x3cabafa8	0.020957783
72	0x3db3c22c	0.0877727
73	0xbdac38a6	-0.08409242
74	0xbdac5b97	-0.08415907
75	0x3bd27124	0.006422179
76	0xbca992f7	-0.020699961
77	0xbc5fd64c	-0.013661932
78	0xbd7bd6ba	-0.061484076
79	0xbc987840	-0.018612027
80	0xbd173057	-0.036911335
81	0xbc4dd0d3	-0.012561995
82	0x3daa5db6	0.08318655
83	0xbd7099f0	-0.058740556
84	0xbd6b09f0	-0.057382524
85	0xbda64aed	-0.0811976
86	0xbd760165	-0.060059924
87	0xbc330b5e	-0.010928003
88	0xbce1c99a	-0.027561951
89	0xbc2f6be9	-0.01070688
90	0x3d0c1ecc	0.034209058
91	0x3d9d6d39	0.07686848
92	0xbcef85d9	-0.029238628
93	0xbd8081c4	-0.06274751
94	0xbdab2dc8	-0.083583415
95	0xbd93d774	-0.07218829
96	0x3db31153	0.08743539
97	0x3bf871de	0.0075819334
98	0xbd8ea864	-0.06965712
99	0x3d162f8a	0.03666643
100	0x3db212a7	0.08694964
101	0xbb9b6300	-0.0047420263
102	0x3d58c483	0.052921783
103	0xbb17242d	-0.0023062334
104	0xbd7949a0	-0.06086123
105	0xbd9c53e0	-0.076331854
106	0xbb8b8ba7	-0.004258591
107	0xbc6b779d	-0.01437178
108	0xbc3d2b23	-0.011545929
109	0xbc9fa51d	-0.019487912
110	0xbda13137	-0.07870715
111	0x3d6e21e2	0.058137782
112	0xbd82fc3f	-0.063957684
113	0x3cd8f8d4	0.026485838
114	0x3c81e5d1	0.015856655
115	0x3da33b7c	0.0797033
116	0xbd08fe35	-0.033445556
117	0xbd7924ec	-0.060826227
118	0xbc93ccb5	-0.018041948
119	0x3d91e402	0.07123567
120	0x3a83771a	0.0010030002
121	0x3d1dd21d	0.038530458
122	0x3d3e9d62	0.04653681
123	0x3d5ddf5e	0.054168098
124	0xbd2377d9	-0.039909218
125	0x3d1e6249	0.03866795
126	0xbcd1b167	-0.025597287
127	0xbd9351d5	-0.071933426
128	0xbda5431c	-0.08069441
129	0x3c3e944b	0.0116320355
130	0xbd0a212e	-0.03372305
131	0xbd1815fc	-0.03713034
132	0x3d480555	0.04883321
133	0x3b8a320f	0.004217393
134	0x3d67e7a3	0.05661739
135	0xbc208650	-0.009797648
136	0xbc44076c	-0.01196466
137	0xbb550726	-0.0032505482
138	0xbd364521	-0.04449952
139	0xbd6243f9	-0.055240605
140	0xbd039952	-0.03212864
141	0x3d15e53b	0.036595564
142	0x3da99e34	0.08282128
143	0x3da8587c	0.08220002
144	0xbd8cadbd	-0.068690754
145	0xbcd11429	-0.025522308
146	0xbd7fafb2	-0.062423415
147	0xbc81d9dd	-0.015850956
148	0xbd15cab0	-0.03657025
149	0x3da999b6	0.08281271
150	0x3be429ad	0.006962976
151	0xbd00d2aa	-0.031450905
152	0xbc7bc598	-0.015366934
153	0xbcdfbd2a	-0.02731188
154	0x3d2c756c	0.04210417
155	0x3d945575	0.07242862
156	0xbdad22e6	-0.08453922
157	0xbd96250d	-0.073312856
158	0x3ca43598	0.020045087
159	0xbd5e629d	-0.054293264
160	0x3d623ffc	0.0552368
161	0xbcde4ec0	-0.02713716
162	0xbcd0510c	-0.025429271
163	0x3c155690	0.009114876
164	0x3d60941a	0.05482874
165	0xbc26f96c	-0.010191303
166	0x3d2e464d	0.042547513
167	0x3dafddd9	0.08587236
168	0xbbc91c8b	-0.006137436
169	0x3d9b74a3	0.07590606
170	0x3d8ff822	0.070297495
171	0xbdaad300	-0.08341026
172	0xbcde8649	-0.027163642
173	0xbcfcb274	-0.030846812
174	0x3da1d8d3	0.07902684
175	0xbc9b57e3	-0.018962806
176	0xbd402283	-0.046907913
177	0xbd43265d	-0.047644008
178	0xbc80c49c	-0.01571875
179	0x3b84cfe7	0.004053104
180	0x3d067b8c	0.032832667
181	0x3c58280e	0.0131931435
182	0x3d190110	0.03735453
183	0xbc92a885	-0.017902622
184	0xbd1cfee3	-0.038329016
185	0xbc81e128	-0.015854433
186	0x3d7f3050	0.062301934
187	0x3b9a25dc	0.00470422
188	0x3ce2783d	0.027645225
189	0x3c489fd1	0.012245134
190	0x3daa5c23	0.08318355
191	0xbc90ed84	-0.017691381
192	0xbcb10ef7	-0.021613581
193	0xbd7431ea	-0.059617914
194	0xbd35c5ab	-0.044377964
195	0xbc1a6196	-0.00942268
196	0xbd0949e3	-0.03351773
197	0xbd3e7d7d	-0.046506394
198	0x3c4774f5	0.012173881
199	0xbd4e6c2b	-0.050396126
200	0x3d94a0ff	0.0725727
201	0x3d77e0a0	0.060516953
202	0x3ce5733a	0.028009046
203	0xbd669921	-0.05629838
204	0x3cec3491	0.02883366
205	0xbd43d44d	-0.047809888
206	0xbd874480	-0.06604862
207	0xbd9e906b	-0.07742389
208	0xbd61d1db	-0.055131774
209	0x3c414106	0.011795288
210	0xbca30664	-0.019900508
211	0xbd8ba91a	-0.06819363
212	0x3d9943e3	0.074836515
213	0x3b42a8f7	0.0029702762
214	0xbbab6449	-0.005230461
215	0x3c0850ff	0.008320092
216	0xbd1b1de9	-0.03787032
217	0x3d4702e3	0.048586737
218	0x3c865174	0.016396262
219	0x3da3d256	0.07999103
220	0xbb46d104	-0.0030336985
221	0xbd27b652	-0.04094536
222	0xbd74f7d2	-0.059806652
223	0xbc7c195f	-0.015386908
224	0xbbb702c6	-0.0055850474
225	0xbc83f3dc	-0.016107492
226	0x3d749774	0.05971475
227	0x3cd2ce31	0.025733085
228	0xbd31e317	-0.04342946
229	0xbd03632b	-0.032076996
230	0x3d95741c	0.07297537
231	0xbb911bf1	-0.0044283797
232	0xbcdf7255	-0.027276197
233	0x3d3d8118	0.04626569
234	0x3d82f968	0.06395227
235	0x3d78fe40	0.060789347
236	0x3d617006	0.055038475
237	0x3c9207ad	0.017825926
238	0x3d76d6e8	0.060263544
239	0xbd9b9ec5	-0.07598642
240	0xbca08de8	-0.019598916
241	0xbd1aee23	-0.03782476
242	0x3d27b30a	0.04094223
243	0x3c5938f4	0.013258208
244	0x3dabeb5f	0.08394503
245	0x3cf68898	0.03009443
246	0xbd8f8f30	-0.07009733
247	0xbda2ac12	-0.07942976
248	0xbd22648e	-0.039646678
249	0xbc1b0cf5	-0.009463538
250	0xbd2da4a0	-0.042393327
251	0xbd23bc96	-0.03997477
252	0xbc557c7f	-0.01303017
253	0xbd15360d	-0.0364285
254	0x3d40f0bb	0.04710458
255	0x3d9150c9	0.07095487

model_m.6.bias f4 [32]
0	0xbda01f07	-0.07818418
1	0x3d6c6885	0.057716865
2	0x3d5a6b8a	0.053325213
3	0xbd99fd35	-0.075189985
4	0xbda5df5b	-0.08099242
5	0x3da9958d	0.08280478
6	0xbd73516f	-0.059403833
7	0xbd1f04de	-0.038823
8	0x3db14b6f	0.08656966
9	0xbd4307b4	-0.04761477
10	0x3bf1bfaa	0.0073775845
11	0xbda8e8c3	-0.08247521
12	0xbc35f1d2	-0.011105018
13	0xbd7cfd4d	-0.061765004
14	0xbd0a022b	-0.033693474
15	0x3d118a5a	0.035532333
16	0x3d35d42a	0.04439179
17	0xbcfd0027	-0.030883862
18	0xbd2ad241	-0.04170442
19	0x3d8ae4f0	0.067819476
20	0x3c5f3eab	0.013625781
21	0x3d95a6de	0.07307218
22	0x3bc38f44	0.0059680063
23	0x3c401d93	0.011725801
24	0x3ca9fef9	0.020751463
25	0xbd44b831	-0.04802722
26	0x3d8a73bc	0.06760356
27	0x3d9459b2	0.072436705
28	0xbd640eab	-0.05567805
29	0x3d9e2713	0.077222966
30	0x3c457623	0.012052092
31	0x3d933a39	0.071888395

fc.weight f4 [1, 6976]
0	0x3b70ac95	0.003672396
1	0xba252c33	-0.00063008367
2	0x3c254ed9	0.0100895995
3	0x3c42e9a8	0.011896528
4	0x3bf82363	0.007572578
5	0x3b898c2f	0.0041976194
6	0xbc133bfb	-0.008986468
7	0xbaa4ed9b	-0.0012583019
8	0x3c169de9	0.009192922
9	0xb9c0141f	-0.00036636085
10	0xbc3d7e53	-0.011565763
11	0xba2baab3	-0.00065485685
12	0xbb01f161	-0.001982771
13	0xbbaf98a5	-0.005358773
14	0x3bd8a782	0.0066117654
15	0xbc0a3884	-0.008436326
16	0xbb4fd8e7	-0.0031714977
17	0x3b246607	0.0025085227
18	0xbb8ecdc0	-0.0043580234
19	0xbbe291bc	-0.0069143455
20	0x3a5f4bbf	0.0008518062
21	0xbc224ac8	-0.009905525
22	0xbc1aad70	-0.009440765
23	0xba09206e	-0.00052309677
24	0x3abe0c4f	0.0014499518
25	0xbb01e36b	-0.001981939
26	0xbbec5633	-0.007212424
27	0x3bba9851	0.005694427
28	0xbb570cb2	-0.0032813963
29	0xbc096bb2	-0.008387493
30	0x3a4f4e61	0.00079081027
31	0xbbca5029	-0.0061741066
32	0x3be66406	0.0070309667
33	0x3aba5453	0.0014215804
34	0xbb833585	-0.0040041828
35	0x3bb82b75	0.005620415
36	0x3b298f53	0.0025872781
37	0xbb7f6df7	-0.0038975456
38	0xbb5cfbe1	-0.0033719467
39	0xb66673f8	-3.4340173e-06
40	0xbb4332af	-0.0029784848
41	0xbbd10dda	-0.006379825
42	0x3bc8fa68	0.0061333664
43	0xbbced83b	-0.006312398
44	0x3b9397f6	0.004504199
45	0xbc078f73	-0.008273947
46	0x3b565d08	0.003270926
47	0xbbeb7055	-0.007185022
48	0xbc33ebc9	-0.0109815085
49	0x3bc08442	0.0058751414
50	0xbb889849	-0.0041685444
51	0xbc371830	-0.0111752
52	0xb8aa13b8	-8.1099046e-05
53	0xbc05d0ef	-0.008167489
54	0x3c0f92c1	0.008763016
55	0xbc126cf7	-0.008937112
56	0xbbd51e53	-0.006503859
57	0x3b5a2f3c	0.0033292314
58	0x3bb01760	0.0053738803
59	0x39a8c5a1	0.00032190702
60	0xbbd5e68f	-0.006527729
61	0xbbeea3ec	-0.0072827246
62	0x39b362ca	0.00034215144
63	0xbb826233	-0.0039789914
64	0x3bb4873a	0.0055092843
65	0x3bfd4384	0.0077289958
66	0xbaf7b17d	-0.00188975
67	0x3c026837	0.007959417
68	0xbac0afc4	-0.001470082
69	0x3c322f03	0.010875466
70	0xbbcf1b44	-0.006320389
71	0xbc234c60	-0.00996694
72	0x3b3abb4a	0.002849298
73	0x3bc33472	0.0059571797
74	0x3b5b79a9	0.0033489263
75	0x3a1e5ad9	0.0006040759
76	0x3c344f5b	0.011005248
77	0xba3acb62	-0.00071256433
78	0xbc1713b6	-0.009221008
79	0xbb5c4988	-0.0033613164
80	0xbc1fe881	-0.009760023
81	0x3b5d9095	0.0033808101
82	0x3bef7707	0.0073078903
83	0xbc0d6988	-0.008631118
84	0x3c3d67aa	0.01156036
85	0x3beebf57	0.007285993
86	0x3c285e29	0.010276356
87	0xbc338c53	-0.010958749
88	0x39087b96	0.0001301601
89	0xb9df2525	-0.0004256155
90	0x3c012f7f	0.007884859
91	0xbbca8d7c	-0.006181417
92	0x3c0822fc	0.008309122
93	0xbbcfd5d7	-0.0063426304
94	0xbc34efd5	-0.011043509
95	0xba569b7b	-0.00081866205
96	0x3bdfa642	0.0068252394
97	0x3c3d1d3f	0.011542617
98	0xbc0ef9d3	-0.008726555
99	0xbc0059fc	-0.007833954
100	0x3c066db0	0.0082048625
101	0xbc2f97bd	-0.01071733
102	0xbb107513	-0.0022042438
103	0xbbc2ecae	-0.0059486246
104	0xbc21f12f	-0.009884163
105	0x3be9342d	0.0071168155
106	0xbbf7f4e3	-0.0075670346
107	0x3b8703aa	0.00412031
108	0xba1b1c9b	-0.00059170433
109	0xbbe41841	-0.006960899
110	0x3b6685b1	0.00351749
111	0xbadb4d37	-0.0016731386
112	0xbb3813db	-0.0028088007
113	0x3b3f6c31	0.0029208774
114	0xbc0dff68	-0.008666851
115	0xbc1d2ab6	-0.009592703
116	0xbbcb0143	-0.006195219
117	0xbbb941ae	-0.0056535816
118	0xbbc3b4dd	-0.0059724883
119	0x3a93ab58	0.0011266274
120	0xbb463111	-0.0030241648
121	0xbc2482ec	-0.01004098
122	0x3b1e1d3d	0.0024126314
123	0x3ad64a35	0.001634902
124	0x3b3996cb	0.002831864
125	0xba1e8c2d	-0.00060481095
126	0x3b10422b	0.0022012095
127	0xbbd39cc4	-0.006457897
128	0x3c204ad3	0.0097834645
129	0xbc24ab39	-0.010050588
130	0xbb99cd7c	-0.004693685
131	0x3c2e6205	0.010643487
132	0xbc1bbf07	-0.009505994
133	0xbbfb6f07	-0.0076731476
134	0x3c26e72f	0.010186954
135	0xbb438297	-0.0029832476
136	0x3c3c2607	0.011483676
137	0xbbf29483	-0.007402958
138	0xbc14137a	-0.009037847
139	0x3c10a927	0.008829392
140	0x3aaf49bb	0.0013373414
141	0x3c21857b	0.009858484
142	0xbb0f08d0	-0.002182532
143	0x3bc1928e	0.0059073633
144	0xbb98e5a2	-0.0046660462
145	0x3a1a0cc6	0.0005876537
146	0xbb28beb5	-0.0025748436
147	0xbaa624f3	-0.0012675807
148	0x3c2811ce	0.010258151
149	0xbb455ad9	-0.0030113964
150	0x3a1acb93	0.0005904969
151	0xbc08737f	-0.008328318
152	0xbc28353d	-0.010266599
153	0xbc07e08a	-0.00829328
154	0xba8e22a0	-0.0010844059
155	0xbb903789	-0.0044011516
156	0xbb715e55	-0.0036829908
157	0x3a3bc94d	0.000716348
158	0xba62081b	-0.00086224236
159	0x3c403da0	0.011733443
160	0xbbdeef3e	-0.0068034222
161	0xbb8dbddc	-0.0043256115
162	0x3b9d5c17	0.0048022377
163	0xbbdf4338	-0.006813433
164	0x3c2f425e	0.0106969755
165	0xba9184fa	-0.0011102252
166	0xbb54b99f	-0.0032459272
167	0xbbb2140b	-0.005434518
168	0xbc1183c9	-0.008881518
169	0xbc1af676	-0.009458175
170	0xbba0591b	-0.0048934347
171	0x3c0b231a	0.008492256
172	0x3bb90a5e	0.005646988
173	0x3c275186	0.010212308
174	0x3b6e14c9	0.0036328307
175	0xbc4427e3	-0.0119724
176	0x3bd99b1e	0.006640806
177	0x3bc69f1f	0.006061449
178	0xbb9fb2b5	-0.0048735985
179	0x3bd0807a	0.006362972
180	0xbc410c90	-0.01178278
181	0xbb339c12	-0.0027406258
182	0xbc120124	-0.008911405
183	0xbb19f865	-0.0023494002
184	0xbc255b42	-0.010092558
185	0xbb9b742d	-0.004744074
186	0xbba64bba	-0.0050749453
187	0x3bc9047d	0.0061345682
188	0xbb03171f	-0.0020002795
189	0xbb29ffcc	-0.002593982
190	0xb9f987ed	-0.00047594254
191	0x3c33b349	0.010968038
192	0x3b81ca22	0.0039608637
193	0x3b8b78de	0.004256352
194	0x3b15a1b3	0.0022831976
195	0x3b31c2ed	0.0027124241
196	0x3c18d6f7	0.009328595
197	0x3b24182e	0.0025038826
198	0x3bc6d7df	0.0060682143
199	0xbc152349	-0.009102651
200	0x3a8d513e	0.0010781658
201	0x3a97b8d0	0.0011575464
202	0x3b0dc14f	0.0021630113
203	0xbadfd1a6	-0.001707603
204	0xbbfa9b50	-0.007647909
205	0xbc2c2cbf	-0.010508715
206	0xbbccd12c	-0.006250521
207	0x3b2cd72b	0.0026373367
208	0x3c3cd867	0.011526204
209	0x3be800b1	0.0070801605
210	0xbb68ed68	-0.0035541896
211	0x3be8fd73	0.0071102916
212	0xb94b3019	-0.00019377506
213	0xba9c9bfa	-0.001194834
214	0xbb64b2f7	-0.003489671
215	0xbb349e5f	-0.0027560217
216	0xba372cf9	-0.00069875974
217	0x3c0017f5	0.007818212
218	0x3b295be7	0.0025842132
219	0x3c256273	0.010094273
220	0x3bb776fe	0.005598902
221	0xbb38d1f0	-0.0028201304
222	0x3b9f653f	0.0048643644
223	0x3bd1a694	0.0063980315
224	0xbc093ede	-0.008376805
225	0x3c398e10	0.011325374
226	0x3bd12630	0.006382726
227	0x3c05f4b5	0.0081760185
228	0x3bf5b64a	0.007498537
229	0xbc3ea039	-0.01163488
230	0xbc0eeb67	-0.0087231165
231	0x3c2a4383	0.010392073
232	0xbb637f02	-0.0034713154
233	0x3bd09229	0.00636508
234	0xbc2f2207	-0.010689265
235	0xbc00673b	-0.007837112
236	0xbb7cbd56	-0.0038565001
237	0xbc23952d	-0.009984297
238	0x3b6dbe02	0.0036276584
239	0x3b80f0d0	0.003934957
240	0x3badf034	0.0053081755
241	0xbc384e61	-0.011249156
242	0xbc1ba546	-0.0094998535
243	0x3c38a823	0.011270556
244	0xbb8a04c3	-0.0042119934
245	0xbb8862a8	-0.0041621514
246	0xbaba7abe	-0.0014227254
247	0x3c3a8638	0.011384539
248	0xbc0863ba	-0.008324558
249	0xbc306f8c	-0.010768782
250	0xbc15824d	-0.009125304
251	0xb8b0aa7e	-8.4240906e-05
252	0x3c257ba7	0.010100282
253	0xbbac1d3e	-0.0052525094
254	0xbb87ad42	-0.004140527
255	0xbb96e7dd	-0.004605277
