checkpoints_raise_input/run_1/1d_cnn_ckpt_5.pth (torch, 193096 bytes, 8 tensors)

model_m.0.weight f4 [8, 6, 8]
00000000: 4bb3 d5bc 478b 27bd 9cd7 04bd 04e4 98bb
00000010: 42a5 bc3d fb6a c9bd 1451 933d 0419 d6bb
00000020: 7bd1 57bd 9cd4 c8bb 80b9 a43d 5066 eabd
00000030: 891b b73c 180c c83d a01c d73d a719 b93d
00000040: ecea 9d3d e242 0bbe e452 853d 7ee3 d23d
00000050: aba6 0cbe 7989 0cbe 3b13 c9bd 4292 253d
00000060: c2c6 0bbe 5e7f acbd f6cf 97bd 3a54 06bd
00000070: bfb6 ac3c 3929 14bd e1f3 19bd 41b5 8ebd
00000080: 0d9f c03d 57cb db3d d216 153c 5bfc 003d
00000090: 96c6 5bbd 3d1f fdbd 1730 ef3d 6b8c f63d
000000a0: 5a0a 443d 420a e53d 2730 92bd dacd 01be
000000b0: 1cf2 db3d 8ccc 843b c67b 033d 6648 9e3d
000000c0: e921 103e 06ce 12be d8ea ebbc 2113 e93c
000000d0: 26c7 493d 6d16 173d 661c a63d b012 06be
000000e0: ed9b 85bc 2ac4 0cbe cd8d b9bd 0613 3a3d
000000f0: 8ee8 c03c 1fa5 c73d f7cf 24bc 473c e03d
00000100: b890 9dbb 3cb8 de3d 55bf 74bd 087d 093e
00000110: 0a13 ecbc dd76 033d fd44 2bbc 34ce fdbd
00000120: 2680 d23d 77b9 d5bb 5104 c53d 4d28 75bd
00000130: 4238 ccbd 0475 f73d 5702 d13d 12fb e8bd
00000140: d430 c7bd 1af6 bb3c 88ec ae3d 405c 4dbd
00000150: 9990 d43c 6db3 473d d47c 773c 21b2 07be
00000160: f7fe cebd 2004 013e 9c21 b7bd 8538 0ebe
00000170: 2570 c33d 4a5c 513b f47f 2cbd d149 f7bd
00000180: 0473 68bd da93 c53b d2df 1b3d 7335 013e
00000190: b29b 6f3d 20fd 01be 589c d4bc f214 8d3c
000001a0: 2d82 15bb 895f f43c 740d e93d 6bc4 cc3d
000001b0: 986e 8a3d 697b 9b3c 54c2 3bbc 8450 853d
000001c0: 8050 babd 1732 febd 4253 993d fb53 303c
000001d0: dae0 0bbe 3042 da3d e06b 123e eda8 6abc
000001e0: 1d0c 02bc 5c06 11be 5bdc bf3d 4017 eb3d
000001f0: 4e0e 9f3d dd23 903d 939d fcbd c4cf d4bd
00000200: 6b4a ebbd 665d f23d d409 243d b95e 49bb
00000210: aa43 933d 9fd1 943b a3dc 1fbd ff37 c13d
00000220: bb49 133e 1438 e7bc 0a9e 00be 14c0 d5bd
00000230: b6d0 29bd 2661 d83d 6b43 f2bc 633d c03d
00000240: 4bff 90bd 2627 c4bc cb5e c9bd 88aa de3d
00000250: b06a 0abe efe6 10be 4fc8 043e f2d3 aabd
00000260: 9b39 aa3d ff10 a63d 27a5 f4bc 0f2a 7fbd
00000270: 6da8 e63d 04ca 963d 6859 0b3d 3d8e 02be
00000280: a329 abbd 456d 083d ab02 13bd 8f4e 353c
00000290: 0eb7 e23d cdb7 9f3c 3147 763d 6e22 b9bd
000002a0: 3301 ee3d 59b7 4ebb fc37 b23d 68f4 51bd
000002b0: 5959 a9bd 51e2 aa3d ede3 e0bd 9ffc a93b
000002c0: 34b2 b2bd 1bcc 023e adb7 0c3e 1d8e 293d
000002d0: b137 5b3d 108f 883c 9668 c4bd b673 07bd
000002e0: 18f6 d73d 22d8 d03d 9413 343d 5cff e5bd
000002f0: ea3b 123e 2bac 0b3b e010 eabc ab1c c73b
00000300: 4852 a43d d853 31bd 34da 33bd 3237 853d
00000310: 4850 02be ca99 08be d251 633d cfa6 a53d
00000320: eade ffbc 2d53 f13d c32a 65bd e5fe d1bd
00000330: 0f2b da3d 56ae 42bd ecc9 ffbd 1faa 97bc
00000340: 2b63 55bd a991 003e 7c99 c7bc 7d75 5f3d
00000350: 963b c0bd e05c 813d 35b8 603d bc73 273d
00000360: 41ec 243c 61d4 03be 687d 783d 4b4c f13d
00000370: a39f 17bd 51a8 993b 301c 023e 5621 a73d
00000380: fbdc afbd c078 0e3d ef1d 81bd 4422 9b3d
00000390: 760d 9c3c c560 8abb 1494 88bc 0175 cbbc
000003a0: 6a7a d43d 542a 8ebd e277 8c3d b52c 083e
000003b0: ab45 9f3c 08d7 05be b345 02bd fffe adbd
000003c0: ac91 e23d 4b86 c5bd 20cf a0bd f7fa b33d
000003d0: 5d32 fb3c a3e8 01be b447 f33d 4274 e03d
000003e0: 9479 fe3d 54db 04be d9cc f2bd d662 223d
000003f0: 343b 14bd c0e9 acbd f1d0 d7bd a5dd 603d
-0.02608647 -0.04090431 -0.032432184 -0.0046658535 0.09211208 -0.09834858 0.07193199 -0.006533744
-0.05269001 -0.0061288606 0.08043194 -0.11445296 0.022351997 0.09767932 0.10503507 0.09038096
0.077108234 -0.13599733 0.06509951 0.10297297 -0.13735454 -0.13724317 -0.09818121 0.040422685
-0.13650039 -0.08422731 -0.07412712 -0.03279517 0.021083234 -0.036172125 -0.037586097 -0.06968165
0.094053365 0.10732143 0.009099679 0.031490665 -0.053656183 -0.12359474 0.11679094 0.12038501
0.047861435 0.11183597 -0.071380906 -0.12676182 0.10739538 0.004052704 0.03210046 0.07728653
0.14075436 -0.14336404 -0.028798506 0.028451504 0.04926219 0.03688662 0.08110885 -0.13093066
-0.016309703 -0.13746706 -0.090602495 0.0454283 0.02354839 0.09748291 -0.010059348 0.10948997
-0.0048085116 0.10874984 -0.05975278 0.13426602 -0.028817672 0.03209578 -0.01045346 -0.12392846
0.102783486 -0.0065223533 0.09619964 -0.059852887 -0.09971668 0.12082866 0.102055244 -0.11376013
-0.0972611 0.022944499 0.085412085 -0.050136805 0.025947856 0.048755098 0.015105445 -0.13251545
-0.101072244 0.1259923 -0.08941957 -0.13888748 0.09542874 0.0031945878 -0.042114213 -0.12074626
-0.056750312 0.006029588 0.03805525 0.12618046 0.058498092 -0.12694216 -0.025953457 0.017221902
-0.0022813187 0.029830711 0.11379519 0.09998401 0.06759375 0.018979745 -0.011459906 0.06509498
-0.090973854 -0.12411898 0.07486583 0.01076221 -0.13659993 0.106571555 0.14298964 -0.014322502
-0.007937458 -0.14162582 0.09368201 0.11479044 0.077664 0.070380904 -0.123347424 -0.10391191
-0.114888035 0.118342206 0.040048435 -0.0030726625 0.0719064 0.0045415903 -0.039028775 0.094345085
0.14383595 -0.028224982 -0.12560287 -0.104370266 -0.041458808 0.105654046 -0.029573163 0.093867086
-0.07079943 -0.023944449 -0.098325334 0.1087237 -0.1351726 -0.14150594 0.12967037 -0.083412066
0.083117686 0.081087105 -0.029863907 -0.06229597 0.112625934 0.0736275 0.03402081 -0.12749572
-0.08357551 0.033307333 -0.035891216 0.011066093 0.11070071 0.019496823 0.060126487 -0.0903977
0.116213225 -0.003154239 0.087020844 -0.051258475 -0.08268995 0.08343948 -0.109809734 0.0051875855
-0.08725396 0.12773173 0.13741942 0.041395295 0.05351991 0.01666978 -0.09590261 -0.033069335
0.105449855 0.10197474 0.043963984 -0.112303466 0.14280668 0.0021312337 -0.0285725 0.0060764155
0.080235064 -0.04329285 -0.043909267 0.06504668 -0.12725937 -0.13339916 0.05549795 0.08088457
-0.031234223 0.11783443 -0.055948984 -0.102536954 0.10652744 -0.04752954 -0.124896854 -0.018513737
-0.052096527 0.12555565 -0.02436518 0.054555405 -0.09386365 0.063165426 0.054863174 0.040881857
0.010066093 -0.12873985 0.06066647 0.1178213 -0.037017476 0.0046892543 0.12706065 0.08160655
-0.085870706 0.034783125 -0.063045375 0.07574895 0.019049387 -0.0042229616 -0.016672172 -0.024836065
0.10374911 -0.06941667 0.06858803 0.13298304 0.0194424 -0.13070309 -0.03180475 -0.08495902
0.11062941 -0.09644755 -0.07852006 0.08788102 0.030663664 -0.126864 0.11878911 0.109596744
0.12425533 -0.12974292 -0.11855478 0.03964504 -0.036189273 -0.08443022 -0.10537899 0.054898877

model_m.0.bias f4 [8]
00000000: b952 64bc 7353 09be 04f5 bb3d 24c0 d9bd
00000010: d05e f2bd b268 813c eebb cd3c 0eea 82bd
-0.013935738 -0.1341074 0.091775924 -0.10632351 -0.1183449 0.015796993 0.025114026 -0.06392299

model_m.3.weight f4 [16, 8, 8]
00000000: 0cec b5bd d0db 003d 6229 91bd e8a3 0bbd
00000010: d41e 80bd 488f c1bd c0d4 4e3d ca65 953d
00000020: 0005 3eba 1efe bfbd ec90 8c3d a05d 7cbd
00000030: 3eda f2bd caa8 dcbd e88a afbd c0de 073d
00000040: b4a6 6c3d ce24 dabd 184b ce3d 683d e3bd
00000050: 344d 7bbd aa44 cbbd 98d7 843d c810 ac3d
00000060: b20e d63d 80e6 513d 003a 12bc b27d d8bd
00000070: 2c73 adbd 00ba 1f3b a8ec cabc 2079 043d
00000080: f0d4 0a3d 001a 963a f234 873d 787e 353d
00000090: 96dc b3bd f0a9 9bbc 4a86 a9bd d093 a4bc
000000a0: b477 4abd 20df b13b 3ce8 223d 8c08 62bd
000000b0: 62cd 903d e629 9dbd 34d3 553d 1002 8a3c
000000c0: bc6d 683d 5061 7a3d aca0 51bd e882 9ebc
000000d0: 4009 b93b 40c4 72bd 6c84 493d a0c6 17bc
000000e0: d678 e0bd c0fc f0bb 0c35 20bd ee4d a03d
000000f0: c8e1 203d 0a47 9dbd e0a2 5abc 68ec 9dbd
00000100: 96a6 eb3d 7480 733d 2c9c 0fbd 98d3 cbbd
00000110: b82f f0bd e8bf 52bd d610 993d 74b0 0a3d
00000120: fec8 ee3d 98b6 fe3d 74e1 6dbd 1ca7 cebd
00000130: 9cdb 3dbd 0c28 1dbd 08aa ba3d 063a a9bd
00000140: 5eb0 cabd c032 97bb 46a2 a03d c010 853b
00000150: 1e8e ca3d 5045 bebd 0a6d 84bd b83b 2a3d
00000160: f44a 3bbd 401a d7bd 186b 9d3c 2ade a13d
00000170: e08c efbc d0c7 3e3d 56b3 cebd 6224 a4bd
00000180: 3620 b8bd 82ea b8bd 442a 323d b07d fdbc
00000190: b425 b3bd a071 6b3d a02a 393c 4eb9 eb3d
000001a0: cc51 4f3d 807c e43d 88b6 a2bd 986a 493d
000001b0: c0fc b5bb 485a 2b3d e85d c93d e80f b6bc
000001c0: 005c 3b3c 0cf3 babd 50b2 933c 04e8 87bd
000001d0: 5cd4 b0bd f094 0cbd c85c ef3c 1894 3fbd
000001e0: bc26 29bd 30b8 2bbd e410 ff3d 00ad 06bc
000001f0: ea10 ecbd 4434 11bd 2ad8 d33d 10ce c03c
00000200: 36a2 bf3d cc77 be3d 107d dbbc 0a71 99bd
00000210: 96af f83d e0b4 54bd 6279 a13d 5807 893c
00000220: 60cf 3abd 96f0 88bd 2012 cabc 186f 62bd
00000230: de47 e1bd 1685 a8bd f288 d6bd b856 d83c
00000240: 66f3 823d b3d8 96bd a2b6 f3bd 8fba 40bb
00000250: 7514 3bbd 56a0 a2bd fc3f cebd f6bf a03c
00000260: 2426 9abd 26e0 b43d 00d0 d1bc 74c5 01bd
00000270: 208b a63d 184c 3dbd 727c a0bd c0d3 8c3b
00000280: 2261 943d a226 eb3d a44b c63d 6eca 853d
00000290: dedc aabd ea6d 9ebd f4bc 62bd 5c21 c43d
000002a0: d7f1 aabd 6f53 6dbc bf1b 9e3d 40dc 06bd
000002b0: 6dcf c63d c7b7 2abd 9f79 d6bd 8d6e 1abd
000002c0: d651 80bd d843 3abd f41b e6bd 1215 3cbd
000002d0: ca1b a2ba bf6d 5fbd 2f84 aa3c 6581 c1bc
000002e0: 54ba d4bd 50bc b2bd e6d1 d2bd e026 ecbc
000002f0: 08f3 8ebd 58ad abbc 6ad3 f5bd 5841 dd3d
00000300: 1453 06bd 808c be3c 282d eb3d f08e 063c
00000310: 1c28 75bd d0f1 ddbd 6a5b 94bd 8c90 233d
00000320: 3438 91bd 1cb7 60bd 8456 5ebd c8b2 1d3d
00000330: f8c5 acbc cefa e33d 9e34 c63d 86cb ee3d
00000340: 6c58 aabd 907e bcbd 8ecd fbbd c069 0b3b
00000350: 0464 e9bd 687b 453d 8e50 ac3d f049 d7bd
00000360: 58e9 0bbd 0eba 8cbd d84c d8bc 12c7 abbd
00000370: 8c61 92bd ae14 d73d 4aef ac3d 20e5 833c
00000380: 00ed b9ba c00a a13d fc41 4a3d 8ca3 533d
00000390: 8497 873d d0e7 c9bc 8e72 f8bd c4c6 efbd
000003a0: b8f7 88bc 74b3 973d 0068 44ba fcec 523d
000003b0: 4283 e0bd a487 bbbd 44b5 b9bd f432 6cbd
000003c0: 6865 683d 102b 533d c882 20bd 34a4 3cbd
000003d0: 742a 47bd 0029 833a 5e04 83bd 5096 af3d
000003e0: 4815 35bd ac4d 7dbd b024 05bc 00ae d9bd
000003f0: 4060 4c3b cc56 bd3d 3406 13bd 12d6 e8bd
-0.08882913 0.03145963 -0.07087971 -0.03409186 -0.0625588 -0.09451157 0.050495863 0.07294805
-0.000724867 -0.09374641 0.06863579 -0.061612725 -0.11858033 -0.107743815 -0.08571416 0.033171415
0.057776168 -0.10651551 0.10072917 -0.11095697 -0.061352924 -0.09925206 0.06486434 0.08401638
0.10452022 0.051245213 -0.008924961 -0.105708495 -0.08469233 0.002437234 -0.02477105 0.032342076
0.03389448 0.001145184 0.066018954 0.044310063 -0.08782308 -0.019001931 -0.08277567 -0.020090014
-0.049430564 0.00542821 0.039772257 -0.055183932 0.07070424 -0.07674007 0.052203372 0.016846687
0.056745276 0.06112796 -0.05117862 -0.01934953 0.0056468546 -0.05926919 0.049198553 -0.0092636645
-0.109605476 -0.007354349 -0.03911309 0.07827364 0.03927782 -0.07679565 -0.0133444965 -0.077111065
0.11506383 0.059448674 -0.035061046 -0.09952468 -0.11727852 -0.051452547 0.07473914 0.033859685
0.1165943 0.12437171 -0.058076337 -0.10090467 -0.046352014 -0.03836827 0.09114462 -0.0826302
-0.098969206 -0.004614204 0.07843451 0.0040608346 0.09890388 -0.09290564 -0.0646611 0.04156086
-0.045725778 -0.10503054 0.019216105 0.079037026 -0.02924198 0.046577275 -0.10092799 -0.08014752
-0.08990519 -0.09029104 0.04349734 -0.030943722 -0.08747426 0.057481408 0.0113016665 0.115099534
0.050615117 0.11156559 -0.07944971 0.04917392 -0.005553812 0.041834146 0.09832364 -0.022224382
0.011435509 -0.09128389 0.018029362 -0.0663605 -0.08634254 -0.034321725 0.029219046 -0.046772093
-0.041296706 -0.0419237 0.124543935 -0.008219957 -0.115266636 -0.035450235 0.103439644 0.023535758
0.09357111 0.09300193 -0.026793033 -0.074922636 0.12142865 -0.05193031 0.0788448 0.016727135
-0.045607924 -0.06686513 -0.024666846 -0.05528173 -0.11000036 -0.08228509 -0.10475339 0.026408538
0.06394081 -0.07365551 -0.11900069 -0.0029408073 -0.045673806 -0.07940738 -0.10070798 0.019622784
-0.07526806 0.088318154 -0.025611877 -0.031682447 0.08132005 -0.046215147 -0.07836236 0.0042977035
0.07245089 0.11481978 0.09682396 0.06532751 -0.08342908 -0.07735808 -0.05535598 0.09576675
-0.083469085 -0.014485224 0.07720136 -0.03292489 0.09707532 -0.04167917 -0.10472416 -0.037703086
-0.06265609 -0.045474857 -0.112358004 -0.04591853 -0.0012367901 -0.05454802 0.020814983 -0.02362127
-0.10387102 -0.08727324 -0.10293941 -0.02882713 -0.06979948 -0.02095668 -0.12003215 0.10803479
-0.032794073 0.023260355 0.11483222 0.00821279 -0.059852704 -0.10837138 -0.07243998 0.039932773
-0.07090798 -0.054862127 -0.054281726 0.038500577 -0.021090493 0.111318216 0.09678005 0.11659913
-0.083176464 -0.092038274 -0.12295066 0.0021272749 -0.113960296 0.048213392 0.08413802 -0.10512149
-0.03415808 -0.068714246 -0.02640383 -0.08387579 -0.07147512 0.10501991 0.08444078 0.016100466
-0.0014185011 0.078633785 0.049379334 0.051669642 0.06620696 -0.02464667 -0.121312246 -0.117078334
-0.016719684 0.07407275 -0.0007492304 0.051495537 -0.109625354 -0.09156731 -0.09067777 -0.05766578
0.056737334 0.05155474 -0.039187223 -0.046055034 -0.04862447 0.0010006726 -0.06397317 0.08573592
-0.04420975 -0.06184165 -0.008126423 -0.10628891 0.00311853 0.09245071 -0.035894588 -0.11368956

model_m.3.bias f4 [16]
00000000: a029 8ebb 8609 d6bd ade4 803d d665 c1bd
00000010: 5886 71bd 2070 73bc fc00 7fbb 7003 eabd
00000020: 6c2f b93c 6aa2 99bd b7d3 e63c 0bf2 ee3c
00000030: 30d8 c23c 13f1 5a3d 1983 1d3d 7b98 ab3d
-0.004338458 -0.10451035 0.062936164 -0.09443252 -0.05896601 -0.014858276 -0.00389105 -0.11426437
0.02260562 -0.07501681 0.028177125 0.02916815 0.023784727 0.053452563 0.038455103 0.08378693

model_m.6.weight f4 [32, 16, 8]
00000000: 5d90 0abc 1c0e 96bd 26db 543d d005 2a3d
00000010: 2cdb 78bd 9ccc 783d 5b4f 58bd 53e1 8b3d
00000020: b2e8 043d 71e9 adbd ad0d 143d a085 02bb
00000030: 6df8 c4bc b27b 57bc 707e 8a3d 9e27 dbbc
00000040: 28f8 31bd 24ac fa3c 316e 4e3d 787c a13c
00000050: 18e9 acbd 4009 e9bc 00a0 253d 6ecf 9fbd
00000060: 358a 72bc 25f3 c4bc 32d1 91bd d9e9 08bd
00000070: 0b15 21bd fc1f 333d 5b24 49bd e909 653d
00000080: fb77 ad3d 2eb9 343d ee90 343d b0a1 1d3d
00000090: f9ea 89bd 3c39 863c 8dd7 86bd 3e96 493d
000000a0: ee0e b2bd cf02 08bd a4fa 9dbc 1cb9 243d
000000b0: 1412 97bd d29a 7fbc 2ec5 9abc 8d61 d03a
000000c0: 42bb dd3c 7126 acbb 3bf5 8abd 49cd a63d
000000d0: bbba bdbc da85 e1bc a038 2fbd 5604 b23d
000000e0: e3d4 95bd 8e95 7e3d c4ad dcbb 818b 6d3d
000000f0: 8c0e 4bbd d133 07bb 4f14 523d 0bea 5f3d
00000100: 5514 983d 4b1e 5c3d 50b1 723d a2d1 5cbd
00000110: 26fd 6f3d e510 243c f59e 8c3d 6bf4 023d
00000120: bcdb 24bd 49e3 e03c e89c 683d 341a 963d
00000130: 4f5f 8e3d a460 afbc da04 3f3c da9a 8a3d
00000140: c790 88bd b6f1 b6ba 32c5 563c 4bd8 a0bc
00000150: 1234 143d 20a9 743d 6f1c a93c 2923 b03d
00000160: 46a6 793c 8852 4d3d 6c6c 703d 822a 843d
00000170: e80a f93b 1361 aabc a2c3 84bd af3d 88bd
00000180: 53d3 5a3d 4579 af3d 56a3 b23d 5922 843c
00000190: f651 8dbd ceaf 983c ac43 13bd fa2e b4bd
000001a0: 483b aebc 4224 10bc ff04 173c 7fd6 833d
000001b0: 653d 0d3c 7231 bb3b 32dc 0e3d a9bd 11bd
000001c0: baed 393d 293c dcbc d1a9 9e3c 47df 103d
000001d0: cda9 963d a9e6 2cbd c8f4 39bd f1f3 cebc
000001e0: 4d59 a13c 6f61 e3bc 3d32 683d fc05 5c3d
000001f0: da24 913d 8075 8b3d 98bf e7bc 2747 31bd
00000200: 8072 c73c be3a c03c 110c cabc 4be6 7fbd
00000210: a1de 92bd 9032 21bd 06af 19bd 94d3 ad3c
00000220: cf97 19bd 3606 a3bd f411 afbd 3bc5 9ebd
00000230: 6b8b aebd 623c 1dbd 9782 ba3c f3a1 a1bd
00000240: b8e5 4e3d f2c5 2bbd 4c8c 3cbd cbbe 0a3c
00000250: b768 333d f287 07bd 0211 f63c 161a 0bbd
00000260: 8eb8 4abd c424 27bd 2c43 05bd decf 003d
00000270: 2547 b33d 88c3 34bd f359 973d d067 20bb
00000280: 4730 8bbd 58e6 acbd c022 adbd 6210 2dbd
00000290: 0923 743d 2beb 9e3c 006c 703d 4af8 273d
000002a0: cbc2 8fbd 8645 a2bd 9185 b43d 664b 8a3c
000002b0: 2411 ae3c 8e23 a5bd 73d9 99bd e91d 84bd
000002c0: b037 1f3c d796 b2bc d405 873d 5c66 57bd
000002d0: 85ac 423d fa89 babc 19bf 43bd 2eb5 343d
000002e0: 6f51 8a3b a50f 74bc ef03 a63d 37ac 843c
000002f0: af1f ac3d 5ae3 8abd 95bf 8f3d e0ed 5bbc
00000300: 1833 903d 6088 80bd 8f4e 67bd 4875 07bd
00000310: 250a 173c fc7b 0cbc 20f9 9d3d e620 953c
00000320: f095 98bd 5d2f 183d 9b48 a1bc 573a 173d
00000330: a078 31bd e64e cc3c 5776 b33d 6d85 8ebc
00000340: b42a 383d 58f7 0a3d 20b1 9abd 694c 803c
00000350: c9b8 a43d 2081 973d 0dc3 91bc d6b3 42bc
00000360: 14fb a2bd b306 213d 52f0 0bbd 3478 8f3d
00000370: 0482 2dbd 5493 443d 4c63 56bd b20b ac3c
00000380: 1f66 8fbd 920b 36bd 963b 83bd dce8 a0bc
00000390: d9dc ddbc c095 c53c dda0 4dbd 4776 773d
000003a0: 71bc a8bb 4e5b 3f3d 5fb9 5dbd 25ee 3abb
000003b0: 3c2f 3c3d 4a08 593d ec96 b9bc 4e04 ab3d
000003c0: d3ce 05bd 00bb 74bd 95f3 453d bb24 22bd
000003d0: e7ba f0bc 8244 5fbd 21f3 603d 7cea 34bd
000003e0: b2a3 7a3d f125 2c3d bd68 8a3d 4e2c e33b
000003f0: 1b8e 6b3c c175 cebc eb36 8c3c a737 973d
-0.00845727 -0.0732691 0.05196681 0.04150945 -0.060755894 0.060742006 -0.052810054 0.068300866
0.032448478 -0.08491791 0.036145855 -0.0019916072 -0.02404424 -0.01315205 0.06762397 -0.02675229
-0.04344955 0.030599661 0.050398055 0.019712672 -0.084428966 -0.028446794 0.04043579 -0.07803236
-0.014803459 -0.024041722 -0.07119979 -0.03342614 -0.03932671 0.043731675 -0.049106937 0.055917654
0.0847015 0.044121914 0.04408353 0.038484275 -0.067342706 0.016384713 -0.06584082 0.049215548
-0.08694254 -0.033205803 -0.019284554 0.040215597 -0.07376495 -0.015600877 -0.01889285 0.0015898213
0.02706683 -0.005253606 -0.06785055 0.08144624 -0.02316033 -0.027529646 -0.04277861 0.08692233
-0.073159955 0.062154345 -0.0067345817 0.05799437 -0.04957442 -0.002063025 0.0512889 0.05466656
0.07425753 0.053739827 0.05925113 -0.05391086 0.05859103 0.010013794 0.06866256 0.031971376
-0.040248618 0.027452128 0.056790262 0.073292166 0.069517724 -0.021408387 0.011658872 0.06767817
-0.06668239 -0.0013957534 0.013108538 -0.019634387 0.03618247 0.059731603 0.020643441 0.08600456
0.015237397 0.050127536 0.05869715 0.0645342 0.007600177 -0.020798242 -0.064826265 -0.0665239
0.05342419 0.08568052 0.0872256 0.01612966 -0.069003984 0.018638518 -0.03595321 -0.087980226
-0.021268502 -0.008797707 0.0092175 0.06437396 0.008620595 0.0057126814 0.034877963 -0.035581265
0.04539273 -0.026884155 0.019368084 0.035369184 0.07356606 -0.042212162 -0.045399457 -0.025262805
0.019695902 -0.02775642 0.056688536 0.053716645 0.07087107 0.06809521 -0.028289601 -0.043280747
0.02434659 0.02346551 -0.024663957 -0.062475484 -0.07171369 -0.03935486 -0.03752043 0.021219052
-0.03749829 -0.07960169 -0.08548346 -0.077524625 -0.085226856 -0.038387664 0.022767348 -0.078922175
0.050512046 -0.041936822 -0.046032235 0.00846834 0.043801036 -0.033088632 0.030037407 -0.033960424
-0.04949241 -0.040806547 -0.032534763 0.031448238 0.08753804 -0.044131786 0.07390203 -0.002447594
-0.067963175 -0.08442372 -0.08453894 -0.042251952 0.059603725 0.019399246 0.058696747 0.04100827
-0.07019576 -0.07923417 0.08814538 0.016881656 0.021248408 -0.08063422 -0.07512178 -0.064510174
0.009717867 -0.021800442 0.065929085 -0.052587852 0.04752781 -0.02277087 -0.047789667 0.0441181
0.0042211334 -0.014896308 0.08106219 0.0161954 0.08404481 -0.06781645 0.07018963 -0.013423413
0.07040995 -0.062760115 -0.056471404 -0.033070832 0.009218727 -0.008574482 0.077135324 0.018204164
-0.07450473 0.037154544 -0.019687941 0.03692087 -0.043327928 0.024939965 0.08762806 -0.017397607
0.0449626 0.03392729 -0.07553315 0.015661435 0.080430575 0.073976755 -0.017793203 -0.011883697
-0.079580456 0.03931303 -0.034164734 0.07005349 -0.04236032 0.047992066 -0.05234079 0.02100167
-0.070019 -0.044444628 -0.064078495 -0.019642286 -0.027082847 0.024119258 -0.05020224 0.060415532
-0.005149417 0.046717934 -0.05413186 -0.0028523293 0.045943484 0.05298642 -0.022654973 0.083504304
-0.032667946 -0.05974865 0.048328 -0.03958581 -0.029385997 -0.054508694 0.054919366 -0.044168934
0.06119127 0.04202837 0.067582585 0.0069327718 0.014377142 -0.025202634 0.01711603 0.07383662

model_m.6.bias f4 [32]
00000000: 4d7f 8b3d c627 c03c 4ddc ac3d 3a7e 713d
00000010: db70 bcbb 9ee0 653d ff3d 9bbd 3e2e 373d
00000020: 9bce f93c a7d3 36bd 3b03 e83c 979f 86bb
00000030: f834 3fbd c64b ae3d 6cd5 883d 8f40 50bd
00000040: f9e8 a9bd 3f9a 243d 87a5 833c 0887 a93a
00000050: cbf1 95bd be75 81bc 2d31 05bc 6dd3 db3c
00000060: e3a9 fc3c ad4f f43b cdd7 6e3c 371a 64bd
00000070: b6a2 90bd f0c9 80bc ea7a c63b f8c8 96bd
0.0681139 0.023456465 0.084404565 0.05895827 -0.005750758 0.056122415 -0.07580184 0.044721834
0.030494025 -0.04463544 0.028321853 -0.00410838 -0.046681374 0.085105464 0.06681332 -0.050842818
-0.08296389 0.040186163 0.01607014 0.0012933919 -0.07321509 -0.015803214 -0.0081294 0.026834214
0.030842727 0.007455787 0.014577818 -0.055689063 -0.07062285 -0.015721291 0.006057133 -0.073625505

fc.weight f4 [6, 6976]
00000000: 4a2e 353c dfb5 55bb 3c3d b2bb 25d1 3fbc
00000010: f59b 03bc 7428 2e3c 057d 043c 672c 323c
00000020: 9fdf f83b c09f 1f3c 6483 893b 6022 95bb
00000030: 7f0d fc3b 693c 3f3c 0d80 81bb 69f5 1dbc
00000040: 5581 b4bb 8d56 113c ba3a c7bb 2b37 40bc
00000050: 951e 3e3b 79ed 9d3b a22b f23b 6135 e9bb
00000060: 8416 22bc 5fcd 6cbb 5454 0dbc b85a 1d3c
00000070: 858f 36bc 243b c0bb b6a4 923b 9073 273c
00000080: 4108 383c fb8b 2abc 791a 9e3a 1942 9abb
00000090: 8d91 55bb 5f65 26bc c7ce 94bb b9e5 e93a
000000a0: 73d1 2e3b c15f 1c3c 4e47 8cba 0590 dfbb
000000b0: 2e17 7d3b 0447 3d3c fad2 183c 74f5 14bc
000000c0: 3cb8 c43b ba3e c93b c69a 3f3c 6afe 03ba
000000d0: 2264 28bc e8e4 c03b 204b b73a 0f18 fa3b
000000e0: 6877 923b ba6e a3bb ba09 96bb a1f4 773a
000000f0: 3c3b 003c 0880 40bb 9216 d2bb 0db6 063c
00000100: 04ed 213c 3017 20ba a666 cbbb df33 0e3c
00000110: 60bd 18bc ec3e 1bbb 5278 babb 13d0 083c
00000120: 1782 423c 257b 7fbb 0c14 c8ba ca50 0bbc
00000130: 1c52 aebb ab11 57bb 0264 1fbc 8505 403c
00000140: 595b d73a 53f6 97bb 57e8 36bc 37cd 30bc
00000150: b08b 1abc 8966 633b 3224 9b3b 661e bfb9
00000160: c0ca cebb 44fe 33bc cb3a 023c 3941 2e3b
00000170: 77d7 723b c1e8 d53b 3406 183c f044 d8bb
00000180: 1c98 0d3c 55fe 44bb 6fe4 c4bb e06d a93b
00000190: e256 edbb 1ae9 35bc 20ef 53bb 64bd f3ba
000001a0: f934 c53a 0684 1e3b 6b5d 2abb c371 c93b
000001b0: b1b7 a7bb 700f 9fbb b9ff d43b c092 173c
000001c0: 23d4 d73b 9cc4 423c 36d3 2e3c 8e5b b9bb
000001d0: 7404 92bb 5cf8 ed3a 7635 febb 8380 33bc
000001e0: efd3 9b3b 0dde 35bc e304 2cbc 563f 32bb
000001f0: 7ce7 3cbc c90c 273c 041b ecbb 8160 693a
00000200: 0b7c 133c d379 423c 675c 313c 44f5 b0bb
00000210: ce1d 623a d6ab f4bb aeb5 393c 0701 00bc
00000220: e2c1 12bb 097c 393b 2228 793a 3eaf 14bc
00000230: 5ba1 17bc f849 adbb 184f 2b3c fa1a 25bc
00000240: 8eb3 ad3a e187 61bb e3af c43b d430 1ebc
00000250: e12f e6ba 0091 dc3a 4936 e7bb 4f0e aa3b
00000260: faaf 02bc e7bb 803a cd07 22bc ca02 42bc
00000270: 865e 52bb 687d 023c a153 b7bb c4c7 39bc
00000280: 8105 15bc b4e9 62b9 cc3c 13bb 3195 17bc
00000290: 9c54 143c df06 33bc d9fc 2a3c d2e2 5f3b
000002a0: 7e47 99bb 21ce d2bb 840c d7bb 6754 e6bb
000002b0: 685f dcbb d96b 62ba 4d5f 2dbb 8a2a 38bc
000002c0: de01 98ba b547 0c3c 1735 43bc b65d 14bc
000002d0: 1f84 323c 1107 babb 9c3e 193c 52d1 abb9
000002e0: b30c 51bb 13bd 8ebb f7a0 fd3b b166 113c
000002f0: 5652 a5bb ed76 ffb9 1544 283b e988 12bc
00000300: d451 1f3c 53f2 c73b fe70 53bb cf4f 27bc
00000310: 1188 dcbb 85be 9aba bffb 3c3c e375 f53b
00000320: 8866 943b 8e4b fa3b f0f3 04bc cd53 ccbb
00000330: dd8c 0f3c 6006 85bb 9aa7 2b3c 5825 ddbb
00000340: c9a2 8abb d400 adbb acb7 51bb a557 ed38
00000350: 4b4c c3ba 440a c9bb 4fc1 40bc 8e97 323c
00000360: e075 193c 3c12 0a3b b8ba fcbb 4be5 dcbb
00000370: 1872 2a3c a83a babb 28ba 05bc 1323 303a
00000380: 20c1 bf3b 259f 8cbb 7aae 2b39 3f8c c6ba
00000390: a6ca 0e3c 2fb5 b13b eb69 e53a 0ca2 ce3b
000003a0: 3a5a f4bb 931d c03a 2f3a 08bb e889 0bb9
000003b0: 6d3d 12bb 0d73 cdbb d757 473b 80b1 693b
000003c0: b7f8 b9bb 037a 063c 1492 913b dd6e b13b
000003d0: ab4b dbba 3c23 5c3b 3131 e4bb 32b7 a4ba
000003e0: d362 8fbb 3416 253c d1b8 a1bb 6d1d 123b
000003f0: 6b03 2e3c a8b9 85ba 8a63 2f3c 82f5 863b
0.011058399 -0.0032609624 -0.0054394286 -0.011707579 -0.0080327885 0.010629762 0.008086448 0.010874844
0.007595017 0.009742677 0.004196571 -0.004551217 0.0076920385 0.011672118 -0.0039520324 -0.00964103
-0.0055085816 0.008870733 -0.006079999 -0.011731903 0.0029009928 0.0048195687 0.0073904553 -0.007116959
-0.009893063 -0.0036133153 -0.008626062 0.009604149 -0.011142616 -0.005866425 0.0044752015 0.010220423
0.011232437 -0.0104093505 0.0012062333 -0.0047075865 -0.0032587976 -0.010156005 -0.0045412513 0.0017844952
0.0026675134 0.009544314 -0.0010702403 -0.0068225884 0.0038618552 0.011552576 0.0093276445 -0.009091724
0.0060034078 0.006141511 0.011694616 -0.0005035164 -0.01027778 0.0058866628 0.0013984181 0.0076322625
0.0044698007 -0.004987565 -0.004578796 0.0009458755 0.007826623 -0.0029373188 -0.006411382 0.008222115
0.009883169 -0.0006106971 -0.006207305 0.008679359 -0.009322494 -0.0023688627 -0.005690613 0.00835039
0.011871836 -0.0038983312 -0.0015264763 -0.008503148 -0.005319847 -0.0032816927 -0.009728434 0.011720066
0.0016430422 -0.0046375184 -0.011163793 -0.0107911145 -0.009432718 0.0034698567 0.0047345394 -0.00036453007
-0.006310791 -0.010985915 0.007948588 0.0026589169 0.0037054697 0.0065279906 0.009278823 -0.006600015
0.008642223 -0.003005882 -0.0060086767 0.005170569 -0.0072430233 -0.011102939 -0.0032338575 -0.0018595872
0.0015045694 0.0024187579 -0.0025995623 0.0061475947 -0.0051183333 -0.004854135 0.006500211 0.0092512965
0.006586568 0.011887696 0.010670474 -0.005656666 -0.0044560973 0.0018155682 -0.007757838 -0.010955933
0.004755489 -0.011100304 -0.010499212 -0.0027198396 -0.0115298 0.010195919 -0.007205369 0.0008902625
0.009001742 0.0118698655 0.010825253 -0.0054003317 0.0008625657 -0.0074667735 0.01133482 -0.007812745
-0.0022393395 0.002830269 0.00095045764 -0.009074984 -0.009254779 -0.005288359 0.010455869 -0.0100772325
0.0013252364 -0.0034413266 0.0060024126 -0.009655196 -0.0017561876 0.0016827881 -0.007056032 0.005189694
-0.007976526 0.0009821624 -0.009889555 -0.011841485 -0.0032099797 0.0079644695 -0.005594686 -0.011339132
-0.0090955505 -0.00021640101 -0.0022466658 -0.009251879 0.009053376 -0.010926931 0.01043626 0.0034162295
-0.004677712 -0.006433264 -0.0065627713 -0.0070291045 -0.0067252405 -0.00086372864 -0.0026454509 -0.011240611
-0.0011597236 0.008562018 -0.011914513 -0.009055546 0.010895758 -0.005677112 0.009353306 -0.00032771617
-0.0031898438 -0.0043560355 0.007740136 0.008874581 -0.0050452156 -0.00048725997 0.0025675346 -0.008943775
0.009724099 0.0061018853 -0.0032263394 -0.010211899 -0.0067300876 -0.0011806047 0.01153463 0.00749086
0.0045288242 0.0076384014 -0.0081148 -0.006235576 0.008761612 -0.004059598 0.010476971 -0.0067488365
-0.0042308313 -0.0052796397 -0.0032000346 0.00011317366 -0.0014900056 -0.006135257 -0.011764838 0.010900391
0.0093664825 0.0021067997 -0.0077126883 -0.006741201 0.010403179 -0.005683262 -0.008162059 0.00067190937
0.0058518797 -0.0042914324 0.00016372828 -0.0015147998 0.008715307 0.00542321 0.001750288 0.0063059386
-0.007457045 0.0014657251 -0.0020786633 -0.00013307447 -0.0022314445 -0.0062698186 0.0030417347 0.0035658777
-0.005675401 0.008207801 0.0044424627 0.0054148273 -0.0016730925 0.0033590337 -0.006963872 -0.0012566803
-0.0043757944 0.010076094 -0.004935362 0.002229537 0.010620932 -0.0010202425 0.010704884 0.0041186223

fc.bias f4 [6]
00000000: aa61 59ba ed21 0c3a 0f97 d3bb eb2c b0bb
00000010: 5bd6 e13a 91c4 1b3c
-0.0008292446 0.00053456315 -0.0064572166 -0.0053764484 0.0017230021 0.009507314
