checkpoints_raise_input/run_1/1d_cnn_ckpt_1.pth (torch, 80456 bytes, 8 tensors)

model_m.0.weight f4 [8, 2, 8]
0.0589526 -0.22624001 -0.095418036 0.06394887 -0.24224263 0.032609522 0.05292985 -0.21617234
0.13141373 0.21884584 0.23897436 -0.11138055 -0.038603544 0.20588386 -0.12519944 0.22627935
-0.123529054 0.1015496 -0.12218961 -0.16773139 0.2298059 0.059163377 0.008870371 -0.24812126
-0.07494495 -0.11865966 -0.1250816 -0.0655762 -0.23599207 0.026524296 -0.15047476 0.06226092
-0.21926264 -0.22557989 -0.17529711 0.22225502 0.022193043 -0.07153297 -0.025704207 0.02907754
-0.02222318 0.16331914 0.101327136 -0.041041035 -0.07980957 0.19711435 0.017898742 0.2483876
0.22263522 0.13806793 0.08808036 0.17631081 -0.12563248 0.1963001 -0.212056 -0.21515548
-0.20194004 -0.12639326 -0.21820202 0.09746347 -0.070040874 0.08561973 0.11628781 0.09462463
0.121031426 0.10886052 -0.119445056 -0.089939095 -0.119609684 0.18430229 -0.12383239 -0.13869615
-0.10229003 -0.15955108 -0.018939978 -0.0507264 0.0019203407 0.027000409 -0.21633244 -0.21090408
-0.032405823 0.013974935 0.09181446 0.13320932 0.22395068 0.0174869 0.21530026 0.043151528
-0.16936997 0.16766617 0.22776377 0.12717843 0.07529679 0.041430354 -0.08460951 0.11202946
0.019051727 -0.22156486 0.16465148 0.061893508 0.19565955 0.10659649 -0.0019559253 0.063851565
0.15218881 0.21188141 0.09154695 -0.16732554 0.22363058 -0.09378347 0.014705831 -0.16409566
-0.1085232 0.043428425 0.022430982 0.013949071 0.098572515 0.22043985 0.12195871 0.0042914976
-0.1731352 -0.08995525 0.01348527 -0.13047117 -0.08856169 -0.040290594 -0.24625036 0.22583595
00000000: 4878 713d 76ab 67be 886a c3bd a0f7 823d
00000010: 740e 78be 9091 053d f8cc 583d 485c 5dbe
00000020: 5291 063e 2019 603e b2b5 743e 7c1b e4bd
00000030: c01e 1ebd 38d3 523e 4834 00be c6b5 673e
00000040: cdfc fcbd 3df9 cf3d 8c3e fabd c7c1 2bbe
00000050: 3d52 6b3e 4c55 723d 0855 113c 8013 7ebe
00000060: bd7c 99bd d603 f3bd 6415 00be d14c 86bd
00000070: e8a7 71be 7b49 d93c 0e16 1abe 4e05 7f3d
00000080: 6386 60be 6afe 66be 1681 33be d296 633e
00000090: 2fce b53c e17f 92bd a191 d2bc 0534 ee3c
000000a0: 630d b6bc 223d 273e 9a84 cf3d a51a 28bd
000000b0: 3373 a3bd 58d8 493e 62a0 923c 5259 7e3e
000000c0: 7dfa 633e ae61 0d3e 7a63 b43d d28a 343e
000000d0: cda5 00be e502 493e 3525 59be b851 5cbe
000000e0: 5fc9 4ebe 3c6d 01be 5a70 5fbe ee9a c73d
000000f0: 9771 8fbd 6659 af3d 4e28 ee3d 8fca c13d
00000100: 53df f73d 44f2 de3d 9c9f f4bd fd31 b8bd
00000110: ecf5 f4bd bdb9 3c3e d69b fdbd 5d06 0ebe
00000120: 6f7d d1bd 5c61 23be 0328 9bbc 7cc6 4fbd
00000130: f1b3 fb3a f62f dd3c 4086 5dbe 3df7 57be
00000140: f8bb 04bd 20f7 643c 3809 bc3d 0668 083e
00000150: 5453 653e b040 8f3c ac77 5c3e a8bf 303d
00000160: 526f 2dbe aeb0 2b3e e83a 693e 103b 023e
00000170: 3435 9a3d e0b2 293d c047 adbd b46f e53d
00000180: 5e12 9c3c e6e1 62be 669a 283e 0c84 7d3d
00000190: fa5a 483e 434f da3d fb2e 00bb 9cc4 823d
000001a0: 62d7 1b3e 71f7 583e f87c bb3d 6357 2bbe
000001b0: 6aff 643e 8c11 c0bd baf0 703c b108 28be
000001c0: 6941 debd 01e2 313d 2ec1 b73c a58a 643c
000001d0: 63e0 c93d fcba 613e 7dc5 f93d b19f 8c3b
000001e0: 5b4a 31be 753a b8bd 52f1 5c3c 3c9a 05be
000001f0: d55f b5bd c007 25bd 0e29 7cbe 8a41 673e

model_m.0.bias f4 [8]
-0.1520462 0.24062613 0.033712026 0.0054897256 0.24851426 -0.0781458 0.15973617 0.09045683
00000000: 00b2 1bbe b266 763e 9f15 0a3d 28e3 b33b
00000010: 867a 7e3e e80a a0bd e191 233e 6e41 b93d

model_m.3.weight f4 [16, 8, 8]
-0.057929263 -0.029012904 -0.01946178 0.095697135 0.11807735 -0.081240624 -0.067662165 -0.09861988
-0.075794086 0.068839155 -0.029038196 0.116780184 0.053066365 0.0798578 -0.030678337 0.030374993
0.12420852 0.07961714 0.08230729 0.08345828 0.11988601 -0.09240913 -0.034834553 0.11141917
-0.02488286 0.024135834 -0.049403977 -0.067476965 0.042373456 0.0583795 -0.100650914 0.049042374
0.10621434 -0.08665689 0.11495316 -0.027711295 0.10252403 -0.08302486 0.049890857 -0.07680893
-0.09206718 -0.037186593 0.07874282 -0.09004448 -0.039914563 0.09051283 0.058701053 -0.087732166
0.056209415 0.095788054 -0.117128335 -0.038534075 0.116221875 0.10927053 0.037445456 0.01728492
-0.050075635 0.05603094 0.009578572 -0.034901887 -0.029430464 -0.021654975 -0.091077454 -0.1029807
-0.011263952 0.04439336 0.013446882 -0.11204304 -0.0706189 -0.048268065 -0.023104042 -0.05732882
-0.034153983 0.09193799 0.054489255 0.11274785 0.02781324 0.033833206 -0.057926387 -0.0006390512
0.008506879 -0.03790684 -0.01271908 0.11199908 -0.061794177 -0.09630112 -0.054755762 0.091643155
0.08952601 0.051865205 -0.056174576 -0.023449153 -0.112673 0.11954343 0.0845163 7.888675e-05
0.11772217 -0.07115111 0.051949725 -0.046257213 -0.06607252 -0.06664306 -0.11024909 -0.045597002
0.1050922 0.020680815 -0.012831867 0.11846155 -0.105222926 0.03731832 -0.074156314 -0.0077780336
-0.09239435 0.06007172 -0.025283054 -0.010530114 -0.07017432 0.088014364 -0.083892345 0.12421471
0.06807661 0.10557307 0.08313863 -0.082824305 -0.086036146 -0.030052438 0.02932544 -0.116132885
0.006045148 -0.003302887 0.06699683 -0.021917894 -0.008033991 -0.028395325 -0.017409459 0.009630501
-0.016675044 -0.065639935 -0.073229864 -0.06892771 0.068675086 0.07718067 0.0556864 0.037501283
-0.09363989 -0.088586815 -0.08733785 -0.05064509 0.018194878 -0.0042195558 0.09112511 -0.017888518
0.050851967 -0.09061239 0.03511161 0.085847355 -0.07804259 -0.011031215 -0.077758655 -0.06341955
0.09830307 -0.11740493 0.089378096 -0.0611312 0.096375026 0.023196736 -0.048214145 0.01364704
-0.10593994 0.11518884 0.10980925 0.040608883 0.017229706 -0.005244836 -0.04182364 0.031410888
-0.064567946 0.021390384 0.00088437216 -0.06738373 0.112566896 0.016814003 0.08198928 0.02918233
0.046565223 0.027997006 0.033958424 -0.057506446 0.10323929 0.07351751 0.051907774 -0.040387508
-0.06581345 0.11695932 0.030167669 0.08607657 -0.021795943 0.10249604 -0.0100317 -0.091487944
-0.076562285 0.045736924 -0.015881956 -0.078841835 -0.059967563 0.023855194 -0.0082342625 -0.110416114
0.11339277 0.12077476 -0.045054093 -0.10815056 -0.04906228 0.06000659 -0.032466173 0.021359056
-0.12336095 -0.031226665 0.09821454 0.00022622943 -0.015098244 0.007268682 -0.0984651 -0.045764312
0.11142188 -0.00016734004 0.047232613 0.0068719983 -0.11488876 -0.09774174 -0.033415824 -0.0744347
0.12077789 0.083944395 0.11488515 -0.11682488 -0.12156448 0.08193004 0.016690686 0.037320435
-0.07525134 -0.051206186 0.057688147 -0.0835288 -0.026051283 0.0008805394 -0.079043865 0.008393794
-0.12116687 -0.033963904 -0.05962749 -0.041980356 -0.0055532604 0.082678586 -0.017615601 0.0400372
00000000: 3c47 6dbd 78ac edbc 506e 9fbc dcfc c33d
00000010: 8ad2 f13d 7c61 a6bd 7692 8abd 38f9 c9bd
00000020: ee39 9bbd 8bfb 8c3d 83e1 edbc 732a ef3d
00000030: 1e5c 593d 7c8c a33d 2351 fbbc fad4 f83c
00000040: 0961 fe3d 500e a33d b990 a83d 2dec aa3d
00000050: cc86 f53d ff40 bdbd adae 0ebd bc2f e43d
00000060: 24d7 cbbc 83b8 c53c d35b 4abd 5d31 8abd
00000070: ca8f 2d3d 581f 6f3d 1122 cebd a8e0 483d
00000080: e786 d93d 2b79 b1bd 906c eb3d cc02 e3bc
00000090: 1ef8 d13d f008 aabd 5b5a 4c3d 004e 9dbd
000000a0: b88d bcbd f850 18bd ea43 a13d 3e69 b8bd
000000b0: 747d 23bd ca5e b93d 8470 703d ecac b3bd
000000c0: d83b 663d 872c c43d fbe0 efbd e8d5 1dbd
000000d0: bc05 ee3d 3ac9 df3d 6860 193d 1b99 8d3c
000000e0: 1c1c 4dbd b380 653d 71ef 1c3c 48f5 0ebd
000000f0: 2818 f1bc c665 b1bc d186 babd 8ce7 d2bd
00000100: 708c 38bc d0d5 353d 5050 5c3c d276 e5bd
00000110: a4a0 90bd bcb4 45bd b044 bdbc a0d1 6abd
00000120: 0ce5 0bbd fc49 bc3d 2030 5f3d 58e8 e63d
00000130: 98d8 e33c b094 0a3d 3844 6dbd 0086 27ba
00000140: 7060 0b3c 3444 1bbd b063 50bc c65f e53d
00000150: e41b 7dbd 8639 c5bd 9447 60bd 68af bb3d
00000160: 6a59 b73d 9c70 543d 5017 66bd 7018 c0bc
00000170: 1ac1 e6bd 30d3 f43d e216 ad3d 0070 a538
00000180: 5218 f13d acb7 91bd 3cc9 543d 3478 3dbd
00000190: 0851 87bd 287c 88bd 46ca e1bd ecc3 3abd
000001a0: 943a d73d d06a a93c c03c 52bc f89b f23d
000001b0: 1e7f d7bd 18db 183d 44df 97bd e0de febb
000001c0: 4039 bdbd c40d 763d 681e cfbc 8086 2cbc
000001d0: 8eb7 8fbd e040 b43d c0cf abbd 4864 fe3d
000001e0: c06b 8b3d b236 d83d 9644 aa3d ca9f a9bd
000001f0: b833 b0bd 8830 f6bc e83b f03c 14d7 edbd
00000200: 6016 c63b 4075 58bb a235 893d 288d b3bc
00000210: 00a1 03bc 509d e8bc 489e 8ebc 40c9 1d3c
00000220: 1a9a 88bc 3b6e 86bd 8af9 95bd f929 8dbd
00000230: 86a5 8c3d e610 9e3d 6c17 643d f29a 193d
00000240: 45c6 bfbd 016d b5bd 30de b2bd 3a71 4fbd
00000250: 6d0d 953c 3344 8abb cd9f ba3d f18a 92bc
00000260: 274a 503d fd92 b9bd 31d1 0f3d bdd0 af3d
00000270: cbd4 9fbd 45bc 34bc ee3f 9fbd 1ce2 81bd
00000280: 1f53 c93d ff71 f0bd dd0b b73d b664 7abd
00000290: 4560 c53d 1507 be3c 327c 45bd d697 5f3c
000002a0: 0af7 d8bd 20e8 eb3d ace3 e03d 8055 263d
000002b0: 5025 8d3c e0dc abbb 444f 2bbd b4a8 003d
000002c0: 333c 84bd e33a af3c 36d5 673a 7b00 8abd
000002d0: 7989 e63d 85bd 893c ffe9 a73d c80f ef3c
000002e0: 2dbb 3e3d fa59 e53c fd17 0b3d e18b 6bbd
000002f0: 1f6f d33d 5990 963d 3f9d 543d 5f6d 25bd
00000300: 34c9 86bd 5e88 ef3d 3022 f73c ea48 b03d
00000310: 688d b2bc 72e9 d13d 005c 24bc 085e bbbd
00000320: b0cc 9cbd a456 3b3d e01a 82bc d477 a1bd
00000330: 8ca0 75bd f86b c33c 00e9 06bc d821 e2bd
00000340: 783a e83d c258 f73d a48a 38bd 0a7e ddbd
00000350: 88f5 48bd 78c9 753d 40fb 04bd 30f9 ae3c
00000360: aaa4 fcbd 10cf ffbc b424 c93d 0038 6d39
00000370: a05e 77bc 202e ee3b 12a8 c9bd 5c73 3bbd
00000380: 2831 e43d 0078 2fb9 fc76 413d 802e e13b
00000390: cc4a ebbd d22c c8bd 08df 08bd 3871 98bd
000003a0: 665a f73d 0aeb ab3d e848 eb3d e241 efbd
000003b0: ccf6 f8bd f0ca a73d e8ba 883c 50dd 183d
000003c0: 601d 9abd 94bd 51bd 684a 6c3d 2611 abbd
000003d0: 8069 d5bc 00d4 663a c0e1 a1bd 2086 093c
000003e0: 5626 f8bd bc1d 0bbd f43b 74bd 98f3 2bbd
000003f0: 20f8 b5bb 6453 a93d 984e 90bc 0cfe 233d

model_m.3.bias f4 [16]
-0.09148051 -0.09909986 0.013786535 -0.080054715 -0.032510713 -0.082163945 -0.09468874 -0.058051214
-0.07123871 0.0775899 0.022013187 -0.07736364 -0.07548331 -0.09186494 0.11473596 0.091986544
00000000: 225a bbbd def4 cabd ebe0 613c baf3 a3bd
00000010: f429 05bd 9245 a8bd 2cec c1bd 1cc7 6dbd
00000020: 9ae5 91bd 74e7 9e3d 0055 b43c d470 9ebd
00000030: fe96 9abd b023 bcbd b0fa ea3d 7163 bc3d

model_m.6.weight f4 [32, 16, 8]
0.085961975 0.058893118 0.04561081 0.023594765 -0.020054862 0.045700606 0.038671188 0.05461045
0.039674766 -0.0413848 -0.006958771 -0.05372996 0.053985022 -0.046569485 -0.044966526 -0.07492802
0.06386844 0.05347607 0.03900677 -0.046898432 0.045153603 -0.018156799 -0.041742712 -0.05061434
-0.04823872 0.044759784 -0.08349945 -0.072953425 -0.06576528 -0.01201516 0.06844404 -0.044026956
0.038593795 -0.06841812 -0.050614752 0.051586803 0.031582486 0.035363175 0.010678094 0.062963925
-0.081648044 -0.0665668 -0.0068308767 -0.06632107 0.015604607 -0.019948494 -0.05293762 0.041404422
0.08700316 -0.023753246 -0.005607501 -0.034893658 0.086579196 0.069847316 -0.05955867 -0.0049267663
-0.056321263 0.022437096 0.021725984 -0.07157615 0.06403659 0.05485344 -0.085219644 -0.0061474442
0.030792635 -0.0729763 0.054485686 -0.04684624 0.037893515 -0.003101618 0.08720169 -0.0064405757
0.043384425 -0.07350362 0.031361703 0.05867992 0.04659809 -0.084099926 -0.050025757 -0.02504708
0.06158447 -0.025115939 -0.020458965 0.06460869 -0.08348306 0.024995547 -0.035378307 0.08185026
-0.018663635 0.07113428 -0.086675785 -0.023939293 0.009153147 -0.07295945 -0.08387842 -0.0035497025
0.038469378 0.07378118 0.03190783 -0.032354448 0.06120308 0.08079242 -0.019030893 0.061829172
0.04453121 -0.010981088 -0.056990914 -0.039851267 -0.05379767 0.08721114 -0.06485607 -0.053559266
-0.05404167 -0.08374441 0.044667557 0.00089947693 0.052616492 -0.088007204 -0.0765939 -0.061469387
0.029900618 0.043489173 0.02283102 -0.035295088 -0.004670429 -0.04356237 0.045125734 -0.010247584
-0.018828299 -0.040537037 -0.03297886 -0.023886584 -0.03264077 -0.026368465 0.08484617 -0.049544662
-0.024405206 0.079912215 -0.06503078 -0.041605797 -0.00279795 -0.07319046 -0.06382712 -0.031768344
-0.035396926 0.054054853 -0.026717396 -0.026177766 0.0128257815 0.003420148 0.07443762 0.03006586
-0.039112423 0.013315548 -0.05711177 0.04112568 -0.03117377 -0.039368644 -0.0141617935 0.040417857
0.04730387 0.046513133 -0.056304183 0.031958364 0.05237221 0.051070936 0.077672526 -0.013506585
0.035720434 -0.07940207 0.032387428 -0.010556299 0.07205422 0.0439277 0.05902471 -0.00063614344
0.06454965 -0.08574122 0.071950294 -0.027447376 0.021383362 -0.017432116 -0.05176751 0.01253089
0.01840556 0.03207684 0.065288186 -0.040454462 -0.059212107 -0.08815693 0.018916233 0.06628752
0.054809343 -0.0071791513 0.03737024 0.034402285 0.04107771 0.017895896 -0.043328278 -0.06919724
0.05119132 -0.08575835 0.07667542 0.031106869 0.033914953 0.044114493 -0.03949148 0.08305994
-0.05305541 -0.026273375 -0.05074881 0.078069136 -0.075491235 -0.051304348 0.037076257 0.085254714
-0.03547164 -0.047081664 -0.039178774 0.007711577 -0.043760788 0.039980184 0.022328747 0.07873972
0.077398784 -0.038455594 0.08716264 -0.069641344 0.037358187 -0.06288225 -0.07811399 -0.08490349
0.060016554 0.061521765 -0.043280125 -0.07637855 -0.06417385 -0.04503084 -0.03407619 0.028447805
-0.03367508 0.05008099 -0.00036444544 -0.034787096 0.0006165501 -0.07448307 0.041755784 -0.027295524
-0.017863777 0.0030020957 -0.068825595 -0.05175656 -0.04477981 -0.029083777 0.051007625 0.062263627
00000000: d50c b03d e939 713d 67d2 3a3d cf49 c13c
00000010: 184a a4bc 8f30 3b3d ae65 1e3d 35af 5f3d
00000020: 0282 223d 1c83 29bd 6706 e4bb f213 5cbd
00000030: 661f 5d3d a5bf 3ebd d22e 38bd dd73 99bd
00000040: 75cd 823d b909 5b3d 90c5 1f3d 9218 40bd
00000050: fcf2 383d 91bd 94bc 68fa 2abd fb50 4fbd
00000060: f795 45bd 0956 373d c201 abbd 9b68 95bd
00000070: f2af 86bd 3cdb 44bc 642c 8c3d 9c55 34bd
00000080: 8714 1e3d cd1e 8cbd 6a51 4fbd af4c 533d
00000090: a35c 013d fad8 103d 2cf3 2e3c 3bf3 803d
000000a0: 1737 a7bd 2d54 88bd 8cd5 dfbb 57d3 87bd
000000b0: 77aa 7f3c 066b a3bc 1ed5 58bd af97 293d
000000c0: b62e b23d 2b96 c2bc 21bf b7bb a7ec 0ebd
000000d0: 6f50 b13d 1c0c 8f3d cbf3 73bd b670 a1bb
000000e0: 20b1 66bd 00ce b73c b1fa b13c 8496 92bd
000000f0: 9e25 833d 00ae 603d a387 aebd 8070 c9bb
00000100: d640 fc3c 9974 95bd 622c 5f3d d8e1 3fbd
00000110: 3b36 1b3d 8444 4bbb cd96 b23d 770b d3bb
00000120: deb3 313d 1189 96bd 2175 003d 5b5a 703d
00000130: a4dd 3e3d 953c acbd cfe7 4cbd 892f cdbc
00000140: ff3f 7c3d f1bf cdbc 8f99 a7bc 9051 843d
00000150: 2bf9 aabd 76c3 cc3c d8e8 10bd 1ca1 a73d
00000160: 7be4 98bc d9ae 913d 1383 b1bd 561c c4bc
00000170: 15f7 153c c46b 95bd 73c8 abbd 20a2 68bb
00000180: 1192 1d3d 961a 973d c9b1 023d 1986 04bd
00000190: 15b0 7a3d 7f76 a53d ade6 9bbc 9640 7d3d
000001a0: 5c66 363d 05ea 33bc 4e6f 69bd 153b 23bd
000001b0: f25a 5cbd c19b b23d 42d3 84bd f660 5bbd
000001c0: cc5a 5dbd 3082 abbd 54f5 363d e0ca 6b3a
000001d0: 6484 573d 1f3d b4bd 43dd 9cbd 53c7 7bbd
000001e0: 24f2 f43c b421 323d 1f08 bb3c 9591 10bd
000001f0: 660a 99bb 756e 32bd c3d5 383d 7ce5 27bc
00000200: ce3d 9abc 2a0a 26bd d714 07bd ccad c3bc
00000210: 54b2 05bd ae02 d8bc d4c3 ad3d 58ef 4abd
00000220: 6ded c7bc 04a9 a33d dc2e 85bd d76a 2abd
00000230: d05d 37bb e1e4 95bd cbb7 82bd 861f 02bd
00000240: 5efc 10bd 9f68 5d3d 71de dabc c172 d6bc
00000250: 3a23 523c 9024 603b c072 983d ae4c f63c
00000260: 5934 20bd 7529 5a3c 08ee 69bd 6773 283d
00000270: 2260 ffbc 0441 21bd de06 68bc 328d 253d
00000280: b4c1 413d 8e84 3e3d 379f 66bd c6e6 023d
00000290: 3e84 563d c22f 513d c612 9f3d b94a 5dbc
000002a0: 974f 123d 8d9d a2bd aea8 043d 54f4 2cbc
000002b0: 2a91 933d 88ed 333d e5c3 713d ddc2 26ba
000002c0: 9b32 843d 1899 afbd ad5a 933d 52d9 e0bc
000002d0: 292c af3c cccd 8ebc 2b0a 54bd 5d4e 4d3c
000002e0: 42c7 963c 0163 033d d0b5 853d 94b3 25bd
000002f0: 6588 72bd 9f8b b4bd 37f6 9a3c c0c1 873d
00000300: c37f 603d 163f ebbb 8911 193d 69e9 0c3d
00000310: 1a41 283d 6a9a 923c fe78 31bd 48b7 8dbd
00000320: fdad 513d 13a2 afbd 0108 9d3d d5d3 fe3c
00000330: 68ea 0a3d 66b1 343d d1c1 21bd 541b aa3d
00000340: a150 59bd 433b d7bc fcdd 4fbd b6e2 9f3d
00000350: 269b 9abd 8224 52bd 46dd 173d 069a ae3d
00000360: b64a 11bd b4d8 40bd ec79 20bd 66b1 fc3b
00000370: 833e 33bd 43c2 233d c7ea b63c 4a42 a13d
00000380: 4183 9e3d 9d83 1dbd 5482 b23d 1fa0 8ebd
00000390: e604 193d 69c8 80bd 3afa 9fbd e2e1 adbd
000003a0: ebd3 753d 3ffe 7b3d 8046 31bd 5b6c 9cbd
000003b0: 946d 83bd 4272 38bd 7a93 0bbd 5f0b e93c
000003c0: e1ee 09bd b921 4d3d 0a13 bfb9 ea7c 0ebd
000003d0: fa9f 213a 948a 98bd 1d08 2b3d dd9a dfbc
000003e0: 0e57 92bc cfbe 443b 6ff4 8cbd b0fe 53bd
000003f0: 096b 37bd 1a41 eebc 5fed 503d 2508 7f3d

model_m.6.bias f4 [32]
-0.002548894 0.02702627 -0.00015826931 0.058524244 -0.06399783 -0.051238135 0.009397198 -0.0048243487
0.063363194 -0.0004982066 0.055353586 -0.077067524 -0.057574123 -0.05570494 -0.0633163 -0.08652142
-0.014228713 0.0710248 0.04223212 -0.01899805 0.025395425 -0.011838776 0.03732002 -0.074581616
0.08425437 -0.06945234 -0.07195802 -0.0001455307 0.006419356 0.024349203 -0.04290386 -0.052188575
00000000: 580b 27bb 3266 dd3c 18f5 25b9 1eb7 6f3d
00000010: 4b11 83bd 14df 51bd b5f6 193c 9215 9ebb
00000020: 90c4 813d 149a 02ba 71ba 623d 94d5 9dbd
00000030: d8d2 6bbd dd2a 64bd faab 81bd 2432 b1bd
00000040: 8c1f 69bc 7375 913d 96fb 2c3d cca1 9bbc
00000050: 110a d03c 6df7 41bc e1dc 183d 3fbe 98bd
00000060: 8e8d ac3d 073d 8ebd ba5e 93bd 9a99 18b9
00000070: 7659 d23b fb77 c73c f5bb 2fbd b0c3 55bd

fc.weight f4 [2, 6976]
0.00046723904 0.002222904 0.003799295 -0.011839293 -0.005567116 8.5149644e-05 0.0020068607 0.0063415924
0.007632616 0.0072763576 0.00031364738 0.006145528 0.00907985 0.007288903 0.010847754 -0.011111955
-0.00095505506 0.0023957423 0.00612442 0.011676151 0.009794521 0.002989198 -2.5752277e-05 -0.000114033355
0.004112106 -0.0072494964 0.00946008 0.008087021 -0.011321256 -0.011423717 0.009835554 0.008797767
-0.010429032 0.0029656265 -0.011519967 -0.0041921204 0.0002521662 -0.00023968043 0.007601095 0.00032267917
2.3671313e-05 0.0028524953 0.009708272 -0.0024652863 -0.011412064 0.006794513 0.0061515225 -3.9499762e-05
0.0063749864 0.0011624977 -0.007963868 0.0036537002 -0.0012846865 0.0028973273 0.011444214 -0.001984127
-0.00444844 -0.009244619 0.006814144 -0.0003150718 -0.0029921525 -0.0057158065 0.0007869994 -0.004233451
0.006571278 -0.011116995 -0.011343947 0.0024369792 -0.0030939055 0.011190593 0.00054385787 -0.008161958
0.0024552625 0.004530291 0.008127519 0.0032922693 -0.006001712 -0.00018876391 0.0011637822 -0.01016008
-0.009687516 -0.0082281865 0.0054055145 -0.007292974 -0.004016132 0.008373678 -0.003387126 -0.0009154268
0.00881655 -0.0052833958 0.0030118388 -0.003119411 -0.011793802 0.0009910752 -0.00028152234 -0.0021516245
0.008765968 -0.007134718 -0.008570596 0.0025894076 0.003662662 -0.003113599 -0.01029895 -0.0043292725
0.0036235491 -0.004135438 -0.0041517243 0.008700292 -0.008036282 0.00026007043 0.007320549 -0.0018178341
-0.008369671 0.008100104 0.00059035985 0.0074797836 -0.0057719797 -0.0049207127 0.011904725 -0.005558768
-0.0039653783 0.008822311 -0.008080225 0.00935225 0.008697166 0.006472629 -0.002771028 0.0068162205
0.010176281 0.010546264 -0.0031676 0.0076166876 0.0015502091 0.011310896 -0.0070960117 0.00013399519
0.004651231 0.0037699046 0.0018644987 -0.008239635 -0.0027951032 -0.004948342 -0.0017178836 0.0058407756
-0.0015305827 0.007514849 -0.0062420033 -0.0085116215 -0.004105098 -0.006005788 -0.00076372776 -0.008025687
0.00072531984 -0.00639328 -0.009579916 0.00815133 -0.008924069 0.007514054 -0.0049270242 0.010692624
0.009219408 0.009286224 0.0069229575 -0.005927257 -0.0032018458 -0.010745883 -0.009055701 0.00240469
0.0052780835 -0.011649504 0.010230222 -0.008774888 -0.00088725536 0.0047396533 0.011470913 -0.0012719181
0.0046598716 0.0028956858 -0.010550927 0.008620958 -0.005277084 -0.0014708827 0.0072234743 0.00187565
-0.01000645 -0.0009099518 0.010426657 0.0050333804 -0.0024076572 -0.010744578 0.0060738903 -0.011117974
0.011913964 0.0065340246 -0.00930914 0.0054466473 -0.011592712 -0.008629507 -0.007120548 -0.0053679757
-0.006432638 0.010897299 -0.0017624545 0.0049946755 0.002997843 -0.010895182 -0.010931687 -0.0036854772
-0.010512317 -0.010048536 -0.006944755 0.0037495603 -0.011469213 -0.0036072198 -0.005391265 -0.011552162
-0.0014345187 -0.005407207 0.009406546 -0.0034974653 -0.01068434 -0.0056819813 -0.003903168 0.0019780793
-0.002971307 0.004362591 0.0067215264 -0.0096681835 0.0058133914 0.0015664288 -9.77171e-05 0.0058478
0.0051284246 -0.000883696 0.0030798446 0.0014080688 -0.00996184 -0.0059207636 -0.005540244 -0.00887208
-0.0040736212 -0.0011696838 0.0077584945 -0.0010206646 0.010694317 0.0071580783 -0.0008312391 -0.011313901
0.004003743 0.0019894685 -0.010084596 -0.0068416805 -0.0029733924 -0.003983406 0.006108659 -0.010642029
00000000: c3f7 f439 24ae 113b 98fd 783b 98f9 41bc
00000010: 5b6c b6bb 5e92 b238 8985 033b 22cd cf3b
00000020: 061b fa3b 836e ee3b 0a71 a439 6d60 c93b
00000030: a7c3 143c c0d7 ee3b c7ba 313c eb0e 36bc
00000040: a95c 7aba e301 1d3b 5caf c83b 544d 3f3c
00000050: 3379 203c 6ce6 433b 9806 d8b7 3125 efb8
00000060: d8be 863b 2f8d edbb 74fe 1a3c 6d7f 043c
00000070: ca7c 39bc 8b2a 3bbc 4e25 213c 8224 103c
00000080: 88de 2abc f55a 423b 3ebe 3cbc 0e5e 89bb
00000090: 2d35 8439 ba52 7bb9 9b12 f93b 442d a939
000000a0: c291 c637 eef0 3a3b 720f 1f3c a490 21bb
000000b0: aaf9 3abc 82a4 de3b b692 c93b 8cac 25b8
000000c0: 43e5 d03b f35e 983a e27a 02bc eb72 6f3b
000000d0: ed62 a8ba 16e1 3d3b 8380 3b3c 2108 02bb
000000e0: 38c4 91bb be76 17bc 2f49 df3b 3930 a5b9
000000f0: fd17 44bb a94b bbbb a34e 4e3a c3b8 8abb
00000100: e053 d73b 0e24 36bc f6db 39bc bab5 1f3b
00000110: 1fc3 4abb c058 373c af91 0e3a bcb9 05bc
00000120: 78e8 203b d672 943b 4929 053c 1dc3 573b
00000130: 02aa c4bb edee 45b9 0d8a 983a 7776 26bc
00000140: 63b8 1ebc 84cf 06bc be20 b13b e6f9 eebb
00000150: c299 83bb c031 093c 8bfa 5dbb 41f9 6fba
00000160: 4a73 103c 5620 adbb 4562 453b 086f 4cbb
00000170: ca3a 41bc f7e6 813a 4a99 93b9 4502 0dbb
00000180: 229f 0f3c 5aca e9bb af6b 0cbc 0db3 293b
00000190: 4609 703b 860d 4cbb edbc 28bc 92dc 8dbb
000001a0: 1179 6d3b 9182 87bb 300b 88bb ab8b 0e3c
000001b0: 9caa 03bc 105a 8839 37e1 ef3b 6444 eeba
000001c0: f220 09bc 4cb6 043c 61c2 1a3a f918 f53b
000001d0: e022 bdbb ee3d a1bb 090c 433c 5326 b6bb
000001e0: 01f0 81bb 748b 103c ec62 04bc 2e3a 193c
000001f0: 8f7e 0e3c 5918 d43b 239a 35bb 9a5a df3b
00000200: 6bba 263c 3dca 2c3c 8297 4fbb 6895 f93b
00000210: 6330 cb3a 5651 393c a985 e8bb 0f81 0c39
00000220: 5b69 983b 8110 773b 3262 f43a 89ff 06bc
00000230: 0d2e 37bb b425 a2bb 9c2a e1ba fa63 bf3b
00000240: d59d c8ba 1f3f f63b b889 ccbb 5474 0bbc
00000250: 0f84 86bb 34cc c4bb e734 48ba 2c7e 03bc
00000260: 6423 3e3a b87e d1bb 14f5 1cbc 288d 053c
00000270: 4236 12bc 7438 f63b e072 a1bb 1e30 2f3c
00000280: 000d 173c 3f25 183c fad9 e23b 6f39 c2bb
00000290: 0fd6 51bb 800f 30bc 5d5e 14bc 0198 1d3b
000002a0: c6f3 ac3b 90dd 3ebc a99c 273c 8cc4 0fbc
000002b0: b396 68ba 184f 9b3b 7ff0 3b3c 7db6 a6ba
000002c0: d6b1 983b 8cc5 3d3b ccdd 2cbc eb3e 0d3c
000002d0: 64eb acbb a2ca c0ba e5b2 ec3b 5fd8 f53a
000002e0: 18f2 23bc d589 6eba 92d4 2a3c 0eef a43b
000002f0: c9c9 1dbb 070a 30bc 7c07 c73b 2a28 36bc
00000300: c932 433c 5f1b d63b 5d85 18bc ca79 b23b
00000310: 5cef 3dbc c762 0dbc 7c53 e9bb d8e5 afbb
00000320: e1c8 d2bb 968a 323c 2902 e7ba 60aa a33b
00000330: 7677 443b b581 32bc d21a 33bc 0c88 71bb
00000340: da3b 2cbc 9da2 24bc d490 e3bb 2fbb 753b
00000350: 5ee9 3bbc 1b67 6cbb 35a9 b0bb 4745 3dbc
00000360: 7606 bcba f12e b1bb ea1d 1a3c bb35 65bb
00000370: 5f0d 2fbc ea2f babb 4bcc 7fbb aaa2 013b
00000380: 42ba 42bb 11f4 8e3b 4040 dc3b 4d67 1ebc
00000390: 437e be3b a150 cd3a 78ed ccb8 e79e bf3b
000003a0: 580c a83b d6a7 67ba 38d7 493b f38e b83a
000003b0: fc36 23bc f702 c2bb ef8a b5bb 335c 11bc
000003c0: 037c 85bb 1350 99ba f83a fe3b d2c7 85ba
000003d0: 3737 2f3c 508e ea3b 83e7 59ba f15d 39bc
000003e0: d531 833b be61 023b dd39 25bc 2d30 e0bb
000003f0: 3fdd 42bb 3b87 82bb 252b c83b e85b 2ebc

fc.bias f4 [2]
0.010599522 0.010660981
00000000: 9ea9 2d3c 65ab 2e3c
