checkpoints_multihead/run_0/1d_cnn_ckpt_2.pth (torch, 343996 bytes, 26 tensors)

model.0.0.weight f4 [8, 1, 8]
000000 04 44 93 3e 9d 7a cf 3d 3a 00 5a 3e 9d 57 8d 3e
       0.2876283 0.101308085 0.21289149 0.27605906
000010 ba fe bf 3c a2 d4 ab 3e ef c2 d8 3d a3 f4 b3 be
       0.023436893 0.33560663 0.10584056 -0.3514758
000020 d7 51 ce bd 2f ae 33 3e 49 3c 6b 3d 07 44 a0 3d
       -0.100742035 0.17546915 0.05743054 0.07825475
000030 86 f1 67 be 83 be 11 3e eb 7d 52 3d ec 0a f3 3d
       -0.22650728 0.1423283 0.051389616 0.118673176
000040 e8 ff 39 bd 06 8f 33 3e 99 0e c3 3d 01 e9 a6 3e
       -0.045410067 0.17535028 0.09524269 0.32599643
000050 13 47 72 be db dc 9e 3e a8 81 84 bd 60 6a af be
       -0.23659925 0.31027874 -0.064700425 -0.34260845
000060 34 59 81 be 5b 2b 61 be 94 3a 57 bd f5 df 94 3e
       -0.2526337 -0.21989195 -0.0525461 0.29077116
000070 7f d8 5e 3e f0 fb 7f 3d fa 8c 14 bd 96 71 a5 3d
       0.21762274 0.062496126 -0.03626726 0.080783054
000080 a0 47 88 be 5c aa 76 3d 6c ae d9 3d a5 70 08 bd
       -0.26617146 0.06022106 0.106289715 -0.03331055
000090 4d 6a a7 3e 88 ff 7c be 2e 07 4a be b6 5b ea 3c
       0.3269829 -0.24706852 -0.19729301 0.028608184
0000a0 d6 cf 96 be aa 53 71 3e 0c 40 b3 3c a5 09 39 3e
       -0.2945544 0.23567072 0.021881126 0.18070085
0000b0 4b 40 8e be d3 56 27 bd 14 1f d5 3d 53 79 4a be
       -0.27783427 -0.040854286 0.10406318 -0.19772844
0000c0 64 6a 6b be 8d 96 62 be a0 63 a6 3d 8a 05 99 be
       -0.22989804 -0.22127743 0.08124471 -0.29887038
0000d0 07 1e a2 be 06 ec 54 bd b7 10 8c bb e0 64 58 3e
       -0.31663534 -0.051982902 -0.0042744535 0.21132231
0000e0 3a 4b 93 3e 81 e1 1f 3e 1c ec f8 3c 12 61 59 be
       0.2876833 0.15613367 0.030386023 -0.21228436
0000f0 4f 2f fd 3d 67 0c 34 be 0a f5 32 be ac f9 05 3e
       0.12362539 -0.17582856 -0.17476287 0.13083524

model.0.0.bias f4 [8]
000000 67 84 6e be 08 7e 76 3e 70 52 8c bd 93 dc dd 3c
       -0.23292695 0.24071515 -0.06851661 0.027082717
000010 fe fd 9e bd 57 1b a8 be 38 4c a0 3e b4 2d 23 be
       -0.07763289 -0.3283336 0.3130815 -0.15935403

model.0.3.weight f4 [16, 8, 8]
000000 74 3b 5b 3d dc ab 1f bd e2 7a c8 bd e0 19 2e 3c
       0.053523496 -0.038982257 -0.09789063 0.010626286
000010 38 d2 34 3d 02 cc e9 3d c2 b4 81 bd a0 0b 30 3d
       0.044145793 0.114158645 -0.06333305 0.042979836
000020 42 09 9e bd 74 3b 8a bd eb ac d7 bd 94 d5 07 3d
       -0.077166095 -0.06749621 -0.10531028 0.03316267
000030 a3 1e 8c bc de 17 9e bd 9f fe 08 bd 34 a7 2e 3d
       -0.017104452 -0.07719396 -0.03344595 0.042639926
000040 b8 bf e3 bd 6c ef d6 3d 80 8c 7b bd 9a a9 b4 bd
       -0.11120552 0.10494885 -0.061413288 -0.088214114
000050 e0 65 ad 3b fc d1 2f 3d 70 f6 ee 3c 32 a4 b8 3d
       0.0052916855 0.042924866 0.029170245 0.09015693
000060 71 04 0b bd 81 59 d6 3c 3c 7b 9c bb eb bb 16 3d
       -0.033939783 0.026165726 -0.004775433 0.036800306
000070 3c 0b ef 3c 66 51 c1 bc 67 4b 69 bd ca f4 a9 bd
       0.029180162 -0.023598384 -0.056956675 -0.08298643
000080 7e b8 98 3d b0 f2 ce bc 12 b2 93 3d 88 3f c4 bd
       0.07457064 -0.025262207 0.072116986 -0.0958243
000090 30 f0 e8 3d 04 1a 6f bd d6 ec 93 3d e8 0f db 3d
       0.11373937 -0.05837442 0.07222907 0.10696393
0000a0 dc f4 1b bd f4 f1 af bd 54 79 b4 bd a0 50 56 3d
       -0.038075313 -0.08591071 -0.08812204 0.052322984
0000b0 b6 33 dd bd 60 39 75 3d b0 fc 35 3c 8c 1b 7b bd
       -0.10800879 0.05986917 0.011107609 -0.061305568
0000c0 24 d2 09 3d e8 b2 c2 bd 38 73 b7 3d 8b d8 c5 bd
       0.03364767 -0.0950678 0.08957523 -0.09660443
0000d0 b0 22 8b 3d 31 77 f5 3d f0 1f 98 3d c9 48 00 bc
       0.067937255 0.119856246 0.074279666 -0.007829853
0000e0 00 ce 94 b9 d2 fb f8 bd 88 a7 ed bd 54 ab c2 3d
       -0.00028382242 -0.12157406 -0.1160422 0.095053345
0000f0 20 88 39 3c f0 62 08 bd 88 ed ce 3c 10 42 dc bc
       0.011323959 -0.03329748 0.025259748 -0.02688697
000100 d8 60 c8 bd 00 03 ea 3c e8 8e 01 bd e8 f6 57 bd
       -0.097840965 0.028565884 -0.031630427 -0.052725703
000110 70 e9 8d 3d 50 b1 18 bc c0 98 af bd 7c c0 1b bd
       0.0692929 -0.009319618 -0.085740566 -0.038025364
000120 56 ad 19 bd cc 41 90 bd 97 39 bb 3d 10 b9 94 3b
       -0.03751882 -0.070438 0.09141844 0.0045386627
000130 c2 95 af bd b5 b3 e8 3c 69 90 b3 3c 18 fb ba bd
       -0.08573486 0.028406003 0.021919446 -0.091299236
000140 48 d3 4a bd 68 b6 05 3d 18 c0 ad bc 10 39 90 3d
       -0.0495179 0.03264466 -0.021209762 0.07042134
000150 36 4f da 3d 4a 06 e7 bd 60 f5 56 bc f4 6b e3 bd
       0.106596395 -0.112804964 -0.013120025 -0.11104575
000160 17 8c 39 ba dc 0f 35 3c 7d aa 84 3d a4 1f de 3d
       -0.0007078065 0.011051144 0.064778306 0.10845879
000170 26 05 6d 3d 3d e1 26 bd 6c ea 47 3d c3 ec d0 3d
       0.057866238 -0.040742148 0.048807546 0.10201409
000180 84 4b 3e bd 20 0e fe 3c fc 19 9a 3d 14 ef af bd
       -0.046458736 0.031012595 0.075244874 -0.085905224
000190 56 a1 b8 bd 26 c7 c2 3d 40 fd f2 3b 60 97 71 bc
       -0.090151474 0.09510641 0.0074154437 -0.014745563
0001a0 e4 c2 c9 3d f8 63 ad bd b8 4e 1d 3d 78 8d 8a bd
       0.098516256 -0.08466333 0.03840515 -0.06765264
0001b0 d4 13 e0 3d 40 6e dc 3b 48 5b f3 bc b8 60 13 3d
       0.10941282 0.00672701 -0.029706612 0.03598091
0001c0 e5 5f b6 bd dc cf 59 bd 16 8b c4 3d 2f 70 12 3d
       -0.08905009 -0.053176746 0.09596841 0.035751518
0001d0 3c 58 e1 3d 65 4b b5 bd c3 85 c0 3c df 50 27 3c
       0.110031575 -0.08852271 0.023501283 0.010212152
0001e0 64 5c 44 bd 90 d6 78 bd c6 8d bd bd 20 bf 95 bd
       -0.047939673 -0.060751498 -0.09255557 -0.07311845
0001f0 a0 c6 71 3d b0 5d ed bd ce 3a cf bd fa 71 e1 bd
       0.059027314 -0.11590135 -0.10118638 -0.110080674
000200 d6 fc 80 3d 58 14 a4 3c ec 69 96 bd 20 42 18 bd
       0.06298225 0.020029232 -0.07344422 -0.037172437
000210 b0 3f 84 3c 8a 87 dc 3d 58 63 bd bc de 49 af 3d
       0.01614365 0.107680395 -0.02311866 0.08559011
000220 e8 b3 56 3d 7d 1a 32 3d 14 81 ec bd 22 f9 c8 bd
       0.052417666 0.043482292 -0.11548057 -0.09813143
000230 f1 ff a8 bd 0e 7d ea bd 53 26 4f 3d 50 4d 14 bd
       -0.08251942 -0.114496335 0.05057366 -0.036206543
000240 e0 94 74 3d fe 0f ea 3d 80 04 b2 3a e0 e9 fa 3c
       0.05971229 0.114288315 0.0013581663 0.030629098
000250 0c 51 db bd c6 d0 fd bd f4 58 a5 3d ee dd ea bd
       -0.10708818 -0.12393336 0.08073607 -0.11468111
000260 df 88 2f 3d 9d 70 ea bc 87 5b d3 3c 65 ac 20 bd
       0.04285514 -0.028618151 0.02580048 -0.03922691
000270 69 b5 d1 3d 80 7e 01 bd d5 9a 13 3d 03 9f 98 bd
       0.10239679 -0.03161478 0.03603633 -0.07452204
000280 f2 9b d4 bd e8 d0 6d 3d d0 68 de bc 84 03 2d bd
       -0.10381307 0.058060557 -0.027149588 -0.04223968
000290 1a 71 96 3d dc 30 46 bd fe 8f b7 3d 72 0a da bd
       0.07345791 -0.04838644 0.08963011 -0.106465235
0002a0 50 cc 8f 3c 40 4e e2 3b e0 b9 0a 3c d0 7e 95 bd
       0.017553478 0.006906301 0.008467168 -0.07299578
0002b0 7e 0b e1 3d 20 52 35 bd 34 26 a6 bd 7a 62 cd 3d
       0.1098852 -0.044267774 -0.081127554 0.100285485
0002c0 5d 72 e2 bd 00 91 97 3d ad a4 6c 3d 2c 4e 07 bd
       -0.11056969 0.074007034 0.057774235 -0.033033535
0002d0 c6 e9 47 3d 5c af e7 3d 4b 20 da 3d 9e d7 36 3d
       0.048806928 0.11312744 0.10650691 0.044639222
0002e0 d8 66 0e bd c6 1e 88 bd 00 9a ea 3d da 2e f0 bd
       -0.03476605 -0.066464946 0.114551544 -0.11727686
0002f0 ce 80 c2 bd 4a d1 f8 3d f0 82 04 bc fa 49 ae 3d
       -0.09497224 0.12149294 -0.008087859 0.08510204
000300 80 38 f9 3c d0 d8 bb 3c 30 5a be bd 7e f6 e5 3d
       0.03042245 0.022930533 -0.09294546 0.11228655
000310 08 b1 8c 3c 84 12 5a 3d c0 65 67 bd 00 6b 51 bd
       0.017174259 0.053240314 -0.05649352 -0.051127434
000320 33 4c a1 bd 50 35 bd 3d 10 1a 42 bd fc f1 8e bd
       -0.07875862 0.09238684 -0.047388136 -0.069797486
000330 63 40 53 3d 81 c8 c0 bc b8 2b 4e bd 6f 97 d4 3b
       0.051575076 -0.023533108 -0.050334662 0.006487779
000340 4c e1 14 3d a0 df d0 3b a0 24 bc bb 68 6d 94 bc
       0.036347672 0.0063743144 -0.0057416707 -0.018118575
000350 40 ff 95 3b ee a5 db 3d 00 25 ca ba 10 d4 33 3c
       0.0045775473 0.10725008 -0.0015422404 0.010975853
000360 4e 05 bc bd 9b 91 3c bd 54 44 b7 3d 85 d6 de 3d
       -0.09180699 -0.046037298 0.089485794 0.1088076
000370 87 76 e4 bd ad 92 fd bd 85 73 50 3d fb 39 66 bd
       -0.1115542 -0.12381492 0.050891418 -0.05620764
000380 90 8a 26 bd 08 fd aa 3c 1c a8 ee bd e0 72 97 bd
       -0.040659487 0.020872608 -0.11653158 -0.073949575
000390 68 e8 c7 bd 6e a9 9b 3d ce 07 aa bd 52 28 c5 bd
       -0.09761125 0.076006755 -0.0830227 -0.09626831
0003a0 04 dc 14 bd be 4a d7 3d 24 89 b9 3d 60 f1 da 3b
       -0.036342636 0.10512303 0.090593606 0.006681606
0003b0 00 43 3d bc ec 0b 87 bd c0 1a 10 3d 00 85 56 3a
       -0.011551619 -0.06594071 0.03518176 0.00081832707
0003c0 47 05 cf bd 41 a9 a6 3d 53 7e cd 3d fe 45 a5 bc
       -0.101084284 0.08137751 0.1003386 -0.020174976
0003d0 c8 90 f6 3d 76 6f 30 bd 27 a7 3c 3c 55 f3 8f 3d
       0.120393336 -0.043075047 0.011514462 0.07028834
0003e0 18 e7 f1 bd 20 fc c4 bc 90 20 64 bd 68 f3 f7 3d
       -0.11811656 -0.024046004 -0.055695117 0.12106973
0003f0 f2 1f cb 3d 54 c2 dd bd c0 35 78 3c 6c 18 cd bd
       0.099182025 -0.10828081 0.015149534 -0.10014424

model.0.3.bias f4 [16]
000000 6e f8 a4 3d 62 c3 df 3c 3f d2 47 bc 29 76 9e 3d
       0.08055197 0.027314845 -0.012196123 0.07737381
000010 b6 a8 02 bd 0c 3c 60 bd 84 cb 88 bb b0 26 5a bc
       -0.031899177 -0.054744765 -0.0041746516 -0.013314888
000020 bf 5a 67 3c d0 a8 43 3d 87 f2 35 bd f9 02 be bc
       0.014120757 0.047768414 -0.044420745 -0.023194777
000030 df bc 45 3d 74 5a fe bd f8 a6 b3 bc b4 09 47 bb
       0.048275825 -0.12419596 -0.021930203 -0.0030370774

model.0.6.weight f4 [32, 16, 8]
000000 e8 f8 08 bd 30 dd 94 bd cc 5d 94 bb 47 c3 71 bd
       -0.0334405 -0.07268751 -0.004527783 -0.05902412
000010 4e 56 ae 3c 25 28 21 3a 5d 30 36 bd 99 61 94 3d
       0.021281388 0.00061476446 -0.044479717 0.07245178
000020 9c 89 76 3d fd 51 81 bc fd 25 30 3d d7 86 8a 3d
       0.06018983 -0.015786165 0.04300498 0.06764
000030 0d fc ab 3d 87 ac 4d 3d df 04 9a 3c a2 12 9a bd
       0.08397684 0.050213363 0.01880115 -0.07523085
000040 e7 3c 7e bd 68 94 24 3d 0f f6 27 3c ed 98 6d bc
       -0.0620698 0.040180594 0.010251536 -0.014501792
000050 1f ac 05 bc 15 83 97 3c ff 0b 1c 3d cb 3e 87 3d
       -0.008158713 0.018495122 0.038097378 0.06603774
000060 c9 aa 3e 3d e8 79 51 bd 9a c9 a0 bd 57 5b 7e bd
       0.046549592 -0.05114165 -0.078509524 -0.062098827
000070 39 bb f1 bc 0f 0b 9d bd 56 87 fe 3c 03 5a 8e bd
       -0.02950822 -0.07668125 0.031070393 -0.06950762
000080 18 c4 97 bd 94 55 98 3d a4 74 2e bd 32 aa 6f bc
       -0.07410449 0.07438198 -0.042591706 -0.01462798
000090 61 6c a1 3d 7e f5 23 3d 5c 5c 23 3d 5f 8b da 3c
       0.07882 0.04002904 0.039883003 0.026677785
0000a0 a4 71 f1 3c aa c0 df 3c 15 bc 6d 3d c4 fd c1 3c
       0.029473133 0.02731355 0.058040697 0.023680575
0000b0 9b d8 72 3d 66 76 aa bd 87 1c b9 bb 9e de ee 3c
       0.059288602 -0.08323364 -0.0056491527 0.029158887
0000c0 bf 89 6d 3d 23 1f 17 bd 4f a1 46 3d 1e 5f 3b bd
       0.057992693 -0.03689493 0.04849368 -0.045745008
0000d0 5f 40 89 bd 97 61 48 bc 0c 10 b0 bb 63 a7 85 3d
       -0.06701731 -0.0122302985 -0.0053730067 0.06526067
0000e0 e2 16 7e bc e2 1f a7 3d 19 88 63 3b 5b 14 2c bd
       -0.015508385 0.08160378 0.0034718572 -0.0420116
0000f0 f1 e8 45 3d 49 c2 b0 3d 10 00 3e 3d 93 77 ac bd
       0.048317853 0.08630807 0.04638678 -0.084212445
000100 c3 5a 81 bc 6d 97 30 bd a5 29 3b bc 11 36 9e 3d
       -0.015790349 -0.04311316 -0.011423503 0.07725156
000110 1a e4 4b bc dc b5 8f 3c f0 19 49 bd 18 5f 48 3d
       -0.01244452 0.017542772 -0.049097 0.048918813
000120 fb 3a 2c bc 88 ac 57 bc ad 25 3d bd 4c 48 8c bd
       -0.010512109 -0.013163693 -0.04617851 -0.06849727
000130 e4 75 99 bd f9 1f b5 3c ac f1 f9 3c 7a ee 56 3d
       -0.07493189 0.022109972 0.030510746 0.052473523
000140 46 99 97 3d f6 70 63 3d ce 29 f9 bc 7b 2b 1b bd
       0.074022815 0.05552765 -0.030415442 -0.037883263
000150 6b 5d 3f bb 25 1b b2 bd 46 10 e1 3c 90 3b 76 bb
       -0.0029199969 -0.08696584 0.02747358 -0.0037572123
000160 22 28 b2 bd 7d 59 90 bc fb 9c 7e bd dd 66 aa bd
       -0.08699061 -0.017620796 -0.062161427 -0.08320401
000170 85 ba 05 bd f2 36 15 bd d5 67 03 3d b8 86 89 bd
       -0.032648582 -0.036429353 0.032081444 -0.06715149
000180 f9 ea 47 3a d8 f7 7c 3c 99 b7 9e 3d 36 79 96 3d
       0.0007626261 0.01543995 0.07749862 0.07347338
000190 3b f6 3f bd 6c b9 f7 bc cf 11 2f bd e0 a4 b2 3d
       -0.046865683 -0.030239783 -0.042741593 0.08722854
0001a0 5d 2c b1 3d 17 6d 7d 3d 8e 73 ab 3d 81 82 6c 3d
       0.0865104 0.061871614 0.0837165 0.057741646
0001b0 2b fe 62 3c e9 b8 df bc 90 30 71 bd 08 4e 95 3d
       0.013854544 -0.027309852 -0.058884203 0.07290274
0001c0 92 50 b4 bc 3b f3 85 bd 3c 3f 41 3d 28 50 74 bd
       -0.022011075 -0.06540533 0.047179446 -0.059646755
0001d0 c4 cf 9c 3d 87 c9 04 bd 56 4d 64 3c 40 fb 16 3d
       0.07656816 -0.032418754 0.013934454 0.036860704
0001e0 e4 d9 6d bc ca aa 72 3d 43 a2 1f bc 76 fd 81 3c
       -0.014517281 0.05924491 -0.009743276 0.01586793
0001f0 0a fe a2 3d ee 79 2d bd 14 ff bf 3c 56 88 42 bd
       0.0795861 -0.04235261 0.02343706 -0.0474933
000200 19 d1 c3 bb 57 a8 5c 3d 4d 4b 86 bd 3a 5c fe bb
       -0.005975854 0.05387148 -0.06557331 -0.007762459
000210 08 6b 56 bd 29 cc b0 3d 45 ac 70 3d 08 a6 e4 3b
       -0.052348167 0.086326905 0.05875804 0.0069778003
000220 15 71 5b bd d0 c5 0d bd 2d ba 9a 3b f6 47 99 bd
       -0.05357464 -0.034612477 0.004721901 -0.074844286
000230 4e 4a b1 bd 45 2b 41 bd 99 77 7f 3a fc 76 2e 3a
       -0.086567506 -0.047160406 0.00097452995 0.00066553033
000240 81 6a 79 bb 3c 8b 39 bc db d7 09 bc ac 1f a9 3d
       -0.0038057866 -0.0113247 -0.00841328 0.08257994
000250 ef bf 72 3d cc 4f 0c bd 94 d6 b2 bc 16 b5 46 3c
       0.059265073 -0.034255788 -0.021830834 0.012128135
000260 70 91 a5 bc 2f 3a a8 3c 95 6a 59 bc 4f e4 0d 3d
       -0.020210952 0.020535557 -0.01327004 0.03464156
000270 2d ec 52 bc f4 59 94 bd 2b e5 05 bd b8 88 73 bb
       -0.0128736915 -0.0724372 -0.032689255 -0.0037160348
000280 73 ea 87 3c 0c a7 88 3b dd 36 18 3d 40 a5 b0 bd
       0.016591286 0.004170304 0.037161697 -0.08625269
000290 31 b8 76 3b c8 e6 9a bd 93 63 b4 3d 30 6b 6d bd
       0.0037646408 -0.07563549 0.08808055 -0.05796355
0002a0 d0 9d 10 3c 49 33 1e bd f8 f9 10 3d 2c 5c 34 bd
       0.008826688 -0.038623128 0.03539464 -0.044033214
0002b0 92 fd 97 3d eb 01 01 bd a8 ee bc bc 50 a1 0e bc
       0.074214116 -0.03149597 -0.023063019 -0.008705452
0002c0 a6 1e 8c 3d 12 90 3c bd 4f 72 8f bc 85 cb 6f bd
       0.06841783 -0.046035834 -0.017510561 -0.0585437
0002d0 8a ec 90 bd cd 82 ee 3c 28 16 f5 3c d8 ba 76 3d
       -0.07076366 0.029115105 0.029917791 0.06023678
0002e0 74 3a 62 bd 7c 78 33 bd 30 ed 4f 3c 45 08 5c bd
       -0.055231526 -0.043816075 0.012690827 -0.053718824
0002f0 d2 a0 a0 bd f1 54 9e 3d 46 2c 3d 3d 02 7a 31 bd
       -0.07843174 0.07731045 0.0461848 -0.043329246
000300 e2 05 1d bd 2e cb 3e bd d9 86 89 ba 15 b6 54 bd
       -0.03833569 -0.046580486 -0.0010492458 -0.05193146
000310 e3 13 9d bd c7 ae 76 3c 2a 28 a6 3d f1 ed b5 bc
       -0.07669809 0.015056319 0.081131294 -0.022208186
000320 77 84 84 3d d6 9b 01 bc a4 cb 27 bd 53 27 e9 3b
       0.06470578 -0.007910689 -0.04096569 0.0071152835
000330 9c 94 96 3c fe fc 1f 3c db 88 5b bd 95 07 2c bd
       0.01838141 0.009764908 -0.053597312 -0.04199942
000340 c3 b8 b0 3d 70 04 53 bc f3 b8 31 bd 17 83 03 bd
       0.086289905 -0.012879476 -0.043389272 -0.03210744
000350 cf 89 26 3d 34 9e 63 3d 85 ee 67 3c c1 8c 2d bd
       0.04065877 0.055570796 0.014155989 -0.04237056
000360 99 52 a4 bd 74 59 6d 3d 53 c7 d5 bb 75 83 ac 3c
       -0.08023567 0.057946637 -0.0065240054 0.021058777
000370 16 8c 17 bd 51 07 7c 3d d6 e3 af bd ee 08 47 bd
       -0.03699883 0.061530415 -0.08588378 -0.0485925
000380 f3 f2 28 3d b1 1b 41 bd 98 97 88 3d 8b 73 6c bd
       0.04124732 -0.04714555 0.06669539 -0.057727378
000390 18 1b 93 bc fa 35 75 3c 3d b4 fa 3c 9e 3e 77 bd
       -0.017957255 0.014966482 0.030603522 -0.06036245
0003a0 5d 07 da 3c 92 ec a0 3c e7 3a 69 3d 30 dc 2a bd
       0.02661484 0.019644056 0.05694094 -0.041713893
0003b0 f8 38 9a 3d f9 2f 8c bd 72 0a 2e 3b 03 29 8d bd
       0.07530397 -0.068450876 0.002655652 -0.06892588
0003c0 2a 23 7b bd ac ff 31 3d 73 8b 64 3d 8f a9 94 bd
       -0.061312832 0.04345672 0.05579705 -0.07258903
0003d0 bb 50 9d 3d fe 63 65 bd 57 37 48 3a f3 a2 38 3d
       0.07681414 -0.056003563 0.0007637641 0.045077275
0003e0 e5 5b 71 bd bd b4 66 bc 98 bc 71 3d f4 31 95 bc
       -0.058925528 -0.014081177 0.059017748 -0.018212296
0003f0 04 3f f9 3b 64 b4 56 3d 48 dd 15 bd 88 23 5f bc
       0.007606389 0.052418128 -0.036587983 -0.013619311

model.0.6.bias f4 [32]
000000 c9 f8 88 3c 36 e3 40 bd 3a bb d3 bc 4f 95 22 bd
       0.016720193 -0.047091685 -0.025846113 -0.039693173
000010 71 6b 00 bc be 59 fb bb a4 99 9c 3c 71 82 2a bd
       -0.007838116 -0.00767061 0.01911623 -0.041628305
000020 18 ba 3d 3d d8 0e 7f 3d e7 8e 17 bd b2 ac 43 3c
       0.04632005 0.062270015 -0.037001517 0.011943029
000030 94 07 b2 3d 0f 47 a7 3d ae 78 96 bd 7b df a3 3d
       0.08692852 0.0816785 -0.073472366 0.0800161
000040 68 f9 ec bc 18 7c fe 3c 64 a7 1b 3d 55 90 d4 3c
       -0.02892752 0.031065032 0.038001433 0.02594773
000050 ad cb 09 bc dc 5f 2a 3d 74 5e 2e 3c db 1b 3f 3d
       -0.0084103765 0.041595325 0.010642637 0.046657424
000060 08 79 27 3d 8a b0 62 bd 42 8c 44 bd 28 15 08 3d
       0.04088691 -0.055344142 -0.047985323 0.0332233
000070 41 ef 35 3d eb f5 08 bc f5 3a 06 bc f1 bf 3a 3d
       0.044417623 -0.008359413 -0.008192767 0.045593206

model.1.0.weight f4 [8, 1, 8]
000000 41 42 b8 bd a6 4a 04 be 52 e3 25 be c8 54 e4 3d
       -0.08997012 -0.12919101 -0.16199997 0.11148983
000010 b2 b8 98 be 65 dc 5f be a8 5e 73 3e b4 53 4a 3e
       -0.2982841 -0.21861418 0.23766577 0.19758493
000020 ae 9b d1 bc e3 75 42 be c9 fd 8e 3e c8 f9 92 3e
       -0.02558693 -0.18990283 0.27927998 0.28706193
000030 75 5a a7 3e 07 42 a5 3e 7f 7b 38 be c0 c8 0d 3e
       0.326862 0.32276937 -0.1801586 0.13846111
000040 96 fb a8 be dd 8b 9b be 49 d3 7c be 20 40 a4 bd
       -0.33004445 -0.30380145 -0.24689974 -0.080200434
000050 26 3d 38 be 5e 7c b8 3d 7b 1b 0a be 28 21 13 3e
       -0.17992076 0.09008096 -0.13487045 0.14368117
000060 95 99 2e 3d 43 97 57 be a0 09 ee 3c e3 66 a8 3e
       0.042626936 -0.21053796 0.029057324 0.32890996
000070 91 f9 20 bd 76 52 fe bd 3d 8c cd bd 55 81 5b 3e
       -0.039300505 -0.12418072 -0.10036514 0.21436055
000080 a8 59 64 3e 0f 8f b1 3e 5e 6d ab 3d eb a1 0d 3d
       0.22299826 0.34679458 0.083704695 0.034578245
000090 2b 79 8b be 2f 43 fb bd ef bc 97 3e a3 aa 5a 3c
       -0.2724088 -0.12268674 0.29636332 0.013346347
0000a0 67 16 4d be 63 bd 8a 3e 05 1e e1 3d b2 30 ac be
       -0.20028077 0.27097616 0.10992054 -0.33630902
0000b0 66 f5 88 3e 54 fe 98 be f2 9b 80 3e b6 ee 77 3e
       0.26749724 -0.29881537 0.25118977 0.24212155
0000c0 a3 e0 82 3e 90 43 92 3e c6 d2 51 3e 32 37 a9 3e
       0.2556201 0.2856717 0.2049056 0.33049923
0000d0 ec ae 47 be 52 df a4 3e 7b 58 d3 bd 94 89 f3 bd
       -0.19500321 0.3220163 -0.10319611 -0.11891475
0000e0 5e 4f 8c 3e 57 bd f2 bd 83 38 ae be dc 39 b0 3e
       0.27404302 -0.1185252 -0.3402749 0.34419143
0000f0 64 b3 16 be 75 8d 9c be 3f 33 a0 3e bc d7 8d be
       -0.1471687 -0.30576673 0.31289098 -0.27703655

model.1.0.bias f4 [8]
000000 62 fc 84 be 2b 09 48 be ad 4b 90 be 3d ce b6 3d
       -0.25973803 -0.19534747 -0.28182736 0.089260556
000010 06 46 29 be 90 43 2c be a6 80 28 3e 6e ba 51 be
       -0.16530618 -0.16822648 0.16455325 -0.20481274

model.1.3.weight f4 [16, 8, 8]
000000 50 94 e3 3c 60 eb 5e bc cc 32 25 3d 60 5d 96 bd
       0.027780682 -0.013605922 0.040331647 -0.073420286
000010 44 c8 fb 3d 74 87 1b bd 3c b7 08 3d 10 36 bf 3d
       0.12294057 -0.037970975 0.03337787 0.093364835
000020 c0 a2 06 3c de a0 a5 3d 44 ec 9f bd 00 b7 2b bc
       0.008217514 0.080873236 -0.07808736 -0.010480642
000030 d0 81 79 3d c8 68 fa 3c 64 6f 0b 3d c8 0d b8 3c
       0.060914814 0.030567542 0.034041777 0.022467509
000040 8c 51 08 3d b0 85 91 bc 4c 93 99 3d c4 19 25 bd
       0.033280894 -0.017763942 0.07498798 -0.040307775
000050 20 35 61 bc 6c 5c 19 bd 2c d2 2a 3d a0 f9 9b bc
       -0.013745576 -0.037441656 0.04170434 -0.019039929
000060 5f d1 67 3d 4c d6 b0 bd 5c 52 b8 3d df 59 cf bd
       0.056596156 -0.08634624 0.09000084 -0.101245634
000070 88 fd db 3d ae 77 59 3b 2f cf ac 3d 8c 8b 30 bd
       0.107417166 0.0033182907 0.08437955 -0.043101832
000080 70 49 0a 3c 24 85 04 bd 3e 08 e7 bd 00 e0 4f bb
       0.00844036 -0.032353535 -0.11280869 -0.0031719208
000090 f8 3c f7 3d 1c 79 3b 3d 5c f6 c8 3d 2c 77 05 3d
       0.12072176 0.045769796 0.09812614 0.032584354
0000a0 7a fc be 3d 92 e5 a3 3d a4 f2 b5 bd ae 59 f9 bd
       0.093255 0.080027714 -0.08884171 -0.12175308
0000b0 4c 53 ab 3d 8c 72 75 bd 80 d1 57 bc 64 ce a4 bd
       0.08365497 -0.059923694 -0.013172507 -0.080471784
0000c0 c1 38 dc 3d 95 94 fa bc 8f cb 2a 3d ff 6e b8 3d
       0.107530124 -0.030588428 0.041698035 0.09005546
0000d0 0c 02 b6 3d a6 94 0a 3d 60 da 41 3d 74 ba 9b 3d
       0.08887109 0.03383317 0.0473274 0.076039225
0000e0 cc dc 73 bd 48 81 0e bd b4 f7 69 3d 3e a0 aa bd
       -0.05953674 -0.03479126 0.057120994 -0.08331345
0000f0 34 e7 16 3d c0 b6 46 bc b8 01 06 bd e4 7c db bd
       0.036841586 -0.012128532 -0.032716483 -0.1071718
000100 1c 74 5a 3d 68 f1 72 3d e0 8d c7 bb 6e 01 82 3d
       0.053333387 0.059312254 -0.006089911 0.06347929
000110 24 a9 57 bd 44 8c 98 3d 00 7c 61 3d 80 63 76 bc
       -0.05265154 0.074486285 0.055049896 -0.015038371
000120 b0 28 bd 3d 2c 26 55 3d b4 f1 56 bd e0 0a d6 3d
       0.09236276 0.052038357 -0.0524766 0.10451293
000130 80 89 b3 bb 24 2f ce bd 0c b5 a1 bd 90 23 4f bc
       -0.0054790378 -0.10067585 -0.0789586 -0.012642756
000140 98 47 59 3d c4 ce b3 3d d8 f7 b9 3d 50 03 45 bc
       0.053046793 0.08779672 0.090804756 -0.012024716
000150 60 95 65 bd 1e f8 f0 3d 1e b7 99 bd ec 82 f8 3d
       -0.05605066 0.117660746 -0.0750563 0.12134346
000160 2f 9a ac 3c 3b a7 19 bd 14 46 f2 bd eb 2f d8 3d
       0.021069614 -0.037513 -0.118297726 0.105560146
000170 bc cf e6 bc 63 62 bf 3a d4 fb d0 3d a3 fa a2 3d
       -0.028175227 0.0014601465 0.102042824 0.079579614
000180 88 55 73 3d d8 f8 40 3d a0 72 f1 bd 86 8f a6 bd
       0.05940774 0.047112316 -0.11789441 -0.08132844
000190 be a2 9d bd b8 b5 7a 3d e0 e6 be 3c 8c 5e 34 3d
       -0.07697056 0.061208457 0.02330345 0.04403548
0001a0 1a 2e c7 3d c0 6b 94 bb a0 4b 76 bd 88 16 ec bd
       0.0972559 -0.0045294464 -0.060130715 -0.11527735
0001b0 08 13 b0 bd f0 e8 40 bc c8 e9 e0 3c 34 5f 1b 3d
       -0.0859738 -0.011774287 0.027455226 0.03793259
0001c0 33 dc ac 3d da 7b d3 bd 66 d3 ed bd c0 7c a2 3d
       0.08440437 -0.10326357 -0.11612587 0.079339504
0001d0 84 c0 dc 3c ce fa ba 3d 0c 3a 9a bd f6 fd a5 3c
       0.026947267 0.091298684 -0.07530603 0.0202627
0001e0 00 a6 66 bb 74 d3 11 3d ec 00 8e bd d0 71 14 3d
       -0.0035194159 0.035602048 -0.069337696 0.036241353
0001f0 f6 4f cb 3d e2 da ec 3d c8 d0 85 bc 0e 5a e1 3d
       0.09927361 0.11565186 -0.016334906 0.11003505
000200 28 27 a6 3c 58 c4 ba bc 10 ac ef bc 32 08 dd 3d
       0.020282343 -0.022798702 -0.02925685 0.10792579
000210 e8 c8 aa 3d 90 9b dd 3c ea 89 88 bd 40 d6 55 3b
       0.08339101 0.027051717 -0.0666693 0.0032628924
000220 a0 d5 2b bc d0 63 ba bd b6 05 86 bd 20 12 ae bc
       -0.010487944 -0.09101069 -0.06544058 -0.021248877
000230 40 14 63 bd 90 14 14 bc 88 fa c8 bc 44 32 a4 bd
       -0.055439234 -0.009038106 -0.024533525 -0.080174
000240 74 94 cd 3d f0 a5 c0 3d 8c d6 ef bd 62 5f b1 bd
       0.10038081 0.0940665 -0.117108434 -0.08660771
000250 92 ce a4 3d 40 f0 e7 3c f0 e0 0b 3d 50 ba be bc
       0.08047213 0.028312802 0.034150064 -0.0232822
000260 cc 07 f2 bd 80 89 73 3b f4 4e 69 bd e0 8f 11 bc
       -0.118178934 0.0037160814 -0.05696006 -0.0088844
000270 b8 f8 da bd 88 91 53 bd d2 03 96 bd 48 32 e1 bc
       -0.106919706 -0.05165246 -0.073249474 -0.027489796
000280 80 bf aa bc c8 00 c4 bc 98 88 38 3d 50 0a b3 3c
       -0.020843267 -0.023926154 0.04505214 0.021855503
000290 c0 9c 13 bd b0 00 2e 3c f0 3f dd bd 58 d3 f5 3d
       -0.03603816 0.010620281 -0.10803211 0.12003201
0002a0 90 65 44 3d 6c 7c 22 bd 52 ef f0 3d 90 ea bf bc
       0.04794842 -0.03966944 0.11764397 -0.023427278
0002b0 90 8b 79 bd 48 ff d2 bd 20 23 15 bd 00 eb 82 3d
       -0.060924113 -0.10302597 -0.03641045 0.06392479
0002c0 60 a2 50 bc 78 df ec bc 38 b1 d3 3d a0 96 34 3c
       -0.012734026 -0.028915152 0.10336536 0.01102224
0002d0 3e ec 8d 3d 6e 63 a6 bd c8 65 85 3c 70 ca 85 bc
       0.06929825 -0.081244335 0.016283885 -0.016331881
0002e0 74 c4 d7 bd 5e 3e ee 3d ae b4 8c bd ba d0 f2 3d
       -0.10535517 0.11632989 -0.068703994 0.11856218
0002f0 f8 a5 a7 3d e0 a8 4c 3c 86 eb 8d 3d 54 08 8d bd
       0.08185953 0.012491435 0.06929688 -0.06886354
000300 b4 a5 df bd ec cc c8 bd c8 68 bb 3d bc 60 46 3d
       -0.10920277 -0.09804711 0.09150845 0.048432097
000310 98 6c ab bd c2 d8 ba bd 30 f3 35 bc a0 b6 96 3b
       -0.08370322 -0.091233745 -0.011105344 0.0045994073
000320 0c 9d cd 3d 70 ef b5 bd 14 4b ef bd 3a c7 ca 3d
       0.1003972 -0.0888356 -0.11684242 0.09901281
000330 36 4a ae 3d 80 cd f2 3c 68 d9 2d 3d 20 18 0a 3d
       0.08510248 0.029639006 0.042443663 0.033714414
000340 74 1c 8f bd 70 cc 09 3c 48 ab e6 3c 14 24 09 3d
       -0.06987849 0.008410558 0.028157845 0.033481672
000350 d2 a8 d8 3d 5e 57 d8 bd 18 ec 08 bd 14 da 99 3d
       0.10579075 -0.10563539 -0.03342828 0.07512298
000360 34 58 b2 3d c0 d5 c6 3d 44 da dc bd d6 75 c1 bd
       0.0870823 0.09708738 -0.10783818 -0.094463035
000370 d8 1e 14 bd 7e ba bb 3d c4 ed dd bd d4 26 7e bd
       -0.036162227 0.0916643 -0.10836366 -0.062048748
000380 b0 04 34 3d aa 1d be 3d d4 bd e3 bd b6 b3 9c 3d
       0.043949783 0.09283002 -0.11120191 0.07651465
000390 40 96 5b bb d0 28 41 bd 44 5a 8d 3d 00 8a ad 3c
       -0.0033506304 -0.047158062 0.069019824 0.021183968
0003a0 48 00 06 3d b0 dd bf bc 68 73 8b bd dc ba 5f 3d
       0.032715112 -0.023421139 -0.06809121 0.054621562
0003b0 92 6f f6 3d 0c a9 e7 bd cc 43 0c bd a4 64 55 bd
       0.12032999 -0.1131154 -0.034244344 -0.05209793
0003c0 00 0a 91 bb da 04 92 3d d8 63 1a bd 64 53 d4 bd
       -0.004426241 0.071298316 -0.037692875 -0.10367468
0003d0 6c 01 d6 bd c6 e1 a6 bd 9e 28 eb bd c0 45 3e bd
       -0.1044949 -0.081485316 -0.114823565 -0.046453238
0003e0 00 9f 52 3c b8 31 71 bd ee 9f bb bd d8 7c e3 bd
       0.012855291 -0.058885306 -0.091613635 -0.111077964
0003f0 ce 0c 96 3d 18 bf a7 3d 74 af e7 bd 80 51 47 bb
       0.07326661 0.08190745 -0.11312762 -0.0030413568

model.1.3.bias f4 [16]
000000 3e bb 16 3d 1b c9 eb 3c 18 25 64 bd a8 81 9e 3c
       0.03679966 0.028782418 -0.055699438 0.019348934
000010 c8 bc 10 3d 93 2d da 3c 54 5d f4 bd f8 e1 c4 3c
       0.035336286 0.02663306 -0.119318634 0.024033532
000020 3c 25 d8 bd 10 40 a6 3c 48 b1 df bc d8 56 59 bd
       -0.10553977 0.02029422 -0.027306214 -0.053061336
000030 00 95 b7 bd 40 bb 49 3d 2a 4f 80 3d 2f 89 58 3c
       -0.08963966 0.04925084 0.06265099 0.013216301

model.1.6.weight f4 [32, 16, 8]
000000 f0 c4 cd 3c 75 44 d3 ba 40 b7 91 bd f2 72 9e bd
       0.025118321 -0.0016118424 -0.0711503 -0.07736768
000010 7e 31 dc bc cd 17 a9 3d 92 aa e7 bb 58 b9 81 3d
       -0.026879068 0.08256493 -0.007069894 0.0633418
000020 2d ae 57 3c 3c 05 fa 38 90 38 51 3d 6a 82 3b 3d
       0.013164085 0.00011921904 0.051079333 0.04577867
000030 a5 90 82 3d de d8 4a bd 0a 39 8a 3d df 01 1b bd
       0.06375245 -0.049523227 0.067491606 -0.03784358
000040 81 29 75 bd a7 20 f1 3a 8c 65 b1 3d 9d 93 71 3d
       -0.059854034 0.0018396572 0.08661947 0.058978666
000050 1e e2 b4 3d b6 0d 50 bc 4d 92 ae 3d 89 71 f0 3c
       0.08832191 -0.012698581 0.085239984 0.029351013
000060 b9 a0 91 bd 31 57 85 bd bd 63 45 bd de 94 a4 bb
       -0.071107335 -0.06510771 -0.04819082 -0.005022629
000070 fa 93 6d 3d 41 9d 9e bb 4c 6e 88 3d c4 37 a2 3d
       0.05800245 -0.0048405235 0.066616625 0.07920793
000080 0a 0d a6 bd 73 e0 8d bc b0 98 94 bd 30 4d 1b 3d
       -0.08107956 -0.01731894 -0.07255685 0.03791541
000090 08 94 9f 3a b8 56 03 3d 95 81 e2 3b e9 df 5b bd
       0.0012174854 0.032065123 0.00691242 -0.053680334
0000a0 78 ce ad 3c a0 a4 af bc c4 67 81 3d 6a c5 3e 3d
       0.021216616 -0.021440804 0.0631862 0.046574987
0000b0 96 80 2d 3d fc be 8b 3c f4 f2 61 3d 7a 19 e3 3b
       0.042358957 0.017058842 0.05516334 0.0069305273
0000c0 72 a0 8f bd 2d 2c 49 3d 14 23 ff bc 49 d3 54 ba
       -0.070130244 0.049114395 -0.031144656 -0.0008118642
0000d0 70 32 22 3d f4 d8 98 3d 79 e8 8b 3d 42 74 0a bc
       0.039598882 0.074632555 0.0683145 -0.00845057
0000e0 6b e9 c6 3c 52 f5 82 bc 0d b7 5d 3d e3 06 a5 3d
       0.024281224 -0.015986118 0.05412965 0.08057954
0000f0 17 99 25 3c 28 89 24 3c 35 58 ab bc 63 a7 15 bd
       0.0101073 0.010042466 -0.020916084 -0.036536586
000100 59 76 14 bd cd f1 95 3d cf 76 96 bd 6b c3 bf bb
       -0.036245678 0.073215105 -0.0734688 -0.005852153
000110 db cb 6e 3d c7 21 7a 3d e8 55 b6 bc 7d 67 98 3d
       0.05829988 0.06106737 -0.02225776 0.07441614
000120 06 40 d1 bc 62 1f eb bc 8a 9a 84 3d e2 e7 ac 3d
       -0.025543224 -0.028701488 0.064747885 0.08442666
000130 88 e5 1a 3d 08 c5 02 3d 6e c1 b4 bd 43 93 a7 bd
       0.037816554 0.031926185 -0.08825956 -0.08182385
000140 cd d5 8f bd 17 00 2c bd e4 a7 a9 3d ae 35 3c 3d
       -0.07023201 -0.041992273 0.08283976 0.04594963
000150 f3 0b 93 bd b7 90 a0 bd 23 a4 93 3d a0 1e 6c 3c
       -0.071800135 -0.07840102 0.07209041 0.014411598
000160 bc 65 74 bc a1 ba 03 3b 4b 85 fc 3b 47 c0 76 3d
       -0.0149168335 0.0020100253 0.0077063194 0.060241964
000170 ff ae 89 bd 07 de 64 3d cd e5 ae bd 34 6c 86 3d
       -0.06722831 0.055875804 -0.08539925 0.06563607
000180 84 52 cd bc c8 e9 93 bd 65 14 ae bd 10 46 83 bd
       -0.02506376 -0.072223246 -0.08499984 -0.06409848
000190 4b fa 1c 3c ca b0 ae bb bc e2 73 bd f7 29 c1 bc
       0.009581159 -0.0053311335 -0.059542403 -0.02357958
0001a0 f8 17 8a bd 0a 01 20 bd 2e e5 74 bd 86 3e fa bc
       -0.06742853 -0.03906349 -0.059788875 -0.030547392
0001b0 db de aa 3d d8 75 20 3d 28 fc 84 3d f2 6b 11 3d
       0.083432876 0.039174885 0.064934075 0.035503335
0001c0 21 4e 02 ba 10 ec 58 bd fa 13 8a bd be f9 9a bc
       -0.00049707486 -0.0529595 -0.067420915 -0.018917914
0001d0 bf 59 da 3c 95 9f d1 ba 97 ea 95 bc 6f 9f f6 bc
       0.026654122 -0.0015992994 -0.018300338 -0.03010532
0001e0 04 9f f6 3a 8c 2f d1 bb 36 bc af 3d 03 39 b1 3d
       0.0018815701 -0.006383842 0.0858082 0.08653452
0001f0 28 18 9b 3d 74 7e 6a 3c 3f 57 00 3d 31 1b 4b 3d
       0.07572967 0.014312375 0.031333204 0.04958648
000200 f6 54 80 bd 77 1f 3c 3c dd fe 1d 3d 15 ad ee 3c
       -0.06266205 0.011482111 0.038573135 0.029135266
000210 d6 86 ad 3c 6d 87 4b 3d 12 da 7d bd b4 bb b8 3b
       0.021182459 0.0496897 -0.061975546 0.0056376103
000220 12 fd ad 3d 69 fb 7c bc 82 2b b0 bd ff df 34 3d
       0.08495535 -0.0154408 -0.086020485 0.04415893
000230 d1 b1 b4 3d 43 05 99 bc 1d f1 5d bc 3f a9 a7 bc
       0.08822978 -0.018679267 -0.013546255 -0.020466445
000240 eb 03 75 bd 3d 12 d5 3c 24 dd 99 bc 50 4b 1f bd
       -0.05981819 0.026009673 -0.018782206 -0.038890183
000250 2e 60 4c 3d db dd 02 bd 1a 74 b4 3c 6b 5d 43 bd
       0.04989641 -0.03194986 0.022028018 -0.047696512
000260 1b a9 77 bd 10 27 73 bd e2 1a 90 bd 75 9b 8d bd
       -0.060464006 -0.059363425 -0.070363775 -0.06914417
000270 74 a9 9a bd 2c 66 cf 3a 37 9c 22 3c e7 ec 0b bd
       -0.07551852 0.0015823296 0.00992494 -0.034161475
000280 94 22 29 bd 17 58 a6 3a 07 15 90 bd 06 5e 8c 3d
       -0.041292742 0.0012691048 -0.07035261 0.06853871
000290 49 c2 62 bd 61 d9 85 3d 56 5f 85 3d ee 27 00 3d
       -0.055361066 0.06535602 0.065123245 0.03128808
0002a0 8e 23 8c 3d 84 78 a0 3d 08 52 ad bd 20 86 76 3d
       0.06842719 0.078354865 -0.08462912 0.060186505
0002b0 f1 53 78 bc 96 3e 06 3d b3 5d 18 3d 41 e1 58 bd
       -0.015156732 0.03277453 0.037198734 -0.052949194
0002c0 56 28 05 bc 74 7e 95 bd 37 59 1c 3d 05 a2 0e bc
       -0.008127293 -0.0729951 0.03817102 -0.008705621
0002d0 0f 32 80 bd 19 9e f5 3c c8 02 57 bd bc 75 a1 3d
       -0.06259548 0.029982613 -0.052492887 0.07883784
0002e0 25 01 12 bd 1e 3a e8 bc 28 85 9b 3d a1 9b 28 3d
       -0.035645623 -0.028348025 0.07593757 0.041164044
0002f0 b8 a7 78 3d b3 8c ed bb dd 35 8b 3c 46 e1 a4 3d
       0.060706824 -0.0072494387 0.016993457 0.0805078
000300 13 1b 27 bd 9d 06 4b bd 4f 79 80 bd 80 0f 37 bc
       -0.040797304 -0.049566854 -0.06273138 -0.011173129
000310 28 d2 50 bd eb c3 1d bd 8d 72 59 bd ba 60 99 3d
       -0.05098167 -0.03851692 -0.05308776 0.07489152
000320 eb 9f 13 bd 31 4b 64 3d f3 4c 6c bd 1f 00 57 bd
       -0.03604118 0.05573577 -0.057690572 -0.05249035
000330 1f b4 ac 3d de ca ba bc 91 ae 1e 3d 31 77 f4 bc
       0.08432793 -0.022801813 0.0387407 -0.029841991
000340 b7 db fc 3c 95 7d 1f 3b 66 86 56 bd 33 13 c2 3c
       0.030866487 0.0024336327 -0.052374266 0.023690796
000350 1b 61 33 3b 8c 88 81 3d 61 05 af 3d b7 06 97 bd
       0.0027371112 0.063248724 0.08545948 -0.07374328
000360 54 2e 06 3d c1 86 34 3d 3b 1d d7 bc e8 53 ae bd
       0.032759026 0.044073824 -0.026259055 -0.085120976
000370 ef 70 8e 3d 68 87 94 bc d1 9e 4f bd e2 6c 4a bd
       0.06955134 -0.018130973 -0.05068857 -0.049420245
000380 7d f7 f4 bc e3 80 30 bd f9 17 64 bd 1b c7 31 3d
       -0.029903168 -0.043091666 -0.055686925 0.043402772
000390 77 b3 54 bd b1 fa c6 3c 2d 59 1d 3d d0 5d 9c bd
       -0.051928964 0.02428946 0.038415123 -0.07635081
0003a0 63 af 4e bb 77 69 7d bc 63 c5 62 3d 4f f3 44 3d
       -0.0031537644 -0.015467039 0.055364024 0.0480836
0003b0 04 af 68 3d f4 22 a9 3d 7b 53 ad bc 58 13 20 bd
       0.056807533 0.0825862 -0.02115797 -0.039080948
0003c0 4f a9 71 3d 8f 89 52 bd 9a e7 4f 3d 63 f8 db 3c
       0.058999356 -0.051400717 0.05075798 0.026851838
0003d0 ee 17 38 3d 11 8b 11 3d e0 27 6e 39 0a d1 b2 bc
       0.044944696 0.035533015 0.00022712303 -0.021828193
0003e0 15 91 b4 3c 6a ca 8f bd 6e 4d 8b 3d 90 00 ba 3c
       0.022041837 -0.07021029 0.06801878 0.022705346
0003f0 88 cc af 3d ec e1 5e 3d e4 8b ff 3c 38 76 aa bd
       0.08583933 0.054414675 0.031194635 -0.0832333

model.1.6.bias f4 [32]
000000 ae 90 98 3b 87 84 8b bc 89 02 d4 3c 8f 12 01 3d
       0.004655919 -0.017030967 0.025880115 0.03151184
000010 06 60 7b 3b 67 e2 18 bd 2f da 96 bd fa 83 04 3d
       0.0038356795 -0.03732529 -0.07365834 0.032352425
000020 fe 29 01 3c 94 c0 85 3d 1d d2 b8 bb 46 ed 7c 3d
       0.007883547 0.06530872 -0.005640282 0.06174972
000030 a5 a1 38 bd ff 06 2a bd bd 42 e2 bb e5 6b a2 bd
       -0.04507603 -0.04151058 -0.0069049285 -0.079307355
000040 38 47 11 3a 7a eb ad bd 47 e9 8b bc 4d 34 82 3d
       0.00055419235 -0.08492179 -0.017079009 0.06357632
000050 8d 07 a4 bd c9 b2 2c 3d dc a4 c7 bc 10 35 1c bd
       -0.08009253 0.04216269 -0.024370603 -0.03813654
000060 13 24 63 bd 54 9e 49 3d 3c 88 b4 bd 25 6c 85 bd
       -0.055454325 0.04922326 -0.08815047 -0.065147676
000070 a2 60 49 3d af 26 4e bd 96 cd f9 3b 20 0b 44 bd
       0.04916442 -0.05032986 0.0076233847 -0.047862172

model.2.0.weight f4 [8, 1, 8]
000000 52 24 4b 3e 09 49 b3 bd 24 5f 2c 3e 4f c1 82 be
       0.19838074 -0.08754165 0.16833168 -0.25538108
000010 e7 4a 9e be 9a 89 99 be 6e 0f 46 3e 7c 41 47 3e
       -0.3091652 -0.29987794 0.19341823 0.19458574
000020 d6 d1 ab bc 35 62 68 be d3 f1 04 be 77 ed 43 3e
       -0.020974081 -0.22693713 -0.12982874 0.19133554
000030 f4 2a b9 3d c2 52 6a bd a8 f9 23 be e9 ad 46 3e
       0.09041396 -0.05720783 -0.16013205 0.19402279
000040 fe bb 13 be 21 d2 3e 3e 52 43 9a be f0 07 8d 3e
       -0.14427182 0.18634845 -0.30129486 0.27545118
000050 78 ee 7d be 86 f0 2d 3e 65 4c 34 3c 2a e6 8b 3c
       -0.24798 0.16986284 0.011004542 0.017077524
000060 76 c2 86 be 56 e7 17 be b2 71 df bd 2e c3 30 be
       -0.26320237 -0.14834341 -0.109103575 -0.17261955
000070 fb 71 94 be 2f 62 a9 be 2d 73 e1 3d b7 ae b5 bd
       -0.2899321 -0.3308272 0.11008296 -0.08871215
000080 42 89 54 3e e2 e5 03 be be eb 91 3c 16 30 9b bc
       0.20755485 -0.12880662 0.017812606 -0.018943828
000090 c4 c0 2a bd f1 f3 26 3e dc 04 9b 3e 60 dc 70 be
       -0.041687742 0.16303994 0.30277145 -0.23521566
0000a0 b9 99 0e be e3 4c d9 bd c4 56 43 be 59 c3 9a be
       -0.13925828 -0.10610368 -0.19076067 -0.30227163
0000b0 10 da 8b 3e 9c 75 2d be b1 2a b0 3e f3 13 98 3e
       0.27314806 -0.16939396 0.3440757 0.2970272
0000c0 55 66 50 3e b1 db 02 3e 19 63 58 3c 4d 10 8c 3e
       0.20351537 0.12779118 0.0132072205 0.27356187
0000d0 fd 81 a6 3d 67 53 7f bd 7d 87 cc 3b fb e5 0e be
       0.08130262 -0.062335398 0.0062417374 -0.13954918
0000e0 98 d1 0e be d9 e3 ef bd 35 9a f4 bd 1b 1b ca bd
       -0.13947141 -0.1171338 -0.11943475 -0.09868451
0000f0 36 de 9b 3a 8e a6 5c 3e 00 e4 36 bd 4c eb 7e be
       0.0011891786 0.2154791 -0.04465103 -0.24894446

model.2.0.bias f4 [8]
000000 98 b2 6a 3e dd 66 8c 3e c2 65 8f bd 61 85 ac 3e
       0.2291969 0.27422228 -0.07001831 0.3369551
000010 08 97 46 be 98 10 7d be 58 ab 6f bd d0 84 a9 3e
       -0.19393551 -0.24713361 -0.058513016 0.3310914

model.2.3.weight f4 [16, 8, 8]
000000 af 24 a5 bb c1 d9 11 3d ee c0 c8 3c 70 78 ce 3d
       -0.0050397734 0.035608057 0.024506059 0.100815654
000010 dd 20 38 3d 90 ba fa bd 8c c7 c0 bd 96 5b f1 bd
       0.044953216 -0.12242615 -0.094130605 -0.11785047
000020 eb 65 cb 3d 22 80 98 3c 47 99 62 3c 88 60 17 39
       0.09931549 0.018615786 0.0138304895 0.00014436443
000030 b2 81 bf 3c c8 e7 7a 3c cb 18 d4 3d df b2 13 bd
       0.023377273 0.01531405 0.103562914 -0.036059257
000040 5c f6 3d bd 18 bf c4 3d 10 13 69 3d 8c 0c 18 3d
       -0.046377525 0.09606761 0.056902945 0.03712134
000050 2c b1 63 bd 48 a8 f8 bc 26 6d a1 3d 96 2f 88 bd
       -0.055588886 -0.03035368 0.078821465 -0.06649701
000060 b8 f3 d7 bd 43 1a 7f bd 25 ee f5 3d 5d 0f 63 bd
       -0.105445325 -0.062280905 0.12008313 -0.055434573
000070 2d 1a ad 3d 55 3f a1 bd 80 d3 76 3d 4d 08 cd bd
       0.08452258 -0.07873408 0.060260296 -0.10011349
000080 56 c0 c2 3d 90 f2 cb 3d 90 d3 eb 3d 3c 69 87 bd
       0.095093414 0.099583745 0.11514962 -0.06611869
000090 a0 2d 3c 3d 70 c7 fe 3c 14 33 fe 3d 50 fb 52 bd
       0.04594195 0.031100959 0.12412086 -0.0515092
0000a0 de 28 a7 3d 40 43 43 bd e8 d8 a2 bc 1c 8d 83 3d
       0.08162092 -0.047671556 -0.01987882 0.06423399
0000b0 cc 53 67 bd 5a 05 e0 bd 18 2c ff 3d 00 64 d1 3b
       -0.0564764 -0.10938521 0.12459582 0.0063900948
0000c0 38 68 b6 bd 3a 3a cc 3d b4 de 5f 3d 22 44 89 3d
       -0.08906597 0.09972043 0.054655746 0.067024484
0000d0 ec c7 20 3d 50 c4 09 3d 2c 69 73 bd 40 f4 37 bd
       0.03925316 0.033634484 -0.05942647 -0.04491067
0000e0 44 35 9a 3b bf 8e 97 3d 3c ad 56 bd 4d bb 71 bd
       0.004706057 0.074002735 -0.052411303 -0.059016515
0000f0 cf 59 f8 bd 63 98 a6 bc 9e 44 23 3d 86 37 98 bd
       -0.12126505 -0.020336336 0.03986036 -0.07432465
000100 d9 95 15 3d ee cd 1a bd fc 2c 93 bd b9 63 63 bd
       0.03651986 -0.037794046 -0.071863145 -0.055515025
000110 35 58 af 3d f5 f0 d6 bc 40 3b 0b 3c 4a 47 10 3d
       0.08561746 -0.026237944 0.008498013 0.035224237
000120 39 13 37 3d e3 1b ee 3d 8d 86 d5 3d 49 dd 45 bd
       0.044696067 0.11626413 0.10426054 -0.048306737
000130 47 e1 51 3d 9c 06 bf 3d 8f 08 d9 3d ad 92 ca bd
       0.05124023 0.093274325 0.105973355 -0.098912574
000140 80 5f 95 3b 4e fb fe bd d2 e2 cb bd 06 f1 e4 bd
       0.0045585036 -0.12450276 -0.09955372 -0.11178784
000150 10 bb a3 bc b4 0d 9c bd 78 60 d3 3d 90 42 7b bd
       -0.01998666 -0.07619801 0.10321134 -0.061342776
000160 b5 cb 39 3d 95 a3 54 3d b5 2a 92 39 cd 52 9d 3d
       0.045360286 0.051913816 0.0002787911 0.076818086
000170 e9 cb 86 3d 79 78 05 3d c9 b7 b2 3d 0c ce ad bd
       0.065818615 0.032585595 0.087264605 -0.08486566
000180 28 b8 06 3d ec bd 16 3d aa 6e ed 3d 10 2d 68 3c
       0.03289047 0.036802217 0.11593373 0.0141709
000190 30 d1 42 3c 18 50 fc 3d f4 89 90 3d 8c 65 3a bd
       0.0118906945 0.12319964 0.070575625 -0.045507
0001a0 de 4a fd 3d 70 1a 79 3c 88 de e8 3c ac ee 58 bd
       0.123677954 0.015204057 0.028426424 -0.05296199
0001b0 9c 99 7a bd a2 3c ec bd 60 b9 ac bb 26 02 d5 bd
       -0.06118165 -0.11535002 -0.005271122 -0.104008004
0001c0 82 82 cf 3d ac f5 6c 3d 5c 66 20 3d 90 e5 7a bc
       0.10132314 0.05785148 0.039160118 -0.015313521
0001d0 3c 86 cb 3d be 98 b4 3d 46 f1 e6 3d 3e 10 80 3d
       0.099377126 0.08818196 0.11276488 0.06253098
0001e0 24 d0 30 bd c8 10 e6 ba 23 77 9f bc f4 99 c2 3d
       -0.04316725 -0.0017552609 -0.019465989 0.095020205
0001f0 fe cb 8a 3d 31 4d d0 bc 59 23 9e 3d 63 58 92 bd
       0.0677719 -0.025427433 0.07721586 -0.07145765
000200 d8 97 cb bd c8 b0 8b bc 40 74 ed 3b b2 51 b2 bd
       -0.09941071 -0.01705207 0.007246524 -0.087069884
000210 c4 c5 64 3d 5e 1f c1 bd 8c 85 a2 3d 74 bc 5d bd
       0.055852666 -0.09429811 0.07935628 -0.0541348
000220 32 dc e0 bd c8 d9 29 bd 06 0f ee bd 80 e2 38 3b
       -0.10979499 -0.041467458 -0.11623959 0.0028211176
000230 da ba f9 3d 00 8d de 3a 66 8e 83 bd 18 20 c5 bd
       0.12193842 0.0016979277 -0.06423645 -0.09625262
000240 18 3d 1b bd 1c 4e 84 bd 26 b1 cb bd be 57 db 3d
       -0.03790006 -0.06460211 -0.09945898 0.10710095
000250 78 18 b5 3d b0 1f 65 bc 00 55 80 bb 20 59 d5 3c
       0.08842558 -0.013984606 -0.003916383 0.026043475
000260 1c 7f c8 3d ac 70 f8 bd 80 91 06 3d e8 bf ff bc
       0.09789869 -0.121308655 0.032853603 -0.031219438
000270 c0 94 bb 3d 5a 73 c5 bd 0c d6 37 3d 5c 5c c2 bd
       0.09159231 -0.09641142 0.044881865 -0.094902724
000280 18 b1 c6 3c 04 52 80 3d cc de 57 3d 3c 91 66 bd
       0.024254367 0.06265643 0.05270271 -0.05629085
000290 80 ed b6 3c ce c3 89 3d fc 82 53 3d d4 48 a1 bd
       0.022330046 0.067268 0.05163859 -0.07875219
0002a0 00 65 d5 ba da 3b bd bd 60 e8 c0 bc 96 d4 a4 bd
       -0.0016280711 -0.092399314 -0.023548305 -0.0804836
0002b0 f8 6a b6 3c 9a 03 a3 3d 50 15 27 3d 48 70 90 bc
       0.022267804 0.07959671 0.04079181 -0.017631665
0002c0 60 73 28 3c fa 81 b6 3d be b2 d1 3d a0 ff 8b 3d
       0.010281414 0.0891151 0.102391705 0.06835866
0002d0 a2 5e f9 bd 68 fb ec 3d 94 d8 3d 3d 86 76 dc 3d
       -0.12176253 0.115713894 0.046349123 0.10764794
0002e0 e4 19 e4 bd 68 f3 6e 3d 00 80 98 36 7c cb b5 3d
       -0.11137751 0.0583376 4.544854e-06 0.08876702
0002f0 b6 0e 8f bd 54 64 4f 3d 60 34 52 3d 00 87 d1 ba
       -0.06985228 0.05063279 0.05131948 -0.0015985668
000300 ee f7 ee bd 0c 2b 4e bd b8 c3 cc 3c 00 98 f6 38
       -0.116683826 -0.05033402 0.02499567 0.00011758506
000310 b0 d4 61 bd ea d5 e1 bd 38 3e 14 bd 48 2c 88 bd
       -0.055134475 -0.11027129 -0.03619215 -0.06649071
000320 1a 05 b3 bd 60 17 1d 3d 40 e8 e0 3d cc 54 9c 3d
       -0.087412074 0.03835237 0.10981798 0.07633361
000330 98 8d 8a 3d 98 76 12 bd fe 7f 94 3d a4 49 ab 3d
       0.06765288 -0.03575763 0.07250975 0.08363655
000340 80 a0 83 3a ac dd e1 bd c0 a0 dc 3b 50 49 36 3d
       0.001004234 -0.11028609 0.00673303 0.04450351
000350 c0 28 64 3b c8 51 fd bc 36 fa 8a bd 7e f6 96 bd
       0.0034814328 -0.030922785 -0.06786005 -0.073712334
000360 4c a8 26 3d ec 68 82 3d 90 09 55 bd 48 25 ed 3d
       0.040687844 0.063676685 -0.052011073 0.115793765
000370 3c 86 3b bd fc e9 97 3d 74 94 58 3d 38 41 36 bd
       -0.045782313 0.07417676 0.05287595 -0.04449579
000380 f6 cd 85 bd 74 23 08 bd a8 9e 91 bc 68 97 a9 3d
       -0.065334246 -0.033236936 -0.017775849 0.082808316
000390 06 be 99 bd 5c 4d 11 3d 80 0d fc 3a c8 ab ff bd
       -0.07506947 0.035474166 0.0019230098 -0.124839365
0003a0 ec 09 20 3d 82 ed e2 bd f6 33 e2 bd 1c 20 c9 bd
       0.039071962 -0.11080457 -0.11045067 -0.098205775
0003b0 22 9f a0 3d 20 a9 08 3d f0 33 ba 3c 7c ca c6 3d
       0.07842852 0.033364415 0.022729844 0.097065896
0003c0 28 51 ec 3c 68 d2 ae 3c d8 b6 d9 bc da 8d f6 bd
       0.028847292 0.021340564 -0.026576445 -0.12038775
0003d0 80 de 83 3c 24 c8 14 3d 4e a2 fe bd 1c dd 86 3d
       0.016097307 0.03632368 -0.12433301 0.06585142
0003e0 9a a8 fd bd 44 f9 d4 bd c0 ce 48 bc 00 40 df 37
       -0.12385674 -0.10399106 -0.012256324 2.6613474e-05
0003f0 00 0f 54 3a 66 dd ab bd fc dd e0 3d 78 1d 22 bd
       0.00080893934 -0.08391838 0.1097984 -0.039578885

model.2.3.bias f4 [16]
000000 73 8b d0 3d 49 1e e2 3d 30 a4 ea 3c 40 80 a6 3b
       0.10182848 0.11040933 0.028642744 0.0050812066
000010 9e d9 c4 bd 8a b8 c4 bd 9c d3 50 bd 42 ea b9 3d
       -0.0961182 -0.096055105 -0.050983056 0.09077884
000020 0b 56 c5 3d 70 52 3c bd 6e 8d a4 3d 9a c7 b0 bd
       0.09635552 -0.045977056 0.08034788 -0.08631821
000030 30 93 27 3d 68 36 33 bd 20 16 67 bd de 16 ba bd
       0.040911853 -0.043753058 -0.056417584 -0.09086393
