checkpoints_avg_on_outputs/run_1/1d_cnn_ckpt_7.pth (torch, 249416 bytes, 8 tensors)

model_m.0.weight f4 [8, 8, 8]
00000000: 03f6 863d 39af 8a3c cd02 08bd 208b c73d
00000010: 59cd cc3d 6433 10bc 0868 043d 2427 4a3d
00000020: 7cfb a73d e2a1 c63c 774e a33d 2370 d53d
00000030: 52fb 423d 9de5 7abc 6861 83bb c1a8 bd3c
00000040: c139 2f3d 9f2f a8bd a263 d2bc ad64 2f3c
00000050: f97c d9bd 7436 af3d f683 fcbd 88f6 783d
00000060: f614 a3bc 85d1 283c 3b99 9e3d 4eb6 d23c
00000070: 8f56 f0bd 974a c9bd da11 2dbd 5e19 c4bb
00000080: 98ea 8f3d edee c13d df51 c03d d848 fe3d
00000090: e585 4c3c 4a82 62bc 8b85 e3bd ef0e 913c
000000a0: 0901 93bd 972e a9bd c129 9ebd b580 f8bd
000000b0: 9da4 a6bc df20 b5bd d905 9abd 3e16 16bc
000000c0: fdec ebbd b225 b73d 431b 8b3d 2f56 f73d
000000d0: 0de7 f83b 6266 ab3d 886d 123d 4209 8d3d
000000e0: c1ba 383d 59f0 f53d 0b42 de3a 0ba2 fabd
000000f0: 78a5 01bc 4d02 3f3d 1707 b3bd 0b0f a63d
00000100: e4a8 01bd 34ba dd3d 88e5 de3c 34e9 44bd
00000110: 1093 78bd 80e7 18bb f8b6 5bbd f8a7 9a3d
00000120: b467 383d 346b c03d b43c 333d 905c 0fbc
00000130: d0be 25bd 00f0 03b9 92ae 863d b853 41bd
00000140: 0a3c d9bd 6834 c6bd c08b b93d 7cc6 45bd
00000150: 207b c8bc f82e fbbc 7833 41bd 0619 c1bd
00000160: 9c92 96bd 48e6 fe3d 0208 c6bd c615 f7bd
00000170: 0c00 813d 7835 9b3c a8c3 e73c 9e3d 883d
00000180: aa49 fdbd 12d2 a93d 744a 7f3d 3c6b 85bd
00000190: 3486 8e3d 0282 c3bd 5e36 83bd 30bb c23d
000001a0: ee1a dbbd f0af f4bc d45b 68bd f812 9e3d
000001b0: 5a7c cc3d 68be a0bd 84d8 5f3d bad5 903d
000001c0: 8018 f53a 9499 75bd 2c9f 03bd 44e7 f9bd
000001d0: c09b f0bd be3e f33d 00cb 123d 4cbe 223d
000001e0: a441 223d 48b3 973d 28d9 393d 40e8 b4bc
000001f0: c0fe 203d c64a 8cbd 9649 d73d 8055 b43a
00000200: 1028 1fbd 50db 8e3c 8e5e c13d 8035 1f3d
00000210: 2cd0 203d 80a9 2bbc 44bd 343d dcf5 2ebd
00000220: 3086 d8bc 90a4 22bd e07e bc3c 3c61 ecbd
00000230: 40b5 e83d e007 693c 9ede a8bd 7cc0 3e3d
00000240: 9ce0 4bbd 5270 9f3d 7ac1 f3bd b05e 39bc
00000250: 00d6 d6bb a8f1 d4bd 40b9 5ebc 527f 93bd
00000260: 5892 22bd 0c9c 1f3d d895 8f3c 7432 813d
00000270: 703a b3bc 8c1b b83d 98f9 673d a0ed 1abc
00000280: b8fb 343d 2896 9a3d 126e 92bd 642c 133d
00000290: bc3f 833d 00a0 ed3c 364c 94bd ecd2 8bbd
000002a0: 22d9 82bd bc1b 6dbd 86ea e8bd 202b aa3c
000002b0: a03a ffbb 5880 bc3d ec49 f3bd 900a 99bc
000002c0: 10c0 5e3d 4a5b 823d 5409 35bd d0d8 303c
000002d0: 409e 29bd ee3a bcbd 104a c3bc d0be 8ebd
000002e0: 1250 fabd 5c7e 74bd d03b bcbd 6840 773d
000002f0: 5858 56bd 9c99 e63d 3032 db3d 3062 dbbd
00000300: 4a5b da3d 40ed 35bb 4a95 833d a88b f0bc
00000310: 3868 27bd 667a e1bd d02f 63bc e094 d0bb
00000320: 349e 98bd e06c 9fbc 64bc 2ebd 107e 23bc
00000330: f0d9 fcbc 8214 ad3d bc60 0ebd f804 a63c
00000340: 0033 9f3b a040 663c 285e 05bd a81e ad3c
00000350: 187b 4cbd 16b8 c93d dc8f 70bd e873 aabc
00000360: e0a7 f5bc 2633 cd3d c005 3f3d 84a2 43bd
00000370: 9869 833d 00d9 e83a 8026 fbba 4234 b8bd
00000380: a896 313d 4ad8 a2bd ac6c 21bd 0888 bd3c
00000390: 60b7 d13b d43f febd 3e29 b1bd 580f f3bc
000003a0: 34e5 4dbd 706a 97bd 8c68 e0bd d8c7 1fbd
000003b0: 8079 dcba c2bc bb3d c0c0 6c3c 9048 87bd
000003c0: 90a5 fc3d 8ec7 e9bd 34ab 21bd 8c04 523d
000003d0: 908a fbbc 883f 973c 3045 1ebc 30f3 60bd
000003e0: a8c9 0fbd ca81 9ebd bc1e 273d f0c1 2d3d
000003f0: 7805 bf3d 483c 5b3d 2abb d9bd fc03 6e3d
0.06589892 0.016929256 -0.033205796 0.09743333 0.100001045 -0.008801315 0.032325774 0.049353734
0.08202264 0.024247114 0.0797395 0.10421779 0.04760296 -0.015313533 -0.0040094145 0.023151757
0.042779688 -0.08212208 -0.025682274 0.010705155 -0.1061954 0.08555308 -0.12329857 0.060781986
-0.019907456 0.01030386 0.0774407 0.025721695 -0.1173526 -0.0982868 -0.042253353 -0.0059844693
0.07027167 0.094693996 0.09390616 0.124162376 0.012483095 -0.013825009 -0.11109456 0.017707316
-0.07177932 -0.082608394 -0.07722808 -0.12133924 -0.020342166 -0.0884416 -0.075206466 -0.009160576
-0.11519811 0.08942737 0.06792309 0.12076985 0.007595903 0.08369137 0.03574899 0.068865314
0.045099977 0.12008733 0.0016956938 -0.122379385 -0.007912986 0.046633054 -0.08741587 0.08108338
-0.031655207 0.10826531 0.027209058 -0.048073962 -0.060687125 -0.0023331344 -0.05364129 0.07551569
0.045020774 0.093954474 0.043759063 -0.008750096 -0.040465176 -0.0001258254 0.065762654 -0.04719898
-0.10607155 -0.096779644 0.09059858 -0.048284993 -0.024472773 -0.030662045 -0.047168225 -0.09428601
-0.07352182 0.124462664 -0.09669496 -0.120647 0.06298837 0.018946394 0.028291538 0.066523775
-0.12367566 0.08292021 0.062326863 -0.06514594 0.06959191 -0.095462814 -0.06406854 0.095083594
-0.10698496 -0.02986905 -0.0567282 0.07718462 0.09984656 -0.07848817 0.054649845 0.07072015
0.0018699318 -0.059960917 -0.03213422 -0.122023135 -0.11748457 0.118772015 0.035838127 0.039732262
0.03961338 0.07407242 0.045373112 -0.022083402 0.03930545 -0.068501994 0.10512082 0.0013758391
-0.038856566 0.01743856 0.09441863 0.03886938 0.03926103 -0.010477424 0.04412581 -0.04271494
-0.026431173 -0.03970772 0.023009717 -0.115419835 0.11362696 0.014223069 -0.08245586 0.046570286
-0.04977475 0.07785095 -0.11902137 -0.011314079 -0.0065562725 -0.10397655 -0.013593972 -0.07202019
-0.039690346 0.038967177 0.017527506 0.06308451 -0.021878451 0.08989629 0.056634516 -0.009456068
0.04418537 0.07548171 -0.071499005 0.035931006 0.06408641 0.029006958 -0.072410986 -0.068273395
-0.06389071 -0.057887778 -0.11372857 0.020772517 -0.007788971 0.09204167 -0.11879334 -0.018681794
0.054382384 0.06365068 -0.04419835 0.01079388 -0.041410685 -0.091909274 -0.023839027 -0.06969988
-0.122223035 -0.05969082 -0.09191096 0.060364157 -0.052330345 0.112597674 0.10702932 -0.10712087
0.10661943 -0.002775982 0.06424959 -0.029363468 -0.040870875 -0.11009674 -0.01386638 -0.0063654035
-0.0745205 -0.019461095 -0.042660132 -0.009978786 -0.03086564 0.08451177 -0.03476022 0.020266041
0.0048583746 0.014053494 -0.032560498 0.021132782 -0.04992208 0.09849565 -0.058730945 -0.020807222
-0.029987276 0.100195214 0.046636343 -0.04776241 0.06416625 0.0017764866 -0.0019161254 -0.089943424
0.043356568 -0.0795141 -0.03941028 0.023136154 0.006400034 -0.12414518 -0.086504444 -0.029670402
-0.050267413 -0.07393348 -0.10957441 -0.039008945 -0.0016820878 0.09166862 0.014450252 -0.06605637
0.12336266 -0.11415015 -0.039469913 0.051273867 -0.03070572 0.018462911 -0.00966005 -0.05491942
-0.035104424 -0.07739599 0.040800795 0.04242128 0.09327215 0.053524286 -0.10631402 0.05810927

model_m.0.bias f4 [8]
00000000: ae68 6c3d 8048 ffbc 9055 5ebd 84a7 70bd
00000010: f0f0 49bd 5833 42bd 6556 253d 1c46 f23d
0.057717018 -0.0311625 -0.054280818 -0.058753505 -0.04930204 -0.047412246 0.040365595 0.118297786

model_m.3.weight f4 [16, 8, 8]
00000000: e0a3 703d 17f8 883d e8cb 083c 8002 b73d
00000010: 70d9 1dbd d9c8 f23d 0120 403d 4c1b 9c3d
00000020: 84eb 6c3d c48b 70bd f0cf 20bd ccbc 273d
00000030: 809a 913d 003c 80bd 8c8d 183d c013 a33b
00000040: 9aea a43d da57 97bd 4cb2 b53d 8890 913c
00000050: c010 af3d 143e 463d 807a fd3a 9c5b 89bd
00000060: 2644 91bd f055 ddbd 3874 5abd 705d c33d
00000070: ccf6 50bd 963b a6bd 40bc 9a3b c891 873c
00000080: 504a 57bd b2cd f5bd 6e66 b6bd b4c1 c2bd
00000090: b0cf a9bc 965f b23d 8006 c33b d28c b13d
000000a0: 104e 6fbd 5217 953d b8f7 093d 301b 743d
000000b0: d4dd 5c3d 4c81 79bd 72dc a73d 7863 a73d
000000c0: fba5 9f3d d716 d6bd ad6c 13bc 4630 45bc
000000d0: 72a4 c43d df9d 863d 51a0 f83d 9d50 bd3d
000000e0: 7a21 ea3d 7dd7 c23c 5659 c8bd b466 b13d
000000f0: 9166 b43b ce22 6dbd 1ed6 f5bd e28c 2e3d
00000100: f427 87bd 00d8 16bb 00ea ef3c 2065 9d3b
00000110: b2af a73d a812 b13c d863 7f3d d4b4 983d
00000120: 00ac 623d 409e 243b 687c d7bc e428 c13d
00000130: 68b7 c0bc 5c9a 113d 1046 1dbc 988c e4bc
00000140: c04a 5f3c 3ec0 cfbd 366d b43d 6c94 25bd
00000150: c033 03bc 80dd ec3a 4cc9 9abd 98cc 93bd
00000160: 8084 67bc f6f5 bfbd 3020 533c d031 e63d
00000170: 7889 883c d095 c8bd d4af f13d 881c 6abd
00000180: c07f 89bd 98b5 853d de79 d33d 8e56 973d
00000190: 8032 98bb fa8a d3bd ee3a fcbd b8fb 20bd
000001a0: a865 acbd b029 91bd dc13 dbbd 505c 353d
000001b0: a083 9d3b d450 e23d fa0b d53d e412 cebd
000001c0: 1859 5ebd 18c9 f5bd d054 19bc e0bd 863c
000001d0: 084a f03d c0dd 85bb 4070 ebbc 607b 923c
000001e0: 808c ef3c 8233 8fbd 74aa 693d e220 94bd
000001f0: d413 21bd 3024 44bd 0490 6d3d 9ca5 10bd
00000200: 91ce 89bd 09fb fcbd e73d c13d fb38 923d
00000210: bd3c 943d 1f02 1d3d 9633 e4bb ca69 61bd
00000220: 3016 3dbc 780c 653d a6ac fe3d f8d0 9e3d
00000230: a0fd 1bbd ba67 f0bd d829 943d f2bf f43d
00000240: c80f a9bd 863d cdbd d8d1 8f3c d2e0 f6bd
00000250: 96f4 87bd c4df dcbd 94bc 38bd 305b 09bc
00000260: daf2 eabd b495 a83d f807 30bd 9260 9dbd
00000270: 3885 ea3c 2691 aabd b0d9 8d3c 1e2c f13d
00000280: d0d6 dfbd 4c75 efbd 6870 9b3c daef 81bd
00000290: 9c5f 57bd 80b7 3f3d d433 223d d815 7d3d
000002a0: d05f e03d bcdb 313d 2009 86bc 1872 c83d
000002b0: 900e 04bd ae72 a1bd 6043 f6bc 5037 09bd
000002c0: 42aa b43d fb11 ed3d 300e b03d cb55 6b3d
000002d0: b682 913c 8241 eabd 4c69 82bd ecad ab3c
000002e0: 62a9 5bbd 57ab e03d 04fb 813d 7935 a13d
000002f0: c86c ccbd ab2a 9b3d e9bf d43d b9ab b93d
00000300: 6f34 71bd d92a b9bd 72ae a8bd 3e34 ad3d
00000310: 74b5 eabd 2130 383d bd5f 90bd f6ce ad3d
00000320: 36a6 813d 0a02 ec3d 72f2 9ebd 48c8 bfbc
00000330: 54ba fb3d a07b 36bd 184e 903d 3008 2b3c
00000340: c0c2 09bc 04d8 9a3d 1613 8a3d fed6 893d
00000350: 9cb3 fabd b8a5 d6bd 0612 d6bd c0be 4f3c
00000360: d034 69bd c06f ad3c 3698 a1bd 080b eabd
00000370: f414 453d e075 d03c a8c6 dc3c 8424 ec3d
00000380: 0a34 bb3d fc7a 66bd 5272 c0bd f4e4 e8bd
00000390: a81b 2c3d 42ed dd3d 8ca1 4fbd 589f b9bd
000003a0: 4898 0bbd 46f5 85bd a0c4 5e3c f847 35bd
000003b0: 60bf f3bc 000d 46ba 9c2a d6bd 7209 dabd
000003c0: 6c90 183d 7b94 f1bc b1c1 313d eddb 423d
000003d0: 33e0 a0bc 05ca 8dbd 80c1 42bd 8bf1 d6bd
000003e0: b81d 603d a053 ca3d da4a 253d 39f4 6bbd
000003f0: 553f d8bd a316 a33d 681c fdbd 7ac5 c1bd
0.058750033 0.066879444 0.008349396 0.08936024 -0.038537443 0.11854715 0.04690552 0.07622394
0.057841793 -0.05872704 -0.039260805 0.040951535 0.07109547 -0.06261444 0.037244365 0.0049767196
0.08052559 -0.07389803 0.08871898 0.017769113 0.08548117 0.048399046 0.0019338876 -0.06706926
-0.070930764 -0.10807407 -0.05333349 0.09539306 -0.051016614 -0.08116834 0.004722148 0.016549006
-0.052561104 -0.12002124 -0.08906256 -0.09509602 -0.020728916 0.08709638 0.0059517026 0.086694375
-0.058424056 0.072798386 0.03368351 0.05959624 0.05392249 -0.060914323 0.081963435 0.08173269
0.0779533 -0.10453575 -0.008998078 -0.012035435 0.09601678 0.0657308 0.12139953 0.092438914
0.114321664 0.023784393 -0.097826645 0.08662167 0.005505391 -0.05789452 -0.1200373 0.042614825
-0.06599417 -0.002301693 0.029286385 0.004803315 0.08187808 0.021615341 0.062351078 0.07456365
0.055339813 0.0025118738 -0.026304439 0.094316274 -0.023524955 0.0355476 -0.009599224 -0.027899072
0.013628662 -0.10144089 0.08809893 -0.04042475 -0.008007944 0.0018071383 -0.075579256 -0.072167575
-0.014130712 -0.09373085 0.012886092 0.1123997 0.016667113 -0.097941995 0.11801115 -0.057156116
-0.067138195 0.06528777 0.10325979 0.07389556 -0.004644692 -0.10329242 -0.123159274 -0.039302558
-0.08417827 -0.070880294 -0.10697147 0.04427749 0.0048069507 0.11050573 0.10402675 -0.10062197
-0.054284185 -0.12001246 -0.0093586 0.016447961 0.1173287 -0.0040852726 -0.028740048 0.017881095
0.0292418 -0.06992246 0.057047322 -0.072328344 -0.03932555 -0.047886074 0.057998672 -0.035314187
-0.067288525 -0.12352569 0.09435635 0.071397744 0.072381474 0.0383321 -0.0069641573 -0.05503253
-0.011540934 0.055920094 0.12435274 0.077547014 -0.038083673 -0.11738534 0.072345436 0.11950673
-0.08254963 -0.100215 0.017556116 -0.120546 -0.06638448 -0.107848674 -0.045101717 -0.008383557
-0.114721015 0.082316786 -0.04297635 -0.07684435 0.028627977 -0.08328466 0.017315716 0.11775993
-0.10929644 -0.116922945 0.018974498 -0.06344576 -0.052581415 0.04680586 0.03960021 0.06178841
0.10955775 0.043422446 -0.016361773 0.09787387 -0.03224045 -0.078832015 -0.030061424 -0.033500016
0.088215366 0.11575695 0.08596456 0.057454865 0.017762523 -0.11438276 -0.0636774 0.020956956
-0.053628333 0.109701805 0.063467056 0.07871527 -0.09981686 0.07576498 0.103881665 0.090659566
-0.058887895 -0.09041376 -0.08236398 0.0845723 -0.11460391 0.044967774 -0.07049511 0.0848674
0.0633053 0.115238264 -0.077610865 -0.023410931 0.12291399 -0.04455149 0.07046145 0.010438964
-0.008408248 0.07560733 0.067419216 0.0673046 -0.12241289 -0.10480827 -0.104526564 0.012679756
-0.05693513 0.02117145 -0.0789036 -0.11427885 0.048115686 0.025446832 0.026950195 0.11530402
0.09140785 -0.05626963 -0.09396805 -0.11371794 0.042018563 0.10836269 -0.050691172 -0.090635955
-0.034080774 -0.06540923 0.013596684 -0.044258088 -0.02975434 -0.0007555038 -0.10457346 -0.10646333
0.037247106 -0.029489746 0.04339761 0.04757302 -0.019638157 -0.06923298 -0.047547817 -0.104952894
0.054715842 0.098792315 0.040354587 -0.057605956 -0.105589546 0.07963302 -0.12358934 -0.09461494

model_m.3.bias f4 [16]
00000000: 662d 893d 3ea0 b3bd c6c8 ab3d 6082 c33d
00000010: 6b73 773d 5aa2 babd eea5 9cbd ef06 d13d
00000020: 90db bfbd c446 c7bd 7138 4f3d 487e 4fbd
00000030: 6ae8 eabd 0008 a638 e61e 4e3d 00d6 3cba
0.06698112 -0.08770798 0.08387904 0.095463514 0.060412806 -0.09112997 -0.07648836 0.102064006
-0.0936805 -0.09730294 0.050590936 -0.05065754 -0.11470111 7.916987e-05 0.050322436 -0.00072035193

model_m.6.weight f4 [32, 16, 8]
00000000: c46c 81bd 62f0 9f3d 0143 f7bc dcd8 42bd
00000010: 6d16 fd3a be71 843d 5eb4 7abd 107c 37bd
00000020: 6968 d6bc 8c7d d8bc 1e51 983d bcfa fdbb
00000030: 34c5 81bb 9fdb 31bc 1914 93bd 62fb a6bd
00000040: 1e63 a4bd 0a7b 673c b6c6 82bd b14e afbd
00000050: 63e6 84bd 7ee1 bb3c fc3c ab3d 9042 9fbc
00000060: 7ea1 debc 49a3 5f3d e449 6e3d 5789 6abd
00000070: 925b 4cbd eec6 63bd 0334 82bd 56a9 a33d
00000080: 251d cabc 9914 993d 7974 1abd 7d7f 0fbd
00000090: 030e 9bbd b4b2 b1bd 1c66 6abd f4ba 9139
000000a0: 8edf 683c 3a7a 44bd 472f 393d 328c 9d3d
000000b0: dd5e 8f3c c802 a73d c1e3 b03d 5212 8fbd
000000c0: 57d1 54bb 2656 2cbd fa8d f8bc 103b 163d
000000d0: 1a16 10bd 1230 a1bd d268 833d 92d3 a2bd
000000e0: da91 8ebd f6ae 23bd 4e15 9b3d aaf4 383c
000000f0: cf55 663c 25e3 1abd 58cd 4dbd 428d 76bd
00000100: 667f 983d 352a ca3c 76e0 8fbc 57af 1a3d
00000110: 00e0 eb3b e93b b03c a696 0dbc 73f0 e1bc
00000120: cd8c b3bd 6c22 0cbd cbbf d43c 3fb1 45bd
00000130: 33a2 84bd 9d35 813d db2f a43d 2ed7 883d
00000140: 4f50 6abd 6479 a5bd c3c8 42bd cfa8 573d
00000150: 112f 783d 3123 bf3c 2375 263d 55c9 0abd
00000160: 4c61 98bd 1761 5ebd 8f70 573d fc37 7c3d
00000170: 81c1 9b3d 1c51 e5bc c06b 41bd 3bf8 a6bd
00000180: df6c 863d 6428 44bd 82df b63b 523e 40bc
00000190: ce64 d33c 0dc3 24bc 967b aabd dc9e 063d
000001a0: e45e a13d 8005 e8bc 6554 9fbd 8e5a 933d
000001b0: a97a 5b3c 42bf b13d 685f e53c 3620 10bc
000001c0: e498 413c e3d8 8c3d b06f 6a3d b175 873d
000001d0: 9570 95bd 28c9 a7bd 979e afbd a343 46bd
000001e0: 2e24 643d f152 6139 dc0f 88bc 832e 8bbd
000001f0: 3e90 6b3d 7898 9dbd aab4 20bd 8f18 663c
00000200: edcd 173c b824 56bd 2357 443d 1a57 93bd
00000210: f599 01bd 0ebd b23c e3ea 64bc c7ad 77bc
00000220: 2fde 203d f697 cebb f129 3fbd 0f92 903b
00000230: c4f4 273d c31a 87bd f21c b1bc ffa3 ab3d
00000240: 4070 923d 93a3 20bd bccf 5dbd 6c75 dfbc
00000250: 87de b3bb 1449 9e3d f30b f5bb 283d 6dbd
00000260: f91b e83c ab50 ad3d 001b af3d 0d86 393d
00000270: 2a28 7e3c 0508 81bd 5e5d 833d 77ba dd3b
00000280: 0d0a 99bd 328a c6bc 3d87 69bd 2d24 5a3d
00000290: 9f1a 4b3c e6e7 503b e226 9c3d d486 1dbd
000002a0: b031 613d aeb0 7c3d 2be3 83bd efcb 48bd
000002b0: 972b 95bc 0914 edbb 449e 8a3c 355e 92bd
000002c0: 8b5a 723d eaaa e9bc 13e2 57bd 6e83 a43d
000002d0: 2b05 89bd 052c 4e3d 5240 d3bb 01af 473c
000002e0: bfe1 6dbd 1ef0 723c bfdd a4bd 5c54 b03d
000002f0: ec35 6d3d 3a28 723c 6dea b5bc 5fa3 2fbc
00000300: 5aec 823c 48eb ae3d 61c1 8e3d 4066 25bd
00000310: d085 063d a986 5b3d 4cb1 803c e0e4 36bd
00000320: ef12 e0bc fe75 f13c 18bd ad3d 4e78 273d
00000330: 45fb 67bd 8e90 90bb dab9 2e3c 88d3 5e3d
00000340: 2026 7b3c c662 a0bb 3711 b93b 5ec3 8ebc
00000350: 4a8d b1bc ad64 f43c 9657 98bd 8458 cfbc
00000360: a3c4 533b 89d2 d8bc efd8 d1bc a816 8f3d
00000370: 21cd 24bd 8873 ad3d 9563 86bd 959c 7e3d
00000380: f68b 833b 728c 2d3d de60 8cbd 9547 96bc
00000390: ea67 15bd 1d48 9dbd 8781 af3d 23b2 613c
000003a0: 9ee3 3e3d 95b3 31bc 9abf 40bd 80da 97bd
000003b0: 455e 9abd 75b0 263d 043c f43c 1384 a1bd
000003c0: 5bb5 3abd 9eb0 a63d 95bc 8bbd e83b 673d
000003d0: 6e77 963d 978b 863c 2b19 463c ffca 933d
000003e0: af83 99bd b46f 82bc 33de 953d 68e4 003d
000003f0: f839 853c dd97 3dbd 1287 c3bc 165a a73d
-0.063195735 0.07809521 -0.030183317 -0.047570094 0.0019309052 0.06467007 -0.061207168 -0.04479605
-0.026172834 -0.026427053 0.07437347 -0.007750837 -0.003960276 -0.010855584 -0.07181568 -0.08153416
-0.080267176 0.014128456 -0.06385557 -0.08559931 -0.06489255 0.022934671 0.08361241 -0.01944092
-0.027176615 0.05459908 0.058175936 -0.057259884 -0.049892016 -0.055609636 -0.06357577 0.07991283
-0.0246721 0.07474632 -0.037708733 -0.03503369 -0.07571032 -0.08676663 -0.057226285 0.00027795846
0.014213456 -0.047968127 0.045211103 0.07692756 0.017501289 0.08154827 0.086371906 -0.06985916
-0.003247341 -0.042074345 -0.030341137 0.03667742 -0.035177328 -0.07870497 0.06416477 -0.0795051
-0.06961413 -0.039961778 0.07572423 0.011288801 0.014058544 -0.03781428 -0.05024466 -0.060193308
0.07446174 0.024678329 -0.017563086 0.037764873 0.0071983337 0.021512942 -0.008641874 -0.027580475
-0.0876709 -0.034212515 0.02597036 -0.04826474 -0.064762495 0.06309054 0.0801694 0.06681667
-0.057205494 -0.08079794 -0.047554743 0.052651223 0.06059176 0.02333221 0.040639054 -0.03388341
-0.07440433 -0.05429181 0.05259758 0.06157683 0.07605267 -0.027992778 -0.0472219 -0.08152815
0.06563734 -0.047890082 0.0055808434 -0.011733608 0.025804903 -0.010056269 -0.083243534 0.032866344
0.07879427 -0.028322935 -0.07779769 0.07195006 0.013395944 0.08679058 0.027999595 -0.008796742
0.011816237 0.06877305 0.05723542 0.06614245 -0.07296864 -0.081926644 -0.085751705 -0.048404347
0.055698566 0.0002148857 -0.016609125 -0.06795981 0.057510607 -0.07695097 -0.039234795 0.014043941
0.009265405 -0.05228111 0.047934663 -0.07194348 -0.031640965 0.021818664 -0.013972017 -0.015117115
0.03927439 -0.0063047362 -0.046670858 0.004411943 0.04100491 -0.06596901 -0.021620248 0.08380889
0.07150316 -0.039218497 -0.05415319 -0.02727767 -0.005489174 0.07728782 -0.007478231 -0.05791965
0.02833365 0.08462652 0.08550072 0.045293856 0.015512506 -0.06300358 0.06414293 0.006766613
-0.0747262 -0.024235819 -0.05701374 0.053257156 0.012396484 0.0031876503 0.07624604 -0.03845866
0.054979026 0.061691932 -0.06439813 -0.04902261 -0.018209262 -0.0072350544 0.01692117 -0.07146875
0.05916838 -0.028523881 -0.052705836 0.08032881 -0.06690439 0.05033495 -0.0064468766 0.01218772
-0.058076616 0.014827756 -0.08050107 0.0860984 0.057912752 0.014780099 -0.02220651 -0.010720103
0.015981842 0.0854097 0.06970478 -0.040380716 0.032842457 0.05359522 0.015709542 -0.044651866
-0.027352778 0.029475208 0.084833324 0.040886216 -0.056636114 -0.0044117635 0.010664428 0.05440095
0.015328914 -0.004894587 0.005647804 -0.017427143 -0.021673817 0.029833162 -0.07438581 -0.025310762
0.003231325 -0.026467578 -0.025616137 0.06986743 -0.04023469 0.084693015 -0.065619625 0.062161047
0.0040144874 0.042370267 -0.068544134 -0.01834468 -0.036476053 -0.0767977 0.08569627 0.013775381
0.04660379 -0.010846038 -0.047057725 -0.074147224 -0.07537512 0.040695626 0.029813774 -0.07886519
-0.04558311 0.08139156 -0.068230785 0.056453615 0.07346998 0.016423983 0.012090961 0.07216453
-0.0749582 -0.015922405 0.07317772 0.031467825 0.016262993 -0.046287406 -0.023868117 0.081714794

model_m.6.bias f4 [32]
00000000: 9763 d33b c648 90bd fb90 983b 0616 f13c
00000010: fc57 233d 54bc 3ebd e5e0 173c 4d7d a23d
00000020: d7ac 7dbc 40aa 743d f8a7 9e3d 0462 adbd
00000030: caa9 b23d 6c3e 0ebc afb9 8c3d f96c 9c3d
00000040: 227d a13d 262e 9fbd 1b3d 8d3d c5c5 8cbd
00000050: 3f97 6fbd 23f7 93bd 29d2 9d3c aa8a 2a3d
00000060: efcc 4d3d 98bb 2a3d 381f 3e3c e023 9ebd
00000070: 182a 07bd 2db7 bfbc e598 87bd 06ad 34bd
0.006451081 -0.070451304 0.004655955 0.029429447 0.03987883 -0.046566322 0.009269928 0.079340555
-0.015483103 0.059732676 0.07746881 -0.084659606 0.08723791 -0.008681875 0.06871354 0.076379724
0.07885195 -0.07772474 0.068964206 -0.06873659 -0.05849385 -0.07224872 0.019265251 0.041636147
0.050244268 0.04168281 0.011604123 -0.07721686 -0.032999128 -0.023402775 -0.06620959 -0.04411032

fc.weight f4 [8, 6976]
00000000: 9e7c c7bb ad9e 223b b674 023c 635d 7dbb
00000010: 9a8c 123c 0ef5 f4bb c5b6 42bc 1821 01bc
00000020: 9c37 33bc bb3c e739 a7e1 baba 1fd7 9c3b
00000030: 800e abbb b40c 123c 9999 3abc 5624 35bc
00000040: c129 f73b 6478 bb3b 8932 ddbb f103 883b
00000050: 9a8e 7fbb 4bf1 24ba 10a8 bebb 96f7 ae3b
00000060: 39ca fe3b ecce 383b fcde 333c 6c73 1dbc
00000070: 656f 0ebb 7af7 423c 526f 823b c362 923b
00000080: 9926 f1bb b7a4 04bc bd03 8739 07b3 193b
00000090: bd1a 94ba 725e a73a a947 e6bb 73a3 333c
000000a0: ba2f e63a 3fc2 1e3b f8ea 1b3c f7bb db3b
000000b0: 0541 91bb 7e76 78bb 2fd0 1dbc 63a4 0dbc
000000c0: 0b40 42ba 99b3 36bc 8197 bebb 11c0 c2bb
000000d0: 386b ca3a a3ee f43b bd83 8fbb 3c86 b4bb
000000e0: ea10 f43b 9770 f4bb 4bc6 34bc 41bb 24bc
000000f0: a975 7ab8 0669 2b3c e789 f93b 40e1 b4ba
00000100: 0058 1e3b 9761 e2bb 30b3 073c 34d9 43bc
00000110: 3be0 76bb d011 0eba 1313 323c 9f94 df3b
00000120: 3874 ae3b 517a 8b3b bb9d e6ba 7386 2ebc
00000130: 2ec3 063b de77 e0bb d271 9d3b ee5c 213c
00000140: dcec d6bb c931 00bb 5094 9cba 56d0 43bc
00000150: d6f6 d7bb 345c e63b 1e20 1f3c 781d 843a
00000160: 719a 0abc 188a a2bb 2f0c 1d3b 51fd 31bc
00000170: d4aa fd3b 909c 30ba ebc1 19bb 338e 25bc
00000180: 2da9 56ba eba8 053c 7b24 14bc 9c4b fa3b
00000190: ed0f 9bbb e31e 1d3c bd05 143c fe33 10bb
000001a0: 32cc 0c3c b0f6 cdbb 9df9 5f3b b5ca 0b3c
000001b0: b265 8639 d1cc 393b ab9f d53b 9de4 10bc
000001c0: cc58 903a 8e4c 1a3c 2f91 fe3b 4524 1c3b
000001d0: aad5 5dbb 50a0 9dba 7e77 b73b d106 8439
000001e0: 46ea 0bbc 765d 273b 7288 35bc a7b8 153c
000001f0: a300 cebb 2410 66bb 0ff0 1f3c 0f47 043c
00000200: b1b6 433c 8638 f1bb b5bc 84bb 1e3b 3dbc
00000210: 5320 04bc b851 ffbb a60a 843b 8a0c 0cbb
00000220: cef1 5e3a 6d7c 313c cf23 06bc 4e9e 03bc
00000230: e5e8 d53b 5768 c93b e036 8c3a 46c5 f0ba
00000240: dcc1 41bc 5c40 733b 0394 103b 64ea c93b
00000250: 3ea9 c0bb bc9f 3abc d0f7 163a 081c 8f3b
00000260: d6ad 1b3c 1f5d 9dba c1e4 2b3c d3ab 4bbb
00000270: 05b8 413c 1da5 43bc d9ea 2cbc b9b5 1ebb
00000280: c614 2a3c 55b4 22bc 52e4 3d3c 4068 2fbc
00000290: a2f1 113c 17ab ae3b 13da b6bb 91a1 1839
000002a0: 6913 0d3c f5da 35ba 7228 313c 3311 193c
000002b0: 7ec4 033c c13a c33a ad27 d13b 3dc8 1c3c
000002c0: 88e4 403c a3be fbbb 6f0b 1abb 91cb 2e3c
000002d0: 2f6d 6b3b f8ee 723b 7b96 24bc eb1a 673b
000002e0: 84d0 f4bb fa58 153a 3b5d d13b 8d61 253c
000002f0: ff86 cebb 8c50 423c ceb9 383c 1616 09bb
00000300: 9b96 833b f060 fbbb 82aa dfbb f530 de3b
00000310: 5c3b f9bb 72c7 97bb c8b8 a03b c141 553b
00000320: a796 413c b1e1 263c 44ea 363c e1da f7bb
00000330: 93d0 783b c8a2 b6bb cd94 1f3c 503f eabb
00000340: 363b 053c baa5 5d3a 8700 de3b 1d63 2d3c
00000350: 0700 0c3c d14b 203b bb7d 343b 02e7 3b3c
00000360: 59ea 973b 5f49 febb 506e 373c ef7a 06bc
00000370: c495 28bc 3ef6 e8ba 02ba cd3b daa0 01bb
00000380: 58bc 9abb 17fd adbb ba5f f33b c015 433c
00000390: 35ba 18bc d0c1 45bb a096 bcbb 6215 033c
000003a0: bf42 823b 8bb0 2fbc 2d81 7a3b 8077 79bb
000003b0: 0e11 c0b9 f188 4dbb 8f40 a73a 9962 5abb
000003c0: d7ad 2a3c 3d76 733a 3427 313c bbed 1e3c
000003d0: cbf5 063c c54f 7fbb 4bf7 783a 5a48 79bb
000003e0: c3b3 c73b e1ca 2a3b 58d7 27bc a807 303c
000003f0: c5b0 083c c93e 263c a2c2 473b 091e 683b
-0.0060878536 0.0024813816 0.007962396 -0.00386604 0.008944655 -0.007475502 -0.011884396 -0.007881425
-0.010938551 0.00044105 -0.0014257923 0.0047863866 -0.0052202344 0.0089141615 -0.01138916 -0.011056026
0.0075428193 0.005721139 -0.006750409 0.0041508605 -0.003899491 -0.0006292059 -0.0058183745 0.005339573
0.0077755717 0.0028199507 0.010978457 -0.009610038 -0.0021733877 0.011899823 0.0039805556 0.0044673397
-0.0073593375 -0.008095912 0.00025751992 0.0023452656 -0.0011299473 0.0012769236 -0.0070275855 0.010964262
0.0017561831 0.0024224666 0.00951647 0.0067057568 -0.0044327998 -0.0037912424 -0.009632154 -0.00864515
-0.0007410056 -0.011151218 -0.0058164005 -0.0059433063 0.0015443331 0.007474737 -0.004379718 -0.005509166
0.0074483054 -0.007459711 -0.011033605 -0.01005441 -5.9714224e-05 0.010462051 0.007615316 -0.001380004
0.0024161339 -0.0069086063 0.008282468 -0.011953641 -0.0037670273 -0.00054195244 0.010868805 0.006823137
0.005323913 0.0042565246 -0.0017594615 -0.010652172 0.0020563114 -0.006850227 0.004804828 0.009848816
-0.0065589976 -0.0019560924 -0.0011946056 -0.011951527 -0.0065907044 0.0070300344 0.009712247 0.0010079583
-0.008459673 -0.0049603097 0.002396356 -0.010863618 0.0077413116 -0.0006737197 -0.0023461531 -0.010104704
-0.00081886613 0.008157949 -0.009041901 0.007638408 -0.004732123 0.0095898835 0.009034571 -0.0022003646
0.008593606 -0.006285511 0.003417588 0.008532216 0.0002563424 0.002835084 0.006519278 -0.008843568
0.0011012792 0.009417666 0.007768772 0.002382533 -0.0033849278 -0.0012025926 0.0055989614 0.0002518208
-0.008539742 0.0025537885 -0.011079894 0.009138263 -0.006286697 -0.0035104835 0.009761824 0.008073582
0.0119454125 -0.0073614744 -0.004050816 -0.011549739 -0.008064347 -0.007791724 0.0040295897 -0.0021369779
0.00085046596 0.010832888 -0.008187248 -0.008033348 0.0065280073 0.0061464715 0.0010697506 -0.0018369339
-0.011826005 0.0037117219 0.0022060878 0.0061619747 -0.0058795502 -0.011390623 0.0005758973 0.0043673553
0.009501895 -0.0012005902 0.010491551 -0.0031077757 0.011823659 -0.011941222 -0.010554039 -0.0024217202
0.010380929 -0.00993069 0.01159008 -0.0107060075 0.008907707 0.005330454 -0.0055801957 0.00014556038
0.008610585 -0.0006937229 0.010812866 0.0093424795 0.008042453 0.0014894829 0.0063829035 0.009569225
0.011773236 -0.007682638 -0.002350535 0.010668651 0.0035923233 0.0037068706 -0.010045643 0.0035263847
-0.007471146 0.00056971575 0.0063892878 0.010094059 -0.006302714 0.011860024 0.011274768 -0.0020917705
0.0040157563 -0.007671468 -0.006825746 0.0067807385 -0.007605953 -0.00463193 0.00490484 0.0032540413
0.0118157035 0.010185645 0.011164252 -0.007563934 0.0037966117 -0.0055736043 0.009740067 -0.0071486607
0.008131793 0.0008455176 0.006774965 0.0105827125 0.008544928 0.0024459253 0.0027540762 0.011468651
0.0046360907 -0.0077602114 0.011195734 -0.008208021 -0.010289613 -0.0017773581 0.0062782774 -0.0019779713
-0.0047221594 -0.0053097117 0.007427183 0.011907041 -0.009321739 -0.0030175336 -0.0057552606 0.0080007035
0.003975242 -0.0107232435 0.0038223967 -0.0038065612 -0.000366338 -0.003136214 0.0012760329 -0.003332293
0.010417423 0.0009287333 0.010812569 0.009700234 0.008237313 -0.0038957458 0.0009497299 -0.003803751
0.0060944273 0.0026060867 -0.010244213 0.010744013 0.008342926 0.010146805 0.0030481 0.0035418293

fc.bias f4 [8]
00000000: 2f1a 333c f81b 51b9 fa8c 2c3c 7c18 a6ba
00000010: 6d04 f7b7 e236 0c3c 71d8 a5bb c96a 03bc
0.010931536 -0.00019942212 0.010531658 -0.0012672092 -2.9446755e-05 0.008558007 -0.005061202 -0.008021065
