checkpoints_avg_on_outputs/run_1/1d_cnn_ckpt_6.pth (torch, 221256 bytes, 8 tensors)

model_m.0.weight f4 [8, 7, 8]
-0.124470286 0.026358703 0.12152972 -0.10406441 -0.064312644 0.07029239 0.13123673 -0.11262825
-0.038946312 0.13057718 0.040142767 0.052751746 0.020060137 -0.03842396 0.07921574 -0.091915704
0.109235026 0.092432976 0.04911501 -0.089435555 0.12716407 -0.07735379 0.093204014 -0.112524785
-0.06181931 -0.12630968 0.0032721674 0.10766281 0.02790951 -0.05487733 -0.0937724 0.08322454
0.04329937 0.08794465 0.046813894 -0.09021323 0.0088484865 0.009858588 -0.12738965 -0.026816856
0.044807486 -0.057039842 -0.010940448 -0.05409099 -0.049023777 -0.12231897 -0.09337481 0.102950156
0.057509463 0.07296388 -0.07871154 -0.0918125 -0.033994585 -0.08134089 -0.07493845 0.078358844
-0.08385118 0.026272459 -0.052741513 0.014920367 0.02318355 -0.050477665 -0.046473354 -0.055579778
0.035078984 0.094228484 0.09573938 -0.070023276 0.052225746 0.108472176 0.06776217 0.07793173
0.08570818 -0.012479236 -0.107141145 0.048879296 0.09378923 -0.13261402 -0.065180846 0.023252973
0.10816863 0.055884916 -0.08547541 -0.046288453 -0.059359778 0.02821874 -0.08112063 0.122203276
-0.0025994272 0.09067902 0.036179796 -0.088761605 0.1248304 0.08664119 -0.086084396 -0.107823744
0.07205273 0.059915956 -0.07257887 -0.06342408 -0.13339412 0.010735569 -0.031619113 -0.06630483
-0.0068449667 0.102325596 0.07001831 0.054283887 -0.06038822 -0.044248108 0.08424457 0.07030299
-0.04377524 0.013928373 -0.046032254 0.0050076307 -0.110306725 0.007971074 0.053019825 0.05015188
-0.06817593 -0.008014453 0.12042189 0.020274682 -0.114855096 0.074767016 0.13010979 0.06941518
-0.051913247 -0.05336275 -0.05997015 0.04950724 0.09509506 0.027483825 0.08814494 -0.047272004
-0.07644245 -0.08626853 0.041172452 -0.067463696 0.099862136 0.083054535 -0.09839213 -0.11388247
0.061151266 0.051992435 -0.0132634705 0.05917421 -0.073051386 -0.0627774 -0.1281017 0.13083462
0.11892978 -0.07560363 0.09482181 0.10553242 0.0026474881 0.01262576 -0.02421204 0.09224369
-0.031251878 -0.08168532 -0.03331008 -0.06480803 -0.10330765 -0.07883326 -0.06587644 -0.07454351
-0.13358167 -0.031267766 0.064002536 -0.020032167 0.0030881593 0.07733541 0.13248828 -0.03602464
-0.08158494 -0.09611057 -0.0093739 0.10111649 -0.07794638 -0.04467651 -0.03651929 0.06056636
0.10717414 0.020384202 0.09374437 -0.03314992 0.08137926 0.036740847 0.062038545 0.09157149
0.06153892 0.03238085 0.0112888105 0.09378852 -0.070921354 0.05239384 0.062185742 -0.014777526
0.11948762 0.03852795 0.12669504 0.03360729 0.08811581 0.12109588 -0.08482172 0.043450635
-0.093015246 0.05199415 0.054195125 0.0293801 0.048272673 -0.043015584 0.012499326 0.08156805
-0.043141454 -0.00094019476 -0.039141446 -0.113928184 0.11557941 -0.023411201 -0.12296117 -0.05030143
0.002976027 -0.06301288 0.0007879719 0.06099892 0.09433444 0.06866803 -0.12782115 0.0018932673
0.058766674 0.05905043 0.026492564 -0.026701601 0.014698037 -0.10743753 0.077295646 -0.046093255
0.004668021 -0.12038843 -0.007623137 -0.070011735 -0.13182577 -0.1061029 0.015141886 0.026695328
-0.0039286623 0.028796988 -0.00985828 -0.09238158 0.023177825 -0.03421249 -0.065540224 0.045379218
00000000: 47ea febd 35ee d73c 93e4 f83d b91f d5bd
00000010: 59b6 83bd 75f5 8f3d ec62 063e a4a9 e6bd
00000020: 2b86 1fbd 06b6 053e be6c 243d 3712 583d
00000030: 2855 a43c 7162 1dbd dd3b a23d 4d3e bcbd
00000040: 9db6 df3d 804d bd3d d22c 493d fd29 b7bd
00000050: 4c37 023e aa6b 9ebd bfe1 be3d 6573 e6bd
00000060: 3f36 7dbd 5357 01be dc71 563b 527e dc3d
00000070: 7ca2 e43c 0dc7 60bd be0b c0bd a171 aa3d
00000080: ae5a 313d 531c b43d edbf 3f3d b7c1 b8bd
00000090: 3ef9 103c ea85 213c 6f72 02be 06af dbbc
000000a0: 0e88 373d 9ca2 69bd 913f 33bc 848e 5dbd
000000b0: 28cd 48bd 5e82 fabd 4b3b bfbd 88d7 d23d
000000c0: 0b8f 6b3d 166e 953d 8433 a1bd 3108 bcbd
000000d0: e83d 0bbd 0d96 a6bd 5479 99bd 9a7a a03d
000000e0: 2bba abbd 5739 d73c 7c07 58bd 8e74 743c
000000f0: 6eeb bd3c abc1 4ebd d85a 3ebd 9fa7 63bd
00000100: fbae 0f3d ddfa c03d 0213 c43d 5d68 8fbd
00000110: aaea 553d a926 de3d e5c6 8a3d ac9a 9f3d
00000120: c587 af3d b675 4cbc d16c dbbd a835 483d
00000130: 9114 c03d f8cb 07be 897d 85bd 057d be3c
00000140: 8487 dd3d 95e7 643d bb0d afbd f698 3dbd
00000150: 3d23 73bd fd2a e73c 9322 a6bd b645 fa3d
00000160: 275b 2abb ecb5 b93d 4431 143d a5c8 b5bd
00000170: 15a7 ff3d f070 b13d 044d b0bd b2d2 dcbd
00000180: 6290 933d 6f6a 753d 3ba4 94bd 7ce4 81bd
00000190: 7898 08be 3de4 2f3c 0b83 01bd d4ca 87bd
000001a0: be4b e0bb 1590 d13d c265 8f3d c858 5e3d
000001b0: a359 77bd 813d 35bd 6b88 ac3d 04fb 8f3d
000001c0: ab4d 33bd d533 643c 518c 3cbd 0d17 a43b
000001d0: 7ee8 e1bd 1c99 023c 512b 593d 0f6c 4d3d
000001e0: d29f 8bbd 0d4f 03bc c09f f63d 1717 a63c
000001f0: 2639 ebbd 731f 993d 803b 053e 8c29 8e3d
00000200: fca2 54bd e692 5abd 43a3 75bd 1bc8 4a3d
00000210: 33c1 c23d c225 e13c 5685 b43d 4aa0 41bd
00000220: dc8d 9cbd 8ead b0bd 72a4 283d 682a 8abd
00000230: 8584 cc3d 7f18 aa3d d081 c9bd 363b e9bd
00000240: c079 7a3d 05f6 543d 074f 59bc a860 723d
00000250: f79b 95bd 7091 80bd 182d 03be 83f9 053e
00000260: 7591 f33d 13d6 9abd f031 c23d 6221 d83d
00000270: 7b81 2d3b 47dc 4e3c 5458 c6bc 42ea bc3d
00000280: f801 00bd a24a a7bd 2770 08bd 13ba 84bd
00000290: f692 d3bd 5573 a1bd 3aea 86bd 45aa 98bd
000002a0: a2c9 08be a112 00bd c313 833d 801a a4bc
000002b0: b762 4a3b 0762 9e3d 02ab 073e 938e 13bd
000002c0: 0116 a7bd 9ed5 c4bd fc94 19bc 2a16 cf3d
000002d0: 5aa2 9fbd b7fe 36bd 4095 15bd 6e14 783d
000002e0: 1e7e db3d c5fc a63c 0cfd bf3d 36c8 07bd
000002f0: 2baa a63d 927d 163d 211c 7e3d d589 bb3d
00000300: 3c10 7c3d c8a1 043d b4f4 383c 3214 c03d
00000310: 373f 91bd ec9a 563d 7ab6 7e3d 701d 72bc
00000320: edb5 f43d 7ccf 1d3d 58bc 013e cca7 093d
00000330: 1076 b43d 1e01 f83d 03b7 adbd 4bf9 313d
00000340: c77e bebd d1f7 543d b5fb 5d3d 89ae f03c
00000350: 91b9 453d 1c31 30bd f9c9 4c3c 260d a73d
00000360: 18b5 30bd 6777 76ba c852 20bd 2e53 e9bd
00000370: e6b4 ec3d d9c8 bfbc 11d3 fbbd df08 4ebd
00000380: 7309 433b e60c 81bd e68f 4e3a 01da 793d
00000390: 6a32 c13d d3a1 8c3d 8ce3 02be 8227 f83a
000003a0: 53b5 703d ddde 713d ef06 d93c 51bd dabc
000003b0: 09d0 703c 3508 dcbd 2e4d 9e3d 48cc 3cbd
000003c0: 33f6 983b 368e f6bd 82cb f9bb 5062 8fbd
000003d0: 56fd 06be 7a4c d9bd ac15 783c 29b0 da3c
000003e0: 02bc 80bb a9e7 eb3c a084 21bc 8e32 bdbd
000003f0: 6cdf bd3c 6522 0cbd f439 86bd 8fdf 393d

model_m.0.bias f4 [8]
0.09042838 -0.12372212 -0.13151546 0.061843365 0.11334955 -0.12510009 -0.0027513527 -0.10950154
00000000: 8432 b93d 0662 fdbd fdab 06be 784f 7d3d
00000010: cf23 e83d 3d1a 00be 0a50 34bb 5842 e0bd

model_m.3.weight f4 [16, 8, 8]
0.072085 0.018828359 -0.08575447 0.080386914 -0.07784569 0.010005731 -0.07985007 -0.044658676
-0.02846314 -0.092267156 -0.0747309 0.077261835 0.07426755 0.024181947 0.12137322 -0.030394852
-0.031790286 0.025489554 0.09320989 0.06607571 0.04922846 -0.075702086 0.01890102 -0.07413353
0.049412772 0.1240924 -0.100335084 0.08597958 -0.010716924 -0.11653545 -0.020132406 -0.045712933
-0.109791175 0.07790043 0.050859623 -0.09179206 0.09557688 0.11152802 0.043563005 -0.04725726
0.015316591 -0.037208974 0.09520829 -0.09285827 0.10291126 -0.008245364 -0.021271974 -0.06699018
-0.11327467 0.11066838 0.08988107 -0.052678615 -0.11405987 -0.12211995 -0.11939312 0.11954786
-0.07105519 -0.04386811 -0.016873732 0.0072347373 0.07167688 -0.056148067 0.109779805 0.11177467
-0.074304804 0.110059895 -0.022962743 0.05193852 -0.0494547 0.002302422 -0.04665699 0.11700738
-0.11449228 -0.046145827 0.009791449 0.119504854 -0.07203284 -0.045976117 0.050866097 -0.10687649
0.11251752 0.08664739 0.1022743 0.06722067 -0.038654745 0.10205583 0.11937809 0.035798267
-0.053517375 0.05760506 -0.060651086 -0.038586427 0.10512248 -0.025918812 -0.029089693 -0.12365378
0.11536506 0.06497563 -0.079618745 -0.059572387 -0.080216676 -0.01989085 0.121422485 0.07643688
-0.09794471 0.098454624 0.077887475 -0.12118672 0.050461143 -0.019633055 0.076907516 0.0261783
0.0019325743 -0.048747376 -0.10895036 -0.10903923 -0.0060180067 -0.023355724 0.046482336 0.0027515835
-0.036364153 0.0662611 0.041343614 0.10659845 -0.07415435 -0.023953006 0.062014863 0.012285724
-0.05459349 0.070593834 -0.07233474 -0.021990553 0.11396608 -0.090532884 -0.11560278 -0.07002701
-0.1190622 0.11071059 0.10224785 -0.06641215 0.107907906 -0.052796766 0.083036035 0.058122516
0.107214674 0.062823206 0.10780731 0.08878967 -0.044038087 -0.091786295 -0.04290223 -0.092593744
-0.08174506 -0.06680037 0.018223286 -0.10841344 0.027188793 -0.05287634 -0.007563904 0.11344412
-0.091468826 -0.046923175 -0.107153535 -0.03322868 0.05253218 -0.06614748 0.12496185 -0.11353961
-0.102909595 -0.08414036 0.059210956 0.06700976 -0.008832514 0.0059072822 0.047710568 -0.03554192
0.12364498 -0.10511623 0.032444566 0.0358804 -0.032945305 0.07573818 -0.015976518 0.077432856
0.009185359 -0.025763169 -0.081913024 0.068730846 -0.07297823 -0.07590635 0.07894355 -0.11932708
-0.092864394 0.11819908 0.060997616 0.12043752 -0.123640984 0.011627713 -0.038440015 -0.05900736
-0.05212228 -0.1058169 0.12453203 0.04141383 -0.09767665 -0.065850064 0.10885984 -0.032569006
0.101844564 0.103605494 0.00818637 0.04795608 -0.055413783 -0.08468208 0.059309646 -0.03725332
-0.100516774 -0.032138444 0.0950687 -0.07009817 -0.05713248 0.08144509 0.07292586 0.012198431
0.09557882 0.04636322 -0.08473143 -0.058544356 -0.039441936 0.10311643 -0.046263553 -0.06013233
0.120950714 0.028781027 -0.07810944 0.115874365 0.11510873 -0.12069899 -0.03175275 0.03363058
0.03005242 -0.0074722534 -0.09991229 0.068622015 -0.08009193 0.05654303 -0.10959434 0.025551265
-0.021259993 -0.026158035 -0.11509751 -0.024509475 -0.027982354 -0.0701246 0.018440649 -0.05311729
00000000: 4da1 933d ee3d 9a3c 0aa0 afbd e5a1 a43d
00000010: 906d 9fbd 14ef 233c 6f88 a3bd 04ec 36bd
00000020: 882b e9bc 90f6 bcbd 840c 99bd 743b 9e3d
00000030: 9619 983d 3819 c63c 8692 f83d a0fe f8bc
00000040: 8836 02bd 78cf d03c d4e4 be3d b452 873d
00000050: c8a3 493d b209 9bbd 50d6 9a3c 52d3 97bd
00000060: 0c65 4a3d 2824 fe3d 7b7c cdbd 1016 b03d
00000070: 0a96 2fbc 23aa eebd b7ec a4bc 7c3d 3bbd
00000080: 32da e0bd 438a 9f3d 2e52 503d 7afd bbbd
00000090: d0bd c33d cd68 e43d 1f6f 323d d490 41bd
000000a0: 70f2 7a3c 7068 18bd 90fc c23d 7a2c bebd
000000b0: 24c3 d23d 9017 07bc 9042 aebc 2632 89bd
000000c0: 8dfc e7bd 1ba6 e23d 9113 b83d 88c5 57bd
000000d0: 3998 e9bd 061a fabd 6184 f4bd 82d5 f43d
000000e0: 6285 91bd 0caf 33bd c83a 8abc 6011 ed3b
000000f0: 54cb 923d 84fb 65bd 3cd4 e03d 1eea e43d
00000100: 1e2d 98bd 1567 e13d 5d1c bcbc 7cbd 543d
00000110: 0391 4abd 3be4 163b 661b 3fbd 91a1 ef3d
00000120: ee7a eabd 6803 3dbd 506c 203c f6be f43d
00000130: f485 93bd 7451 3cbd f858 503d 10e2 dabd
00000140: 966f e63d 3074 b13d 3075 d13d feaa 893d
00000150: 7054 1ebd a602 d13d 807c f43d 34a1 123d
00000160: 0935 5bbd 49f3 6b3d 466d 78bd cd0c 1ebd
00000170: 744a d73d b053 d4bc 824d eebc 313e fdbd
00000180: 8444 ec3d f111 853d 270f a3bd 2d02 74bd
00000190: a448 a4bd 23f2 a2bc 5aac f83d f08a 9c3d
000001a0: 3c97 c8bd 94a2 c93d 7883 9f3d be30 f8bd
000001b0: 58b0 4e3d 80d5 a0bc b081 9d3d e073 d63c
000001c0: 6f4e fd3a 54ab 47bd 5e21 dfbd f64f dfbd
000001d0: b332 c5bb 8154 bfbc 4364 3e3d e953 343b
000001e0: 94f2 14bd e6b3 873d ec57 293d 4a50 da3d
000001f0: 3cde 97bd 1839 c4bc 4c03 7e3d 104a 493c
00000200: 6c9d 5fbd 8093 903d 3c24 94bd 8825 b4bc
00000210: 0c67 e93d 4e69 b9bd 26c1 ecbd 526a 8fbd
00000220: e2d6 f3bd 3cbc e23d 5267 d13d 1803 88bd
00000230: d2fe dc3d 6c41 58bd cc0e aa3d e011 6e3d
00000240: 5e93 db3d 74a9 803d 14ca dc3d 5cd7 b53d
00000250: 4861 34bd 74fa bbbd 40ba 2fbd caa1 bdbd
00000260: f469 a7bd a2ce 88bd 0049 953c de07 debd
00000270: 08bb de3c dc94 58bd a0da f7bb 6455 e83d
00000280: 0254 bbbd 8432 40bd 5073 dbbd cc1a 08bd
00000290: fc2b 573d 5478 87bd 00ec ff3d 7487 e8bd
000002a0: 44c2 d2bd c851 acbd 3087 723d 6a3c 893d
000002b0: 40b6 10bc e091 c13b 286c 433d 6894 11bd
000002c0: 9439 fd3d 2e47 d7bd 98e4 043d 54f7 123d
000002d0: a8f1 06bd 9e1c 9b3d 30e1 82bc 1e95 9e3d
000002e0: 307e 163c 480d d3bc 04c2 a7bd c2c2 8c3d
000002f0: 9c75 95bd ca74 9bbd 28ad a13d c261 f4bd
00000300: b02f bebd 5c12 f23d a3d8 793d f2a7 f63d
00000310: 7c37 fdbd 2a82 3e3c 4773 1dbd b4b1 71bd
00000320: 2c7e 55bd 88b6 d8bd a60a ff3d 8ca1 293d
00000330: b20a c8bd 66dc 86bd e8f1 de3d 1467 05bd
00000340: e293 d03d 1e2f d43d 2020 063c 986d 443d
00000350: 90f9 62bd cc6d adbd acee 723d f096 18bd
00000360: bddb cdbd 9aa3 03bd 61b3 c23d a18f 8fbd
00000370: bf03 6abd afcc a63d 275a 953d eedb 473c
00000380: d4be c33d 5ce7 3d3d ac87 adbd 35cc 6fbd
00000390: de8d 21bd b52e d33d da7e 3dbd 514d 76bd
000003a0: 02b5 f73d 30c6 eb3c d8f7 9fbd 8a4f ed3d
000003b0: 20be eb3d 0831 f7bd 2c0f 02bd 38c0 093d
000003c0: 7e30 f63c ced9 f4bb d19e ccbd b389 8c3d
000003d0: 3d07 a4bd aa99 673d ff72 e0bd e350 d13c
000003e0: 7029 aebc 6049 d6bc 3eb8 ebbd 18c8 c8bc
000003f0: 403b e5bc 7c9d 8fbd d810 973c 8491 59bd

model_m.3.bias f4 [16]
0.04379168 0.07506213 -0.11631203 0.056389384 0.107269265 0.08023528 0.019355208 -0.04932311
0.04066749 -0.08213672 0.11555599 0.09911179 0.0014386433 0.05231661 0.05306331 0.10973747
00000000: e85e 333d 2dba 993d 0035 eebd 8ef8 663d
00000010: fdaf db3d 6552 a43d d08e 9e3c 0807 4abd
00000020: f492 263d 4c37 a8bd 9ea8 ec3d 1ffb ca3d
00000030: dc90 bc3a f149 563d ea58 593d 0abe e03d

model_m.6.weight f4 [32, 16, 8]
0.004959516 0.04354147 0.048897825 0.0055923266 -0.013532995 0.081920505 0.030880934 -0.07158203
0.07158178 0.08080404 -0.06658871 0.050024047 -0.018056069 -0.042528473 0.0014110329 -0.086405694
0.0108643295 0.042471558 0.08318488 0.050232153 0.017136961 -0.037582472 -0.017573476 -0.031902563
-0.011698485 0.019708816 -0.062463406 -0.039007917 0.053083126 0.07344451 -0.0051428904 0.030931016
-0.07583525 0.01105895 -0.012407705 -0.0011666506 -0.003819587 -0.083001405 -0.0016568055 -0.011281524
-0.07497185 0.066415295 0.06827614 0.045701377 0.06840471 -0.015732622 -0.048685078 0.04325995
0.044540122 -0.06423522 -0.005495853 -0.0653318 -0.028101886 0.023983395 0.013213011 0.054955997
0.009013535 -0.042740624 -0.014595854 -0.07911326 0.07723159 0.04280923 -0.052762575 -0.06412165
0.025165766 -0.017710043 -0.043812744 -0.059799496 0.04906696 -0.022773564 0.06969543 -0.063114315
0.045576304 0.08658426 0.08304611 0.04950471 0.00010116297 0.037206795 0.033842582 0.025861759
0.078625835 0.0139275035 -0.06755788 0.08788438 -0.08818329 -0.049462743 0.008472099 0.015248097
-0.00012319947 -0.048003174 0.035604842 -0.052211445 -0.06507536 -0.032591388 0.031363055 -0.022773514
-0.017971188 -0.0037235112 0.035848077 0.05856413 -0.08480391 0.0030324464 -0.06656991 -0.026480138
-0.06193192 -0.03218975 -0.07235714 0.03424167 0.07652937 -0.0513967 -0.061257683 -0.0481672
-0.030614777 0.0050088684 -0.07630337 0.080356434 -0.053036395 -0.06948586 -0.017627735 -0.02900445
-0.076354474 0.053303275 0.011818298 0.051548097 0.03412202 0.013634939 0.06507424 -0.03769231
0.074446514 0.05215377 -0.03719359 0.02932638 0.04725206 -0.07396683 0.013642319 -0.07757541
-0.005478202 -0.019694295 0.0017440645 -0.00991429 0.0014362303 0.026841393 0.048851646 0.022006486
0.056821886 0.041986868 0.07741632 0.020148227 0.052939054 -0.07712165 0.031780325 -0.055403296
-0.015086695 0.04052689 -0.008227953 -0.06653636 -0.036627922 0.03732462 -0.08058975 0.016196208
-0.08502854 -0.08229142 0.011137848 -0.023054052 -0.03299116 0.027227847 -0.005694915 -0.049690943
0.071180075 -0.04511727 0.03863231 0.0039396253 -0.07850102 0.0496662 -0.012004542 -0.06253233
-0.06855278 -0.07410153 -0.02568592 0.06655289 0.024328193 0.07201387 -0.082187496 0.029114252
0.075330734 -0.021514859 -0.07886319 -0.052994974 0.025646556 0.010620405 -0.0483791 -0.038093302
0.010607582 -0.0072466447 0.05770859 0.019310169 -0.04331065 -0.072026536 -0.06752519 -0.023503749
-0.07681353 0.0128583815 -0.074182875 0.04582141 0.056336954 0.05943661 0.0033929267 0.066733204
0.019272815 0.045831088 -0.06524846 -0.077671625 -0.005766466 0.040964954 -0.01744469 0.00595324
0.04753495 -0.02657617 -0.059198864 0.05826254 0.0645875 -0.008105646 0.0111219315 0.050642285
0.06524699 -0.06773375 0.04163504 -0.05550771 0.08155832 -0.051112574 0.0011819828 0.0077656223
0.011704892 0.07925026 -0.023741554 -0.06561404 -0.013948492 -0.02432692 0.0137012545 0.045284778
0.029248523 -0.030903688 -0.07950008 -0.0762333 0.0110670775 0.023568446 0.055972364 0.009853435
-0.032178827 -0.061456647 0.03942796 0.073948875 -0.020567887 -0.0265367 0.033194136 0.044483088
00000000: 7083 a23b 8a58 323d 1649 483d d63f b73b
00000010: 7fb9 5dbc f0c5 a73d 03fa fc3c 9999 92bd
00000020: 7899 923d 977c a53d a95f 88bd 04e6 4c3d
00000030: 52ea 93bc 5632 2ebd 68f2 b83a 78f5 b0bd
00000040: 4d00 323c a8f6 2d3d d65c aa3d 3bc0 4d3d
00000050: d062 8c3c 14f0 19bd 40f6 8fbc 43ac 02bd
00000060: 01ab 3fbc 6274 a13c a1d9 7fbd c4c6 1fbd
00000070: b16d 593d 136a 963d b185 a8bb 0b63 fd3c
00000080: 834f 9bbd 9930 353c b049 4bbc 4cea 98ba
00000090: 0952 7abb a4fc a9bd 2b29 d9ba 24d6 38bc
000000a0: d78a 99bd be04 883d 5cd4 8b3d 5e31 3b3d
000000b0: c517 8c3d b3e1 80bc 016a 47bd 5831 313d
000000c0: b46f 363d c18d 83bd 8e16 b4bb aecc 85bd
000000d0: ed35 e6bc d378 c43c 637b 583c 8a19 613d
000000e0: 82ad 133c cb10 2fbd 7323 6fbc 2206 a2bd
000000f0: 992b 9e3d bb58 2f3d 921d 58bd 3652 83bd
00000100: 7028 ce3c a714 91bc fe74 33bd 51f0 74bd
00000110: 70fa 483d a08f babc 7abc 8e3d 1442 81bd
00000120: 38ae 3a3d 1753 b13d 1414 aa3d 73c5 4a3d
00000130: 7527 d438 2766 183d 859e 0a3d 0adc d33c
00000140: 9506 a13d 2f30 643c c95b 8abd bafc b33d
00000150: 7199 b4bd 7299 4abd 8fce 0a3c 27d3 793c
00000160: 1b2f 01b9 fa9e 44bd 62d6 113d abdb 55bd
00000170: 3b46 85bd 8c7e 05bd 8c76 003d 858f babc
00000180: 5038 93bc 2706 74bb 6fd5 123d f1e0 6f3d
00000190: acad adbd 02bc 463b ce55 88bd e0ec d8bc
000001a0: 53ac 7dbd 66d9 03bd fb2f 94bd fe40 0c3d
000001b0: 6ebb 9c3d 5985 52bd 56e9 7abd f84a 45bd
000001c0: d7cb fabc 6f21 a43b f144 9cbd ea91 a43d
000001d0: b13c 59bd 9a4e 8ebd 0a68 90bc be9a edbc
000001e0: bc5f 9cbd 8954 5a3d 89a1 413c 1924 533d
000001f0: 88c3 0b3d 1465 5f3c a545 853d 4063 1abd
00000200: 6a77 983d 319f 553d 4e58 18bd e03d f03c
00000210: 608b 413d ec7b 97bd 0884 5f3c dbdf 9ebd
00000220: 7d82 b3bb ee55 a1bc 1899 e43a 8c6f 22bc
00000230: e43f bc3a 7be2 db3c aa18 483d f246 b43c
00000240: 11be 683d 6cfa 2b3d 738c 9e3d e50d a53c
00000250: 9fd6 583d f5f1 9dbd 162c 023d 91ee 62bd
00000260: 2f2e 77bc 86ff 253d 89ce 06bc 3744 88bd
00000270: 2907 16bd b3e1 183d 3d0c a5bd e9ad 843c
00000280: 7123 aebd 6788 a8bd 857b 363c dadb bcbc
00000290: bd21 07bd ef0c df3c 699c babb bb88 4bbd
000002a0: dcc6 913d e3cc 38bd ea3c 1e3d f917 813b
000002b0: 25c5 a0bd c96e 4b3d b3ae 44bc f310 80bd
000002c0: 6665 8cbd 8bc2 97bd 476b d2bc e24c 883d
000002d0: eb4b c73c 027c 933d eb51 a8bd 0381 ee3c
000002e0: 0047 9a3d ee3f b0bc 0683 a1bd 4211 59bd
000002f0: ba18 d23c 3501 2e3c 2a29 46bd b907 1cbd
00000300: 6ccb 2d3c 4375 edbb d85f 6c3d 5c30 9e3c
00000310: 8266 31bd a682 93bd a64a 8abd ef8a c0bc
00000320: 6950 9dbd f6ab 523c 31ed 97bd 3baf 3b3d
00000330: 94c1 663d ce73 733d dd5b 5e3b 6bab 883d
00000340: 06e2 9d3c 61b9 3b3d fca0 85bd 4d12 9fbd
00000350: 9ff4 bcbb deca 273d 2be8 8ebc 6613 c33b
00000360: 02b4 423d 45b6 d9bc 827a 72bd b3a4 6e3d
00000370: 7446 843d 8bcd 04bc c338 363c 496e 4f3d
00000380: 37a0 853d feb7 8abd 8189 2a3d 0d5c 63bd
00000390: 0c08 a73d 6b5b 51bd c3ec 9a3a c376 fe3b
000003a0: e0c5 3f3c f64d a23d a67d c2bc a760 86bd
000003b0: 3788 64bc 4049 c7bc 3a7b 603c 887c 393d
000003c0: 999a ef3c bb29 fdbc f0d0 a2bd 3420 9cbd
000003d0: b052 353c 9d12 c13c 4743 653d 4d70 213c
000003e0: f2cd 03bd f7b9 7bbd 367f 213d 8272 973d
000003f0: fc7d a8bc 7e63 d9bc 93f6 073d e633 363d

model_m.6.bias f4 [32]
0.030412793 0.037619356 -0.003707223 -0.03669253 -0.07533141 -0.057025023 -0.008215917 0.023997756
0.058031626 0.06285253 -0.015264522 0.0052981116 0.036108542 -0.04637126 -0.080354005 0.051931817
0.07084798 -0.004418918 -0.058036692 -0.034147076 0.0626072 0.0697354 -0.06961196 -0.061906524
-0.066993386 0.020825252 0.041683022 -0.00047176064 -0.021364942 0.023734419 -0.035369888 0.041244514
00000000: 4024 f93c c116 1a3d e2f4 72bb e84a 16bd
00000010: 5b47 9abd 1293 69bd 0e9c 06bc f196 c43c
00000020: 92b2 6d3d d4b8 803d 0c18 7abc c89b ad3b
00000030: 8de6 133d caef 3dbd a490 a4bd 75b6 543d
00000040: bf18 913d 92cc 90bb e2b7 6dbd cedd 0bbd
00000050: 3438 803d 6fd1 8e3d b790 8ebd b291 7dbd
00000060: d433 89bd b899 aa3c d1bb 2a3d a456 f7b9
00000070: 8805 afbc af6e c23c 04e0 10bd 02f0 283d

fc.weight f4 [7, 6976]
0.0059533943 -0.008694375 -0.006934403 -0.0011460339 -0.011252469 0.0057802056 0.009971147 -0.0008573893
0.00070448074 0.005669117 0.0031854643 -0.0029667174 -0.00078656874 -0.0040808585 0.0055891527 0.007287672
0.0060070627 -0.006831598 -0.003155885 0.00084608333 0.0029349157 0.008063755 0.0035403012 0.0056159194
0.007230384 0.007042553 0.0019643256 -0.007914325 -0.011117127 0.008278654 0.002144068 0.0060950425
-0.002170849 -0.0034857632 0.010342497 -0.011912101 -0.010547759 -0.009894982 0.0053676143 -0.0058392272
-0.011447119 0.00797928 0.00962741 -0.007417052 -0.0059866053 -0.0074942154 -0.000115837865 -0.008438728
-0.005537259 0.008125201 0.007930995 0.0029943516 -0.0072808387 -0.0028800122 -0.007884466 -0.0073874393
-0.00469207 -0.00858622 -0.0062792217 0.0055274004 -0.008842432 -0.0019440361 -0.005158154 0.0043048984
0.00054840284 -0.00039732904 -0.003960404 0.0011410766 0.00067553204 -0.0059187734 -0.0053603533 -0.0033353805
-0.011825606 0.0048842104 0.0006189969 0.009401213 0.0050267377 -0.0054602525 -0.008222542 -0.008862108
-0.006949844 0.0109279165 0.008785575 0.008200995 0.010496241 -0.008856445 0.002444353 0.0012445305
0.0036590633 0.008867506 -0.008559271 -0.0041998727 -0.0016071111 0.004164734 0.0005021756 0.008265061
-0.00400093 -0.0016993931 -0.0064721038 -0.01056439 0.001105989 -0.009793444 -0.0044472096 0.0040694475
0.010173932 -0.0013892062 0.007826726 0.004256943 0.009778855 0.006469021 -0.0046054404 -0.00961365
-0.0033456446 -0.0008013544 0.006152603 0.00038528512 -0.0049847015 -0.0014362254 0.00034024622 -0.009171295
0.0055642435 0.0066381455 0.0035700696 -0.003149869 -0.002278894 0.0007509391 0.003632069 -0.009446701
0.010134579 -0.010812328 0.00014628335 -0.0016347467 -0.0088986 0.0031424675 -0.00059208914 -0.009439164
-0.00011203622 -0.0059849587 -0.010110276 -0.011142158 -0.008048578 0.009526446 -0.004771289 -0.00885479
-0.0057196403 0.010797557 -0.0063828183 -0.009080671 0.0061798138 0.008619228 0.0117510045 0.0065091443
-0.0005640228 -0.0055944617 -0.0091460515 0.010096266 -0.00584206 -0.010020407 -0.010778391 -0.0019061996
0.011072438 -0.004976939 0.0084956065 0.008773762 -0.0043367785 0.006565795 -0.0077812592 0.007235135
-0.0071926536 -0.0033888163 0.0117015345 0.011295409 0.009020486 0.004831434 -0.0012735801 0.0029180483
-0.008551927 -0.01112854 -0.010972362 -0.0024444077 -0.009823234 -0.0006760798 -0.0052138846 -0.0011936913
7.968105e-05 0.0064429645 -0.009054774 0.0014104075 0.007716424 -0.0065630674 0.0027480663 -0.0049088183
0.010413063 -0.00014358325 0.0004942935 0.00508209 -0.011697856 -0.005539857 -0.0031926266 0.010975986
-0.003427026 -0.0015187908 -0.0022796725 -0.008430107 0.009974528 -0.0073014456 -0.0066748085 0.010842435
0.011239026 0.009831034 0.0015800147 -0.011378469 0.0010856349 0.0032759781 0.005071799 0.008462777
0.0014143719 -0.0054179146 0.00072794774 -0.0065391995 -0.0005860796 0.0062410655 0.0017515585 0.00989462
0.002063831 -0.0028939403 -0.0029227503 0.0060692695 0.0076292665 -0.0028949804 0.009065807 -0.002988298
-0.0009084488 -0.008200078 -0.0049291435 0.0038503627 0.009079244 -0.0022122927 -0.0024641322 0.0031191541
0.0021156562 0.0048550167 -0.011693647 -0.003926866 0.0034516442 -0.006705322 -0.00061683747 0.004526176
-0.0004662803 0.0007699974 0.010997405 -0.0018497361 -0.0056985584 0.009829287 0.009293314 0.00079517864
00000000: b114 c33b da72 0ebc fd39 e3bb 8436 96ba
00000010: 475c 38bc e167 bd3b 065e 233c 6cc2 60ba
00000020: e7ac 383a 00c4 b93b 39c3 503b 426d 42bb
00000030: bc31 4eba b9b8 85bb 3625 b73b 6ccd ee3b
00000040: e5d6 c43b 99db dfbb f7d2 4ebb b1cb 5d3a
00000050: b757 403b d71d 043c 6604 683b bf05 b83b
00000060: dbec ec3b 37c5 e63b eabb 003b 16ab 01bc
00000070: 9c24 36bc 31a3 073c 7e83 0c3b ecb8 c73b
00000080: cd44 0ebb 6771 64bb 9473 293c f92a 43bc
00000090: 82d0 2cbc 901e 22bc d0e2 af3b fd56 bfbb
000000a0: b28c 3bbc 87bb 023c 49bc 1d3c be0a f3bb
000000b0: 492b c4bb 0992 f5bb fbed f2b8 9742 0abc
000000c0: e571 b5bb 901f 053c 01f1 013c e23c 443b
000000d0: 1a94 eebb 96be 3cbb d92d 01bc 5512 f2bb
000000e0: f0bf 99bb 38ad 0cbc eec1 cdbb 321f b53b
000000f0: d9df 10bc 07cf feba bb05 a9bb 1b10 8d3b
00000100: b1c2 0f3a 9a50 d0b9 47c6 81bb 2d90 953a
00000110: 3016 313a 45f2 c1bb e7a5 afbb 6696 5abb
00000120: 30c0 41bc ba0b a03b 2e44 223a 8c07 1a3c
00000130: 55b7 a43b ebeb b2bb d7b7 06bc 6032 11bc
00000140: 84bb e3bb 010b 333c 5ff1 0f3c 775d 063c
00000150: 6df8 2b3c 9f1a 11bc 7031 203b 841f a33a
00000160: e5cc 6f3b 0449 113c 2f3c 0cbc 169f 89bb
00000170: b3a5 d2ba 5278 883b 6fa4 033a 2e6a 073c
00000180: 3c1a 83bb 2cbe deba f113 d4bb 4316 2dbc
00000190: d5f6 903a ae74 20bc e6b9 91bb 0059 853b
000001a0: 90b0 263c 0616 b6ba ab3b 003c d37d 8b3b
000001b0: 7e37 203c 15fa d33b 3ce9 96bb 9282 1dbc
000001c0: 9a42 5bbb fc11 52ba c69b c93b 1800 ca39
000001d0: b556 a3bb ba3f bcba 1363 b239 3343 16bc
000001e0: 4254 b63b cd84 d93b d4f7 693b 086e 4ebb
000001f0: 7f59 15bb acda 443a 0208 6e3b 56c6 1abc
00000200: 810b 263c 3126 31bc a363 1939 ff44 d6ba
00000210: 6fcb 11bc dbf1 4d3b 6e36 1bba b9a6 1abc
00000220: fdf4 eab8 791d c4bb 92a5 25bc 998d 36bc
00000230: 2fde 03bc d014 1c3c 7958 9cbb ae13 11bc
00000240: d26b bbbb 3de8 303c f626 d1bb 18c7 14bc
00000250: 0980 ca3b aa37 0d3c 4987 403c a94a d53b
00000260: eeda 13ba bf51 b7bb 52d9 15bc cf6a 253c
00000270: c06e bfbb a22c 24bc d997 30bc 72d9 f9ba
00000280: 2c69 353c 9715 a3bb 2831 0b3c d3bf 0f3c
00000290: 891b 8ebb e125 d73b eff9 febb b614 ed3b
000002a0: 5ab0 ebbb e716 5ebb cbb7 3f3c 6110 393c
000002b0: a9ca 133c 0251 9e3b 42ee a6ba ba3c 3f3b
000002c0: 621d 0cbc 7b54 36bc 6cc5 33bc 5b32 20bb
000002d0: a1f1 20bc f33a 31ba 3cd9 aabb a275 9cba
000002e0: 701a a738 811f d33b 7a5a 14bc 6cdd b83a
000002f0: 0eda fc3b 000f d7bb e718 343b 27da a0bb
00000300: 8d9b 2a3c d68e 16b9 7a93 013a a987 a63b
00000310: 5da8 3fbc b087 b5bb 633b 51bb 9fd4 333c
00000320: f597 60bb 2a12 c7ba 8f66 15bb 6e1e 0abc
00000330: 346c 233c f740 efbb 5ab8 dabb 78a4 313c
00000340: e423 383c 5812 213c 7f18 cf3a c26c 3abc
00000350: dd4b 8e3a cbb1 563b 5531 a63b 76a7 0a3c
00000360: 7262 b93a c388 b1bb bfd3 3e3a c846 d6bb
00000370: 23a3 19ba da81 cc3b 8d94 e53a 0b1d 223c
00000380: 5741 073b 43a8 3dbb 9d8b 3fbb b9e0 c63b
00000390: edfe f93b b6b9 3dbb c088 143c 52d7 43bb
000003a0: f824 6eba 9f59 06bc a784 a1bb 5e56 7c3b
000003b0: 1cc1 143c 1dfc 10bb 477d 21bb b96a 4c3b
000003c0: d2a6 0a3b d516 9f3b b696 3fbc f1ac 80bb
000003d0: fb34 623b 51b8 dbbb 43b3 21ba 5150 943b
000003e0: 1577 f4b9 a7d9 493a 762e 343c d872 f2ba
000003f0: f9ba babb 050b 213c fc42 183c 8973 503a

fc.bias f4 [7]
-0.009467244 -0.004446837 -0.008567759 0.0118138855 -0.005969584 0.0005774858 0.008238766
00000000: 801c 1bbc c6b6 91bb c95f 0cbc 078f 413c
00000010: 809c c3bb 6a62 173a e4fb 063c
