checkpoints/run_5/1d_cnn_ckpt_15.pth (torch, 52308 bytes, 7 tensors)

model_m.0.weight f4 [8, 1, 8]
00000000: b997 863d a610 89be 7cc1 783e de0c 0ebe
00000010: 7a8d 09bd 20c2 b03e 5004 0a3d 0412 92bc
00000020: d1b7 903e 44b2 42be f8d8 463d f0ba a33e
00000030: 58d2 023d 22c1 b4bd 0583 5e3d 2e1e 7dbe
00000040: d7b0 83bd 3027 1abd f677 38be f1a7 893e
00000050: 1684 523e 110c 5f3e 1d14 34be 753b 563e
00000060: 7d68 ab3e b67d ac3e 23e5 acbe f463 92bb
00000070: ae64 bc3d d774 923e a82d 5c3e 2b17 f63d
00000080: 4042 283d 4a19 9b3e 7f8f d73c ec0f a73e
00000090: 2d56 57be b856 1e3c d54b 2bbe 5feb ae3d
000000a0: 38dd a63e 53b5 71be b891 aa3e 8afc fb3d
000000b0: bcec debc 1cba 603b 41b0 02be 8690 063e
000000c0: 062b cfbb 6bdb 27be 41d8 7bbd cb21 b63c
000000d0: 8379 b3be 62a3 853e 13c8 3abe 3b37 853e
000000e0: 6bbe 42be 7ff3 83be 1436 ac3e e552 b4be
000000f0: 710b 38be 2b05 a93d 0f50 153e c2e6 46bb
0.065719076 -0.26770514 0.24292558 -0.13872096 -0.03358219 0.34523106 0.03369552 -0.017830856
0.2826524 -0.19013315 0.04854676 0.3197856 0.03193888 -0.088259 0.05432417 -0.24718544
-0.06430214 -0.03763503 -0.18014511 0.26885942 0.205582 0.21781947 -0.17585798 0.20921119
0.33478156 0.3368966 -0.33768567 -0.0044674817 0.091988906 0.28604767 0.21501791 0.12016138
0.041078806 0.30292732 0.026313541 0.32629335 -0.21028967 0.00966423 -0.16728146 0.08540987
0.32590652 -0.23604326 0.333143 0.123040274 -0.027212493 0.0034290617 -0.12762548 0.13141069
-0.0063222675 -0.16392295 -0.061485533 0.02223291 -0.35053644 0.26101214 -0.18240385 0.260187
-0.19017951 -0.2577171 0.33635008 -0.35219494 -0.17973115 0.08252939 0.14581321 -0.0030349945

model_m.0.bias f4 [8]
00000000: 1d61 9bbe 0741 64be d079 43be 31d1 31be
00000010: cfb8 2fbe a41e 0c3e b617 483e e949 55be
-0.3034753 -0.22290431 -0.19089437 -0.17364956 -0.17160343 0.13683563 0.19540295 -0.20828976

model_m.3.weight f4 [16, 8, 8]
00000000: 3862 113d 60fe 05bc 96dd 9ebd 408c eebd
00000010: 4805 aabc a265 bc3d 980d 9dbc 30f4 3fbc
00000020: 70e0 ac3c 802c ea3a 3a08 8b3d e8a5 30bd
00000030: 78ba 30bd 18dd 333d 18dc 9d3d 002f c1bd
00000040: 9202 f73d f027 cfbc 2447 79bd 9c11 92bd
00000050: de3e a3bd aca1 793d e2ab ca3d 14d2 9b3d
00000060: 107a 03bd 0060 dabb 00a8 1fbb 004a 833b
00000070: a806 9fbc 8892 2c3d 50ec 513c f821 b9bd
00000080: a8c6 7abd 3c03 c9bd 687c 923d 3065 3ebd
00000090: 4af2 d13d 785e 3f3d b86a e1bd e6d3 dfbd
000000a0: 673f c3bc 80be 113d 7d80 babd bede 33bd
000000b0: f277 63bd f64a f4bd b650 f83d aa24 d6bd
000000c0: dea1 b4bd e658 adbd 1fae 503d 5c69 683d
000000d0: 6c10 fc3d 86b7 a73d 9c6e a1bc 1dbb bf3d
000000e0: 702c db3d 4013 1cbc 30a1 c9bd d044 95bc
000000f0: dc61 6ebd ec55 5fbd f8ce eebd 5477 f93d
00000100: 7434 533d 4080 d63d c0ae ba3b 10f3 0ebd
00000110: aefe bfbd 145c 373d 78d3 9ebd a0c0 b9bb
00000120: 328e a3bd 40c1 aa3d 2468 883d 9063 7bbc
00000130: 4cd2 d73d 18af f2bd f00b 64bd c000 333b
00000140: 1c29 a03d cc7c 383d e029 fabc ce53 843d
00000150: 4068 64bc f8a6 8fbc 6ec0 d4bd c07d a93d
00000160: 9689 f4bd 860b 94bd e455 1abd e20f a6bd
00000170: 3856 b9bd 164b edbd 3834 c33c b87d adbc
00000180: 4084 ea3b 9025 2dbc e04f c13b 8479 1f3d
00000190: f4b1 7dbd a8e7 7dbd 8ac8 b03d 8e2c 9a3d
000001a0: ec02 4b3d c848 ddbc 7ed3 f4bd 4eec 9ebd
000001b0: 2cd5 24bd 8ab8 d2bd f02d 263d d03b f2bc
000001c0: 0022 3bba 5094 9cbc a022 b5bc 200d 2fbc
000001d0: 8cd5 66bd 5833 c0bc 889f 653d 94b5 893d
000001e0: 6a77 edbd 702b f83c a81e f1bd 80e5 01bc
000001f0: f026 87bc 1053 0f3d 84b4 61bd 281a 71bd
00000200: e4c3 47bd d86f d9bd 7e8b e1bd 0058 f5bc
00000210: 085c b83c 886c ab3c 14db afbd b43f d93d
00000220: a4bf cc3d bacb ea3d 0811 623d 4c53 ad3d
00000230: 5203 b2bd 40cd c0bc 907a e83d f836 abbc
00000240: f840 b3bd 884b 903c f411 5a3d a2a3 fabd
00000250: 24e9 c73d d0ed 663d c24c e7bd f4e8 a73d
00000260: 7070 a1bd 3aea a1bd 106d 413d 801d b7bd
00000270: f49b 013d 8cc7 513d 36b8 b6bd f8ba babd
00000280: 4002 50bd 5490 483d 0004 003c f810 c53d
00000290: b879 403d a8a1 b13c 4e82 b33d 36eb debd
000002a0: 646c ce3d e039 e23d a0e0 dcbc d0dd 10bc
000002b0: 80c9 91bc e8e6 f8bd 424a fe3d 3c05 aabd
000002c0: aa20 bbbd 6669 ddbd 7a34 cebd 98e5 dc3d
000002d0: 4c75 7dbd 7020 d6bd 10ee fc3c 1896 b8bd
000002e0: b26c acbd f463 96bd 4cd3 a3bd 8853 df3c
000002f0: 8ac8 f83d 2eef da3d f061 48bc 00d0 9b3d
00000300: 0448 17bd 340d 47bd 4088 5ebb f8ee adbc
00000310: 4a8d aabd aabb 87bd 489f 4f3d ac17 b5bd
00000320: f0b4 883c 20fb e23d 4aac 963d ac96 e0bd
00000330: 7cf6 733d 1433 6b3d 9a9a 823d 7828 efbc
00000340: 2ea7 813d d0b9 b13c 9e41 8b3d 40b7 08bc
00000350: d4d2 7abd 181a d63c c0b3 e13d c81e 9abd
00000360: be50 e23d 2484 f3bd a46a b7bd 8475 b4bd
00000370: 3ce8 7f3d 506a f6bc f09f c3bc b8fb febd
00000380: 8818 cc3c 101f c5bc 286c a43d 2cf0 673d
00000390: 709c f7bc dc6a 9abd 4872 61bd b48b 743d
000003a0: 9a0d f8bd bf92 dc3d 1eda c0bc 310c 033d
000003b0: 20a5 843d af85 efbd 12a2 a3bd 379a a8ba
000003c0: 453e 3cbc 860e b7bd edc7 a13d ee1b cf3d
000003d0: 27c4 7fbd b4e6 dc3d 6e6e ce3d db34 a3bd
000003e0: 30e1 f3bd 7ef1 9fbd 8677 d83d 2eed aabd
000003f0: ae2d c53d deb8 aa3d c065 8b3b 9652 823d
0.03549406 -0.0081783235 -0.07757108 -0.11647844 -0.020754471 0.091990724 -0.019171521 -0.011715934
0.021103114 0.0017866045 0.067886785 -0.04312697 -0.04314658 0.043912023 0.07707995 -0.09432793
0.12061037 -0.025287598 -0.06085886 -0.07132265 -0.07970975 0.060945198 0.09896065 0.076084286
-0.03209883 -0.006664276 -0.002436161 0.004006624 -0.019412354 0.04213193 0.012812689 -0.09039682
-0.06122461 -0.0981507 0.07152635 -0.04648322 0.10251291 0.04672095 -0.11006683 -0.10929088
-0.023833944 0.035582066 -0.091065384 -0.043913595 -0.05553431 -0.1192836 0.121247694 -0.10456212
-0.08819936 -0.08464222 0.050947305 0.056741104 0.1230782 0.08189301 -0.019706063 0.09361861
0.10701835 -0.009526074 -0.09845197 -0.018221289 -0.058198795 -0.0545253 -0.1166057 0.12180963
0.051563695 0.104736805 0.0056971014 -0.03489977 -0.09374748 0.044765547 -0.07755178 -0.0056687146
-0.07986106 0.08337641 0.06660488 -0.015343562 0.10538158 -0.11849803 -0.055675447 0.002731368
0.07820341 0.04504089 -0.030537546 0.06461297 -0.013940871 -0.017535672 -0.103882656 0.08275938
-0.11940305 -0.072287604 -0.037679568 -0.08108498 -0.09049648 -0.11586587 0.02382861 -0.021178111
0.0071568787 -0.010568038 0.0058994144 0.038934246 -0.061937287 -0.061988503 0.08632 0.075280294
0.049563333 -0.027012244 -0.119544014 -0.07759915 -0.04024236 -0.10289104 0.040571153 -0.029569536
-0.000713855 -0.01911369 -0.022111237 -0.010684282 -0.056355998 -0.023461983 0.056060344 0.067240864
-0.11595042 0.03029415 -0.11773425 -0.007928252 -0.016498059 0.034991324 -0.055103794 -0.058862835
-0.0487708 -0.106170356 -0.11012934 -0.029949188 0.022504821 0.020925775 -0.08586708 0.106078535
0.0999749 0.11464639 0.055192024 0.08463153 -0.086920395 -0.02353537 0.11351502 -0.020900235
-0.08752626 0.017614141 0.053239778 -0.12238242 0.09761265 0.05637914 -0.11293937 0.08198729
-0.07882774 -0.07906003 0.04722315 -0.089411736 0.03164287 0.051215693 -0.08921854 -0.09117693
-0.050783396 0.048965767 0.007813454 0.09622377 0.04699108 0.021683529 0.08765088 -0.10884707
0.100792676 0.11046195 -0.026962578 -0.008841947 -0.017796278 -0.12153417 0.12416507 -0.0830178
-0.091370896 -0.10811119 -0.10068603 0.10785979 -0.06187944 -0.10455406 0.030875236 -0.09013003
-0.084191695 -0.07343283 -0.07999286 0.02726151 0.12147625 0.10690151 -0.012230381 0.07608032
-0.036933914 -0.048596576 -0.0033955723 -0.021232113 -0.0832773 -0.06627591 0.05068901 -0.08842406
0.01668784 0.110830545 0.0735708 -0.109662384 0.059561238 0.05742176 0.06377144 -0.029194102
0.06330715 0.021695048 0.06799625 -0.008344471 -0.061236218 0.02613549 0.11020613 -0.07525402
0.110505566 -0.11890438 -0.08955887 -0.08811477 0.062477335 -0.03007999 -0.023879975 -0.12450355
0.024914041 -0.024062663 0.08028442 0.05662553 -0.030225962 -0.07539913 -0.055040628 0.059703544
-0.12111969 0.10770177 -0.023541506 0.03199405 0.064768076 -0.1169542 -0.07989897 -0.0012863342
-0.011489456 -0.08938317 0.07899461 0.10112749 -0.062442925 0.10786191 0.100796565 -0.07969066
-0.119081855 -0.07809733 0.10569672 -0.0834602 0.09627853 0.08336042 0.004254073 0.06363408

model_m.3.bias f4 [16]
00000000: 04a3 df3d 3467 85bd 2660 d5bd 60f8 ca3a
00000010: c679 d53d 303f 49bd 7655 f8bd f1f7 4c3d
00000020: 8b18 21bd c477 20bd 1c53 d63d 640d cfbd
00000030: 321f dcbd 41c9 a93d 1ca9 b4bd a2c1 97bd
0.10919765 -0.06513825 -0.104187295 0.0015485398 0.10423617 -0.049132526 -0.121256754 0.050041143
-0.039330047 -0.039176717 0.104650706 -0.10109976 -0.107481375 0.08290339 -0.088213176 -0.074099794

model_m.6.weight f4 [32, 16, 8]
00000000: 7603 84bc a691 383d aa16 983d 941e 81bd
00000010: 4d67 9c3b aa3c 51bd 8865 36bd 0653 08bd
00000020: b91a 3abd d07d 6b3d 5415 063d f730 85bd
00000030: b177 65bc a11a 97bd 4f2a 1b3d 783f 013c
00000040: 9001 733d 44ee 34bd 7e7d 9b3d 1b2c 5f3b
00000050: 5619 bbbc 5f8c b03d 10f9 81bc 7443 583c
00000060: f4b8 a0bb 3897 86bd e30f b43d 8f9f 8cbc
00000070: c119 0fbd cc50 b3bc cf61 03bd c12d 453d
00000080: e3d2 02bd 7b5b df3c 0dd4 a73c 816e 53bc
00000090: 42c6 04bd ee1c 4d3d 79e3 58bd 24f2 0fbd
000000a0: 68a9 b73c df97 1c3d 40f4 b33d 68ee f83b
000000b0: 45c5 143d ff26 a5bd c427 913d 816d 54bc
000000c0: d002 12bc fa04 d6bc 8784 a2bc a2f3 0dbd
000000d0: f3e1 803d 3641 c5bc 754a d03c 9833 b33d
000000e0: a9f8 e3bc 7755 623d 9ba1 d9bc d731 dd3c
000000f0: c846 1f3b ef33 733d 8990 873c 51cd 993d
00000100: 82cc 593d 5d15 623d faf1 673d 0c99 ac3c
00000110: e4ed ba3c b5c2 a23d d470 cabc f046 753d
00000120: 1805 a63c 3c13 6a3c 3a47 9c3d b26b b3bd
00000130: 689b 3c3d 39e4 6bbd 9f2f 933c 1e5a 3c3d
00000140: 0e28 973d 5551 f13c c1ab a13b 6e3c b6bb
00000150: 2106 803d ad1e 8cbd a202 21bd c12c ea3c
00000160: ba96 ebbb d245 a6bd aab8 87bd 7c5f 80bd
00000170: f54b d93c a92d 40bc 1987 933d 8f06 213d
00000180: 1fa3 243d 72e6 b6bc 5c09 15ba a022 1cbc
00000190: cc99 843d 8d9a 233c 7ba5 a33d 0c4f 5ebc
000001a0: 6366 593c 7802 b3bd 39c3 953d a1ca d7bc
000001b0: 1b87 afbd 7add 9b3d f3f9 e6bb 7591 1b3d
000001c0: 5552 83bb de81 993d 7391 a63d 6c13 a03c
000001d0: 4751 eb3c 3866 46bd 6af0 53bd 098e cbbc
000001e0: 3972 7a3d 07be 2a3d 0046 ac3d 40ac 973c
000001f0: 5cae 43bc d922 333d eaa1 b1bd 4c51 8fbc
00000200: 9379 793d 6beb e43b 06dc 83bd 8670 c5bc
00000210: 049b f33c 25e8 30bd 5392 ecbc cff2 5c3d
00000220: 1b58 6bbc 16bb ad3d 9012 8bbd c765 adbc
00000230: adc7 7bbd 479a 843d 6293 71bd d031 27bd
00000240: f6dc 783d 7f1c 563d 4953 81bd d60e 8d3c
00000250: 429f 89bd b426 e13c eaf4 48bd 2f2d 3e3c
00000260: 2d68 aebd 0eef b2bd 3541 b23d fce2 303c
00000270: 9b77 43bc da6e e5bb 0afa 35bd 5f81 543d
00000280: 3e81 14bc ec9f 583d 77ac 993d 508e 813b
00000290: 2b22 0ebd 2144 863c 54e7 4bbb 5311 8c3d
000002a0: 7468 463d 74e5 2bbd 3a79 74bd c567 a53d
000002b0: cfe9 70bd 9799 603d f40d 6ebc 8c61 91bc
000002c0: bfab eabc ba22 7abd 0649 ed3c dc1f a73d
000002d0: 2c1c 68bc 5b62 373d 3eea aeba b69c 9a3d
000002e0: 963f 243d 655b 2abd f329 33bd 4c02 993d
000002f0: 099e 2bbd 0b23 b1bc 8d00 423d e79e d63c
00000300: d1f1 01bd d8be 133d 7212 753d f1a3 00bd
00000310: 120f 203c bef4 963d 8376 383d 576c bebc
00000320: cffa 773d 09e1 5bbd 3187 74bc ed1e a33d
00000330: e38e 033d 3568 af3d 9a09 e13c 109a 22bd
00000340: caa8 943d f2f9 9ebd 8190 5bbd c24e fcbc
00000350: 122b 933c ce1a 8fbd 4684 1e3d 7b82 f93c
00000360: f605 b2bc 1add c6bc f0d1 0cbc 69d4 cc3c
00000370: 09c3 1fbd 1bfc 873d 1cc9 343c 8b81 483d
00000380: c244 893d 839c 95bd 9c81 61ba d1df 913d
00000390: ac73 87bd 5bf1 faba 131f 8abd 474e b73c
000003a0: 4ba9 403d 7b24 9f3d ef2b b43d 6382 bb3b
000003b0: 202a d93c 4900 983d 9fa7 c33c db32 893d
000003c0: 4abe 8abd 198a 803d 40ea 9c3c c268 a43d
000003d0: 7f22 06bd ec2f a53d 40a0 863d 0d74 5b3d
000003e0: 0f34 6c3c 7166 a7bd c359 6fbc 1586 9e3d
000003f0: f296 133d bd4a f7bb 85c0 76bd 140e 02bd
-0.016114932 0.045060776 0.07426198 -0.063046604 0.0047730566 -0.051083244 -0.04453042 -0.033282302
-0.04543564 0.05749303 0.032735184 -0.0650348 -0.014005587 -0.07378126 0.037882145 0.007888667
0.059327662 -0.04417254 0.07592295 0.0034053389 -0.02283923 0.08620524 -0.015865833 0.013199676
-0.0049048606 -0.065718114 0.08792093 -0.017165927 -0.03493667 -0.021889113 -0.0320757 0.048139337
-0.0319394 0.027265301 0.020486856 -0.012904764 -0.032415636 0.050076418 -0.05295131 -0.035143033
0.022419646 0.038230773 0.08786821 0.0075967796 0.036320943 -0.080640785 0.07087663 -0.012965561
-0.008911803 -0.02612542 -0.019838585 -0.034656174 0.062930964 -0.024078947 0.025426129 0.08750075
-0.027828531 0.055257287 -0.026566317 0.027001305 0.0024303664 0.0593757 0.016548412 0.07509864
0.05317355 0.055196155 0.05662725 0.021069072 0.022818513 0.07947294 -0.024712004 0.059882104
0.0202661 0.014286812 0.07630773 -0.087607756 0.046046644 -0.057590697 0.017967043 0.04598438
0.07380687 0.029457727 0.0049338047 -0.005561403 0.06251169 -0.068417884 -0.03930915 0.028585793
-0.007189599 -0.08118786 -0.06627019 -0.06268212 0.026525477 -0.011729636 0.07203502 0.039312895
0.040194627 -0.022326682 -0.00056852936 -0.00952974 0.06474647 0.009985578 0.07990547 -0.013568651
0.01326904 -0.08740705 0.073126264 -0.026341738 -0.08570691 0.07610603 -0.0070488392 0.037980516
-0.0040076175 0.07495473 0.08133211 0.019540511 0.02872528 -0.048437327 -0.05174295 -0.024848001
0.061144087 0.04168513 0.08411789 0.018514752 -0.011943426 0.043734405 -0.08673461 -0.01749482
0.060906958 0.006986072 -0.064384505 -0.024101507 0.029737003 -0.04319014 -0.028878367 0.053942498
-0.014364268 0.084829494 -0.0679065 -0.021166695 -0.061469723 0.064747386 -0.058978446 -0.04081899
0.0607576 0.05227327 -0.063147135 0.017218988 -0.06719829 0.027484275 -0.049061693 0.011607452
-0.08515964 -0.08737002 0.087038435 0.010796305 -0.011930372 -0.00700174 -0.04442791 0.05188119
-0.009064017 0.05288689 0.07503598 0.0039537326 -0.034700554 0.016389908 -0.0031113224 0.06839242
0.048439458 -0.04196687 -0.059685923 0.08076433 -0.058816727 0.054833975 -0.014529694 -0.01774671
-0.028646348 -0.061068274 0.028965484 0.081603736 -0.014166873 0.044771533 -0.0013344956 0.075494215
0.040099703 -0.041591067 -0.043741178 0.07471141 -0.04189876 -0.021623155 0.047363807 0.026198817
-0.031724755 0.036070675 0.059832044 -0.031406347 0.009769218 0.073708996 0.045034897 -0.02324502
0.060541924 -0.053681407 -0.01492481 0.07964883 0.03211869 0.08564798 0.027470399 -0.039697707
0.072587565 -0.07762517 -0.053604607 -0.030799273 0.017964873 -0.069875345 0.038700365 0.030457726
-0.021731358 -0.024275351 -0.008594975 0.025003629 -0.03900436 0.06639882 0.011034276 0.048951667
0.06702568 -0.07305243 -0.0008602382 0.07122768 -0.066138595 -0.0019145416 -0.06744208 0.022376193
0.04703645 0.0777063 0.08797442 0.0057223304 0.026509345 0.074219294 0.023883639 0.06699153
-0.06774576 0.0627634 0.019154668 0.080277935 -0.03274774 0.08065781 0.06573534 0.05357747
0.014416709 -0.08173836 -0.014608803 0.07740418 0.036032625 -0.0075467513 -0.060242195 -0.031751707

model_m.6.bias f4 [32]
00000000: 1197 0dbd ac4c 96bd 3ef0 b13d 6df4 9abd
00000010: 4aea 9d3d 38f1 4b3d 2d8b 85bc 6297 b6bc
00000020: 30bd aabc 2fac 5b3d 797e a5bd de8b f1bb
00000030: f8d4 cf3b eee0 1f3b 9634 25bb 5e69 003d
00000040: 32f5 01bb dc9b e6bc 178d a83c 0634 843c
00000050: 0b65 97bd 9193 aa3d bcdb 973d 8608 9cbd
00000060: ce82 4e3d fa4b 36bd 5330 11bc 637d 353d
00000070: d0e1 1b3d f3ee 173d a35d fabc bf52 1fbd
-0.034567896 -0.07338843 0.08688401 -0.07566152 0.07710703 0.04979059 -0.016301716 -0.022288982
-0.020842165 0.053631004 -0.08080763 -0.00737141 0.0063425265 0.0024395543 -0.0025208346 0.031350486
-0.0019829986 -0.028150491 0.02057509 0.016138088 -0.07392319 0.08328927 0.07414958 -0.07618813
0.050417714 -0.04450605 -0.008861619 0.04430903 0.03805715 0.037093114 -0.030562228 -0.038897272

fc.weight f4 [1, 6976]
00000000: c89f 843b e5e4 9ebb 1e29 2bbc 7084 383c
00000010: 557b 0c3c 4151 2c3c dd17 cebb 03cf b6bb
00000020: acd7 b4bb 579b b8b9 74c6 ebbb c14d 153c
00000030: bddd 7e3b 3472 053c fb33 a5bb 425d e2b8
00000040: ed88 403b 032a 82bb 35b6 eb3b 8143 3f3c
00000050: 758d 43bc 3fcd 8dbb 8553 5d3b 2002 e7bb
00000060: d469 423b ea5f 0cbc dea7 e8bb 4749 973a
00000070: c988 38bc ee4e 12bc 712c 1c3c 8243 18bb
00000080: 9fed cdbb c92c b03b 492c 08bc b2d5 00bb
00000090: a7cc d2ba 9a01 5d3b 89c6 ab3b dfb1 ea3b
000000a0: 3303 eabb 569d e63b 6503 03bc 0867 b43a
000000b0: 8beb 8bbb f9be e4bb eb61 e3bb e178 2abc
000000c0: 5be6 aa3b 03de aa3a d563 6ebb 0920 09bc
000000d0: 169b e23a f028 213c 074f ec3b e2fc 843a
000000e0: d001 6b3b a982 e6bb 7a72 42bc 8fca 033c
000000f0: cd51 e739 be5f 3fbc 298e 35bc d856 bb3b
00000100: 440a d3bb 90ff 13bc c209 32bb e812 973b
00000110: d25c a039 29da 17bc 45b0 0d3c 53b2 333c
00000120: b299 ba3b bfb2 ac3b cc9b a03b d764 143c
00000130: fc4d f73b 96f0 a3bb 1ea6 2ebc 706d 9c3b
00000140: aa0e 0fbc 591f 053c c4ce 913b cdda 61bb
00000150: 6cba f33b 9849 c5bb 8ca7 323c 247c 99b9
00000160: 60bb da3b 7a28 213b 4b30 443a 1b1f 1bbc
00000170: 4985 973a 829f 5fbb b02b 59b9 e175 23bc
00000180: 5712 04bc b2be 08bc 33de bdbb 0cd1 213c
00000190: d529 1ebb 6742 973b d44a 963a db4f f8bb
000001a0: 14fc 313c 5b23 5abb 5bf5 613b 54c8 9a3b
000001b0: 57cb 063c 75e2 313c 11b9 29bc 84fa 953b
000001c0: a686 9fba 6d5c 31bc 5072 01bc 489d 783b
000001d0: a6cf b3bb dfb6 963b e651 af3b a3be b0bb
000001e0: b4d8 b9bb 08ee 38bc 6e46 903b 16a6 e9bb
000001f0: ae07 543b dfa3 7139 5ff4 013c 221e bd3b
00000200: 3ad6 edbb 1ced e1bb 5d39 033b 6db4 b93b
00000210: 7afe 99bb 0e2f c7bb abe1 1ebc df8f e4bb
00000220: 8b75 1c3b 16ba 3fb9 69b3 d5bb d8b3 11bc
00000230: 44a1 063c 4fd2 74bb f63e 213a d2cd d0bb
00000240: 31de 2cbc 58db af3b 2efd 13bc bf89 22bb
00000250: 9f8d a939 b2b1 ffbb 2946 d1bb 2dd8 fcb9
00000260: ee0e aebb 82d9 0a3a dc0f 89bb 9291 12bc
00000270: 51e0 54bb d6d1 9bbb 10c5 833a 88a7 b93b
00000280: 8143 3b3c e735 343c 335d e6bb 9b1f 21bc
00000290: ff78 39bc 3367 123c 4782 073c 5234 cd3a
000002a0: dd57 f43b 44ea cf3a 2df2 aebb dc44 cfbb
000002b0: 6cd6 243c 9202 d93b cceb dfbb e2b1 0bbc
000002c0: 0b59 a6bb d164 d73a f186 213c 12be ba3b
000002d0: 2c2d 3abb a562 23ba 059d 39bb 4b45 163c
000002e0: 9e61 0bba 664a b63a 3962 19bc 6f6f 3b3c
000002f0: 1279 0f3b b424 d03b 048a a43b a8c7 d53b
00000300: 4cee baba 875e 0f3c 8238 093c 10a3 c33a
00000310: b2bf 34bc caa2 f73b 19b0 9fbb bd80 303c
00000320: b396 093c 937a 04bc 6a05 fe3a 15e4 b63b
00000330: 81b6 17bc 9418 083c 91d2 71bb 3557 143c
00000340: a7a0 36b8 d7e3 c1bb ef98 efbb d327 febb
00000350: 8638 0abb a074 28bc 6c54 de3b 1baa 853a
00000360: 2a5b d7bb fabe 2abb 41b3 c53a 1acd c4bb
00000370: 2597 14bc 2915 0c3c b9c9 80bb 9cd6 29ba
00000380: c1c5 79bb a597 07bc 7a23 343c d3a9 bb3b
00000390: 457a bbbb 5d84 9b3b 5cd7 16bc 7aa3 823b
000003a0: c379 b6bb 2d54 38bc 2db4 e9bb b21e ec3b
000003b0: f698 893b b1d6 ac3a 4be1 14bc 9593 48bb
000003c0: 0fc9 02bc aa02 9c3b 7a1f ca3b d912 2dbc
000003d0: 8f40 5ebb eecc e7bb ef5b 13bc ecc8 0b3c
000003e0: ecb5 19bc f145 c43b de9d 6b3b f5c4 30bb
000003f0: 4824 183c aebe a73b 8a8b 053c f8e1 d3bb
0.0040473677 -0.0048490637 -0.010446815 0.011262044 0.0085743265 0.010517419 -0.006289466 -0.005578877
-0.005518874 -0.00035210952 -0.0071952883 0.009112776 0.003888949 0.008144904 -0.005041597 -0.000107938904
0.002937849 -0.0039722933 0.0071933516 0.011673809 -0.011935581 -0.0043274458 0.0033771705 -0.007049814
0.002966513 -0.00856779 -0.0071000895 0.0011542224 -0.011263081 -0.008929951 0.00953208 -0.0023233597
-0.00628443 0.0053764326 -0.00831134 -0.0019658622 -0.001608272 0.0033722878 0.005242173 0.007162317
-0.0071414947 0.007037799 -0.007996415 0.0013763616 -0.0042700223 -0.0069807735 -0.006939163 -0.010404796
0.005215449 0.0013036135 -0.0036375422 -0.008369454 0.0017288651 0.00983642 0.007211569 0.0010146166
0.0035859235 -0.007034619 -0.011868114 0.008043899 0.000441207 -0.011680542 -0.011081257 0.0057171397
-0.0064404327 -0.009033099 -0.002716646 0.004610408 0.00030586735 -0.009268322 0.008647983 0.010967809
0.0056945914 0.0052703316 0.004901385 0.009057245 0.0075471383 -0.0050030453 -0.010659723 0.004773788
-0.0087315235 0.00812515 0.004449697 -0.003446269 0.0074379947 -0.006020736 0.010904204 -0.00029274926
0.006675169 0.0024590776 0.0007484003 -0.009467865 0.0011560108 -0.0034122174 -0.00020711008 -0.009976835
-0.008061013 -0.008346247 -0.0057943105 0.009876501 -0.002413382 0.00461607 0.0011466392 -0.007577879
0.010863323 -0.0033285234 0.0034478519 0.004723588 0.008227191 0.010857214 -0.010359065 0.004576983
-0.0012170866 -0.010825259 -0.007900789 0.0037935544 -0.0054874 0.0045994367 0.005350339 -0.0053938194
-0.005671585 -0.01128722 0.004402927 -0.0071303947 0.003235321 0.00023044598 0.007931798 0.0057714144
-0.007258204 -0.0068947207 0.0020023205 0.0056672604 -0.0046995254 -0.0060786074 -0.009697358 -0.0069751586
0.0023873772 -0.00018284502 -0.0065216315 -0.008892976 0.00821716 -0.00373568 0.00061510445 -0.006372192
-0.010551021 0.005366724 -0.009032531 -0.0024801341 0.00032339708 -0.0078031654 -0.0063865376 -0.0004822625
-0.0053118384 0.00052966934 -0.004182799 -0.0089458395 -0.0032482336 -0.004755239 0.0010053236 0.0056657232
0.011429668 0.010999179 -0.007030153 -0.0098341955 -0.011320352 0.008935737 0.008270807 0.0015655851
0.007456763 0.0015862663 -0.005338928 -0.0063253473 0.010060888 0.006622621 -0.006833529 -0.008526297
-0.0050765327 0.0016433244 0.009858833 0.0056989277 -0.0028408272 -0.0006232656 -0.002832235 0.009171794
-0.00053169753 0.001390767 -0.009361797 0.011440142 0.0021892232 0.0063520316 0.0050213356 0.006524045
-0.0014261692 0.008750564 0.008375289 0.0014925916 -0.011032032 0.0075572478 -0.0048732874 0.010772881
0.008397746 -0.008085865 0.0019380276 0.0055813887 -0.009259821 0.008306641 -0.003689919 0.009053995
-4.35418e-05 -0.005917053 -0.0073119323 -0.0077562123 -0.002109082 -0.010281712 0.006784966 0.001019779
-0.006572147 -0.0026053772 0.0015083329 -0.0060058953 -0.009069239 0.008549967 -0.003930297 -0.00064788177
-0.0038112255 -0.008275901 0.010994786 0.0057270317 -0.005721363 0.0047460035 -0.009206619 0.003986773
-0.0055687143 -0.011250538 -0.0071320743 0.0072058076 0.0041991426 0.0013186542 -0.009086917 -0.0030605544
-0.007982506 0.00476106 0.006168303 -0.010563576 -0.0033912992 -0.00707399 -0.008994087 0.00853179
-0.009381752 0.005989783 0.003595225 -0.0026972864 0.009285994 0.0051191663 0.0081509445 -0.0064661466
