checkpoints/run_5/1d_cnn_ckpt_5.pth (torch, 52296 bytes, 7 tensors)

model_m.0.weight f4 [8, 1, 8]
00000000: b649 a3be 6f12 9a3e c7af c53d 6d40 29be
00000010: 9e50 44be 78a0 663d 1da0 593e 64c2 023e
00000020: aa38 51be 1e46 b43d 2961 5d3e 6614 283e
00000030: faa4 88be c2b4 c53c f8fb a9be fb3a adbe
00000040: 841b ebbb a41c 063d fe79 273e ed33 aebe
00000050: b8ae cf3d be1e 453e 6175 b43e 1f68 393e
00000060: 34d0 75be b69a 2fbe 9512 8dbe 7c75 803e
00000070: c7ca 36be 731e 76be 0a17 1fbe 8a2f 3c3c
00000080: 2c5e 8d3e 292e 78be 65e8 203e c39c 77be
00000090: d289 dfbd 9ace 4dbe 7bae 963e 4dbd 75bd
000000a0: 7029 66bd 2f0f 9f3e 9521 7bbe 1094 a23e
000000b0: 32a4 edbc ef7d a8bd 8436 1d3e 676a 8abd
000000c0: 7204 813e ca45 4f3e 2b17 903e eb3d bd3d
000000d0: 5959 983e f068 9dbe 038e 0a3e b1c7 803e
000000e0: 8867 eabd 90a7 0fbc 5af9 18be a1a3 0f3e
000000f0: effc dd3d 30b0 eabd 8fe8 1cbe f68c 34bd
-0.31892174 0.3009219 0.096526675 -0.16528483 -0.19171378 0.05630538 0.21252485 0.12769467
-0.20431772 0.08802436 0.21619095 0.16414031 -0.26688367 0.024134044 -0.3320005 -0.3383406
-0.007174911 0.032742158 0.1635513 -0.3402399 0.10140747 0.19250008 0.35245803 0.18106125
-0.24005204 -0.17148861 -0.2755324 0.25089633 -0.17850791 -0.24035053 -0.15536132 0.011485944
0.2761091 -0.24236359 0.15713651 -0.24180894 -0.10914959 -0.20098343 0.29429993 -0.059994984
-0.05619186 0.31066272 -0.2452453 0.31753588 -0.029008958 -0.08227145 0.15352827 -0.06758576
0.25198704 0.20241466 0.28142676 0.092403255 0.29755667 -0.30744123 0.13530736 0.25152352
-0.11445528 -0.008767977 -0.1493887 0.14027263 0.10839259 -0.11459386 -0.15323089 -0.044079743

model_m.0.bias f4 [8]
00000000: c109 323e 7018 59be d266 1dbe f3b1 78bd
00000010: f339 3bbd 0baa 80be d935 89be b1a1 a7bd
0.17386533 -0.21200728 -0.15371254 -0.06071658 -0.04570956 -0.25129732 -0.26798895 -0.08185137

model_m.3.weight f4 [16, 8, 8]
00000000: 788d ea3c dc67 d7bd d45a a5bd 700c d83c
00000010: 80ad b0ba 98f6 ee3d f837 453d 083c 82bd
00000020: a4ef 953d f053 5e3d c608 cd3d 04bc 373d
00000030: 7e17 ef3d 82d3 b3bd 9c08 dcbd e05e 8fbb
00000040: 7cbb 0cbd 74ee 483d 902c 06bc e6dc b3bd
00000050: 282e e5bc 6245 cb3d 94aa 4abd 6018 d4bd
00000060: b8ab dfbd 74e4 f23d 8499 73bd 1005 b63c
00000070: 3cce 66bd 30e8 5ebd b006 71bc ba03 d3bd
00000080: a834 f13d dcde 573d 202e 18bd b066 1dbd
00000090: 16fb b3bd 8afc 9f3d 28aa 3b3d 8032 d93d
000000a0: 4019 fbbd 709e 92bc c0bd ac3d cc2e 2e3d
000000b0: 66fd ea3d 5cd1 d23d f8a9 6fbd 14b1 5fbd
000000c0: d29a c6bd d8e7 63bd c094 9a3b 5025 01bc
000000d0: d066 6e3d 80f0 69bb 86d6 f23d 16cb ec3d
000000e0: 483b babd c029 a63c 9c60 2e3d ee55 8fbd
000000f0: 00d9 e3bc 00bf f3ba 00f7 8ebd 2060 043d
00000100: e40d 51bd 6491 853d 4074 21bd e8a7 cb3c
00000110: 6264 a8bd 4051 043d 7828 ffbd 1458 523d
00000120: c04b 2e3d 8cda 13bd 9001 1e3c 3e74 fcbd
00000130: 1ceb c03d 7cc5 65bd b6c2 ccbd 26ce f6bd
00000140: b6fc e0bd 2068 12bc 4eaf aabd a463 eabd
00000150: 523f f6bd 882e a1bc 4cdd 2abd b860 f63d
00000160: ee21 b93d 802e 343b 807d 61bb 86c1 97bd
00000170: 40d8 8cbb c046 3d3c a00c 84bd 4c0c b9bd
00000180: c866 c13d d85a 9a3c 803e 1bbd 5020 3dbd
00000190: 24e3 b73d 1402 993d 1662 973d b8d3 e23c
000001a0: 00ff 17bd 108f cf3c 8095 e6bd e87e 0b3d
000001b0: a86a 143d f85e 9abc 5075 21bd 701d 6e3c
000001c0: 5c66 36bd d04c 8ebd dc49 dc3d 62b9 b53d
000001d0: 6091 593d 2e26 da3d 606f a83b 0859 9fbd
000001e0: e0f3 f53b d6fe fe3d 7cfe 913d 20bb 97bd
000001f0: d0b1 c53d b0ce 963d 2899 413d 68a6 88bc
00000200: 00b3 17bd e86a d43d 20ba d8bb ce4e d9bd
00000210: 28d8 9f3c a8dd da3c 30c8 903d 5e99 d03d
00000220: d00b b63d 425c e03d 1874 723d 80ce ccbc
00000230: f0e1 c1bc 7cb6 a4bd dcb0 b43d 28df 29bd
00000240: bab6 f3bd 725e b5bd ac07 d83d 6042 10bd
00000250: 18d2 4ebd 5625 ac3d 70a9 823c 146e 2d3d
00000260: e656 ea3d c4bf 603d 52f4 c0bd 882b 723d
00000270: 007b bb3b e4cc 8f3d 7071 4f3c e071 9d3d
00000280: 3206 893d e4b8 edbd 902b c5bc 40e4 bd3c
00000290: a413 233d c83c 24bd d039 20bc 562b 8abd
000002a0: b83e da3d 34ff b33d 58ba 163d 6883 a03d
000002b0: 4021 96bb bc5e 34bd 0c36 413d dc02 9a3d
000002c0: 0c32 94bd c8b3 863c 005f 133d a4fc 963d
000002d0: be32 ecbd 087d 5e3d d01f 683c b0f0 5abd
000002e0: 8cdd a73d 622b f4bd 96ca b23d 1e33 b23d
000002f0: c0be 42bc eaf4 e43d 903a d0bd b4e8 763d
00000300: 9e62 88bd 5b7a ff3d ee23 1bbd e96d 953d
00000310: cd3c b73d 5225 67bd 96d3 e73c 3e9e 423d
00000320: 40dc 103c 7a10 9f3d 8817 d23d 0a9d a6bd
00000330: ac59 813d 8026 e5ba f0a7 ee3d f002 4e3c
00000340: 40be f4bd 04ca 59bd c037 f1bc 4853 21bd
00000350: 10ea 1abd 8642 a2bd 0041 e63c f6c8 eabd
00000360: 90ea 033d 4c46 1d3d ac47 70bd 7acb f03d
00000370: 2c06 433d a606 83bd a8cb ab3d 106f 873d
00000380: d07c b6bd c068 e5bd 74c4 2e3d 6413 67bd
00000390: 9847 a63d e2b7 a7bd 3c25 843d 6800 11bd
000003a0: 302e 2f3d f495 5c3d dc95 a9bd f408 9f3d
000003b0: 984e 98bc d4cc 37bd e85a 84bc 366b ba3d
000003c0: e417 b0bd c00b e73b 5054 e6bd 48ae 493d
000003d0: 4083 233d 8412 d93d c089 e6bc 2c0c f73d
000003e0: 6e85 eabd 90f1 123c c07b b6bc d8e4 e2bc
000003f0: 7839 f83d 4451 69bd e0ee bf3b d445 92bd
0.02863191 -0.105178565 -0.08073965 0.026373118 -0.0013479441 0.11668128 0.04814908 -0.06359106
0.073210984 0.054279268 0.10011439 0.04485704 0.11674403 -0.08780576 -0.107438296 -0.0043753237
-0.034358487 0.04905553 -0.008189335 -0.087823674 -0.02797611 0.09925343 -0.049479082 -0.10356212
-0.109214246 0.1185998 -0.059472576 0.02221921 -0.056349024 -0.05442065 -0.014711067 -0.10303445
0.117776215 0.05270277 -0.037153363 -0.03842801 -0.08788125 0.0781184 0.04581657 0.10605335
-0.122606754 -0.017897815 0.084346294 0.042525098 0.11474113 0.102938384 -0.058511704 -0.054612234
-0.096974984 -0.055641025 0.0047174394 -0.007882431 0.05820352 -0.0035696328 0.11857323 0.11562173
-0.09093338 0.02028358 0.042572603 -0.06998812 -0.027813435 -0.0018596351 -0.06980705 0.032318234
-0.051038638 0.06521872 -0.039417505 0.024860337 -0.082222715 0.03230405 -0.12458891 0.05135353
0.04255271 -0.036097094 0.009643927 -0.12326859 0.094198436 -0.05609654 -0.09998076 -0.120510384
-0.10985701 -0.008935958 -0.08334218 -0.11444786 -0.12023796 -0.019675508 -0.04171495 0.120301664
0.09039675 0.0027493536 -0.003440708 -0.074099585 -0.00429824 0.011552513 -0.064477205 -0.090355486
0.09443432 0.018842146 -0.0379014 -0.046173394 0.089788705 0.074710995 0.07391755 0.027688846
-0.03710842 0.025336772 -0.112589836 0.034056574 0.036234528 -0.018844113 -0.03941852 0.014533386
-0.04453121 -0.069482446 0.10756275 0.088732496 0.053117156 0.106518134 0.00514023 -0.07780653
0.007505879 0.1245095 0.07128617 -0.07408738 0.09653056 0.07363641 0.0472652 -0.016680911
-0.037035942 0.10371953 -0.0066139847 -0.10610734 0.019512251 0.026717022 0.07069433 0.101855025
0.08888972 0.10955097 0.059192747 -0.02500081 -0.023667306 -0.08042619 0.08822796 -0.041472584
-0.11900087 -0.08855905 0.10548338 -0.03521955 -0.05049333 0.08405559 0.015949935 0.042341307
0.11442356 0.054870382 -0.094216004 0.059123546 0.00572145 0.07021502 0.012661323 0.076877356
0.06690635 -0.11607531 -0.024068624 0.023180127 0.039813653 -0.040097028 -0.009779409 -0.06746547
0.10656494 0.087889105 0.036798805 0.07837564 -0.0045816004 -0.04403566 0.047170684 0.07520077
-0.07236108 0.016443148 0.03597927 0.07372406 -0.11533116 0.054318458 0.014167741 -0.053452194
0.081965536 -0.11922337 0.087300465 0.08701156 -0.011886299 0.11179526 -0.1016742 0.060280517
-0.06659435 0.12474509 -0.037876062 0.07296354 0.08947144 -0.056432076 0.028299134 0.047514193
0.008841574 0.077668145 0.102583945 -0.081354216 0.06315932 -0.0017482787 0.11653125 0.012573943
-0.1195035 -0.053171173 -0.029445529 -0.039386064 -0.037820876 -0.079228446 0.028107166 -0.114641115
0.032206118 0.03839712 -0.0586621 0.1175756 0.047613308 -0.063977525 0.08388454 0.0661298
-0.08910525 -0.1120162 0.04266782 -0.056414977 0.08119124 -0.0818937 0.064524144 -0.035400778
0.042768657 0.053853944 -0.082805365 0.077653795 -0.018592164 -0.044873074 -0.016156629 0.0910248
-0.08598307 0.0070509613 -0.1124655 0.049238473 0.03992009 0.10599235 -0.028141856 0.120628685
-0.11451231 0.008968726 -0.022275805 -0.027697012 0.12120336 -0.056962267 0.0058573335 -0.07142225

model_m.3.bias f4 [16]
00000000: 7cc0 01bd 0037 c73b 5e14 b2bd 40ab 8b3a
00000010: d476 7abd f4f5 083d b97c 70bc 0295 d33d
00000020: 493e be3d ec7e b8bd e29f c1bd dc41 c1bd
00000030: dcdb 59bd c802 68bd a26e 2fbd 281b 973c
-0.031677708 0.0060795546 -0.08695291 0.0010655895 -0.06114848 0.033437684 -0.014678174 0.10331155
0.09289224 -0.090085834 -0.09454323 -0.0943639 -0.05318819 -0.056643277 -0.042830117 0.018445566

model_m.6.weight f4 [32, 16, 8]
00000000: 1261 ac3d 51a9 40bc 440c 6bbd a8db 813d
00000010: d992 37bc 13f4 65bd c5c2 1fbd 6831 2dbc
00000020: c96e 243d aded 74bc ef1f 82bc cb14 90bd
00000030: e2d1 86bd 6214 9abc f5da 313d 8b77 803d
00000040: adc9 273d d83e 87bc da92 a2bd dc10 39ba
00000050: 655c 60bd 7a73 82bd c5e3 86bd 9715 bd3c
00000060: 7b56 273d 60e3 db3c 0dfb 933d b7dc d83c
00000070: 5787 a8bd 3e85 44bd d43c 3f3d db8f e7bc
00000080: 397c 9f3d 6305 8c3c 2c95 f13c f1f1 633c
00000090: 2aa2 5a3d 4a92 253d cd7f c33c 15b7 abbd
000000a0: 4390 45bc 12c0 323d 7a6c 0a3d 9f6d 923b
000000b0: a14b 6cbd ecad 283d 32a3 d0bc 89cc c03c
000000c0: d7b3 a33d 7786 67bd 7989 973d 0751 74bd
000000d0: 6e89 18bd cb1c 273d f1c5 2ebd 923e 9d3d
000000e0: 1bf6 48bd 3a37 e03c b452 ccbc b516 4c3c
000000f0: 8dac 943d d6dc 92bb b878 8ebd 27b4 e4bc
00000100: 9d8a a1bb 8f18 b3bd e5e7 7d3d d763 153d
00000110: 6fc7 883d 3aad 323d 444f 253c 9528 143d
00000120: 7481 afbd a564 58bd ab6f 74bd 1be5 1bb9
00000130: b83e 14bd d2a2 48bd 8c84 9abc 876f acbb
00000140: 9845 05bc c4e6 47bd ec8d 5abd a9c9 a83d
00000150: 6790 b43d a47c ad3d 4da1 7e3d 7564 2abd
00000160: e2ee 633d 099a 833c ff45 693a f8dd 82bc
00000170: a1c1 ed3c 1fb9 87bd 711b 94bd a879 90bd
00000180: 9a24 8bbd b08d 93bc 1401 5c3d d7f5 093d
00000190: 526f 81bd 1adf 37bd 11c5 1d3d 1ec1 4c3a
000001a0: 0b49 adbd 3549 893d d941 b3bd ac13 9cbd
000001b0: ff0b 833c 71f9 84bd a9f7 98bb 8d28 b3bd
000001c0: ecfd 68bd bfdb 9cbc 2c0b f3bc 5cbd 00bd
000001d0: f0a1 303d 29e5 973d 941b 51bd 067d 82bd
000001e0: 5725 663d 75c5 adbc d182 1b3c 245b 5dbc
000001f0: 2765 823d 902e 97bc a3e5 ef39 cff1 a83d
00000200: 7f69 04bd fe66 83bd d083 c9bc bdfd ab3d
00000210: 0431 56bd ea86 09bd df7f 9f3d bb1e cbbc
00000220: dd11 48ba 9d16 643d 9e7e a8bd 4c32 1dbd
00000230: 6f0f 353d bc0a d3bc b051 1d3d bab0 3cbd
00000240: b72e 7cbd 2622 3e3d b6a8 283d d588 d1bc
00000250: 2d2a 84bd 3cf4 293c 10b2 363d 5af2 99bc
00000260: 4bc0 9c3d 48a1 a83d 62b6 4cbc adbc 9dbd
00000270: d467 fb3b 5972 cb3c 36e5 963d 4aa8 8ebc
00000280: 71a0 38bd 05e0 203b d680 8e3d 63e1 a93d
00000290: e968 54bd 98cb a6bd 1488 b03c 78eb fc3c
000002a0: bdb0 863d 198f 7abc 9544 9fbd 4ebb 20bd
000002b0: 6609 663d a53c a6bc fbd5 5b3d c426 2ebd
000002c0: 1d54 89bd e209 91bc 745f a9bd 3011 843c
000002d0: 1aa0 a9bd 7990 8b3c 5660 9d3d 5235 6dbd
000002e0: d295 e4bc 6b4d 8bbd 12f7 11bd 4c5c 903b
000002f0: 6ff0 163b e78a e03c 8574 ea3c 9855 6ebc
00000300: bff1 413d be46 693c a870 f23b dded 273c
00000310: ad15 a23d c0aa 7d3d 2c61 493d 10fb a3bd
00000320: d48f aa3d 11dd 013c 8cb5 3e3d 76ac a0bd
00000330: d142 a13c 826b 733c 196c ec3c ca1b 67bd
00000340: 1707 c23c ae44 f43c 484f 98ba 4f4a 66bd
00000350: 78ab 4f3c 6fe3 483c 7377 3f3c f86a a7bd
00000360: b1d3 17bd 2976 98bd d047 403d 40c4 963d
00000370: d4dd 8b3d b932 ae3d 197e d43c 1143 2cbb
00000380: 1511 3b3d 43e4 74bc 3dbf 6c3d 8475 9fbc
00000390: 70a6 6f3c b879 a73c 0fc4 953d f949 983d
000003a0: ce38 983d 8d5a 87bd be9b 6dbd e59c b2bd
000003b0: 1198 233d 1e53 a6bc 6537 3e3d b3d0 a8bd
000003c0: a02e 58bd 32cb 523d 6f3e 55b9 3ca7 743d
000003d0: de85 81bd d842 47bd c7e8 603d 5993 f53c
000003e0: 2ffb d1bc d0cf 763d aebe b83c 36b9 d83c
000003f0: 43f7 b4bd d1de 373d 6e41 cebb e308 d23c
0.08416952 -0.011759118 -0.057384744 0.06340724 -0.011204445 -0.05614097 -0.039004106 -0.010570861
0.040144715 -0.014949244 -0.015884368 -0.07035216 -0.06583001 -0.018808547 0.043421704 0.06272801
0.040963817 -0.016509458 -0.07938166 -0.0007059702 -0.054775614 -0.06369682 -0.06586412 0.023081584
0.04085396 0.02684182 0.072256185 0.026472433 -0.08228939 -0.047978632 0.04668887 -0.028266838
0.077873655 0.017092412 0.029490076 0.013912664 0.053377308 0.040422715 0.023864651 -0.083845295
-0.01205832 0.043640204 0.033794858 0.0044686343 -0.057689313 0.04118149 -0.025468443 0.02353503
0.07993286 -0.05652472 0.07399268 -0.059647586 -0.03724044 0.040798943 -0.04266924 0.0767795
-0.04906283 0.027370084 -0.02494178 0.012456586 0.07259474 -0.004481892 -0.06956619 -0.027917935
-0.004929854 -0.087449186 0.06198873 0.036472168 0.06678664 0.043622233 0.010089699 0.036171515
-0.08569613 -0.052830357 -0.059676807 -0.000148673 -0.036192626 -0.048983403 -0.018862031 -0.0052623185
-0.008134268 -0.04880406 -0.053358003 0.082415886 0.08816605 0.08471039 0.062165547 -0.04159971
0.05564774 0.01606466 0.0008898675 -0.015974984 0.029022994 -0.06627106 -0.072317965 -0.07054454
-0.067940906 -0.018011898 0.053711966 0.033681717 -0.06320061 -0.0448905 0.038518015 0.0007810759
-0.084611975 0.06703416 -0.08752794 -0.076209396 0.015996931 -0.0649289 -0.0046681953 -0.08747969
-0.056882784 -0.019147752 -0.029668413 -0.031430587 0.043123186 0.07416756 -0.05105169 -0.063715026
0.056187954 -0.021212319 0.009491638 -0.013510499 0.063669495 -0.01845482 0.00045756725 0.08249246
-0.03232717 -0.064161286 -0.024598986 0.08398006 -0.05229284 -0.03357593 0.07788061 -0.024794927
-0.00076320564 0.05568563 -0.08227275 -0.038378045 0.04420417 -0.025761954 0.03840798 -0.046066977
-0.06156799 0.046419285 0.04117652 -0.025577942 -0.06453357 0.010373171 0.044603407 -0.01879232
0.076538645 0.08233887 -0.012494655 -0.07702003 0.0076722894 0.024834799 0.07367937 -0.01741423
-0.045074884 0.0024547589 0.06958167 0.08294942 -0.051857863 -0.08144301 0.021549262 0.030873999
0.06576679 -0.015292906 -0.07776753 -0.039241128 0.056161307 -0.02029259 0.053670865 -0.04251744
-0.067054965 -0.017704908 -0.08270159 0.016121477 -0.0828249 0.017036663 0.0768439 -0.05791218
-0.027903471 -0.06801876 -0.035636015 0.004405534 0.0023031493 0.027409984 0.028620014 -0.014546774
0.047349688 0.014238058 0.0073986836 0.010249582 0.079142906 0.061930418 0.049164936 -0.08006871
0.08328214 0.0079262415 0.046559855 -0.07845394 0.01968518 0.014857175 0.028860139 -0.056422986
0.023685021 0.029817905 -0.0011620307 -0.05622321 0.012675159 0.012261256 0.011686194 -0.081746995
-0.03706712 -0.07444412 0.046943486 0.073616505 0.0682942 0.08505768 0.025939034 -0.0026285092
0.045670588 -0.014947 0.057799567 -0.019465216 0.014627084 0.020443782 0.07312786 0.07435984
0.0743271 -0.06609068 -0.058009855 -0.087213315 0.039939944 -0.020303305 0.046439547 -0.08242931
-0.05277884 0.051463313 -0.00020336521 0.0597298 -0.06324361 -0.04864773 0.054909494 0.029977487
-0.025632469 0.06025678 0.02255186 0.026455503 -0.08836224 0.04489023 -0.006294421 0.025639003

model_m.6.bias f4 [32]
00000000: 8915 4e3c 2d1c 8f3c 5e55 9f3d 47d4 58bc
00000010: d8c2 4ebb e7db b2bd 0831 c63a 552e 79bd
00000020: ba67 acbd 3fb5 8abc 754a 713d 48af 493d
00000030: 0b5c ad3d c07d fdbb d544 72bd ca64 d23c
00000040: ab10 83bd 7d12 21bc 7734 163c 975c 3c3d
00000050: 114e 5dbd 6787 76bc ce79 953d b7dd 97bd
00000060: 37af 353c ac3d b9bc cc63 68bd eb53 7e3b
00000070: 1671 143d 8d32 923d 7d76 0abd 92a4 95bb
0.012578377 0.01746949 0.077799544 -0.013234205 -0.0031549241 -0.08733349 0.0015120814 -0.0608352
-0.08418222 -0.016932128 0.0589089 0.049239427 0.084648214 -0.007735938 -0.059147675 0.025682826
-0.063996635 -0.009831068 0.009167782 0.045986738 -0.054029528 -0.015046931 0.07298623 -0.074153356
0.011089138 -0.022612415 -0.0567358 0.0038807343 0.03624066 0.07138548 -0.033804405 -0.0045667375

fc.weight f4 [1, 6976]
00000000: 5412 1ebc f40c 013a d50a 003c fccb b23b
00000010: bd0b 21ba ebf8 61bb 3efe 25bb 5c83 c7bb
00000020: dfce 623b 8051 c23b a0a3 3f3b e325 0dbc
00000030: f0d8 043c 4028 1b3c c8ad 323c 3806 2dbc
00000040: f9a3 d4b8 4553 c3bb f150 773b f0c0 cbb9
00000050: 1d43 b33b 20d9 ebba 836b 153c 4db5 3dbc
00000060: a060 1c3b 599d 56bb 2e82 973b 9ac6 fbbb
00000070: 0c7d 3e3b 8947 eebb 809c 4bba 1d9b 2b3c
00000080: 0872 00bc bb3b e53b fb08 613b 7bc3 403c
00000090: ff4e bdba 4846 2b3c bcb4 1c3c f11b c2ba
000000a0: 664b 31bc 0fad 313c 0663 c13b ede1 f939
000000b0: 4a2a 513b 3f5b 34bc 3a23 e93b 0770 f63b
000000c0: 2c38 aebb fb56 f7bb a021 423c c8a8 4bbb
000000d0: 3763 93bb 8333 0cbc 96f8 a23b 2363 9bbb
000000e0: c050 5eb9 186a 25bc cc04 1e3b 71e4 91bb
000000f0: b39f 313c 9755 6c3b 6bc7 273b 8527 44bc
00000100: 628d d63a 551f 243c 235e cf3b 11da 243c
00000110: 23ba 173c 92b7 32bc 3b80 5b3a 1457 26bc
00000120: 1390 de3b a770 88bb f1d9 803a e912 1f3c
00000130: af0d 893b 3e64 c4bb f3f6 233c 169e 1fbb
00000140: b26d 1cbc 3fad f039 afd2 42bc ce43 08bc
00000150: e82e d83b 02f5 403c c23f b53b 811f 35bc
00000160: 1f94 263b 2aa7 9a3b aef6 233c 89c4 0f3b
00000170: 605e 13bb 8e43 2aba a252 b4ba c074 9b3b
00000180: 8071 97bb b61b 403c 2bb3 e7bb d9ac 11bc
00000190: 9694 8a39 379f 54bb 1b0a ad3b 2190 953b
000001a0: 9fde 713a 9b98 713b 08bf ae3a 66b7 73bb
000001b0: e181 073c 2169 2c3c fc60 3bbc e670 213c
000001c0: c563 d0bb f465 41bb abe9 7c3a 836b 553a
000001d0: 6285 d23b 722a 5c39 8d11 cd3b a1cf a1bb
000001e0: 0b40 c0bb 13a4 eabb a69e c0bb 6070 563b
000001f0: d142 163c 48b7 3c3c d388 953b 6b23 0abc
00000200: 019e e43b 5a1c 403c 19a3 2e3c 87d2 b23a
00000210: b067 0cbc 4f90 27bc 3a4b 203c 4174 043c
00000220: 32b1 e33b 26ff d63b cb8d cf39 84f4 ddbb
00000230: f00d 363b fde0 2bbc 1a79 22bc 1c29 423b
00000240: 2360 533b 1dec 13bb 1901 a6bb bea9 02bc
00000250: d039 c13b 557b 393c c5a2 d33b 1029 223b
00000260: 0e27 ed3b e973 13bb 8eeb 31bc 14ff 033b
00000270: 2ebe 203c 0592 c4bb 4601 ab3b 3b0b 8cbb
00000280: b1a7 30bc 50a7 a63a b6e3 3e3c e75f 3dbc
00000290: 79fa 8c3b 986b e73a d228 6a3a 6a08 1a3c
000002a0: ea91 a43a 4afb 3bbc d685 33bc b746 2cb7
000002b0: bee4 073a 43e4 0bbc c7ca 893a ec47 acbb
000002c0: c49a 423c cfb1 a1ba 71a9 243b 663f 2a3c
000002d0: 7227 3bbc acf2 41bb 7be7 59bb a337 713b
000002e0: 3c8c 083c 721c 353b 4497 123c fd9d 1f3c
000002f0: e121 063b e94a e23b 4d9f dcb9 cc97 6a3b
00000300: d4c6 3b3c dbfa 3a3b a499 3a3c 49ee 423c
00000310: d477 20bc 5990 2d3c 360e ef3a 5eb7 61ba
00000320: 08df ac3b c4e2 cf3b 41f3 15bc 9b84 193b
00000330: c717 aabb 4030 8b3b 85a4 1ebc 69fc 693b
00000340: 58c4 8fba f6a5 04bb 047b 113b bb4d 263c
00000350: 3386 8a3b 069e 063c 79a6 d93b e6f9 b13a
00000360: adef 3dbc 4ab8 d93a 5bc6 93b9 e43c 173c
00000370: cd55 723a 6404 1b3c ed3d 1bbc 71d7 413c
00000380: 32ae 883b 4858 f83a 42d9 a13b eba5 76bb
00000390: 4235 9bbb 18ed 473b ff1f 07bc 3d52 a2bb
000003a0: 246d 2dbc df4a 97b9 525b 113a 0456 523a
000003b0: 0d93 babb b3a5 443b 6fbb 283b 0b80 32bc
000003c0: 29ed 0cbb 31b7 0bbc 37b0 a8bb b286 e63b
000003d0: 79d9 b73b 300a cdbb 8c7e 103c a5ac 163c
000003e0: 3042 29bc 82d8 a73b 6d8c 043c bbec 3a3b
000003f0: 398c 07bc 8cd9 08bb 7d5e af39 daf8 aebb
-0.009647924 0.00049228896 0.007815083 0.0054564457 -0.0006143412 -0.0034480642 -0.0025328542 -0.0060886573
0.0034608168 0.0059301257 0.0029241815 -0.00861499 0.008108363 0.009470046 0.0109056905 -0.010560565
-0.0001013949 -0.0059608542 0.0037737454 -0.00038862927 0.005470647 -0.0017993785 0.009119871 -0.01157887
0.0023861304 -0.0032747595 0.004623673 -0.0076835873 0.0029066233 -0.0072717112 -0.0007767156 0.010473994
-0.007839687 0.006995646 0.0034337628 0.011765356 -0.0014443098 0.010453768 0.009564575 -0.0014809353
-0.010821199 0.010844483 0.005901697 0.0004766131 0.0031916075 -0.011008083 0.007114795 0.007520679
-0.005316755 -0.0075482107 0.011848837 -0.0031075943 -0.0044979113 -0.008557203 0.0049734814 -0.0047420426
-0.00021201652 -0.0100960955 0.0024111746 -0.004452281 0.010841298 0.0036061758 0.002560104 -0.011972313
0.001636904 0.010017236 0.0063283606 0.010061757 0.009260687 -0.010908024 0.0008373295 -0.010152597
0.0067920773 -0.00416382 0.0009830577 0.009709098 0.0041825394 -0.005993395 0.010007608 -0.0024355701
-0.009547638 0.00045905446 -0.011891051 -0.008316947 0.0065973885 0.011777164 0.005531282 -0.011054874
0.0025417877 0.0047196345 0.0100075435 0.0021937212 -0.0022486672 -0.0006495052 -0.0013757537 0.0047441423
-0.0046216846 0.011725357 -0.007070919 -0.008891308 0.00026432116 -0.0032443532 0.0052807457 0.0045643006
0.00092265935 0.0036864642 0.0013332078 -0.0037188171 0.008270712 0.010523112 -0.011436697 0.009853577
-0.0063595497 -0.0029510232 0.00096478564 0.00081413257 0.006424592 0.00020996647 0.0062581957 -0.0049380814
-0.0058670095 -0.0071606725 -0.0058782874 0.003272079 0.009171204 0.011518307 0.00456343 -0.008431296
0.0069768433 0.01172551 0.010659003 0.0013643064 -0.008569643 -0.010227277 0.00978356 0.008084358
0.0069486136 0.006561178 0.0003958776 -0.0067735333 0.0027779303 -0.010490653 -0.009916568 0.0029626554
0.0032253347 -0.0022571154 -0.005066049 -0.00797504 0.0058967844 0.011320909 0.0064586126 0.0024743713
0.0072373217 -0.0022499508 -0.010859383 0.0020141052 0.009810967 -0.005998852 0.0052186577 -0.0042737997
-0.010782168 0.0012714658 0.01165097 -0.011558509 0.0043023196 0.0017655967 0.00089324743 0.00940142
0.0012555693 -0.011473486 -0.010957202 -1.02684635e-05 0.00051839266 -0.008538309 0.0010512703 -0.005257597
0.011877719 -0.0012336316 0.002512541 0.010391092 -0.011422979 -0.0029594107 -0.0033249545 0.0036806844
0.008334216 0.0027635363 0.008947197 0.009742257 0.002046697 0.0069059026 -0.00042080358 0.0035796044
0.011460979 0.002853087 0.01138917 0.011897632 -0.009794194 0.010593497 0.0018238488 -0.00086103927
0.005275611 0.0063441712 -0.0091522345 0.0023424986 -0.0051908228 0.004247695 -0.009682779 0.0035703427
-0.0010968549 -0.0020240522 0.0022198567 0.010150368 0.0042274236 0.008216387 0.0066421595 0.0013578504
-0.011592788 0.0016610709 -0.0002818581 0.009230826 0.00092443527 0.009461496 -0.0094752135 0.01183115
0.0041711563 0.0018947208 0.004939229 -0.0037635516 -0.0047365734 0.003050631 -0.008247375 -0.004953651
-0.010585103 -0.00028856748 0.0005544919 0.00080236816 -0.0056937994 0.003000599 0.0025746485 -0.010894786
-0.0021503663 -0.008527563 -0.0051479596 0.0070351 0.0056106416 -0.006257318 0.008819234 0.009196435
-0.010330722 0.0051222453 0.008090121 0.002852245 -0.008273178 -0.0020881621 0.00033449 -0.005339724
