checkpoints/run_9/1d_cnn_ckpt_15.pth (torch, 52308 bytes, 7 tensors)

model_m.0.weight f4 [8, 1, 8]
0.34620142 -0.29731297 0.30899486 -0.06318544 0.14063841 -0.20056376 0.1458922 0.1292552
0.065388896 0.33947158 -0.17582986 0.3036734 0.016363429 0.13329105 -0.07925542 -0.2480787
0.07423126 -0.06089916 -0.29689682 -0.010961046 -0.18130124 -0.2129384 -0.3017984 0.10591347
-0.024949888 -0.2710467 -0.2913123 -0.13218577 0.15578227 -0.024369216 -0.0541496 -0.25258228
-0.11216844 0.32761797 0.092077546 0.091743365 0.23634267 0.33880016 -0.07580502 0.028220981
-0.04897666 0.23716733 -0.17221707 -0.12637523 -0.11902055 -0.1492123 0.048438255 0.33410743
0.31668875 0.30292645 0.10967702 0.18336639 0.07074656 -0.32604975 0.14053933 0.11209869
-0.024631625 -0.10805292 -0.17007998 -0.30191842 -0.20201457 -0.35223302 0.18141884 -0.06261893
00000000: 5041 b13e 6839 98be 9334 9e3e 5e67 81bd
00000010: 8403 103e 9660 4dbe c464 153e 7a5b 043e
00000020: 9dea 853d 38cf ad3e be0c 34be 147b 9b3e
00000030: 990c 863c 737d 083e aa50 a2bd 5808 7ebe
00000040: 8f06 983d 6671 79bd dc02 98be f695 33bc
00000050: 08a7 39be 860c 5abe 5285 9abe 29e9 d83d
00000060: b563 ccbc a2c6 8abe e326 95be b55b 07be
00000070: 6385 1f3e f3a1 c7bc f9cb 5dbd 7752 81be
00000080: 91b8 e5bd 8bbd a73e 2793 bc3d f2e3 bb3d
00000090: d003 723e 3777 ad3e aa3f 9bbd b02f e73c
000000a0: c09b 48bd fedb 723e ac59 30be 8268 01be
000000b0: 0cc1 f3bd 1ccb 18be 3167 463d 2110 ab3e
000000c0: 0725 a23e 2d19 9b3e 589e e03d 66c4 3b3e
000000d0: 93e3 903d feef a6be 8be9 0f3e ff93 e53d
000000e0: 43c8 c9bc d94a ddbd 7229 2ebe 0d95 9abe
000000f0: e8dc 4ebe e357 b4be dcc5 393e 5b3e 80bd

model_m.0.bias f4 [8]
0.020699456 -0.06071363 -0.15865633 0.2496603 -0.074509054 0.18823034 -0.19372757 0.13036165
00000000: e891 a93c dbae 78bd ce76 22be f3a6 7f3e
00000010: 3498 98bd 74bf 403e 8560 46be 867d 053e

model_m.3.weight f4 [16, 8, 8]
0.010972973 0.04052926 0.017119765 -0.09863187 -0.042290468 0.06700348 0.086579524 0.04806808
0.0421281 -0.10108054 -0.07803644 0.02303347 0.02283305 0.0685855 -0.117346466 0.09176442
0.0428572 -0.06392361 0.12156926 -0.0692603 0.06746264 -0.112258434 0.10049008 -0.058303818
0.08230472 0.041621678 -0.06714354 -0.121068865 0.106430694 0.124485955 0.015229324 -0.029136153
-0.046716675 0.05585207 -0.017926365 0.10220349 0.022955388 -0.014096767 0.061899647 -0.09148194
0.055008616 -0.112474665 0.048385836 0.023012718 -0.07628109 0.10295759 -0.003932594 -0.04003375
0.015951335 -0.004712552 0.10362746 0.12161508 0.07562718 0.068253815 0.04686728 -0.057758197
0.0808775 0.009221689 0.007625518 -0.015594516 -0.013146927 0.11511213 0.09076067 0.011005285
-0.08993681 -0.09941334 -0.03386356 0.052304354 -0.035546787 0.03135594 0.07475907 0.03738919
-0.08226241 -0.11589028 -0.10662474 0.0034206957 0.009615824 0.069930255 0.12480369 -0.06476809
-0.11099781 -0.060109064 -0.036727086 0.07633786 -0.10151106 0.03150502 0.11524491 0.07450864
-0.05467375 -0.10954082 0.11948593 -0.06497597 -0.052333005 -0.022527177 -0.105955556 -0.07037565
0.025469437 -0.01985091 0.10025512 -0.04283923 -0.019644886 -0.041055053 -0.04832603 -0.1227455
0.09273081 0.103020914 -0.026179561 0.0745428 0.1115787 -0.09569798 0.0829746 0.08923347
-0.11947185 0.04014112 -0.08627331 -0.08807044 -0.056721404 0.07648867 -0.09128615 0.11141604
-0.10924213 -0.018716661 -0.1227853 0.09053883 -0.10147592 -0.035444204 0.115966104 0.008590451
0.07418543 0.08243886 0.07430059 -0.12463282 -0.110275745 0.07336308 -0.028794065 -0.06448819
-0.0051554292 -0.050618723 -0.09659664 0.056368276 0.040213034 -0.11571868 0.110427245 -0.000691846
-0.03299883 -0.05072798 0.042256802 0.08552256 0.017240897 -0.054118276 -0.09873323 0.013707519
0.10006899 -0.033663914 0.06580447 -0.01876475 -0.079395264 -0.039066672 0.1227195 -0.0248802
-0.055817276 -0.014560327 -0.047329783 0.095431566 0.010345116 -0.02983579 -0.05260624 0.088819265
0.05226004 -0.027558938 -0.05577004 -0.10146612 -0.011484548 0.116776615 -0.09383139 0.072072715
0.097950965 0.102326244 0.06295727 -0.024898097 -0.039956465 0.08339687 0.10068734 0.024603128
-0.03241475 0.111312464 -0.060519695 -0.12252359 -0.038522854 0.04995294 -0.07202828 -0.08628371
0.015759155 -0.027362004 0.028538167 -0.09459682 0.11739446 0.1133841 -0.11367807 -0.00072042644
0.114250824 0.003559336 0.088410825 0.11878215 0.123166606 -0.039710313 -0.044638246 0.11336157
0.0126775205 -0.038941607 -0.06785467 -0.01382713 0.027704895 -0.039114743 -0.059616312 -0.0011788756
-0.124966756 0.08581096 -0.0050284564 -0.052183405 0.10577093 0.06834558 -0.09466347 -0.1157897
-0.013412118 0.086275235 0.085032 0.06802288 0.119631454 -0.045829564 0.10675995 -0.05497621
0.08735719 -0.09767431 -0.080688566 0.10827829 -0.05747609 0.029593095 -0.112702355 -0.045269594
-0.012227699 0.119182125 -0.028445348 0.06697491 -0.02398844 0.086092845 -0.016013548 -0.08297157
0.10224396 0.0472783 -0.11946678 -0.08043817 0.025345236 0.08651461 -0.11340064 0.0780973
00000000: fcc7 333c 0202 263d c03e 8c3c 81ff c9bd
00000010: c538 2dbd 1f39 893d 9b50 b13d 09e3 443d
00000020: 848e 2c3d 5003 cfbd 92d1 9fbd b0b0 bc3c
00000030: 600c bb3c 8e76 8c3d 5853 f0bd fcee bb3d
00000040: 088b 2f3d 62ea 82bd 4ef9 f83d 58d8 8dbd
00000050: da29 8a3d c0e7 e5bd becd cd3d fccf 6ebd
00000060: 618f a83d 7e7b 2a3d 8d82 89bd f4f2 f7bd
00000070: 56f8 d93d 7ef2 fe3d 6a84 793c f1ae eebc
00000080: fc59 3fbd 24c5 643d 50da 92bc 1050 d13d
00000090: f00c bc3c 20f6 66bc 7c8a 7d3d e25a bbbd
000000a0: b750 613d 1e59 e6bd 3a30 463d 2b85 bc3c
000000b0: 4339 9cbd 6edb d23d fddc 80bb 6efa 23bd
000000c0: 60ac 823c c06b 9abb a23a d43d 5411 f93d
000000d0: 6ce2 9a3d a8c8 8b3d e8f7 3f3d dc93 6cbd
000000e0: 1aa3 a53d 9116 173c 7bdf f93b 2480 7fbc
000000f0: 3566 57bc e9bf eb3d bbe0 b93d 834f 343c
00000100: ca30 b8bd 3999 cbbd 84b4 0abd 173d 563d
00000110: 8299 11bd 166f 003d 491b 993d 6825 193d
00000120: 3279 a8bd e257 edbd 125e dabd c02d 603b
00000130: b08b 1d3c 9837 8f3d 1499 ff3d 22a5 84bd
00000140: d252 e3bd ec34 76bd 246f 16bd 0657 9c3d
00000150: 08e5 cfbd 680b 013d 8605 ec3d fc97 983d
00000160: 95f1 5fbd f056 e0bd 0ab5 f43d 1f12 85bd
00000170: 225b 56bd ea8a b8bc 3aff d8bd 1c21 90bd
00000180: 48a5 d03c 609e a2bc 8e52 cd3d 3078 2fbd
00000190: 50ee a0bc 5829 28bd 84f1 45bd fe61 fbbd
000001a0: a7e9 bd3d a1fc d23d 8576 d6bc e5a9 983d
000001b0: 6083 e43d 4dfd c3bd 96ee a93d 0ac0 b63d
000001c0: a8ad f4bd 046b 243d 10b0 b0bd 465e b4bd
000001d0: b454 68bd 18a6 9c3d 3cf4 babd 182e e43d
000001e0: 56ba dfbd af53 99bc dc76 fbbd 6c6c b93d
000001f0: 9bd2 cfbd f12d 11bd a37f ed3d f7be 0c3c
00000200: 88ee 973d b4d5 a83d e82a 983d 7e3f ffbd
00000210: 40d8 e1bd 623f 963d 88e1 ebbc 6212 84bd
00000220: e0ee a8bb 9455 4fbd 76d4 c5bd 6ce2 663d
00000230: 6cb6 243d eafd ecbd ae27 e23d 005d 35ba
00000240: c829 07bd 24c8 4fbd 7815 2d3d 7426 af3d
00000250: c83c 8d3c 20ab 5dbd a634 cabd 8095 603c
00000260: f8f0 cc3d 2ce3 09bd 7ec4 863d 88b8 99bc
00000270: fc99 a2bd 6004 20bd 5c54 fb3d 90d1 cbbc
00000280: a8a0 64bd 708e 6ebc e0dc 41bd a071 c33d
00000290: 907e 293c 306a f4bc a479 57bd e0e6 b53d
000002a0: a00e 563d 48c3 e1bc 206f 64bd 78cd cfbd
000002b0: b029 3cbc 9428 ef3d ac2a c0bd dc9a 933d
000002c0: 849a c83d 6c90 d13d beef 803d 18f7 cbbc
000002d0: 64a9 23bd facb aa3d 2a35 ce3d 808c c93c
000002e0: 54c5 04bd caf7 e33d 80e3 77bd a6ed fabd
000002f0: 24ca 1dbd 749b 4c3d 9083 93bd 84b5 b0bd
00000300: 5819 813c 4826 e0bc e0c8 e93c fabb c1bd
00000310: 826c f03d ec35 e83d 0cd0 e8bd 00db 3cba
00000320: 56fc e93d c043 693b bc10 b53d 0e44 f33d
00000330: c63e fc3d 48a7 22bd 98d6 36bd 1c2a e83d
00000340: 60b5 4f3c 3c81 1fbd 64f7 8abd 308b 62bc
00000350: 60f5 e23c c836 20bd 3c30 74bd 8084 9aba
00000360: 92ee ffbd a8bd af3d c0c5 a4bb 44be 55bd
00000370: 6e9e d83d c4f8 8b3d ecde c1bd 2623 edbd
00000380: 80be 5bbc 12b1 b03d 4225 ae3d 944f 8b3d
00000390: 5601 f53d c8b7 3bbd f6a4 da3d bc2e 61bd
000003a0: 54e8 b23d 7809 c8bd 0c40 a5bd 02c1 dd3d
000003b0: 0c6c 6bbd 386d f23c 7ed0 e6bd 9c6c 39bd
000003c0: b056 48bc c215 f43d 3806 e9bc 242a 893d
000003d0: 6883 c4bc 7251 b03d d82e 83bc 00ed a9bd
000003e0: 4865 d13d e4a6 413d 00ab f4bd c4bc a4bd
000003f0: d0a0 cf3c 922e b13d 983e e8bd 7af1 9f3d

model_m.3.bias f4 [16]
0.078119315 0.08486714 -0.043995023 0.025161728 -0.00831407 0.050143324 -0.08989611 -0.016657487
-0.07188709 0.03521205 -0.06899814 -0.11964503 -0.095192015 0.0050632893 -0.04553381 0.0114457505
00000000: 05fd 9f3d d3ce ad3d 2034 34bd f81f ce3c
00000010: bd37 08bc 1663 4d3d 741b b8bd 4875 88bc
00000020: 8a39 93bd 833a 103d e64e 8dbd 7408 f5bd
00000030: 08f4 c2bd f3e9 a53b a981 3abd f586 3b3c

model_m.6.weight f4 [32, 16, 8]
-0.06943907 -0.04420177 0.07465746 -0.04073414 0.075472884 -0.057052188 0.03346146 0.055313997
0.06117558 0.07928542 0.07264731 0.008410751 -0.043191385 -0.06781437 0.031114489 0.0026365067
-0.05871763 0.059938695 -0.047611725 -0.032614075 -0.03205921 -0.067700915 0.0136047285 -0.087535866
0.06939093 -0.026235739 -0.030273722 -0.06662495 0.055894338 -0.07937323 0.068340726 -0.051395647
-0.01771313 -0.033694413 -0.07697226 0.061843976 0.07536054 0.06752141 -0.060003288 -0.04074221
0.05065496 -0.034460306 0.0698906 0.0062131723 0.007318747 -0.033203457 -0.06788675 0.085594244
-0.013523912 -0.016541658 0.028414868 0.043212045 0.08480517 0.08429693 0.047794323 0.06370732
-0.055740587 0.05096579 -0.08378687 0.022843085 -0.024664504 -0.065745324 0.0769159 0.061698906
-0.044454977 0.07634606 -0.0352284 -0.06371112 0.0024943769 -0.07025945 -0.08133677 0.080896765
-0.028485063 0.05848836 0.056003697 -0.032843836 0.07141981 -0.014273547 -0.043016296 -0.041477155
0.023540374 0.03995989 -0.08500645 0.04762008 0.068665445 0.038101815 -0.028988317 -0.06337187
-0.0862794 0.055128068 -0.048073318 0.008258833 -0.052905094 0.002448363 0.041388404 0.018988958
-0.019260803 0.06938854 0.05125964 0.042657204 -0.0112719005 -0.0020802736 -0.043561295 -0.033983003
-0.009025453 0.049470905 0.012523156 0.052864432 0.07451387 -0.05731062 0.034784775 0.032400053
-0.07188304 0.04844108 0.042121824 -0.03725828 0.08625717 0.069781326 -0.03246341 0.0068537835
-0.04764066 -0.06395764 0.016559687 0.041626852 -0.07007878 -0.039062046 0.04118021 0.008145879
-0.04923207 0.02735727 -0.013366364 0.08790173 0.010637312 0.06266028 -0.03558528 -0.0074685127
0.046105925 -0.071923986 0.0072619426 -0.030270074 -0.07631743 -0.0009154142 0.057275765 0.08731686
0.02886135 -0.08683711 -0.06089112 -0.06826304 0.05981392 0.012721636 -0.06337277 -0.05076415
0.01678081 -0.010897553 -0.03576823 0.07629408 -0.0534594 0.010776727 -0.08585747 0.085844226
-0.04069354 0.049198825 -0.069102645 -0.025832495 0.076072685 -0.070674315 -0.01232649 0.073863745
0.028639864 -0.062350243 0.086116254 -0.08488688 -0.001475175 -0.025495457 -0.0836802 -0.0028468368
-0.04714563 0.020904131 0.056114122 -0.08600937 0.07056356 -0.06294282 0.032578796 -0.06576039
-0.05298554 -0.05205341 -0.007876361 0.0019877085 -0.05185668 -0.038716886 -0.025677482 0.08000906
-0.087123826 0.08691554 -0.02194853 0.043524943 -0.039002366 -0.02591557 0.055937644 -0.023789473
-0.075405024 0.016161045 0.06839575 0.06069672 0.024381252 0.022119641 -0.042985015 -0.0013570924
-0.027485888 0.08584013 0.048868712 0.008684074 0.0616424 -0.014132828 -0.030020779 -0.08005311
-0.08836543 0.001141031 -0.08712221 -0.077625506 0.06550235 -0.062799886 0.0021014207 0.0112408595
0.03642711 0.009744372 0.038299453 -0.08518318 -0.054589882 -0.074691735 0.025038946 0.07556585
-0.046533696 -0.015584316 -0.036210116 0.07339412 0.07990716 0.08800247 -0.018505488 -0.070680805
0.055975527 -0.026224287 -0.039293457 -0.04765711 -0.004277232 -0.053924866 0.01755738 0.07653742
0.023131462 0.026737466 -0.074008316 -0.023270397 0.075762495 -0.004573039 0.020841684 -0.0353475
00000000: 1236 8ebd ea0c 35bd 03e6 983d d7d8 26bd
00000010: 8791 9a3d 8eaf 69bd e20e 093d ee90 623d
00000020: 3f93 7a3d 6560 a23d 1dc8 943d 3fcd 093c
00000030: 73e9 30bd 43e2 8abd d0e3 fe3c 3ec9 2c3b
00000040: e681 70bd 4782 753d 8304 43bd 5696 05bd
00000050: 8550 03bd c7a6 8abd 5ee6 5e3c 0146 b3bd
00000060: d51c 8e3d 55ec d6bc 9900 f8bc a972 88bd
00000070: 76f1 643d 6f8e a2bd 39f6 8b3d 3e84 52bd
00000080: 201b 91bc 2703 0abd a2a3 9dbd 1c50 7d3d
00000090: a056 9a3d aa48 8a3d 02c6 75bd 4ee1 26bd
000000a0: 937b 4f3d 4026 0dbd ce22 8f3d de97 cb3b
000000b0: 1ad2 ef3b 5900 08bd 3508 8bbd 094c af3d
000000c0: 6693 5dbc 5f82 87bc 4cc6 e83c 1dff 303d
000000d0: 55ae ad3d dea3 ac3d fbc3 433d fc78 823d
000000e0: 3e50 64bd 81c1 503d 7398 abbd 6c21 bb3c
000000f0: 370d cabc 7ca5 86bd 1586 9d3d feb7 7c3d
00000100: 6c16 36bd 535b 9c3d a84b 10bd fa7a 82bd
00000110: b378 233b 30e4 8fbd e493 a6bd 34ad a53d
00000120: 8259 e9bc 7e91 6f3d 2264 653d 4287 06bd
00000130: 8d44 923d 98db 69bc db31 30bd f3e3 29bd
00000140: bed7 c03c fbac 233d dd17 aebd 460d 433d
00000150: 78a0 8c3d a610 1c3d e878 edbc 1cc9 81bd
00000160: 41b3 b0bd f8cd 613d 87e8 44bd 0e50 073c
00000170: 03b3 58bd b774 203b e386 293d bb8e 9b3c
00000180: d5c8 9dbc 941b 8e3d a1f5 513d 52b9 2e3d
00000190: c7ad 38bc 3355 08bb 546d 32bd c331 0bbd
000001a0: 7edf 13bc 01a2 4a3d ec2d 4d3c 6088 583d
000001b0: ba9a 983d 8abe 6abd 7b7a 0e3d ebb5 043d
000001c0: 6a37 93bd 276a 463d ef87 2c3d 239c 18bd
000001d0: 99a7 b03d 83e9 8e3d 5af8 04bd b495 e03b
000001e0: da22 43bd 39fc 82bd 2ea8 873c eb80 2a3d
000001f0: 7785 8fbd 86ff 1fbd 94ac 283d 4b76 053c
00000200: 91a7 49bd 5a1c e03c 98fe 5abc d205 b43d
00000210: 1f48 2e3c 0854 803d dfc1 11bd 6dba f4bb
00000220: 91d9 3c3d e24c 93bd 97f5 ed3b f2f8 f7bc
00000230: 504c 9cbd 68f8 6fba fe99 6a3d 2fd3 b23d
00000240: a36e ec3c a8d7 b1bd f868 79bd 7ecd 8bbd
00000250: 71ff 743d 696e 503c 95c9 81bd 12ee 4fbd
00000260: e977 893c a68b 32bc b581 12bd 1240 9c3d
00000270: 3ef8 5abd df90 303c 0bd6 afbd 19cf af3d
00000280: 45ae 26bd b584 493d b085 8dbd ab9e d3bc
00000290: ffcb 9b3d b2bd 90bd 0cf5 49bc e045 973d
000002a0: 269e ea3c f862 7fbd b85d b03d 2cd9 adbd
000002b0: a95a c1ba d9db d0bc 8660 abbd ff91 3abb
000002c0: c71b 41bd 243f ab3c ecd7 653d ae25 b0bd
000002d0: a183 903d 2ae8 80bd 5871 053d 62ad 86bd
000002e0: 5e07 59bd f535 55bd da0b 01bc 3744 023b
000002f0: ac67 54bd 9995 1ebd 9559 d2bc cadb a33d
00000300: fa6d b2bd c600 b23d 67cd b3bc 3647 323d
00000310: f2c0 1fbd e44c d4bc df1e 653d 24e2 c2bc
00000320: f36d 9abd 2b64 843c 1213 8c3d 209d 783d
00000330: 31bb c73c 4034 b53c 0e11 30bd 77e0 b1ba
00000340: 162a e1bc f3cc af3d 8f2a 483d a547 0e3c
00000350: be7c 7c3d 618d 67bc 23ee f5bc e3f2 a3bd
00000360: eff8 b4bd a68e 953a 216d b2bd 1ffa 9ebd
00000370: 1926 863d 3a9d 80bd fdb7 093b 952b 383c
00000380: 9834 153d dca6 1f3c e3df 1c3d 8574 aebd
00000390: a499 5fbd fbf7 98bd 7a1e cd3c 45c2 9a3d
000003a0: 1e9a 3ebd 5c55 7fbc 0f51 14bd a84f 963d
000003b0: 5da6 a33d a43a b43d d298 97bc 19c1 90bd
000003c0: 9846 653d 51d4 d6bc 2df2 20bd 1a34 43bd
000003d0: 0628 8cbb 52e0 5cbd 7fd4 8f3c a7bf 9c3d
000003e0: 317e bd3c 8808 db3c ac91 97bd 8fa1 bebc
000003f0: 5e29 9b3d 6ed9 95bb 2ebc aa3c 8ac8 10bd

model_m.6.bias f4 [32]
-0.07466982 0.009129479 0.08375933 -0.07361363 -0.0696302 -0.06438003 -0.0365732 0.016773762
0.023184227 0.012329017 0.009734552 -0.069007486 0.07348969 0.009062994 0.017496295 -0.06537367
-0.081339695 -0.03519993 0.034300316 0.055973485 -0.030472677 -0.07637478 -0.0548545 -0.04464268
0.08773956 0.00645132 -0.08419331 0.06583465 -0.032024156 -0.05648214 0.077575825 0.008829965
00000000: 7eec 98bd cf93 153c 038a ab3d bec2 96bd
00000010: 479a 8ebd add9 83bd c8cd 15bd 2169 893c
00000020: d9ec bd3c a5ff 493c ac7d 1f3c cc53 8dbd
00000030: c381 963d f47c 143c 6454 8f3c a1e2 85bd
00000040: 6d95 a6bd cd2d 10bd 7d7e 0c3d 7444 653d
00000050: d6a1 f9bc 616a 9cbd 1daf 60bd 3edb 36bd
00000060: ccb0 b33d 9865 d33b 8b6d acbd 51d4 863d
00000070: c32b 03bd d159 67bd 13e0 9e3d 8fab 103c

fc.weight f4 [1, 6976]
0.009060172 0.0033006887 -0.0020218298 -0.0047143865 0.009169062 0.0003686145 -0.011375442 -0.0037317849
0.010854224 0.0053733336 0.0017104918 0.0030468698 -0.01064439 0.007820729 0.0068548084 0.008566348
0.0023379135 0.0055142697 0.003657868 0.00063648785 0.011636255 -0.011428143 -0.001241874 -0.01110337
-0.009677955 0.002024199 -0.0055509694 -0.00522726 -0.0063434625 -0.0045721373 0.009864118 0.0023308643
0.002593454 0.008111142 -0.004185499 0.007839737 -0.007578247 0.005151142 -0.0017985031 -0.009874474
0.007307034 -0.011253143 0.0012401642 0.006693772 -0.006296716 0.008410078 0.001933603 0.0037713205
0.011741755 -0.002598749 0.0005679131 -0.010296294 -0.0086860275 0.011687327 -0.005706859 0.0026288147
0.0009669885 0.0031370635 -0.009935911 0.0010696807 0.011846652 0.009685541 -0.004603529 0.0061999443
0.007795184 0.011509032 0.011095148 -0.0033061323 0.0066720275 0.0048532356 0.0041234572 0.0027148235
0.010967017 0.0050112177 -0.0099438485 -0.0013575016 -0.008199315 -0.006793824 0.011593244 0.0013042287
-0.011817604 -0.009345004 -0.0059464634 -0.0068206596 -0.002060997 -0.0017769455 -0.009129534 -0.0043785237
0.009483453 -0.011108244 -0.008782221 0.001089731 -0.004935504 -0.006240355 -0.0006121115 0.0061615463
0.007846781 -0.005442929 0.010782621 0.009701298 0.002761738 -0.006038567 -0.007988412 0.00065121445
0.00073349243 -0.0034683675 -0.011964898 -0.0009383774 0.009664959 0.0067584203 -0.0072707427 -0.0062267687
-0.005245984 0.0034179564 -0.0062968703 0.011254666 0.011908638 0.006362242 -0.006504597 -0.00964697
-0.005058896 0.0008379045 -0.003811738 -0.0022451566 0.011875924 0.002338824 0.004042354 -0.0047845524
-0.001661926 0.0004621508 -0.0032146529 0.010333154 -0.0039892476 -0.01059633 -0.009742052 0.0052656406
-0.0016557673 -0.010193789 -0.008231878 -0.0057112775 0.006408513 -0.010946999 0.005106521 0.00094709656
-0.009691298 -0.00638709 -0.0071640485 -0.0013412863 0.0054904986 0.011605441 -0.008590269 0.0077156834
-0.0054807146 -0.008232162 0.0024482873 -0.008064516 -0.006659562 0.009009213 0.010878583 -0.011095442
-0.0035978798 0.002591393 0.0103888335 -0.00830001 0.0018363729 0.008762149 0.00097091205 0.010532487
-0.0053500948 0.0052026147 0.010158781 -0.00022114301 0.0062989583 0.002610698 -0.007375693 -0.0050026854
-0.0056749578 0.0019163188 -0.006101113 -0.0042479825 -0.0075436016 0.0016285564 0.007822136 0.0055036293
-0.008708036 -0.003185034 0.010209222 0.005933294 -0.0012550177 -0.01085109 0.008700605 -0.010368684
0.0016405197 -0.009302042 -0.006588765 0.006906684 0.0033241888 -0.009684787 0.006128885 -0.0066299727
0.009577614 0.0034839634 0.002101246 -0.006521536 0.003977858 0.003004751 -0.011204353 0.010455746
-0.004154446 0.009618497 0.008852076 0.005528665 -0.004496208 0.010964031 -0.0027514545 -0.00040812997
-0.011231093 0.011025797 0.00994749 0.00082659844 0.004223482 0.00031882085 -0.006282026 -0.002506792
-0.002694742 -0.0049762875 -0.005109272 -0.009044053 9.314329e-05 -0.0073525994 0.0088223815 -0.0041253897
-0.0074797478 -0.0051901313 0.0060619013 0.002180897 4.5381476e-05 0.0008601142 0.008258338 0.0046743983
-0.0040226863 0.004756773 0.009622185 0.008692663 -0.011007746 -0.008552784 -0.00068119314 0.00217142
0.007639429 0.00900748 -0.011202886 -0.0048171077 0.0004418706 -0.011752419 -1.4698998e-05 0.005911813
00000000: 1e71 143c 5e50 583b ad80 04bb 247b 9abb
00000010: d539 163c 9a42 c139 1060 3abc f690 74bb
00000020: ead5 313c ca12 b03b 9532 e03a fead 473b
00000030: cf65 2ebc 8422 003c 4d9e e03b de59 0c3c
00000040: ae37 193b 0cb1 b43b d7b8 6f3b fad9 263a
00000050: fea5 3e3c 1b3d 3bbc 60c6 a2ba e9ea 35bc
00000060: 4990 1ebc 6da8 043b e8e4 b5bb 6f49 abbb
00000070: d2dc cfbb ded1 95bb 1c9d 213c 6ac1 183b
00000080: f0f6 293b 98e4 043c 8326 89bb 3e72 003c
00000090: f252 f8bb e9ca a83b c0bb ebba 8cc8 21bc
000000a0: d86f ef3b 1a5f 38bc 018d a23a 6e57 db3b
000000b0: af54 cebb 6cca 093c f370 fd3a 4228 773b
000000c0: 7d60 403c c64f 2abb 01e0 143a cab1 28bc
000000d0: d74f 0ebc 347c 3f3c 9a00 bbbb 3148 2c3b
000000e0: 807d 7d3a 3197 4d3b 3bca 22bc 8734 8c3a
000000f0: 7618 423c 1ab0 1e3c 33d9 96bb e728 cb3b
00000100: be6e ff3b 6190 3c3c 6cc8 353c b2ab 58bb
00000110: 06a1 da3b e407 9f3b 111e 873b 2eeb 313b
00000120: 01af 333c 2435 a43b 86eb 22bc 32ee b1ba
00000130: 6b56 06bc ba9e debb 97f1 3d3c a7f2 aa3a
00000140: a09e 41bc ca1b 19bc 8dda c2bb d77f dfbb
00000150: cb11 07bb 66e8 e8ba 0a94 15bc b879 8fbb
00000160: 7c60 1b3c 5aff 35bc 4ee3 0fbc 4ed5 8e3a
00000170: 02ba a1bb e47b ccbb 1b76 20ba cce6 c93b
00000180: c98f 003c 995a b2bb 97a9 303c 31f2 1e3c
00000190: 46fe 343b 2cdf c5bb d4e1 02bc 43b6 2a3a
000001a0: d847 403a 8d4d 63bb 6b08 44bc 71fd 75ba
000001b0: c759 1e3c bd75 dd3b 693f eebb ec09 ccbb
000001c0: 81e6 abbb cbff 5f3b fa55 cebb 7e65 383c
000001d0: 731c 433c 5b7a d03b 8424 d5bb 530e 1ebc
000001e0: 18c5 a5bb d2a6 5b3a 5ace 79bb 7a23 13bb
000001f0: 3c93 423c f546 193b b975 843b bcc7 9cbb
00000200: fcd4 d9ba d54c f239 edac 52bb 644c 293c
00000210: 3cb8 82bb 3b9c 2dbc 219d 1fbc 658b ac3b
00000220: 5506 d9ba da03 27bc 00df 06bc ab25 bbbb
00000230: 81fe d13b 0b5b 33bc 9a54 a73b 9346 783a
00000240: 40c8 1ebc cb4a d1bb 65c0 eabb 1ace afba
00000250: a4e9 b33b bf24 3e3c 33be 0cbc d8d3 fc3b
00000260: 9197 b3bb 31e0 06bc 7273 203b 0821 04bc
00000270: 7438 dabb 619b 133c 163c 323c a8c9 35bc
00000280: 68ca 6bbb 5cd4 293b ed35 2a3c c4fc 07bc
00000290: 73b2 f03a 1e8f 0f3c ce84 7e3a 7490 2c3c
000002a0: d94f afbb b27a aa3b 0471 263c a0e2 67b9
000002b0: 7e67 ce3b 3f18 2b3b ccaf f1bb 91ed a3bb
000002c0: fff4 b9bb fd2c fb3a d8eb c7bb a932 8bbb
000002d0: 5130 f7bb 4975 d53a 6b28 003c ca57 b43b
000002e0: 26ac 0ebc 01bc 50bb 9544 273c 146c c23b
000002f0: 687f a4ba c5c8 31bc fb8c 0e3c 6ae1 29bc
00000300: b506 d73a 9867 18bc 91e6 d7bb 7751 e23b
00000310: a2da 593b f1ac 1ebc d0d4 c83b 3e40 d9bb
00000320: 6deb 1c3c 3553 643b 0fb5 093b 9cb2 d5bb
00000330: b158 823b 5beb 443b 7692 37bc 944e 2b3c
00000340: 0522 88bb e796 1d3c 4c08 113c ce29 b53b
00000350: ed54 93bb 7ba2 333c bf51 34bb 47fa d5b9
00000360: 9e02 38bc 8ba5 343c ccfa 223c 15b0 583a
00000370: 2365 8a3b 6927 a739 74d9 cdbb fe48 24bb
00000380: 459a 30bb 2010 a3bb ae6b a7bb 822d 14bc
00000390: ec55 c338 13ee f0bb c08b 103c 472e 87bb
000003a0: ac18 f5bb fa11 aabb eaa2 c63b 61ed 0e3b
000003b0: fd57 3e38 4979 613a fb4d 073c b22b 993b
000003c0: bdd0 83bb b4de 9b3b 5ea6 1d3c ac6b 0e3c
000003d0: d559 34bc fa20 0cbc 1992 32ba 624e 0e3b
000003e0: 2d54 fa3b 1c94 133c 4f8c 37bc d4d8 9dbb
000003f0: deaa e739 388d 40bc b79b 76b7 e2b7 c13b
