checkpoints/run_9/1d_cnn_ckpt_1.pth (torch, 52296 bytes, 7 tensors)

model_m.0.weight f4 [8, 1, 8]
0	0x3eab90de	0.33508962
1	0xbe8488fc	-0.2588576
2	0x3bbf4615	0.005837212
3	0x3eacc99c	0.33747566
4	0x3cb3be17	0.021941228
5	0xbe97b2ff	-0.2962875
6	0xbdb0a37a	-0.08624931
7	0xbe7b193e	-0.24521348
8	0xbe7b8756	-0.24563345
9	0xbeb1ad36	-0.34702462
10	0xbe9c6fae	-0.30553955
11	0x3b1b90d3	0.0023737445
12	0xbe8179d7	-0.2528827
13	0xbe50a69d	-0.20376058
14	0x3dcdc2fa	0.100469545
15	0xbdb201f7	-0.08691781
16	0x3e9836eb	0.297294
17	0xbeaa9612	-0.3331762
18	0x3ea8f2f8	0.3299787
19	0x3e9264d9	0.28592566
20	0x3d63a396	0.05557593
21	0x3cf48731	0.02984962
22	0xbe23de6d	-0.16002817
23	0x3e8647f5	0.26226774
24	0xbe2149fb	-0.15750878
25	0xbe4eef67	-0.20208512
26	0xbeab0832	-0.3340469
27	0x3e81bd7c	0.25339878
28	0xbcc3d347	-0.023904456
29	0x3dd3e0f2	0.10345639
30	0x3e806baf	0.25082156
31	0x3b564e86	0.0032700612
32	0x3db7f80a	0.089828566
33	0xbe82dd0b	-0.25559267
34	0x3e138102	0.14404681
35	0x3e0f956c	0.14021844
36	0xbd4b0fe8	-0.049575716
37	0x3e206480	0.15663338
38	0x3d00bf2c	0.031432316
39	0x3e8b7ee1	0.27245238
40	0x3ea97e0a	0.33103973
41	0x3ba65872	0.0050764615
42	0xbbf148f5	-0.0073634335
43	0x3e9656a1	0.29362968
44	0x3c8e9781	0.017406227
45	0xbda2a0a2	-0.079407945
46	0xbe9050f7	-0.2818677
47	0x3ea58586	0.32328433
48	0xbe6e112f	-0.23248743
49	0x3e81c697	0.25346825
50	0xbd4fbd29	-0.050717507
51	0x3cce6539	0.025194751
52	0x3dfc5528	0.1232093
53	0x3df48fdc	0.119415015
54	0xbe00b7ce	-0.12570116
55	0x3e0824f1	0.13295342
56	0xbe44a480	-0.19203377
57	0xbc47ef37	-0.012203029
58	0x3e141240	0.14460087
59	0xbe0c9bb1	-0.13731267
60	0xbda7ab37	-0.081869535
61	0x3e45cb05	0.19315727
62	0x3e44d7cc	0.19222945
63	0x3e833ac5	0.25630775

model_m.0.bias f4 [8]
0	0xbe6cb797	-0.23116909
1	0x3e1c619f	0.15271614
2	0xbe24af49	-0.16082491
3	0x3e20fdcf	0.1572182
4	0x3c58afb2	0.013225483
5	0xbe1dc949	-0.15408815
6	0x3e8da472	0.27664524
7	0xbe97a4c6	-0.296179

model_m.3.weight f4 [16, 8, 8]
0	0x3a691600	0.0008891523
1	0x3d9b4afe	0.07582663
2	0xbded6040	-0.11590624
3	0xbd5e0074	-0.05419965
4	0xbdb5fed2	-0.08886494
5	0x3bc8eb40	0.0061315596
6	0x3d4975cc	0.049184605
7	0x3d3e2d1c	0.04642974
8	0xbc89485c	-0.016758136
9	0x3defb9db	0.11705371
10	0xbdac9ac0	-0.08427954
11	0xbd8d4ca3	-0.06899383
12	0xbdb60cd4	-0.088891655
13	0x3d99c314	0.07507911
14	0xbdf04da5	-0.117335595
15	0xbc35a117	-0.01108577
16	0x3dd6dae8	0.10490972
17	0xbd54ed44	-0.051984087
18	0xbc1beb30	-0.009516522
19	0x3c1d2fc0	0.009593904
20	0xbcbcc7f0	-0.023044556
21	0xbdc5f730	-0.09666288
22	0xbde1e86a	-0.110306576
23	0xbd3b82b0	-0.04577893
24	0x3c413f76	0.011794915
25	0xbdce108c	-0.1006175
26	0xbcaba283	-0.020951515
27	0x3df2e1df	0.11859488
28	0xbddff209	-0.109348364
29	0xbd91abd8	-0.07112855
30	0xbd9cd474	-0.0765771
31	0x3df0fff6	0.11767571
32	0x3d0aacee	0.033856325
33	0x3ce73501	0.028223516
34	0xbce8e0f8	-0.028427586
35	0xbb1cbe5a	-0.002391717
36	0x3de6cb97	0.112693004
37	0x3db38810	0.08766186
38	0x3deffdc9	0.117183276
39	0x3dd407a7	0.10353022
40	0x3ca40f28	0.020026758
41	0x3b9938e0	0.0046759695
42	0x3daa81fe	0.08325575
43	0xbc7a6ee0	-0.015285224
44	0xbd648f0c	-0.055800483
45	0x3ddf747a	0.10910888
46	0xbd4cabb0	-0.04996842
47	0xbdc8f026	-0.0981143
48	0x3dc53a05	0.09630207
49	0x3d440c30	0.047863185
50	0xbdfd3772	-0.12364091
51	0x3df5506a	0.119782284
52	0xbd147b93	-0.036250662
53	0xbd324eab	-0.043532055
54	0x3ddc753d	0.10764549
55	0x3d55ae04	0.052167907
56	0x3c2b38e0	0.010450572
57	0xbdbdc102	-0.09265329
58	0x3dec314e	0.115328416
59	0x3dbd2c02	0.092369094
60	0xbd3ae19c	-0.045625314
61	0x3cd1e6e0	0.025622785
62	0x3db2faf2	0.0873927
63	0xbcad53c0	-0.0211581
64	0xbda53878	-0.08067411
65	0xbd379758	-0.044822067
66	0xbd35617c	-0.04428242
67	0xbc90b068	-0.017662242
68	0xbca53340	-0.02016604
69	0xbd8bdd02	-0.06829263
70	0x3d0a5ffc	0.033782944
71	0xb9ee4800	-0.00045448542
72	0xbde14465	-0.10999373
73	0xbd73054d	-0.059331227
74	0xbdfe6af6	-0.12422745
75	0x3dc07c30	0.09398687
76	0xbd3ffb55	-0.04687055
77	0xbbb0a518	-0.0053907745
78	0x3d80af24	0.062834054
79	0xbdd2087d	-0.10255525
80	0xbdb73066	-0.08944778
81	0x3dda04c0	0.10645437
82	0xbdd0ae30	-0.10189474
83	0x3d837f88	0.06420809
84	0xbd9efe4c	-0.07763347
85	0x3d6e35b8	0.0581567
86	0xbd38654c	-0.04501848
87	0xbd2f9a98	-0.04287204
88	0x3d9c1741	0.07621623
89	0x3d392ab0	0.045206726
90	0x3db82f05	0.08993343
91	0xbdc96e31	-0.098354705
92	0xbaea0326	-0.0017853722
93	0xbd896cd0	-0.067102075
94	0x3d201f2b	0.039092224
95	0x3cb5bc71	0.022184582
96	0xbdebbc56	-0.115105316
97	0xbcbca972	-0.023030017
98	0x3b5ba712	0.003351633
99	0xbdc2ccc1	-0.0951171
100	0x3b82c5fa	0.003990886
101	0xbde861ad	-0.11346755
102	0x3d9dd8be	0.07707356
103	0xbde0f5e1	-0.10984398
104	0xbc1ee0f0	-0.009697184
105	0x3d2d9f50	0.04238826
106	0x3dea288a	0.114335135
107	0xbdf9d21a	-0.12198277
108	0xbce40558	-0.02783458
109	0xbde9fcb0	-0.114251494
110	0xbdfbafc2	-0.122893825
111	0x3d5ea740	0.05435872
112	0x3df86602	0.121288314
113	0x3dc365a8	0.09540874
114	0x3dc41593	0.095744275
115	0x3dd74e29	0.10512955
116	0xb9a80594	-0.00032047613
117	0xbd50f39d	-0.051013578
118	0x3de88862	0.11354138
119	0x3d84bdcb	0.06481513
120	0x3dbc12f2	0.09183301
121	0x3c627a10	0.013823047
122	0x3ce89188	0.028389707
123	0x3aa7ca80	0.0012801439
124	0x3c24aca0	0.010050923
125	0x3d0825bc	0.03323911
126	0x3c80f508	0.01574184
127	0xbd209278	-0.039202183
128	0x3d8f4686	0.06995873
129	0x3d16b9d8	0.03679833
130	0x3db1cf9a	0.08682175
131	0xbdece26c	-0.11566624
132	0xbbe0f580	-0.0068652034
133	0xbde3a6f0	-0.11115825
134	0xbd143ec0	-0.036192656
135	0xbd6ebcfc	-0.0582857
136	0x3de6e8ac	0.112748474
137	0x396d377a	0.00022622748
138	0x3d83660e	0.0641595
139	0xbc11a422	-0.00888923
140	0xbd88d617	-0.066814594
141	0xbd45e783	-0.04831649
142	0x3d5a152c	0.053242847
143	0x3dca6517	0.098825626
144	0x3df79266	0.1208847
145	0x3bb735c0	0.0055911243
146	0x3ddd7d58	0.10814923
147	0x3d7169b0	0.058938682
148	0x3df65e26	0.12029676
149	0x3db8dfd0	0.09027064
150	0xbb956ca0	-0.0045600682
151	0x3df68e2c	0.12038836
152	0xbd9b880a	-0.07594307
153	0x3cb12657	0.021624727
154	0x3ddd9483	0.10819342
155	0xbddfd567	-0.10929375
156	0x3d2edf06	0.04269316
157	0x39e6a95a	0.00043995195
158	0xbb659a52	-0.003503461
159	0x3dbf57a3	0.09342887
160	0x3d3c8859	0.04602847
161	0xbd410927	-0.04712787
162	0x3d812f0e	0.06307803
163	0x3b615009	0.003437998
164	0x3d82cbd4	0.063865334
165	0xbdd603a1	-0.10449911
166	0x3d000100	0.031250954
167	0x3dbb3ef0	0.09142864
168	0x3de52300	0.11188316
169	0xbd8c68dc	-0.06855938
170	0xbde60dc6	-0.11233096
171	0xbdcfd9ec	-0.10148987
172	0xbd61b38c	-0.05510287
173	0xbde9f36c	-0.11423382
174	0x3d706b30	0.058695972
175	0x3d36eb08	0.044657737
176	0x3df412ea	0.1191767
177	0xbda0c49a	-0.07849999
178	0xb89c77ff	-7.461011e-05
179	0x3d2f8768	0.042853743
180	0xbd97c12e	-0.07409893
181	0x3dc88f4d	0.097929575
182	0x3db0424f	0.08606397
183	0xba58126e	-0.00082424923
184	0x3ddc46a0	0.10755658
185	0xbc0d5e90	-0.0086285025
186	0xbd3b7464	-0.045765296
187	0xbdc9221a	-0.098209575
188	0xbdad0b84	-0.08449462
189	0xbdf16f7e	-0.117888436
190	0xbda72ede	-0.08163236
191	0x3d01a888	0.031654865
192	0x3df1204e	0.1177374
193	0xbbd6aae0	-0.0065511316
194	0xbd84ee9c	-0.064908236
195	0xbd48d2f8	-0.04902932
196	0x3d4cd7b0	0.050010383
197	0x3d99f4ca	0.07517393
198	0xbc167300	-0.009182692
199	0x3a6b1500	0.0008967668
200	0x3dfa7c20	0.12230706
201	0xbdf9f3cf	-0.12204706
202	0xbdba4c89	-0.09096629
203	0xbda60346	-0.08106093
204	0x3cc1f062	0.023674194
205	0x3d9ff69a	0.078107074
206	0xbdebfe9e	-0.11523174
207	0xbcd9446e	-0.026521888
208	0xbdeeb04c	-0.1165472
209	0xbd368d18	-0.04456815
210	0xbc519170	-0.012791023
211	0xbd5d0b00	-0.05396557
212	0xbda869b6	-0.08223288
213	0xbc21c780	-0.009874225
214	0x3d9408aa	0.07228215
215	0x3cad24e0	0.021135747
216	0x3d82b592	0.06382288
217	0x3dd8542c	0.105629295
218	0x3de36167	0.111025624
219	0xbd07b3a5	-0.033130307
220	0x3c49cfb2	0.012317585
221	0x3d2c47b4	0.04206057
222	0x3d6cce69	0.057814036
223	0xbdae7b97	-0.08519667
224	0x3dcd477a	0.10023399
225	0x3d6f759c	0.05846177
226	0xbdf9aa3c	-0.12190673
227	0x3cfc0b20	0.030767024
228	0x3cdfad00	0.027304173
229	0x3de4796e	0.111559734
230	0x3cbb195b	0.022839239
231	0x3df46c60	0.119347334
232	0xbdc1e816	-0.09468095
233	0x3cbd6e78	0.023123965
234	0xbda6f6b2	-0.08152522
235	0xbdc340a0	-0.095338106
236	0x3d61ce5c	0.05512844
237	0x3d61c8dc	0.055123195
238	0xbd75005c	-0.059814796
239	0xbabed080	-0.0014557987
240	0x3ca66711	0.020312818
241	0x3dc174ef	0.094461314
242	0x3d9acc59	0.075585075
243	0xbd060541	-0.032719854
244	0xbcfaf1e9	-0.03063293
245	0x3a9bb1b3	0.001187852
246	0x3d3f286f	0.04666942
247	0x3c0f2696	0.008737227
248	0xbdad133e	-0.08450936
249	0xbc6c1e10	-0.014411464
250	0x3d7d9720	0.061911702
251	0xbb421980	-0.002961725
252	0x3d606f60	0.054793715
253	0x3db6d09c	0.08926508
254	0x3d453490	0.04814583
255	0x3dd8bf08	0.10583311

model_m.3.bias f4 [16]
0	0x3ddc4a21	0.107563265
1	0xbb1ebf3b	-0.002422287
2	0x3da4e1f7	0.08050912
3	0x3d8d8651	0.069103844
4	0xbd9b9252	-0.07596268
5	0xbd366e70	-0.044538915
6	0x3d8629b2	0.065509215
7	0xbd8e49be	-0.06947659
8	0x3bbaeea0	0.005704716
9	0xbd1c77dc	-0.038200244
10	0xbc935028	-0.017982557
11	0x3dc7080d	0.097183324
12	0x3dfe7c82	0.12426092
13	0xbbfb2a60	-0.0076649636
14	0xbdb1fad6	-0.08690421
15	0xbd1fd4d7	-0.03902134

model_m.6.weight f4 [32, 16, 8]
0	0xbd6a070c	-0.057135627
1	0x3d29396f	0.04131454
2	0x3daaad6a	0.08333857
3	0xbd869629	-0.065716095
4	0x3d2912b0	0.041277587
5	0xbaf3b509	-0.0018593381
6	0x3d2acff7	0.041702237
7	0xbc3b28fc	-0.011423346
8	0xbcb14bd0	-0.021642596
9	0x3d3611e1	0.044450644
10	0x3ced7d78	0.028990492
11	0xbd3de279	-0.04635856
12	0xbd64bced	-0.055844236
13	0x3d9d74c0	0.07688284
14	0xbd490c97	-0.049084272
15	0x3d32be4d	0.043638516
16	0x3c53ee63	0.012935254
17	0xbca3b558	-0.019983932
18	0x3d19a8cf	0.037514504
19	0x3d26062e	0.040533237
20	0x3d4d3db2	0.050107665
21	0xbd71379a	-0.058890916
22	0xbc2e3555	-0.010632833
23	0x3d4b6327	0.049655106
24	0x3d464b4f	0.048411664
25	0x3d3c005b	0.045898777
26	0xbd49beea	-0.049254335
27	0xbd68925b	-0.0567802
28	0xbbe45a47	-0.0069687697
29	0x3cfbba18	0.030728385
30	0x3ca349e5	0.019932697
31	0x3d4711d0	0.04860097
32	0x3d1a0e5f	0.03761136
33	0xba8696d7	-0.0010268342
34	0x3bf40f3f	0.0074481065
35	0xbbf385e4	-0.0074317325
36	0xbd76b7fb	-0.06023405
37	0xbc94e4bf	-0.01817548
38	0x3ce69c3c	0.02815067
39	0xbd7b152d	-0.06129949
40	0xbd3585dd	-0.044317115
41	0x3d55b931	0.052178565
42	0x3c52d58c	0.012868296
43	0x3c9b30e8	0.018944219
44	0x3d09acb0	0.033611953
45	0xbcd4b91f	-0.025967179
46	0xbd1a8b36	-0.03773042
47	0x3ce41e23	0.027846402
48	0xbc873c36	-0.016508203
49	0x3b61dac6	0.0034462675
50	0x3cd1aaf0	0.025594205
51	0xbd8d2368	-0.06891519
52	0x3d9aba7b	0.075550996
53	0x3d95dc82	0.07317449
54	0xbd799ec7	-0.060942437
55	0x3d2215e2	0.03957165
56	0x3d247c80	0.040157795
57	0x3d45d542	0.04829908
58	0xbd639f33	-0.055571746
59	0xbd3fc288	-0.04681638
60	0xbd825ea8	-0.063657105
61	0x3d12c301	0.0358305
62	0xbd804816	-0.06263749
63	0xbd79e60f	-0.061010417
64	0x3dadc44c	0.08484706
65	0xbd16fa01	-0.036859516
66	0xbce9c1ce	-0.028534796
67	0xbd9dd307	-0.07706266
68	0x3d9365d9	0.0719716
69	0x3d7d4ac0	0.061838865
70	0xbd9af0e8	-0.075654805
71	0xbd8ba5d9	-0.06818742
72	0x3d15874d	0.036505986
73	0x3c6e5d26	0.0145485755
74	0xbb2fd4d3	-0.0026829734
75	0x3d351c16	0.044216238
76	0xbdac1f70	-0.08404434
77	0xbcb90a63	-0.02258796
78	0xbd0ea1ef	-0.0348224
79	0x3d88cc0f	0.06679546
80	0x3d6b2a6d	0.057413507
81	0x3da8e736	0.08247225
82	0x3c34d68b	0.011037479
83	0xbd8197a2	-0.0632775
84	0x3d34ac8f	0.044109877
85	0x3a9e367b	0.001207068
86	0x3d81ae7f	0.063321106
87	0x3d85499b	0.0650818
88	0x3bad3abd	0.005286543
89	0xbd7ac99e	-0.061227433
90	0xbd29779b	-0.04137383
91	0x3dac279f	0.084059946
92	0xbd8fb841	-0.070175655
93	0x3d47016a	0.048585333
94	0x3c881505	0.016611585
95	0x3c633d70	0.013869628
96	0x3d749ca5	0.0597197
97	0x3d16d2a7	0.036821987
98	0x3d8d00c3	0.06884911
99	0xbd262063	-0.04055823
100	0x3b170fba	0.0023050145
101	0x3cb59782	0.022166971
102	0xbdb04dba	-0.08608575
103	0x3daedd6e	0.08538328
104	0x3c66df14	0.014091272
105	0xbd916dd7	-0.071010284
106	0x3d7b276e	0.0613169
107	0x3daa38be	0.08311604
108	0xbd6648f6	-0.056221925
109	0xbd4d92eb	-0.05018894
110	0xbd003b3e	-0.031306498
111	0xbd9bf9a4	-0.076159745
112	0x3d4a8c68	0.049450308
113	0xbafb090c	-0.0019152476
114	0xbcadb888	-0.021206155
115	0x3c85f0de	0.016350206
116	0xbc6afe59	-0.014342868
117	0x3d894b2c	0.06703791
118	0xbd961c77	-0.07329648
119	0xbd11ff60	-0.035643935
120	0x3a94aec0	0.0011343583
121	0xba000058	-0.0004882864
122	0xbd87a46b	-0.06623157
123	0x3ce8baa5	0.028409312
124	0x3da67b98	0.081290424
125	0xbd8787f0	-0.06617725
126	0x3d3a4a0a	0.045480765
127	0xbc40f8ff	-0.011778115
128	0x3c835b7c	0.016034834
129	0x3ce76c5f	0.028249918
130	0x3d4dff9c	0.050292596
131	0x3bafcd1f	0.0053650285
132	0x3cdff09a	0.027336407
133	0xbd68d334	-0.056842044
134	0xbd836ddf	-0.064174406
135	0xbcbeedcd	-0.023306752
136	0x3dab9690	0.08378327
137	0x3c890639	0.0167266
138	0xbd6b6a5b	-0.057474475
139	0x3d55d037	0.052200522
140	0xbd2572cf	-0.040392693
141	0xbd1845f9	-0.037176106
142	0xbd9ab3bb	-0.07553812
143	0x3d8a202d	0.06744418
144	0xbc6043e7	-0.013688064
145	0x3becdcbc	0.007228462
146	0x3d8459e5	0.064624585
147	0xbcb26ac9	-0.021779435
148	0x3bebceed	0.0071962983
149	0x3d86626e	0.06561743
150	0xbcee3c07	-0.029081358
151	0xbdad2f6e	-0.08456312
152	0x3d6685d7	0.056279983
153	0xbc473e9a	-0.0121609215
154	0x3d8d7e91	0.06908906
155	0x3da82be4	0.082114965
156	0x3c7fb385	0.015606766
157	0x3d8d56a2	0.069012895
158	0xbd35c966	-0.04438152
159	0xbd178979	-0.03699634
160	0xbd4e81a8	-0.05041662
161	0xbda2f581	-0.079569824
162	0x3bd68e49	0.0065477234
163	0xbda1278b	-0.0786887
164	0x3d6393f7	0.055561032
165	0xbd5b14f2	-0.053486772
166	0x3d9ac4fe	0.075571045
167	0xbd211d43	-0.039334547
168	0x3c83d29b	0.016091635
169	0xbd732a0c	-0.05936627
170	0x3d0884f9	0.033329938
171	0x3daa62c7	0.083196215
172	0x3d8db138	0.069185674
173	0x3da32f88	0.0796805
174	0xbd11799d	-0.03551637
175	0x3d9abff7	0.07556146
176	0xbd9cf198	-0.07663268
177	0x3d819fb6	0.063292906
178	0xbd18b903	-0.037285816
179	0x3d2cfbdb	0.042232376
180	0x3d4c01b1	0.0498063
181	0x3d914a57	0.07094257
182	0xbd723959	-0.059136722
183	0xbd102f2d	-0.03520124
184	0x3cd615c6	0.02613343
185	0x3d3b4419	0.04571924
186	0x3d3c49f9	0.045968983
187	0x3be11468	0.0068688877
188	0x3d824dd5	0.063625015
189	0x3d86a222	0.06573893
190	0xbda6d71d	-0.08146498
191	0xbcaf03b0	-0.021364063
192	0xbca7755d	-0.020441705
193	0xbd8720a1	-0.0659802
194	0x3d321ef9	0.04348657
195	0xbd9af194	-0.075656086
196	0xbdb1640b	-0.0866166
197	0xbd233529	-0.03984562
198	0xbc164176	-0.009170881
199	0x3d1ec488	0.038761646
200	0x3d7a4289	0.06109861
201	0x3d8caa65	0.06868438
202	0xbcbf9b88	-0.023389593
203	0x3d8f2616	0.06989686
204	0x3c663033	0.0140495775
205	0xbc4b4ad6	-0.012407979
206	0x3d81dc70	0.06340873
207	0x3b1425ac	0.0022605462
208	0x3ce5b01d	0.028038079
209	0xbd1f030c	-0.038821265
210	0xbdb467ea	-0.088088825
211	0xbd6575cb	-0.05602054
212	0x3d78c33d	0.06073307
213	0xbda24587	-0.079234175
214	0xbc59355d	-0.013257352
215	0x3d0a49f6	0.03376194
216	0x3d985055	0.07437197
217	0xbb77e500	-0.0037825704
218	0x3ce045c9	0.027377026
219	0x3d1a26b3	0.037634563
220	0x3d013f60	0.03155458
221	0x3d880342	0.066412464
222	0x3da72233	0.0816082
223	0xbdad03d1	-0.084479935
224	0x3d5564f9	0.05209825
225	0x3d24318e	0.04008632
226	0xbcbde6d0	-0.023181349
227	0x3ad0603c	0.0015897821
228	0x3d036479	0.03207824
229	0x3d635077	0.05549666
230	0xbd39f659	-0.04540095
231	0xbd358c02	-0.044322975
232	0x3cb779a2	0.022396866
233	0xbd837a43	-0.06419804
234	0xbd150d40	-0.03638959
235	0xbc6d43cf	-0.014481499
236	0xbdb137ba	-0.08653207
237	0x3ca769b2	0.020436142
238	0x3c9c1832	0.019054506
239	0xbcae448f	-0.021272926
240	0xbc1119b0	-0.008856222
241	0x3db48647	0.08814674
242	0x3d5c468d	0.05377822
243	0xbd6a4f75	-0.057204682
244	0xbd3901f2	-0.04516787
245	0x3d19994d	0.037499715
246	0xbdaa2b2f	-0.08309018
247	0x3d992188	0.07477099
248	0x3d961d7d	0.07329843
249	0xbd4bb6f4	-0.049735025
250	0xbd70d6eb	-0.05879871
251	0xbc94e76e	-0.01817676
252	0xbd0204a8	-0.03174272
253	0xbd2554fc	-0.04036425
254	0x3bd33b9b	0.0064463145
255	0xbd58218a	-0.05276636

model_m.6.bias f4 [32]
0	0x3d23cd16	0.039990507
1	0xbd662565	-0.056188006
2	0xbd03515f	-0.032060023
3	0x3d70b3ec	0.058765337
4	0x3d83efae	0.064422
5	0x3c415302	0.011799576
6	0xbd7f125c	-0.06227337
7	0xbda4cacd	-0.08046494
8	0x3d8a4e29	0.06753189
9	0xbd9d48c0	-0.076798916
10	0xbd419b53	-0.04726727
11	0xbd0ce8d8	-0.034401745
12	0xbd5d3856	-0.054008804
13	0xbb8ae521	-0.00423874
14	0x3da7f917	0.08201807
15	0x3d43ab36	0.0477707
16	0xbd8ea1bc	-0.06964442
17	0xbcb05a45	-0.021527419
18	0x3da15aaa	0.07878621
19	0xbc29536a	-0.010334829
20	0x3d92fc3f	0.071770184
21	0x3d632ae1	0.055460814
22	0xbd2f1d93	-0.042752814
23	0x3d40902b	0.04701249
24	0x3d3b5ffe	0.045745842
25	0xbd1bed3a	-0.038068034
26	0xbd5816ad	-0.052756
27	0xbc170641	-0.0092178
28	0x3c2c67c6	0.010522788
29	0xbd929893	-0.071580075
30	0x3c10e06a	0.008842567
31	0x3c00cda0	0.007861525

fc.weight f4 [1, 6976]
0	0x3c218cc0	0.009860218
1	0x3bfd6988	0.0077335276
2	0x3bbf7a9c	0.0058434736
3	0x3afe1796	0.0019385691
4	0xb8fae448	-0.0001196345
5	0x3bf4c161	0.0074693416
6	0x3b55e014	0.0032634782
7	0x3c1fecbf	0.0097610345
8	0xb9b31ca1	-0.0003416287
9	0xbc33c7a8	-0.010972895
10	0x3c324798	0.010881327
11	0xbbd4fcb7	-0.0064998525
12	0x3c32c54e	0.010911299
13	0xbb8d22de	-0.004307135
14	0xbbb8efaa	-0.0056438046
15	0xbb8f70e2	-0.0043774704
16	0xbb8940d3	-0.004188636
17	0xba8ac26a	-0.0010586504
18	0xbb144f57	-0.0022630298
19	0x3c158f23	0.009128365
20	0x3b78a677	0.0037941018
21	0xbad4e601	-0.0016242863
22	0x3af5cfbb	0.0018753925
23	0x3be187e7	0.006882656
24	0xbb9faf0c	-0.004873162
25	0xbc2525af	-0.010079785
26	0xbbbf7ec5	-0.0058439695
27	0xbc0071a2	-0.007839592
28	0xbc24849c	-0.010041382
29	0x3c3779fc	0.011198517
30	0xba0b6672	-0.0005317695
31	0x3a8428c3	0.0010082949
32	0x3a905711	0.0011012276
33	0xbc1e450d	-0.009660018
34	0x3bedeb06	0.007260683
35	0xbbd3bb7e	-0.00646156
36	0x3b048059	0.0020218103
37	0x3baf6d1c	0.005353583
38	0x3a50ee49	0.00079700776
39	0x3bc775ea	0.0060870545
40	0xbb73ea05	-0.0037218344
41	0x3ba7b609	0.005118136
42	0xbb3da60f	-0.002893809
43	0x3c22c7b7	0.009935311
44	0xbaae184d	-0.0013282389
45	0x3c06a520	0.00821808
46	0xba3e49fe	-0.00072589505
47	0xbb9b645c	-0.0047421884
48	0x3c24a468	0.010048963
49	0xbb8a9b73	-0.004229957
50	0x3a3157e2	0.000676511
51	0x3bab1c9e	0.0052219173
52	0x3c21af0e	0.009868396
53	0x3c23f464	0.010006998
54	0x3c42c22f	0.011887117
55	0xbc266775	-0.010156502
56	0xbc39a302	-0.011330368
57	0x3bfa6346	0.007641229
58	0xbb25906e	-0.0025263089
59	0x3bd19f4c	0.0063971635
60	0xb9692be2	-0.00022236959
61	0xbbffcfe6	-0.007806766
62	0x3bd38189	0.006454651
63	0xbc149370	-0.009068355
64	0xbabbff54	-0.0014343061
65	0x3c1841e3	0.009293052
66	0x3c25e449	0.010125228
67	0x3ab2ced6	0.0013641964
68	0xbb0a38ad	-0.002109091
69	0x3c1e2bcc	0.009653997
70	0x3bb158c2	0.005412192
71	0xbbe161e5	-0.006878125
72	0xbb20c94c	-0.0024534045
73	0x3c1979d9	0.00936743
74	0x3b194577	0.0023387352
75	0x3bc254f0	0.0059305355
76	0xbb8e0105	-0.0043336176
77	0xbb1e7a78	-0.0024181884
78	0x3c40b1f4	0.011761177
79	0xbc36fffe	-0.011169432
80	0xbc0a4f24	-0.00844172
81	0x3b9e4d26	0.004830974
82	0x3bdea44f	0.0067944895
83	0x3b9150ee	0.0044346964
84	0xbc1bd63e	-0.009511529
85	0xbb437ba1	-0.0029828327
86	0x3b04c5b6	0.0020259446
87	0xbbad5ca4	-0.0052905846
88	0xbbd92354	-0.006626526
89	0xbb8cb316	-0.0042938096
90	0xbc2a45b6	-0.010392597
91	0x3c1bba72	0.009504901
92	0x3b492a63	0.003069543
93	0xba33865c	-0.0006848329
94	0x3c106dd5	0.0088152485
95	0xba9f0b12	-0.0012134037
96	0xba816c28	-0.0009874152
97	0xbc1d6127	-0.009605682
98	0x3c0af5aa	0.008481422
99	0xbb2d511e	-0.0026446055
100	0xbbca5db5	-0.0061757215
101	0xbc04a3d2	-0.008095698
102	0xbc06eb28	-0.008234777
103	0x3ba1fbdb	0.0049433536
104	0x3c1943d4	0.00935455
105	0xbbd7bac3	-0.006583543
106	0x3b860c60	0.0040908307
107	0xbbddc4b1	-0.006767832
108	0x3c27d23e	0.010242997
109	0x3b305068	0.0026903395
110	0x3babb9fb	0.0052406765
111	0xbbf999f4	-0.0076172296
112	0x3c2ae760	0.010431141
113	0x3ba11184	0.004915418
114	0xbb3106f4	-0.00270122
115	0x3c124a31	0.008928821
116	0xbbdbda06	-0.00670934
117	0xbbed60fd	-0.007244228
118	0xba3326d7	-0.00068340957
119	0xbb9e59d5	-0.004832486
120	0xbbf0eb03	-0.0073522343
121	0x3c1e353e	0.009656249
122	0x3bd7f0c2	0.00658998
123	0xbbe4b8f0	-0.006980054
124	0xbbc6642f	-0.0060544233
125	0xbc208b67	-0.009798861
126	0xbbc74fa2	-0.006082491
127	0x3c1acbfb	0.009448047
128	0x3c114a89	0.008867868
129	0xbb2c22bd	-0.0026265823
130	0x3bca0137	0.0061646956
131	0x3bf17e7e	0.0073698154
132	0xbbb99632	-0.0056636566
133	0x3ad0e2db	0.0015936749
134	0xbad1d9c0	-0.0016010329
135	0x3bd5fbcd	0.006530261
136	0xbba39130	-0.004991673
137	0xbb31b38c	-0.0027115075
138	0xbb4631b8	-0.0030242037
139	0xbbf9e942	-0.0076266835
140	0xbb028025	-0.0019912806
141	0xbc2ba5c9	-0.010476538
142	0x3bdfe704	0.006832959
143	0x3ad29d99	0.0016068696
144	0x3c072623	0.008248839
145	0x3b94e6b5	0.004544104
146	0x3b999d8d	0.004687971
147	0xbc2e52da	-0.010639871
148	0x3c234136	0.009964278
149	0xbb063fdb	-0.0020484838
150	0xbbf5ba24	-0.0074989963
151	0x3c19326f	0.009350403
152	0xbc3b8049	-0.01144416
153	0xbc115d5f	-0.008872359
154	0xbb9f1246	-0.0048544733
155	0xbb7d4ac6	-0.0038649305
156	0x3b668a3a	0.0035177604
157	0x3c13ceb4	0.00902145
158	0xbbec4fe6	-0.007211673
159	0xbb37cbf2	-0.0028045145
160	0xbba86c5f	-0.005139872
161	0x3af69b5f	0.0018814615
162	0x3c292103	0.010322812
163	0x3c273d92	0.010207551
164	0xbc41a17f	-0.011818289
165	0xbc05028c	-0.008118283
166	0x3c309dde	0.010779826
167	0x3b577cc9	0.0032880774
168	0x3b8c8ada	0.0042890133
169	0xbb8d34ec	-0.0043092873
170	0xbc05c1f3	-0.008163917
171	0x3c2951f3	0.01033448
172	0xbb965c7d	-0.004588662
173	0x3b06645c	0.0020506596
174	0x3c1b7e5a	0.009490574
175	0x3badce52	0.0053041363
176	0x3b8aaaa7	0.004231769
177	0x399f182f	0.0003034486
178	0x3c090802	0.008363726
179	0x3c360bca	0.011111209
180	0x3c3a6d33	0.011378574
181	0x3bc95b82	0.006144942
182	0xbc224801	-0.009904862
183	0x3ba0eb00	0.0049108267
184	0xbc26d33e	-0.0101822
185	0xbb8cc970	-0.004296474
186	0x3c1cf368	0.009579517
187	0x3bdd4992	0.006753155
188	0x3bb3a293	0.005482027
189	0xbaea4f88	-0.0017876485
190	0x3be4ded2	0.00698457
191	0x3b828e75	0.0039842674
192	0xbc43f514	-0.011960287
193	0xbc201831	-0.009771393
194	0x3c216826	0.009851491
195	0x3be13887	0.0068731937
196	0xbaea84f0	-0.0017892402
197	0x3c2a1cdd	0.010382858
198	0xbb62d776	-0.0034613288
199	0xbc2051c9	-0.009785124
200	0x3bc013fd	0.005861758
201	0x3beb6b7f	0.0071844454
202	0x3c2e1be5	0.010626768
203	0x3b811071	0.0039387275
204	0xbbd8be4f	-0.0066144834
205	0xbb4b2791	-0.0030998925
206	0x3b56328f	0.0032683944
207	0x3ba739cb	0.005103325
208	0x3c13edd3	0.00902887
209	0x3b53d1f4	0.0032321187
210	0xbb5b6ce8	-0.0033481661
211	0xbc252898	-0.010080479
212	0xbb858532	-0.004074716
213	0xbbc1e9e0	-0.0059177727
214	0x3bd9b721	0.006644145
215	0x3ade93b8	0.001698128
216	0xbc270fb9	-0.01019662
217	0x3b390229	0.0028230047
218	0xba99f3b9	-0.0011745609
219	0xbc06562e	-0.008199258
220	0xbc2b74ba	-0.0104648415
221	0x3c35ac4d	0.011088443
222	0x3bd613ab	0.0065331063
223	0x3c06bd2b	0.008223812
224	0xbbb7b0fb	-0.0056058145
225	0xbbb2ec41	-0.0054602926
226	0x3c1f0025	0.009704624
227	0x3aa0dc3c	0.0012272666
228	0x3c24d78e	0.010061158
229	0x3c2409f0	0.010012135
230	0x3b781d85	0.0037859392
231	0xbbc8c659	-0.0061271605
232	0xbbdd0c7c	-0.006745873
233	0x3b9e2bd5	0.0048270025
234	0x3be810ff	0.007082104
235	0xbbcd8e0a	-0.006273036
236	0x3bd933c7	0.006628487
237	0xbbea3299	-0.007147145
238	0xbc40e3a4	-0.011773024
239	0x3bd6c6f5	0.0065544792
240	0xbbc83e55	-0.006110946
241	0x3c2e5e57	0.01064261
242	0xbc101a86	-0.008795386
243	0x3c1b6b75	0.009486069
244	0x3c1e73e1	0.009671182
245	0x3bd4c9f2	0.0064938003
246	0xbb57b3f9	-0.0032913669
247	0xbb594975	-0.0033155356
248	0x3b123274	0.0022307904
249	0x3bda8a10	0.0066692904
250	0xbc3a9977	-0.011389128
251	0xbc2694f1	-0.010167346
252	0xbc37d93b	-0.011221225
253	0x3b2b1c94	0.0026109563
254	0xbbf18461	-0.007370517
255	0x3b9e860b	0.0048377565
