checkpoints/run_1/1d_cnn_ckpt_6.pth (torch, 52296 bytes, 7 tensors)

model_m.0.weight f4 [8, 1, 8]
00000000: 5dab 8dbe 4bca b2be b835 e33c 4ed7 2c3e
00000010: 4d93 76be e330 64be 5f45 333e 30bb d6bc
00000020: 4b7a 98be baf8 56be 734e 5c3e abc7 76be
00000030: 4c19 533d 4c01 b63c 4600 adbe 2b73 6c3b
00000040: e873 143e 05ae 7d3e 4678 3b3e b9f4 913e
00000050: 81d6 a03d 127a 73be b7d6 83be 75dd 243d
00000060: 988c 053e 7468 4fbe cf1d 8abe e82a 9fbe
00000070: b41f 693e 18b2 00bd 8ede 3abe 2c87 303d
00000080: d217 05be 4437 adbd ec87 a33e fe86 843e
00000090: 8e19 4ebe 0c21 3e3c f2d0 6a3e eedd 98be
000000a0: 4a4a 78bc e31b 683e 1934 a63e e7f4 8fbe
000000b0: 27a2 b1bd 2a18 8d3e 31e7 2d3e e40d 9d3e
000000c0: d4a0 8e3e 481c 92be 8b42 9dbe 73e1 9d3e
000000d0: f3c2 4bbe 238d 98bd 2539 26be 0a74 96bd
000000e0: 4059 56bd 2f21 bc3d 23a9 033e a7d6 d6bd
000000f0: 9c3c abbe 1946 8c3e 7ab6 213e 3eed 20be
-0.27669802 -0.34919962 0.027735576 0.16879007 -0.24079628 -0.22284274 0.17506932 -0.026212305
-0.29780802 -0.20993319 0.21514301 -0.24099605 0.051537797 0.022217415 -0.3378927 0.0036079388
0.1449734 0.24773414 0.183076 0.2850702 0.078534134 -0.23777035 -0.25749752 0.04025026
0.13041914 -0.2025469 -0.26975867 -0.31087422 0.22766 -0.031419843 -0.1824896 0.04309766
-0.12997368 -0.08457807 0.31939638 0.2588424 -0.20126936 0.011604559 0.22931269 -0.2985682
-0.015154431 0.22666888 0.32461622 -0.28116533 -0.08673506 0.27557498 0.16982724 0.3067466
0.27857077 -0.28537202 -0.3071483 0.30836067 -0.19898586 -0.07448795 -0.16232736 -0.073463514
-0.05233121 0.09186017 0.1285749 -0.104901604 -0.3344468 0.2739723 0.15792266 -0.157155

model_m.0.bias f4 [8]
00000000: 5563 c9bd 15f7 afbe 3a29 b13e f538 4c3d
00000010: 5702 ac3e 72fa 813e ac02 6c3e 10b4 2e3e
-0.09833399 -0.34368196 0.34601766 0.049859006 0.33595535 0.25386387 0.23047894 0.17060876

model_m.3.weight f4 [16, 8, 8]
00000000: 80e6 21bc 9289 af3d ce51 c53d 0ec6 b23d
00000010: 66a9 e0bd 90b8 ec3c 40fb fb3d f0d6 33bd
00000020: 5000 cbbd 68c5 87bc 4866 f5bd c091 ff3d
00000030: f0cf b0bd b8db 313d 40db 0bbd ecd0 b93d
00000040: 66bf 08bd 6c80 36bd 2146 dc3c 8923 e93d
00000050: 169c 593d 0f1c 2bbc 7189 883c f9f2 d6bd
00000060: 5eb7 bf3d f6a1 eebd 5259 293d 7275 fe3d
00000070: b3d3 ddbc fca6 01bd a0de f23d 10f8 edbc
00000080: cd97 93ba 698a aabd ecb6 52bc a528 a13c
00000090: e107 ecbd 5f6b b8b8 fc7c d4bd 854a 69bd
000000a0: 209a b3bd 99d1 eb3c 1844 de3d 33ad eebc
000000b0: 3173 dbbd 0006 923c a08e 1b3d e162 2cbd
000000c0: d0bc e53d 1a92 1f3c f2a8 60bd 9914 acbd
000000d0: cc1f fe3d 10f3 b6bc f93a cd3d a7eb ff3d
000000e0: ea3c 5cbd b11a e13d e42b c5bd 1f2a 923d
000000f0: 2f91 9e3d 7622 693d f5a0 ca3c 6292 b43d
00000100: 4816 adbd 74e0 edbd 323d c53d c891 cd3d
00000110: f0c7 eb3d a057 743c d023 a33d 1821 4cbd
00000120: b89d 9b3d 9000 8cbc a8d0 e33c 0cdc b6bd
00000130: 58a7 94bd c033 9f3c 1cdc f0bd ecdf f63d
00000140: 09a2 b53c 4ee2 82bd 9523 82bc f46f bd3d
00000150: aecd b53d 5c7a cfbd 9bf3 b3bd 3514 c9bd
00000160: c6d2 61bc 2205 3bbd 3473 223c 796b e13d
00000170: 1f95 fdbd 54ee 113c 3968 3f3d 15b9 a53c
00000180: 9604 85bd 32a4 ddbd a209 ab3b bda5 d9bb
00000190: 63a9 ba3d 947d b4bd be5d 133d 0ed8 d83d
000001a0: 5ab4 fe3c 8480 52bd 0804 e33d 3849 16bd
000001b0: 801b 673d 69e4 93bd a5af e5bd 0ddc ce3d
000001c0: abfa 103c 852a 64bd 2364 983d a9a1 ddbd
000001d0: 5eb6 b23d cd3c a33a 354f ff3d c1b8 973b
000001e0: 8877 eb3d 7d6e e23c d14b e93d d8c7 713c
000001f0: a7c0 dcbd 9b07 49bd 1339 e03d bf66 8dbd
00000200: 4442 dabd 34f2 81bd a4d9 41bd e827 503d
00000210: 10ef 8e3c 3024 113d 9c5d f6bd 2eee ec3d
00000220: f697 9e3d acc2 b1bd c040 ed3c ca4f c3bd
00000230: 42fa adbd 3c80 853d 4085 4abb a85c babd
00000240: 504f a9bd 9071 0a3d 94b0 9bbd 009c f739
00000250: c0fa 663b 107c 3cbd a8d2 febc 0235 cc3d
00000260: 3a08 da3d f0f0 8dbd 40c7 a5bd c04d 473c
00000270: d238 e0bd a462 aebd 7a8c e93d 88e8 163d
00000280: 4c43 293d b0fa fabd 58c0 e3bc 2891 d8bd
00000290: b01c 5fbc f843 993c 2c04 1dbd 1015 51bd
000002a0: 4caf 45bd 8cb1 2d3d 70fe 66bc 343b f3bd
000002b0: c655 dfbd 40c5 2c3d 4ccb 773d 947e 2cbd
000002c0: f0be fa3c 8838 0c3d 26cc dabd 00cb 9dbc
000002d0: 7c3f e2bd 86a5 b5bd 8022 bbbd b8a4 e0bd
000002e0: 04ed 7fbd 2ca5 023d 7c1a 5ebd c6b2 86bd
000002f0: c88e db3c 546f 49bd 2ce0 2f3d 5651 d13d
00000300: 044e 0c3d d423 80bd 9647 d4bd 4c7f 183d
00000310: 20c6 e23d 70ad 5bbd 00ec 373a a057 e6bb
00000320: 48e6 26bd e0be 9abd 9640 b4bd 3080 96bc
00000330: f02a 713c 96cd df3d 94a4 4fbd 000f b3bd
00000340: ec5e c7bc 3c1a d43d 8d84 81bd 63bf 1ebd
00000350: 0e6d 8ebd ea30 6abd fbe6 953c c093 943d
00000360: 9bf0 fabd ab86 6ebd 4a31 1ebc d6f5 9b3d
00000370: c7bf 9fbb b07b d23c f0d8 3f3c 0d58 f63b
00000380: ee48 ae3c 3236 0dbb 7163 c3bd c0c2 02bc
00000390: 7be7 a43d 993f 96bd ba23 a33d 95c8 d63d
000003a0: acce d93d 1645 e4bc 9841 d33d 71a9 80bd
000003b0: 16b8 8dbd c38c 96bd 1b65 713d 9e93 9f3d
000003c0: 09eb dd3d c722 d8bd f78a c8bd b3a9 233d
000003d0: 1697 97bc fce3 a13d 93d0 4e3d 21ca a8bc
000003e0: d79e 4a3d 6418 493d a005 663c c427 62bd
000003f0: a0e5 dfbc 7ce2 123d 461f e83c f638 ccbd
-0.009881616 0.08571161 0.09634744 0.08729182 -0.1096981 0.0288966 0.123037815 -0.043906152
-0.09912169 -0.016573623 -0.11982399 0.124789715 -0.08633411 0.04342243 -0.03414464 0.09073052
-0.033385657 -0.044556066 0.026888909 0.11383731 0.05312737 -0.010443701 0.0166671 -0.10495562
0.093611464 -0.11651985 0.041344948 0.12424745 -0.027078485 -0.03165339 0.118588686 -0.02904895
-0.001126045 -0.08327181 -0.012860995 0.019672701 -0.1152494 -8.793803e-05 -0.103754014 -0.056955833
-0.087696314 0.028786467 0.108528316 -0.029135322 -0.107153304 0.017825127 0.037977815 -0.042086486
0.11217654 0.009739423 -0.05484862 -0.08402366 0.124084085 -0.022332698 0.10021014 0.12496119
-0.05376903 0.10991419 -0.09627512 0.0713694 0.07742535 0.05691763 0.024734953 0.08816983
-0.084515154 -0.11615077 0.09630813 0.10037571 0.115127444 0.01491347 0.07965815 -0.04983625
0.07598442 -0.017090112 0.027809456 -0.08928689 -0.07258481 0.019433856 -0.117607325 0.120544285
0.022171991 -0.063908204 -0.015886107 0.09249869 0.08877121 -0.1013076 -0.087866984 -0.09818307
-0.013783162 -0.045659192 0.009915162 0.11006827 -0.12381958 0.0089069195 0.046730254 0.020229856
-0.06495015 -0.108223334 0.005219654 -0.006642072 0.09114339 -0.088130146 0.03597807 0.10588084
0.031091858 -0.051392093 0.11084753 -0.03669092 0.05642271 -0.072213 -0.11215142 0.10100565
0.008848826 -0.055704612 0.074409746 -0.1082185 0.0872619 0.0012454033 0.124662794 0.0046301787
0.11497408 0.027640576 0.11391414 0.014757119 -0.10778933 -0.04907952 0.10948386 -0.06904363
-0.106571704 -0.06345025 -0.0473267 0.050819308 0.017447978 0.0354349 -0.12029573 0.11568867
0.07743828 -0.08679709 0.02896154 -0.09536703 -0.084949985 0.065185994 -0.0030902177 -0.09099704
-0.08267081 0.033799708 -0.07602039 0.0004722774 0.0035244673 -0.046016753 -0.031106308 0.09971048
0.106461 -0.06930721 -0.080946445 0.012164533 -0.109483376 -0.08514908 0.11403747 0.036842853
0.041323945 -0.12254846 -0.027801678 -0.10574561 -0.0136176795 0.018709168 -0.038334057 -0.051045477
-0.04826288 0.04240565 -0.014098749 -0.118765265 -0.10905032 0.0421803 0.060496613 -0.0421129
0.030608624 0.0342336 -0.106834695 -0.019261837 -0.11047265 -0.08869462 -0.0913744 -0.109689176
-0.062481895 0.0318958 -0.054224476 -0.06577067 0.026801482 -0.049178436 0.042938396 0.10220592
0.03425409 -0.06256834 -0.103652164 0.037230775 0.110729456 -0.0536322 0.0007016063 -0.0070294887
-0.040746957 -0.07555938 -0.08801381 -0.018371671 0.01471971 0.10927884 -0.050694063 -0.087430954
-0.024337254 0.10356566 -0.0632411 -0.03875674 -0.06954394 -0.057175554 0.018298617 0.072547436
-0.12252923 -0.058233898 -0.009655306 0.07615249 -0.0048751566 0.025693744 0.011709437 0.0075178207
0.02127501 -0.0021547196 -0.09540451 -0.007981002 0.08051964 -0.07336349 0.07965799 0.10487477
0.10635123 -0.027864974 0.103152454 -0.062823184 -0.06919877 -0.07351067 0.058934312 0.077918276
0.10835845 -0.10553508 -0.097921304 0.03995676 -0.01850466 0.07904813 0.05049188 -0.020604195
0.049467888 0.049095526 0.014039427 -0.055213705 -0.027331173 0.035860524 0.028335225 -0.09971802

model_m.3.bias f4 [16]
00000000: 7b3c 613c 6d5b 093d b814 1ebd a96a d13d
00000010: 7277 a53d b8f2 61bd be37 8b3d d085 5ebd
00000020: a834 cb3d 7c41 e3bd be79 a8bd d054 b73d
00000030: 869e 1dbc 7141 a53d 661a db3d 8082 b0bb
0.01374733 0.033534456 -0.038593978 0.10225422 0.08079423 -0.055163115 0.06797741 -0.054326832
0.09922153 -0.110964745 -0.082263455 0.089517236 -0.009620314 0.080691226 0.106983945 -0.0053866506

model_m.6.weight f4 [32, 16, 8]
00000000: f582 8bbd 378d 73bd d82e 9b3d 6687 1ebd
00000010: 175e 8dbd 8df5 adbd 8ef3 743d 2291 203d
00000020: 62cc 2d3d 2b7e 23bd 6885 3abd ebba 703d
00000030: e9f6 a7bd 1a23 9e3d 4788 8f3d 740c 693d
00000040: 895c dc3c 3bdb a03d adbd f5bc ca84 ab3c
00000050: 6be5 8e3d 6120 96bc 0928 773d ca77 133d
00000060: 5f1a 7bbc 3ecd c5bc 98a3 b2bd 170b d73c
00000070: a213 a63d ca6e b6bc 6798 ae3d 756b f0bb
00000080: 575b 4cbd 6b11 9cbd 6ce9 8dbd 7ab1 e93a
00000090: cc5f 66bd 778f 6e3d b4d0 4b3c 4350 c5bc
000000a0: 5206 ce3c 103b 7d3c df8e 833d db81 96bd
000000b0: 7e86 b03d 73a6 b2bd 8004 c33c 4b6b 153b
000000c0: ba2c d63c 40ed 753b 4bbc 733d 3d56 a53c
000000d0: efc8 4f3d dae9 d33b b955 70bd 80a3 56bc
000000e0: c69c cb3c d40e e3bb cacc 32bc 53a6 863d
000000f0: b117 9bbd be3b bfbb be00 99bc 8208 a8bc
00000100: 2641 b33d 3d6f 133d abe0 253d 84d9 69bd
00000110: 495d aabb 776f 253d fef0 a8bd 8b4d b83c
00000120: 4a8f 8b3d 2ee3 4ebb 4e0f 913b 2927 893d
00000130: 4f76 693d bbf7 923d 9213 733d 4008 533d
00000140: 345a e3bc b33d 83bd 9adf 54bd 426f 63bd
00000150: ac84 563d 9fe4 a53d b9c7 6a3b df46 4b3d
00000160: 8973 65bc 0fab 27bc c6a2 a73d 41dc 853d
00000170: 10d3 9a3d e421 92bd 68c5 263d d99d b23d
00000180: fdce 92bc c0c9 7ebd 317b 463c 926a a23d
00000190: 83c7 983d 2c12 79bd 6312 783d 722f 2cbd
000001a0: e4e4 2f3d 3cab 453d 17bb ed3c 382e b2bb
000001b0: aae3 7dbd 81f7 b1bd 13a0 2e3d 2fb8 1b3d
000001c0: b9f3 71bd f83d 513d fb0a 5bbd ff1f 743d
000001d0: e054 20bd 6b1e 263c cb81 81bd 8a88 04bd
000001e0: 9681 01bb dada 28ba 8917 76bd 5cec a23c
000001f0: 1aa2 b3bd 59fc 6c3d 8d5e 943c 3def b1bd
00000200: 10e3 0a3d 310c 30bd 639f 8f3c 58e7 fbbb
00000210: 9f2c 7b3c 141f 9e3d 0eac 98bd ad8e 90bc
00000220: 6eff 42bd 6d51 9c3c 90a4 5abd 02dd 4bbd
00000230: 8b2b 5d3d ed22 11bb 4054 6b3d 7311 97bd
00000240: d76c f6bc f483 bfbc d835 04bb 644c 4ebc
00000250: cf6e 883d 759a b3bd 2e9b fa3c 92b6 5abd
00000260: ac8f 16bd 21cb 2ebb fe66 81bd 1108 f8bb
00000270: d086 6c3d d1ee 023d 367d 94bd 00d8 15bd
00000280: 988e 82bd 706a 53bd 2aed 4d3d 393f 7abd
00000290: 5a39 05bd 60d1 32bd 1f8d 0b3d 39fa 18bc
000002a0: 540a a8bd b3e4 8abd 9d36 a23b 9221 89bd
000002b0: 1a9e 6c3d 3d6b 67bd a889 00bd 3c70 9dbd
000002c0: 186a 8cbd c36e 953d c39a b2bd 47bc 4a3d
000002d0: d215 933d 5964 0c3d c831 bebc 92db bf3c
000002e0: 80fc 313c b4b6 75bd 1859 963d cfe9 243c
000002f0: 0080 9cbd 61df 72bd c04f 43bd 81f8 813d
00000300: 2bfa 4b3d 2ab1 67bd 1cfa 9cbd 0949 413d
00000310: f753 82bd 7aa4 acbd 9024 933d 8649 5c3d
00000320: 087e 80bd 6426 3abd d413 16bd e326 a7bd
00000330: 1da6 b73a c6f8 d6bc befb 65bd ea66 6c3d
00000340: 4a60 61bd 3a95 49bc bea6 423d 97d1 a23d
00000350: 1793 3d3d 91dd a0bd 2516 693d 995a 113d
00000360: 6978 7ebd e9dc e63c 7982 393d 0fc6 6f3d
00000370: d3e0 573d 2c3f 57bd 5228 993c f2cd 3f3d
00000380: 7acf ae3d df18 823d c203 673c 593c 973d
00000390: bdf8 c3bc a313 ae3d 35f3 f33c f384 a43d
000003a0: b726 a3bd b9c3 a03d 1c0d 12bd b4d2 443d
000003b0: c71e a9bd 6144 633d 7906 72bd 23d5 35bd
000003c0: a295 2e3d 0918 dc3a f05a 813c fbce 05bd
000003d0: fc6c 50bd 98f2 a6ba f8ce 623c df01 023d
000003e0: 66c4 74bd c08f 7fbd 7bec 57bd 59d5 96bd
000003f0: d079 28bd 7d0b 40bd 7feb 14bd cc8d b03d
-0.068120874 -0.059460845 0.07577294 -0.038703345 -0.06902712 -0.08494101 0.059802584 0.03920091
0.042431243 -0.039915245 -0.045537382 0.05877201 -0.08201391 0.07721539 0.07008415 0.05689664
0.026899593 0.07854315 -0.029997671 0.020937342 0.06977352 -0.018325986 0.060340915 0.03600291
-0.015326112 -0.024145719 -0.08722609 0.026250405 0.081092134 -0.022269625 0.08525162 -0.0073370286
-0.049891796 -0.0762051 -0.06929287 0.0017829381 -0.056243703 0.058242287 0.012439895 -0.024086123
0.025149498 0.015455976 0.06423735 -0.07348987 0.08619402 -0.08723154 0.023805857 0.0022799547
0.026144374 0.0037525445 0.059505742 0.020182723 0.050728735 0.0064670863 -0.0586755 -0.013100505
0.024855029 -0.006929258 -0.010913083 0.065746926 -0.07572878 -0.0058359792 -0.018677112 -0.02051187
0.087526605 0.035994757 0.040497463 -0.057092205 -0.0051991087 0.040389504 -0.082490906 0.022497913
0.068144396 -0.0031568515 0.0044268733 0.06696922 0.056997593 0.07176157 0.059344836 0.05152154
-0.027752973 -0.064082526 -0.051971056 -0.055526026 0.05237262 0.08100247 0.003582461 0.049628135
-0.0140045965 -0.010233655 0.081853434 0.06536151 0.07559788 -0.071353704 0.040715605 0.08721513
-0.017920965 -0.062204123 0.012114332 0.07930483 0.07459929 -0.060808346 0.06056441 -0.042037435
0.042942896 0.048259005 0.029019875 -0.0054376386 -0.061984695 -0.08689786 0.042633127 0.038017448
-0.059070323 0.05108449 -0.05347727 0.059600826 -0.039143443 0.010139088 -0.06323584 -0.032356776
-0.0019761077 -0.0006441303 -0.06008104 0.019888096 -0.08771153 0.057857845 0.018111492 -0.08688209
0.03390795 -0.042980377 0.017532056 -0.0076874904 0.015330463 0.077207714 -0.07454692 -0.017646158
-0.047606878 0.019081796 -0.053379595 -0.049771316 0.053996604 -0.0022146062 0.057453394 -0.07376375
-0.030081196 -0.02337835 -0.0020173695 -0.012591455 0.0666176 -0.08769695 0.030591574 -0.05339677
-0.03675811 -0.0026671367 -0.06318472 -0.007569321 0.057745755 0.031966034 -0.072504446 -0.036582947
-0.06374854 -0.05161518 0.050275005 -0.06109545 -0.032525398 -0.043656707 0.03407013 -0.0093370015
-0.08205095 -0.06781902 0.004950358 -0.06695856 0.057767965 -0.056498755 -0.03138128 -0.07687423
-0.06856173 0.07296517 -0.08720925 0.04949596 0.07181896 0.034275386 -0.023217097 0.023420129
0.010863423 -0.059988692 0.07341212 0.01006551 -0.076416016 -0.059295062 -0.047683477 0.063462265
0.049799126 -0.05656544 -0.07664892 0.047188792 -0.06363671 -0.08429809 0.07184708 0.053781055
-0.062740386 -0.04544677 -0.036640003 -0.08161714 0.0014011298 -0.026241671 -0.056148283 0.057715334
-0.05502347 -0.012303645 0.0475223 0.07950132 0.046282854 -0.078547604 0.056905884 0.03548679
-0.06212655 0.02818151 0.045290444 0.058538493 0.052704643 -0.05255048 0.018695984 0.046827264
0.08535667 0.063524 0.014100017 0.07384557 -0.023922319 0.08499839 0.029779056 0.080331706
-0.07966369 0.07849831 -0.035657033 0.048052505 -0.082578234 0.055485133 -0.059088204 -0.044392716
0.04262317 0.0016791831 0.015790433 -0.032668095 -0.050885186 -0.0012737093 0.0138432905 0.031740066
-0.059757613 -0.06239295 -0.05271576 -0.073649116 -0.041131794 -0.046885956 -0.0363574 0.086207956

model_m.6.bias f4 [32]
00000000: 52e0 98bd 0828 9dbc 6f4a eb3c 0d7d 9ebc
00000010: 0420 a03d cb41 473d febf 76bd 68b0 463d
00000020: e4c8 7f3d c86a 5d3d 5501 b43d fe1c 483d
00000030: b2b2 a73d e28f 593d 4c2c 163c 1aaa 70bd
00000040: 2da7 9b3c ebd7 a4bd f13f 8c3c 1d7f 173d
00000050: 725c b53c cb94 69bd 7c05 a0bd 61ef c13b
00000060: c4ae 95bd a84a 20bd 4557 2bbd 5ff8 8b3c
00000070: 8b7e 623d caca 713d 6de7 1dbc ad99 92bd
-0.07464661 -0.019184127 0.028722016 -0.019346738 0.078186065 0.04864673 -0.06024169 0.048508078
0.062447444 0.054056913 0.087893166 0.048855774 0.0818838 0.053115733 0.009165835 -0.05875597
0.019000614 -0.080489956 0.017120333 0.03698646 0.022138808 -0.057026666 -0.07813546 0.005918429
-0.073087245 -0.039133698 -0.041831274 0.017086206 0.055296462 0.059031285 -0.009637696 -0.071582176

fc.weight f4 [1, 6976]
00000000: e9f0 3ebc 8a27 efbb 8db9 8d3b 221e 00bc
00000010: bfb2 b4bb 865c 153c 5a4b 743b 6858 823b
00000020: a2d3 0f3b e8d9 9f3b b5ff 373c 8946 883b
00000030: 5930 2bbc 90e2 0bbc f128 23bc e38b 05b9
00000040: fc4b c03b 7322 0f3c 674f 4dbb a99e 2f3c
00000050: 81a1 193c 8741 1abb de10 ad3b 7d2d 233a
00000060: 7884 c7b9 ebc3 3cbb 494f 13bc ace4 143c
00000070: 8f6b 2fbc 239b 343c ffb4 16bc 7c5b c2ba
00000080: 8574 03bc 8a05 b93b 420e 1a3c 9d07 ca3b
00000090: 3363 1cbb d434 273b 275f 9cba 158f e43b
000000a0: 03b8 35bc cf67 433c d593 febb 6e76 e43b
000000b0: 91d6 0dbc adb7 e2bb 5a68 86bb e798 9d3b
000000c0: 2313 3bbc 8922 e7ba e47c da3a 0789 393c
000000d0: 8bed 0dbc 7355 e5bb 142f 873b c9d0 f23b
000000e0: b89b 07bc 34e9 82bb 59da d93b 4e55 9abb
000000f0: bd25 9e3a d5d3 dcbb d77d 1abc a8b9 c43b
00000100: 8398 46bb 927a 3c3b 6a8c 8eb9 588b 94bb
00000110: 2675 78bb 5f03 7cbb 8424 cdbb 5eec 07bc
00000120: 27bb 2c3c 4287 f9bb e332 7e3b fd03 b2bb
00000130: 83fa 2fbc 6095 b3bb 13a6 d1b9 7572 adbb
00000140: 26f8 09bc c664 33bc 766c e5bb 0288 95bb
00000150: 6c27 1fbc 862d 0f3a 3854 07bc 38d9 b838
00000160: 8ee3 16bc f22e d2bb 0661 9dbb ceee 3cbc
00000170: fd42 cabb 83b3 05bc af2a 873b 16f2 0d3b
00000180: 8ea7 d83b 662a ebbb e677 25bc b3c0 f0bb
00000190: 2896 14ba b507 bdbb 267f 91bb f5de e5bb
000001a0: 991f 523b 02ac e73b c567 3bbb c03f b8bb
000001b0: 1600 fa3b 25e6 23bc e465 8bbb 0724 42bc
000001c0: be32 8bbb 6503 d8bb 638d 05bc 6ea6 293a
000001d0: c4b3 7fba 36d8 013c d583 693b 243d b53b
000001e0: 911b bfba 9224 dcbb f35c 0a3c e33b c2bb
000001f0: 3da7 763b bf42 e13a 5df6 32b9 d2a5 003c
00000200: d311 59bb 7999 023c bc7e c73b 5874 883b
00000210: 9cdd 73bb 4405 353a 891d 2a3c 10ec c03a
00000220: b6af 863b d67b 17bc af27 b83a 2ab4 fcba
00000230: bc38 a13a 360a 3a3b fc4d 88bb 68b0 7d3b
00000240: 195d 11bc 602f 8abb 4b39 14bb 65fa 38bc
00000250: 5156 32bc 32e8 643b 1a67 16bc 0a3a 64bb
00000260: e1a3 d0bb 9c83 373c b2fd 73bb b7e4 a93b
00000270: 24ac 4cbb 744f 42bc 1e5f a43b ef74 78ba
00000280: 2810 84bb 52db 373b 0f19 8e3b 6b0e b7ba
00000290: f5db 43bc ce43 6abb ba18 073c 118c 893b
000002a0: 3ddb 8cbb fc40 15bc 4b8b e6ba da37 323b
000002b0: 30a1 8a3b 5c3b 20bc 6c57 d9bb a281 d3bb
000002c0: 2dce b33b 2140 bf3b 50c8 13bc 02ad a73b
000002d0: 3353 82ba 1f4b a8bb f606 b83b c91b 213c
000002e0: 6c1e 383c ef52 92bb 4a64 5fbb 903a 263c
000002f0: e1da 263c 3ff8 3e3c 12a1 14bc afc1 3e3c
00000300: e81c 00bb ccd1 a1ba a734 d53b a057 3c3c
00000310: 612d 09bc e2ef ec3b 672f 1b3c 4370 f73a
00000320: 1931 d5bb c962 0fbc 5861 d03b 5259 5f3b
00000330: 2184 c13b 74fa 38ba aa00 243b d100 6e3b
00000340: ee07 76bb ff94 183c 667b 9c3b 29d5 d93b
00000350: 49d1 c63b ae96 d2b9 3cca 323c 1cb6 fe3b
00000360: f284 2abc dcf4 7b3b e5fd f5bb ca55 4b3b
00000370: a1b8 19bc 4435 c5bb 3f73 b83b 2b9d 1d3c
00000380: 417e f23b feb5 40ba 97ed 56bb 8603 ef3a
00000390: b456 0bbc cbf1 133b df46 1a3c 08d2 bb3b
000003a0: 84ba 05bc 06f9 eaba a607 1a3b 3382 81b9
000003b0: 8535 46bb e692 303c 2043 00bb 0ff3 28bc
000003c0: 2f30 1a3c 0308 bbbb a46a 4139 f748 8bbb
000003d0: 19a7 0cbc 2947 f73b f7e8 453b 077b acba
000003e0: f80e ee3b e49d 4c3a 7cfb a9bb b021 743a
000003f0: e398 983b ac9b 933b 1e17 25bc 8ca0 6abb
-0.011654117 -0.0072984146 0.004325098 -0.007819684 -0.0055144723 0.009116298 0.0037276358 0.003977824
0.0021946211 0.0048782714 0.011230399 0.004158799 -0.010448539 -0.008537903 -0.009958492 -0.0001273598
0.005868433 0.008736241 -0.0031327845 0.01071898 0.009376884 -0.0023537592 0.0052815517 0.0006224735
-0.00038054935 -0.00288033 -0.008991071 0.009087723 -0.010706796 0.011023316 -0.009198426 -0.001482829
-0.008023386 0.0056464123 0.009402813 0.0061654584 -0.0023862838 0.0025513666 -0.0011930213 0.0069750645
-0.011091235 0.011926605 -0.007769088 0.0069721257 -0.008657114 -0.0069188685 -0.004101795 0.004809487
-0.011418137 -0.0017634194 0.00166693 0.011324174 -0.008662592 -0.0069987117 0.004125485 0.007410143
-0.008276872 -0.003995085 0.0066483435 -0.004709876 0.001206569 -0.0067391195 -0.009429417 0.0060035773
-0.0030303306 0.002875958 -0.00027188967 -0.0045332126 -0.0037911623 -0.0038454158 -0.0062604565 -0.0082961
0.0105426675 -0.007615001 0.0038787655 -0.0054326043 -0.010740879 -0.0054804534 -0.0003998732 -0.0052931854
-0.00842098 -0.010949319 -0.007001455 -0.0045633325 -0.009713989 0.00054618006 -0.008259825 8.814264e-05
-0.009209527 -0.0064142877 -0.004802826 -0.011531545 -0.0061725364 -0.008160475 0.0041249613 0.0021659187
0.006611771 -0.007176685 -0.010099387 -0.0073471903 -0.0005668127 -0.005768741 -0.004440206 -0.007015104
0.003206229 0.0070700655 -0.0028595787 -0.005622834 0.007629405 -0.010003601 -0.0042540897 -0.01184941
-0.0042479923 -0.0065922015 -0.008151385 0.00064716383 -0.0009754265 0.007925084 0.0035631557 0.00553097
-0.0014580359 -0.0067182267 0.008445012 -0.005927549 0.0037636303 0.001718603 -0.0001706718 0.007852035
-0.0033122196 0.007971161 0.006088106 0.00416426 -0.0037210947 0.00069053867 0.010383018 0.001471879
0.004110302 -0.009245833 0.0014049913 -0.0019279767 0.0012300233 0.0028387434 -0.004159687 0.0038709883
-0.008872294 -0.0042170733 -0.0022617157 -0.011290167 -0.010884837 0.0034928438 -0.009179855 -0.0034824633
-0.006367192 0.011200812 -0.0037230072 0.0051847356 -0.0031230533 -0.011859763 0.0050162217 -0.00094778737
-0.0040302463 0.002805431 0.0043364833 -0.0013966089 -0.011954297 -0.003574598 0.008245641 0.0041976054
-0.004298596 -0.009109732 -0.001758912 0.0027193935 0.004230641 -0.009779777 -0.006632736 -0.0064546624
0.0054872246 0.005836502 -0.009019926 0.0051170597 -0.0009943008 -0.0051359083 0.005616064 0.009833285
0.011237722 -0.004465453 -0.0034086877 0.010145798 0.010184021 0.011655866 -0.009071605 0.011642857
-0.001954848 -0.001234585 0.006506521 0.011495501 -0.008372636 0.0072307447 0.009471751 0.0018878061
-0.006506097 -0.00875158 0.0063592605 0.0034080339 0.0059056436 -0.00070563634 0.002502481 0.0036316405
-0.0037541348 0.009312867 0.0047754524 0.006647725 0.006067429 -0.00040166586 0.010912474 0.007773174
-0.010407673 0.0038445508 -0.007507073 0.0031026476 -0.009382398 -0.0060183126 0.005628973 0.009619991
0.0074003045 -0.00073513377 -0.0032795423 0.0018235303 -0.008504558 0.002257454 0.009416311 0.005731825
-0.008162145 -0.0017926998 0.0023503094 -0.00024701803 -0.0030244302 0.010777211 -0.001957126 -0.010311856
0.009410902 -0.005707742 0.00018445641 -0.0042506414 -0.008584761 0.0075463247 0.0030198672 -0.0013159224
0.007264968 0.000780551 -0.00518745 0.0009312881 0.0046568974 0.0045046415 -0.010076312 -0.003580126
