checkpoints_avg_on_outputs/run_0/1d_cnn_ckpt_3.pth (torch, 136776 bytes, 8 tensors)

model_m.0.weight f4 [8, 4, 8]
000000 9c 97 56 3d 1a c1 4b bd 55 6b 28 3e 16 de b3 ba
       0.05239068 -0.049744703 0.16447194 -0.0013722803
000010 02 05 1d 3e 58 b3 0a bd 43 11 07 3e f3 e6 11 bd
       0.15333942 -0.03386244 0.13190179 -0.03562064
000020 c8 68 2b be 4f e0 63 3b 2e 66 b0 3d 0a cb 9e bb
       -0.1673919 0.003477115 0.08613239 -0.0048459815
000030 71 af 95 bc 75 36 6a bd f1 02 17 3d a6 84 c6 3c
       -0.018272134 -0.05718084 0.03686804 0.024233174
000040 cf 9b 14 be 15 4b 10 bd ad 23 b7 3d ca 38 ca bc
       -0.14512561 -0.035227854 0.089423515 -0.024685282
000050 c5 cf 24 be b1 77 d0 3c 49 cd 56 bd 06 36 e6 bd
       -0.16094883 0.025447698 -0.05244187 -0.11240773
000060 2e bb cf 3d 8f 73 17 be 04 51 06 3e 42 0e d1 3c
       0.101431236 -0.14790176 0.13116843 0.025519494
000070 de 5a fc 3d 8d 00 0c be cb d8 24 be ac 89 83 3d
       0.12322019 -0.13672085 -0.16098325 0.06422743
000080 2d 18 33 3e a4 4b 8a 3d 7a 96 f8 3d c4 dd 9b bd
       0.17489691 0.067527086 0.12138076 -0.07610658
000090 d9 49 58 bd 98 a6 24 3e 84 b3 c3 3d 8d 31 bb bd
       -0.0528048 0.16079175 0.09555724 -0.091403104
0000a0 c7 35 1d 3e ae 1b 1d be 56 79 da bd c8 8a e8 3d
       0.15352546 -0.1534259 -0.10667674 0.113545954
0000b0 76 e2 26 bd bd aa 97 3d c2 15 02 3e d2 72 ef 3c
       -0.040743314 0.074056126 0.12703612 0.029229555
0000c0 e3 01 a6 3d 1f 9b c4 3d 09 7c 0c 3e fa 04 3b bd
       0.081058286 0.095998995 0.1371919 -0.045659043
0000d0 7a 83 c9 bd c0 3a ac 3d af 85 64 bd 31 10 1e be
       -0.0983953 0.08409643 -0.055791553 -0.15435864
0000e0 14 19 d6 3d 20 f4 11 3e 41 c9 7d bd f9 2d b7 3d
       0.10454002 0.14253283 -0.06195951 0.089443155
0000f0 81 37 20 bd 2d 49 e3 bd 4d 8f 0f be 4c 83 b6 3d
       -0.039115433 -0.110979415 -0.14019509 0.08911762
000100 05 6c af bd 8b af da bc b4 01 17 bc f5 fb 13 3e
       -0.08565525 -0.026695034 -0.009216715 0.14451583
000110 87 f5 17 be 03 6e 05 be d5 b6 28 bd 0d 7a 0b 3e
       -0.14839755 -0.13030247 -0.041189987 0.13620777
000120 fa a1 f7 3c b6 11 10 be a6 2f 83 3d fa 3f 38 bd
       0.030228604 -0.14069256 0.064055726 -0.044982888
000130 0b 27 4f 3d 98 cb 08 3d 68 da c4 bd ec a5 cb 3b
       0.050574344 0.033397287 -0.0961197 0.006214848
000140 33 e0 4e bd 7b 4e 19 be b1 19 9d 3d 42 35 67 bc
       -0.05050678 -0.14971344 0.07670916 -0.014111819
000150 f1 d9 fd bb 61 f8 4d 3d ea 36 78 3d b2 63 69 bb
       -0.007746928 0.0502857 0.060599245 -0.0035612402
000160 ce 83 0e 3e 67 0e cf bd f8 3d 2f 3e f6 e8 14 be
       0.13917467 -0.10110169 0.17113483 -0.14541993
000170 00 cb de bd b8 f3 ee 3c be 9b 84 bd 1d d2 0a be
       -0.10878563 0.029168949 -0.06475018 -0.13556714
000180 62 9c 17 bd f2 71 0c be 02 29 d8 3d 80 19 f0 bc
       -0.037014373 -0.13715342 0.105546966 -0.029309034
000190 58 bd fd 3c 36 bf f1 3b c0 18 33 bd c3 75 f6 bd
       0.030974075 0.0073775304 -0.043724775 -0.1203418
0001a0 65 25 30 be 46 18 19 3e 25 72 77 bd 88 98 1f be
       -0.17201765 0.14950666 -0.06041159 -0.1558553
0001b0 38 5c 28 be 11 6f 16 be c2 27 1d be 02 bf 52 bd
       -0.16441429 -0.14690806 -0.15347198 -0.05145169
0001c0 54 81 2a 3e 71 b8 2c bc d1 87 ac 39 a1 80 2f 3d
       0.16650897 -0.010542021 0.00032907588 0.04284728
0001d0 d1 cb b6 3d 8b e2 25 3e 4b 7f 22 3e 91 f1 0e be
       0.08925594 0.161997 0.15868871 -0.13959338
0001e0 a6 73 49 bd 85 cd c1 3d 0d 19 6b bd 40 3e a7 bd
       -0.049182557 0.09463028 -0.057396937 -0.0816617
0001f0 d1 ef a5 bd 21 cf a4 bd c6 d8 1a 3d 24 e9 17 3e
       -0.08102382 -0.08047319 0.037804388 0.1483503
000200 17 a4 a0 3d e2 e0 14 bd 56 01 b8 3d 30 86 2e 3e
       0.07843798 -0.036347277 0.0898463 0.17043376
000210 73 4a 45 3d 60 56 97 bd 74 00 11 be 7f 71 2c be
       0.048166703 -0.073895216 -0.14160329 -0.1684017
000220 ce 34 7c bd 90 c6 24 3e 24 11 ce bd fa 32 2c be
       -0.061573796 0.1609137 -0.10061863 -0.16816321
000230 cd 7d f6 3d 84 c6 23 bd ae da 7a 3d 2c 5c c4 3d
       0.12035713 -0.03998424 0.061243705 0.09587893
000240 cf 27 ac 3c 77 24 64 3d 50 07 d8 bd 9b 59 b2 bd
       0.021015076 0.055698838 -0.1054827 -0.08708497
000250 31 f6 15 3e 9d c6 31 bd f8 01 17 bd 66 74 29 3e
       0.14644696 -0.043402303 -0.036867112 0.16548309
000260 d3 54 b5 3d f0 d2 34 3c 55 38 1d 3e 0f fc a7 bd
       0.088540696 0.01103662 0.1535352 -0.08202373
000270 f4 54 b5 bc 8d 4e dd 3d 4d 87 17 3d ed bd af 3d
       -0.022135235 0.10805998 0.036994267 0.08581147
000280 c0 06 2e be d3 82 d5 bc 17 68 99 3d 2e 0b 1b be
       -0.16994762 -0.026063358 0.07490557 -0.15140983
000290 48 54 30 ba 7c 60 18 be c6 3e f3 3d fb 56 f7 3c
       -0.0006726426 -0.14880556 0.118772075 0.030192843
0002a0 d5 de c5 3b 3c fd bd bc 29 09 69 3d 60 53 80 bd
       0.0060385265 -0.02319204 0.0568935 -0.062659025
0002b0 6a 54 e5 bd 4b 15 fe bd 22 bd 1c be 76 7d a5 bd
       -0.11197741 -0.12406405 -0.15306523 -0.080805704
0002c0 da 05 02 3e 50 d6 a1 bc ea 6c 98 bd da 86 36 3d
       0.12697545 -0.019755512 -0.07442649 0.0445622
0002d0 b4 29 02 be 3e d7 8c 3c fa 6b ec bd 72 71 8f bd
       -0.12711221 0.01719248 -0.115440324 -0.0700406
0002e0 2b d7 c4 bc a1 c4 0c be 7e 4d b5 3d 23 ad e2 bd
       -0.024028381 -0.13746883 0.08852671 -0.110681795
0002f0 13 8e 97 bd b0 7e 27 be e2 7e 0e be 3c 40 53 3c
       -0.074001454 -0.16356921 -0.1391559 0.012893733
000300 17 95 70 bc d4 ef ee 3d a2 58 d0 3d f3 f3 08 3e
       -0.014683983 0.11666837 0.10173155 0.13374309
000310 e1 7f c5 3d f6 fd a2 3d 82 36 f9 bd f7 b1 90 bb
       0.096435316 0.079585955 -0.121686 -0.0044157463
000320 dd 72 06 bd 15 d3 1f 3e a0 a0 b9 3c eb c0 9a bd
       -0.032824386 0.15607865 0.0226596 -0.075563274
000330 5c da 2d bc 75 e0 2a 3e d5 f7 f6 bd 81 e2 16 3c
       -0.010611143 0.16687186 -0.12058989 0.009209276
000340 7d 61 e2 3d fe ac 23 be 69 ba df bb 81 9c a2 bd
       0.11053751 -0.1598396 -0.0068276417 -0.07940007
000350 d1 d2 7f bd 9a 29 b2 bd 0f 60 41 bd e0 23 4c 3c
       -0.06245691 -0.08699341 -0.04721075 0.012459725
000360 b7 d3 28 3d c7 80 14 3d 63 3a 2b bd 80 85 22 bd
       0.041217532 0.036255624 -0.04180373 -0.039678097
000370 f9 83 ca 3d f1 27 34 3e f5 71 11 be ca aa 25 3e
       0.09888453 0.17593361 -0.14203627 0.16178432
000380 0f f2 4b bc 1c 0a af bc cc 2a e6 3d 01 51 b5 3d
       -0.012447848 -0.021367125 0.112386316 0.08853341
000390 b9 17 ee 3c b4 a7 03 be 17 f8 2f be 31 40 a5 3d
       0.029064046 -0.12856942 -0.17184483 0.08068884
0003a0 0a ec c8 bc 7a 42 1d 3e d7 87 9a 3c 8e 95 93 3c
       -0.024526615 0.1535739 0.018863602 0.01801565
0003b0 73 27 bb 3d 6b 6a 66 bc 61 8b 17 3c 7c 60 0c be
       0.09138384 -0.014063458 0.009249539 -0.13708681
0003c0 57 17 03 3e 8c 39 91 3d ef 36 ef bd 1d e2 29 3e
       0.12801872 0.07091054 -0.116803996 0.16590162
0003d0 e1 8b cd bc 6d cc f8 3d 51 0f 85 bd 54 9d 02 be
       -0.025091114 0.12148366 -0.06497062 -0.12755328
0003e0 56 43 1f 3e a4 9f 29 3e 50 53 20 3e 79 67 fa bc
       0.1555303 0.16564804 0.15656781 -0.030566918
0003f0 ca 14 23 be d3 9b 9a 3d 80 b3 9c 3d 94 82 b7 bd
       -0.15925899 0.07549252 0.076514244 -0.08960453

model_m.0.bias f4 [8]
000000 b9 48 19 be 18 e7 f7 3c 81 4b 35 bd f0 b2 54 3d
       -0.14969148 0.030261561 -0.04426146 0.05192846
000010 70 cd 22 3e aa da b9 bd ef 8a 22 bc e6 0b 33 3e
       0.1589868 -0.0907491 -0.00992082 0.17485008

model_m.3.weight f4 [16, 8, 8]
000000 2c dc 8f bd 72 55 de 3d a4 32 41 bd 14 18 e6 bd
       -0.07024416 0.10856141 -0.047167435 -0.11235061
000010 20 b9 87 bd 18 39 08 bd 94 09 fc 3d 00 4c f6 3b
       -0.06627107 -0.033257574 0.123065144 0.007516384
000020 e8 fa 5c 3d 80 ae 3a bd e0 53 a9 bd d8 fd 7d 3d
       0.05395022 -0.045576572 -0.08267951 0.062009662
000030 88 0f 17 bd b6 02 f5 3d 14 19 9e 3d b0 37 e0 3c
       -0.036880046 0.11963408 0.07719627 0.027370304
000040 ce 3c 82 3d 70 59 6a 3d 10 2c b1 3d 98 89 2f 3d
       0.06359254 0.0572142 0.086509824 0.04285583
000050 8e d7 ca bd 14 ff c4 bd 78 67 61 bd d6 f8 8b bd
       -0.09904395 -0.09618965 -0.055030316 -0.06834571
000060 14 3e a9 bd 6e 7f fc 3d 7a 02 ee 3d 68 4c 64 bd
       -0.082637936 0.12328993 0.11621566 -0.05573693
000070 7c b4 19 3d 66 8f dd bd bc d2 d3 3d 08 b3 f7 bd
       0.03752564 -0.10818367 0.10342929 -0.120946944
000080 54 f7 85 3d 30 c4 ab bc 0c 1c 49 bd c8 58 76 bd
       0.06541315 -0.020967573 -0.049099013 -0.060143262
000090 40 ae c4 bd ca c4 e0 bd c8 2e be bd 80 4f cc 3d
       -0.09603548 -0.109750345 -0.092862666 0.09976101
0000a0 44 14 41 bd 04 b4 56 3d 68 6a a1 3c 94 b9 2a 3d
       -0.047138467 0.05241777 0.019704059 0.041680887
0000b0 cc f5 9f bd 96 f5 d5 3d e0 28 ad bb 68 92 ff bd
       -0.07810554 0.104472324 -0.0052844137 -0.12479097
0000c0 f8 1c 87 3d 10 59 82 3c ea c5 c4 3d 52 d2 df 3d
       0.06597322 0.015911609 0.096080616 0.10928787
0000d0 b8 35 dd 3d a0 93 f6 bb 70 ab 42 bc 98 b2 b2 3c
       0.10801262 -0.0075249225 -0.011881694 0.021813676
0000e0 98 8b 2f bd d4 db 25 3d 6c 9d 19 bd bc 61 6b bd
       -0.042857736 0.040492848 -0.037503645 -0.057466254
0000f0 44 12 3b 3d 00 3f a9 3b 30 23 f5 bc 40 63 35 bc
       0.045671716 0.005164981 -0.029924005 -0.011071026
000100 10 01 d0 bc f0 07 4a 3c ba 5a b4 bd 2e d5 db bd
       -0.025391132 0.012330994 -0.08806367 -0.1073402
000110 7a 1e d8 3d 80 74 9b 3a 80 2c d3 bd 00 a2 92 3c
       0.10552688 0.0011860281 -0.10311222 0.017899513
000120 67 f3 f7 bc c5 65 c1 bd 01 5b 53 3d c7 33 a4 bd
       -0.03026743 -0.09443239 0.05160046 -0.08017688
000130 ee a4 6a bd 81 cc 24 bd e8 79 f2 3c 40 b0 42 3d
       -0.057286195 -0.040234093 0.029599145 0.047531366
000140 ba 67 bc bd e0 a7 86 3d 06 0f df 3d 6a bb a8 bd
       -0.09199472 0.06574988 0.10891537 -0.082388714
000150 90 d6 f2 3d 20 c2 fe 3b 42 e7 d0 3d 56 99 9c bd
       0.11857331 0.0077746063 0.10200359 -0.07646434
000160 3d e0 da bd 6d 0c b5 bd e8 22 05 bc 8d e7 b0 3c
       -0.10687301 -0.08840261 -0.008125998 0.021594787
000170 4b 4c 88 bd 39 28 d8 bd aa 6c ff bd 9a a5 5d 3d
       -0.06655177 -0.10554547 -0.12471898 0.054113008
000180 57 df df 3d 27 ec fe 3d 5f d3 50 3c 67 2d 19 bc
       0.109312706 0.12447386 0.012745707 -0.009349204
000190 d3 8c 40 3d 2d ef e5 ba d5 3e ba 3d de b8 26 bd
       0.0470093 -0.0017542593 0.090940155 -0.040703647
0001a0 40 e2 df bd 56 26 8c bd 50 a6 5c bd 10 16 a7 3c
       -0.10931826 -0.068432495 -0.053869545 0.020396262
0001b0 78 23 46 3d d4 95 5d 3d 9c a2 51 3d 10 82 80 3d
       0.04837367 0.054097965 0.051180467 0.062748075
0001c0 e0 fc 4f 3d 52 00 f6 3d b4 ce 60 bd 8c e5 87 3d
       0.05077827 0.1201178 -0.054884627 0.066355795
0001d0 d0 81 a4 bd e0 b0 ea bb c0 7d ee 3d 60 76 dc bb
       -0.08032572 -0.0071621984 0.11645079 -0.0067279786
0001e0 69 bd 4a bd ee cd 3e 3d 3b 9c 60 bd 06 5c ee bd
       -0.04949704 0.04658311 -0.054836493 -0.11638646
0001f0 26 41 07 bc e2 3c c2 3d 56 59 12 3d 71 d5 b1 bb
       -0.008255279 0.09484269 0.03572973 -0.0054270555
000200 54 97 9e bd 88 31 30 3d d2 85 be bd e4 45 f5 3d
       -0.07743707 0.043015987 -0.09302868 0.11976221
000210 74 d8 6d 3d 12 9a ab 3d 0c 4f b6 bd 18 4b 2c bd
       0.058067754 0.08378996 -0.08901796 -0.042063802
000220 34 2f df bd cc c6 89 3d 0c 1d 7f 3d 24 81 05 3d
       -0.10897675 0.067273706 0.06228356 0.03259386
000230 a2 4f e6 bd 74 48 ed bd 30 d0 20 bc 18 e6 c1 bc
       -0.112456575 -0.11586085 -0.009815261 -0.023669288
000240 98 2d 00 bd e0 d8 d2 bc 50 8e 96 3c 0a 6a a0 3d
       -0.03129348 -0.02573818 0.018378407 0.07832725
000250 88 f3 d2 bc 00 d4 5b bd c0 c7 1c bb ee 7f fc bd
       -0.02575089 -0.053668976 -0.0023922771 -0.12329088
000260 68 8c 14 3d b6 06 a0 bd 14 fc ff bd c8 44 5b 3d
       0.036266714 -0.0781378 -0.12499252 0.05353239
000270 34 7a 6d bd 38 cf 42 bd 70 e4 7b 3d 66 ce e0 bd
       -0.05797787 -0.0475609 0.06149715 -0.109768674
000280 48 e0 49 3d 64 c1 91 bd 80 57 a3 3c e0 6a 04 3c
       0.049286157 -0.071169645 0.019939184 0.008082122
000290 00 37 47 bb a8 ab 98 3c dc 8f 10 bd 16 09 94 3d
       -0.0030397773 0.01863654 -0.035293445 0.072282955
0002a0 08 41 be 3d 38 a3 5f 3d d8 96 d5 bd 74 af 4f 3d
       0.092897475 0.054599017 -0.10429162 0.050704435
0002b0 48 22 ed bc f4 dd 3b bd 1e 92 f6 bd 40 f0 eb 3b
       -0.02894701 -0.045865968 -0.120395884 0.007200271
0002c0 34 f5 bd 3d b0 0d 39 bc a8 1f ef bd 70 36 87 3d
       0.092752844 -0.011294767 -0.1167596 0.0660218
0002d0 d6 1c d3 bd 48 44 29 3d 88 a3 88 3c 98 b3 6c 3d
       -0.103082344 0.041324884 0.01667954 0.05778846
0002e0 e2 6e 90 bd 3c 15 a4 bd 94 d8 73 bd 2a 1d e5 bd
       -0.07052399 -0.08011863 -0.059532717 -0.11187203
0002f0 d0 67 d0 3d ec b3 73 bd 4e dd 96 bd 54 87 c9 bd
       0.10176051 -0.05949776 -0.07366429 -0.09840265
000300 e0 84 fc bc 9e 64 f9 bd 12 c1 ed 3d c6 a6 e5 bd
       -0.030825078 -0.12177394 0.11609091 -0.1121345
000310 f0 aa 4f bc 48 0b c0 bc 7c 4c f8 3d f0 a9 ab 3d
       -0.012675032 -0.02344288 0.12123963 0.083820224
000320 00 27 d8 bd 12 73 b6 bd 80 9a f6 3a d4 df c8 bd
       -0.10554314 -0.08908667 0.0018814355 -0.09808317
000330 5a 24 ac bd 80 0e 4a bc 3c cf 5e 3d cc 1d 90 bd
       -0.08405371 -0.012332559 0.054396853 -0.07036933
000340 08 6f 7a bd 22 bb a6 bd 1c 35 96 3d c6 08 8f 3d
       -0.061141044 -0.081411615 0.073343486 0.06984095
000350 04 50 06 3d 52 b7 91 3d e8 15 95 3d 14 c2 5d bd
       0.032791153 0.07115044 0.07279569 -0.054140165
000360 b0 37 a5 3c 98 02 ba bc 50 0a af 3c 60 86 9e bc
       0.020168155 -0.022706315 0.021367222 -0.019351184
000370 98 28 18 bd ac a4 37 bd 4c 0d 50 3d 44 64 f4 3d
       -0.03714809 -0.044834778 0.05079393 0.11933187
000380 a8 70 ff bd 00 8a 46 bb d2 b7 81 3d e0 9b 90 bb
       -0.12472659 -0.0030294657 0.06333889 -0.004413113
000390 54 36 84 bd 54 b5 d4 3d 44 8e d0 bd c0 e3 56 bb
       -0.06455675 0.10386148 -0.10183385 -0.0032789558
0003a0 b0 36 a2 3c 5a e5 cb bd 84 70 2f 3d a8 95 81 bc
       0.019801468 -0.09955855 0.042831913 -0.015818432
0003b0 84 70 45 bd 40 6c 84 bb d8 85 e1 3d 8c af f2 3d
       -0.048203006 -0.0040412247 0.11011857 0.11849889
0003c0 d0 78 2c bd e0 78 37 3c fa fc ac bd f4 48 1e 3d
       -0.042107403 0.011198252 -0.08446689 0.038643792
0003d0 ba 6e 82 3d 18 63 f1 bd 90 24 9c bc a0 aa 69 3d
       0.06368776 -0.11786479 -0.019060403 0.057047486
0003e0 72 d8 a7 3d a8 77 be 3c 00 9c d3 3b f0 b7 15 bc
       0.081955805 0.023250416 0.0064578056 -0.009138092
0003f0 1c c3 c8 bd 34 5c e9 3d 68 61 cb bc 30 ef 0e 3c
       -0.09802839 0.113945395 -0.02482672 0.008724019

model_m.3.bias f4 [16]
000000 30 43 e1 bc ff 0b a7 3d e0 aa ef bc 7c 3f 88 bd
       -0.027497858 0.08156585 -0.029256284 -0.06652734
000010 6c c9 e8 3d 85 2c af 3d 0f 84 bf 3d da 57 8e 3d
       0.11366543 0.08553413 0.0935136 0.0695035
000020 80 5a 00 bb 16 67 8a bd 54 d4 1a 3d 48 4f 0c 3d
       -0.0019585192 -0.06757943 0.037800148 0.034255296
000030 dc e5 6b bd b2 b3 ab bd bb ae 81 3d 7a 52 fc bd
       -0.057592258 -0.083838835 0.06332155 -0.12320419

model_m.6.weight f4 [32, 16, 8]
000000 77 ca 89 bc 8c c7 8a 3d 88 2f 7c 3d 6c c1 82 bd
       -0.016820176 0.06776342 0.061568767 -0.063845485
000010 f8 2e 8d 3c 7c 4d 93 3d 12 c4 1f 3d 68 cf 9f 3c
       0.01723431 0.07192513 0.039005347 0.019508079
000020 69 61 4f 3d 9f b2 cc 3c 65 c3 19 3b ba f9 85 bd
       0.050630007 0.024987517 0.0023462411 -0.06541772
000030 7b 01 b3 3d c2 d1 90 bd 08 04 8e bd 7b c8 ed bc
       0.08740517 -0.07071258 -0.06934363 -0.02902626
000040 5c 5c 60 bd 8a 95 1a bc 8d 76 46 bd 9a 1e 94 3a
       -0.05477558 -0.009435067 -0.048452903 0.0011300624
000050 32 76 89 bd 53 3c 4a 3d e6 47 8e 3d 13 e4 8d bb
       -0.06711997 0.049373936 0.06947307 -0.004330167
000060 88 02 7a bc ac 5c a9 bd 40 73 54 bd 44 24 60 bd
       -0.015259393 -0.08269629 -0.051867723 -0.054722086
000070 81 1a af 3b 3a 34 09 bd 81 fe a1 bd 44 a3 65 3c
       0.0053437357 -0.033497073 -0.07909871 0.014015976
000080 1a 6b ba 3c 5c 49 88 bd 30 fa 9b 3d 51 07 1b bd
       0.022756148 -0.06654617 0.07616079 -0.037848774
000090 4b 63 9c bd 28 df 70 bd c1 11 9f 3d 66 93 90 3d
       -0.07636126 -0.05880657 0.07767058 0.07059364
0000a0 9f cf 79 bd 0e 8f 57 bd c5 b1 83 bd b0 fa 7d bd
       -0.06098902 -0.052626662 -0.06430391 -0.062006652
0000b0 64 56 69 bd 20 f1 9b 3b 36 65 40 bc 75 4c a1 bd
       -0.056967154 0.004758969 -0.011742881 -0.07875911
0000c0 0a 1a 2b 3c 3e 41 48 3d 4b 1f d2 bc 6d 6c e0 b9
       0.01044322 0.048890345 -0.025649687 -0.00042805393
0000d0 21 19 c1 3c 83 39 82 3d 94 26 96 bd ec ff af bd
       0.023571553 0.06358626 -0.07331577 -0.08593735
0000e0 d2 d7 b1 bc bd 5a 10 3d 8c c5 7f 3d 4b e0 6a 3b
       -0.021709356 0.035242785 0.062444255 0.0035839255
0000f0 a2 ef 7e bd 0b 40 93 bd ab f8 5d bd 39 f7 a4 3c
       -0.06224025 -0.071899496 -0.054192226 0.020137416
000100 81 80 c4 bc bb 46 a9 bd 29 0f 93 3b 44 6d 85 bd
       -0.023987057 -0.08265444 0.004487891 -0.065149814
000110 fb 4d 35 bd b4 6f 41 bd 6d 67 48 3a 89 ad a7 3c
       -0.04426382 -0.04722567 0.0007644806 0.02046849
000120 37 56 08 bd 4d f9 11 3d a3 ed b2 bd 2d db 89 bd
       -0.033285346 0.035638142 -0.08736732 -0.067312576
000130 17 50 c8 bc 40 f8 7a 3c 7b f1 96 3d 2f ae 94 3d
       -0.024452252 0.0153179765 0.073702775 0.072597854
000140 6d 9c e3 3b ff 84 47 bd 3e 67 1b ba f5 5f 65 bd
       0.0069461376 -0.04871082 -0.0005928165 -0.055999715
000150 e3 3b 71 bd 77 4f e7 3c 2f d2 40 3d f4 54 5d bd
       -0.058895003 0.028236134 0.047075447 -0.054036096
000160 6c 14 0e bd a2 15 46 3b b2 23 59 3c a2 67 53 bd
       -0.034687445 0.0030225297 0.013253139 -0.051612504
000170 00 42 3e bc 79 3b fb bc 19 71 45 3c bd cc 9f bd
       -0.011612415 -0.030668007 0.01205089 -0.078027226
000180 d7 e1 af bd 86 92 aa 3d a0 91 9f bc fe b1 c6 bb
       -0.085879974 0.083287284 -0.01947862 -0.006063699
000190 ef ce 88 3d 68 6f c3 3c 69 72 2a 3c ca 4b 4f 3d
       0.066800945 0.023856834 0.010403254 0.050609387
0001a0 18 f2 ca bc ae 4e bb ba 03 ad a6 3c 6d d1 aa bc
       -0.024773642 -0.0014290416 0.02034617 -0.020851815
0001b0 71 42 a0 3d f7 95 a9 3d d2 60 3d bd e1 71 aa bc
       0.07825173 0.08280557 -0.046234913 -0.020806255
0001c0 5f 19 7e 3d ec 56 e5 3c 19 11 3e bd da 3f 08 bd
       0.062035915 0.02799555 -0.046403024 -0.03326402
0001d0 1e 01 3b 3c 0a 3a 8e bd 00 28 b8 bc 10 f5 92 3c
       0.011413841 -0.06944664 -0.022480011 0.01793912
0001e0 c5 4a bf bb 2f 83 36 bc ce 8b 83 bd 50 f9 ed 3b
       -0.0058377706 -0.011139675 -0.0642315 0.0072623864
0001f0 23 f7 9d 3d 50 2c 3c 3d 7a 28 ba bc ae 43 4d 3d
       0.07713153 0.045940697 -0.022724379 0.050113373
000200 f7 ec 79 bd 77 df b1 bd 92 b7 4a bd cd a6 72 bc
       -0.061017003 -0.08685201 -0.049491473 -0.014810276
000210 7c 69 30 3d e8 c8 8d bd 36 4f a0 bd c6 bc 9f bd
       0.043069348 -0.069230855 -0.07827608 -0.077996776
000220 e6 b2 94 bd db 36 33 3b f6 27 1c bd 23 97 b4 bd
       -0.07260685 0.0027345929 -0.038124047 -0.088178895
000230 78 89 97 bd c8 92 65 bc 45 34 4c 3c 29 12 18 3d
       -0.07399267 -0.014012046 0.012463634 0.037126694
000240 c9 f7 2f 3c 8e 99 ae bd 8e 18 32 bd 68 21 71 bc
       0.010740229 -0.08525382 -0.04348045 -0.014717437
000250 96 26 8c 3d 20 d1 09 bd f5 db 87 3d 86 dd 9c bc
       0.06843297 -0.033646703 0.0663375 -0.0191486
000260 dd a2 87 bd 40 b2 2e bd 4f bd 63 bc b1 46 6b 3d
       -0.066228606 -0.04265046 -0.013900115 0.057440463
000270 78 f6 55 bd aa 21 05 3d 65 ab 6c bd 80 a0 05 3c
       -0.052237004 0.032502808 -0.057780642 0.008155942
000280 1a ee 32 bd 67 b4 f8 bc f8 98 58 3d 75 08 a1 3d
       -0.043684103 -0.03035946 0.052880257 0.07862941
000290 d1 95 6a bd fe 7a 87 3c 53 ee 83 bd 54 d2 3c bd
       -0.057271782 0.01653814 -0.06441941 -0.046099022
0002a0 87 98 7e 3d 55 c7 93 3d b5 5c 35 bd 65 35 16 bc
       0.06215718 0.07215754 -0.044277865 -0.009168004
0002b0 6f 3c 1e bd 85 1d 1e bd d4 1e 6d bd 74 6c 8c bd
       -0.038631853 -0.03860237 -0.057890728 -0.06856623
0002c0 79 bf 7e 3d 01 6d 8d 3d 7b e7 88 3b a7 a4 e2 bc
       0.06219432 0.069055565 0.0041779852 -0.027666403
0002d0 e4 b0 b0 bd c1 10 71 bd e1 3a 52 bd d5 d4 bf bb
       -0.08627489 -0.05885387 -0.051325683 -0.005854229
0002e0 06 fb 22 3d 2b 88 b3 3d 36 4a 16 3b d2 8a ea 3b
       0.039790176 0.08766206 0.0022932417 0.007157662
0002f0 0c d7 ec bc c1 ac 6c bc de 31 8c bc 6a 86 c2 3c
       -0.028911136 -0.014445485 -0.017113622 0.023745734
000300 c6 52 9e bd e3 ff ce 3c b7 95 d1 bc a2 dc 9d bc
       -0.077306315 0.0252685 -0.025584085 -0.019270245
000310 6e 56 2d bd b1 a0 99 3d bd 8e 3f bc fd c8 f5 3c
       -0.042318754 0.075013526 -0.011691746 0.030003065
000320 ce 35 a1 3d e3 da a3 3d e6 89 aa 3d d8 82 b8 3c
       0.078715906 0.08000734 0.08327083 0.022523329
000330 a5 c5 81 bc cb 02 84 3d a6 db 52 3d 75 dd a3 3d
       -0.015841315 0.06445845 0.051479004 0.08001224
000340 8a 33 33 3d 43 a8 9c bd 13 69 5a bd fb 01 54 3b
       0.043750323 -0.07649281 -0.053322863 0.0032349813
000350 06 47 67 bc d3 78 f9 3a a8 ef 65 bd d4 e9 03 3c
       -0.014116054 0.0019033201 -0.056136757 0.008051354
000360 83 a3 b6 bc 9e de 39 3d 69 fc 01 bd c0 34 f3 bb
       -0.022294765 0.04537832 -0.031734858 -0.00742206
000370 a9 7c 50 bd 3e 8c 83 bd dd 39 88 bd f9 83 d9 bc
       -0.050900135 -0.064232334 -0.066516615 -0.026552187
000380 2b 19 09 3d 8b 5c 96 bd dd fe 8c 3c 1a 81 9b bd
       0.033471268 -0.0734187 0.017211372 -0.075929835
000390 9a 89 9c bd 6f b7 aa bd 5b c0 9f 3d 66 58 9a 3c
       -0.07643433 -0.083357684 0.07800361 0.01884098
0003a0 e2 7c 3b bd 14 07 92 3c 2d 83 aa bd 98 0d 49 3b
       -0.045773394 0.01782564 -0.08325801 0.0030678269
0003b0 af f1 85 bc d1 de 7a 3d 80 4b 3a 3d 0f f4 94 3d
       -0.016350595 0.06124765 0.04548216 0.07273113
0003c0 30 06 df 3c b7 f2 17 bd 0a be 38 bc 40 57 5d bd
       0.02722463 -0.037096705 -0.011275778 -0.054038286
0003d0 1f 1a 90 bd d3 79 9b bd 72 e7 00 bd a5 05 74 bd
       -0.07036232 -0.075915955 -0.031470723 -0.059575696
0003e0 5e f6 73 bd 82 db 81 bd 82 fc af 3d c2 93 32 3d
       -0.059561126 -0.06340696 0.08593084 0.043597944
0003f0 21 7d ed 3c 3b 57 08 3c b3 4b b1 bd 54 5f 8c 3d
       0.02899033 0.008321579 -0.086570166 0.0685412

model_m.6.bias f4 [32]
000000 d6 51 78 bd 0d 10 1e 3c 97 1f 42 3d cd 27 48 bc
       -0.06062492 0.0096473815 0.047393408 -0.0122165205
000010 b9 80 80 3d cd 6b 08 3d 3d a3 64 bd b3 4a 7d 3d
       0.06274552 0.03330593 -0.05581974 0.061838817
000020 8d 58 a7 bd 1c 53 1d 3d a9 9f 9c 3d c6 fa 66 3d
       -0.081711866 0.038409337 0.0764764 0.0563915
000030 c1 bc 97 bd cf 4b ad 3d b9 88 67 bd c4 dc 82 3d
       -0.07409049 0.08461725 -0.056526873 0.06389764
000040 c1 9f 5a bd 70 7c 18 bd 57 b6 91 bd 28 a8 20 bb
       -0.05337501 -0.037228048 -0.07114857 -0.0024514291
000050 e7 a2 1a 3d 80 2e f8 bc 4b 38 8d bc 39 f1 0f bd
       0.037753012 -0.03029561 -0.017238757 -0.035142157
000060 89 36 74 3c 5d 36 b5 3d 27 3e a7 3d 4c 94 b3 3d
       0.01490558 0.088482596 0.081661515 0.0876852
000070 32 f3 9d ba 0d 4e b8 ba bd 1c 91 bc 1a ca 81 bd
       -0.0012050627 -0.0014061347 -0.017713899 -0.06337376

fc.weight f4 [4, 6976]
000000 e1 40 31 3b 19 bf 22 3b f8 26 c1 3b 1a 90 39 3c
       0.0027046727 0.0024833141 0.005894538 0.01132586
000010 15 3b 58 39 56 a9 ff 3b 3c 55 30 3c 3e 42 e9 bb
       0.00020621375 0.007802169 0.010762509 -0.0071184924
000020 3b f2 89 3b d7 e4 33 3c 81 64 26 bc 72 a4 32 bc
       0.0042097843 0.010979853 -0.010155798 -0.010903465
000030 2b f9 33 3a 70 56 16 3c ac 3d 02 bc 84 48 05 bc
       0.0006865437 0.009175882 -0.007949274 -0.008134965
000040 f7 de 9c bb 92 37 db bb 9b dd 1a bb 37 fd 97 bb
       -0.0047873217 -0.006689974 -0.0023630622 -0.00463834
000050 57 d7 bd 35 ad 53 d9 ba e6 1a 01 bc 6f ed f2 3b
       1.414427e-06 -0.0016580723 -0.007879948 0.007413558
000060 17 00 1b 3c 46 43 8a 3a 54 f8 69 3b d4 5a 23 3c
       0.009460471 0.0010548613 0.0035700994 0.009970386
000070 b2 b5 a5 3b 2a 43 95 3b fc 3b 7d 3b 70 9c 09 3c
       0.00505706 0.0045551257 0.003864049 0.008399114
000080 26 a0 02 bc 87 d7 41 bc 8b ec c9 ba 1c f0 11 3a
       -0.007972753 -0.011831171 -0.0015405578 0.000556709
000090 96 0c 23 3b 8c 82 fc 3b 68 f5 30 bc 45 27 0e b8
       0.0024879328 0.007705992 -0.010800697 -3.389201e-05
0000a0 54 52 93 bb 53 ae 2e ba a2 b5 57 bb 50 e0 25 bc
       -0.0044958983 -0.00066635496 -0.0032914658 -0.010124281
0000b0 4f 69 6c 3b 3e 53 89 bb 58 84 55 bb eb bf 32 bc
       0.003607351 -0.0041908314 -0.0032580104 -0.010910015
0000c0 fb 1d 4e ba 5c 21 13 3c 6c 34 42 bc af be 3a bc
       -0.0007862744 0.008980121 -0.011853319 -0.011398002
0000d0 7f 2b 96 3b 38 2c 94 bb 12 39 bc bb 26 45 32 bc
       0.004582822 -0.004521873 -0.005744108 -0.010880744
0000e0 19 ce 0e 3b 51 07 39 bc 48 52 c7 ba b7 a5 c5 bb
       0.0021790324 -0.011293248 -0.0015207017 -0.0060317176
0000f0 af e7 12 bb 82 6e 10 3c 4c 24 36 3c 97 66 78 3b
       -0.0022415926 0.00881541 0.011117052 0.0037902945
000100 a6 9f 01 bc cf c1 a0 bb 0a 22 ca ba 4c 24 35 bb
       -0.007911598 -0.0049059163 -0.0015421521 -0.0027640043
000110 83 9c 80 3b f1 be 04 3c bf d4 2e 3c 16 22 69 3b
       0.0039249077 0.008102165 0.01067084 0.0035573295
000120 d8 ef 28 3c e8 bf ef 3b b2 65 08 bc 53 99 c2 3b
       0.010311089 0.007316578 -0.008325027 0.005938688
000130 ec 8d 89 bb d6 1e 3c ba 26 d6 e2 3b 63 9d 06 3c
       -0.0041978266 -0.0007176226 0.006922501 0.008216235
000140 a3 2b d0 bb 72 c2 19 39 fb fd b2 3a 16 5d 12 bc
       -0.006352858 0.00014663654 0.0013656014 -0.008933326
000150 ce 75 f3 3b 4f dd 12 3c 6d 8e 74 3b 74 66 62 39
       0.007429815 0.008963897 0.0037316338 0.00021591206
000160 ed d1 0e bc 3a f1 10 3c b8 55 22 3c 1b 8d 09 bc
       -0.008717042 0.008846575 0.009908132 -0.008395459
000170 b6 26 8b b8 94 ba e4 bb 10 e8 d8 ba 81 dd 9c 3b
       -6.635247e-05 -0.0069802497 -0.0016548652 0.0047871475
000180 ab 0d 26 3c 99 a3 4e 3b 04 bc 03 bc bd e0 f8 3b
       0.010135095 0.0031530617 -0.008040432 0.0075951503
000190 69 e6 28 bc 5b 49 69 bb 45 d6 c3 3b 64 28 e4 ba
       -0.01030884 -0.0035596702 0.0059764707 -0.0017407057
0001a0 ec 12 b8 bb c5 ae 43 bc f1 f0 2e bb 4c f0 27 3b
       -0.00561749 -0.011943524 -0.0026693905 0.0025625406
0001b0 6d 87 a6 bb 58 47 71 3a 03 71 11 bc be e2 2b 3c
       -0.005082062 0.00092040515 -0.008877042 0.010491071
0001c0 fa 7a 16 3c 18 7d 2f bb 9d 99 15 3c 09 7d 73 b9
       0.009184593 -0.0026777443 0.009130863 -0.00023220865
0001d0 9c 9d c5 3a b7 f6 37 bb 08 b0 a0 bb c4 55 cf bb
       0.0015076878 -0.0028070637 -0.004903797 -0.0063273627
0001e0 d6 6b 0b 3c e8 ca b3 bb 9c 67 89 3b 35 76 32 ba
       0.008509597 -0.005486835 0.0041932594 -0.00068077754
0001f0 e9 8a 11 3c 57 5a ac 3b da 77 16 3c cb 74 ad bb
       0.008883216 0.005259793 0.009183848 -0.005293464
000200 8b c1 d2 3a 43 e2 10 bc fb b9 12 bc 4d f6 25 3a
       0.0016079409 -0.0088430075 -0.008955474 0.0006330952
000210 26 01 2e 3b 9b a5 37 3c d9 b8 c9 3b 43 ed e8 bb
       0.0026550977 0.011208917 0.0061560688 -0.007108362
000220 33 50 b0 3b b5 14 32 bc c7 0b d0 3b 69 5d dd 3a
       0.0053806542 -0.010869195 0.00634906 0.00168888
000230 0c 34 c2 3b 75 18 37 bc 51 c5 2f bc 2d 27 fe 3b
       0.0059266146 -0.011175265 -0.010728196 0.007756135
000240 62 32 3a bc 7e 61 d5 3b ce 8a 3b bb d9 49 d5 b9
       -0.011364551 0.006511866 -0.002861667 -0.00040681547
000250 f4 48 8b 3b 7d 04 0a ba d7 90 04 ba 55 18 20 3b
       0.00425064 -0.0005264951 -0.0005056983 0.0024428566
000260 1a eb 2f 3c 75 a2 f9 3a 1c e0 cf 3b 7a b7 28 3b
       0.010737205 0.0019045608 0.0063438546 0.0025744126
000270 cd 98 a4 3b 10 c7 3f bb 64 96 0b 3b c0 36 c2 3b
       0.005023098 -0.0029262938 0.0021299357 0.005926937
000280 d4 47 d7 bb 52 53 0f bc 9f 7f 53 b9 7e d0 39 bc
       -0.006569842 -0.008747892 -0.0002017007 -0.011341212
000290 66 b6 37 3c 75 42 33 bc d3 4b 69 3a 99 a0 c4 3a
       0.011212921 -0.010941138 0.00088995433 0.0015001475
0002a0 44 f5 6a 3b 12 92 5e 3b a5 95 ad 3b 9f 5f b8 3a
       0.0035851756 0.0033961576 0.00529738 0.0014066583
0002b0 3c 62 04 3c f9 49 ff ba 46 f2 f3 3a 93 31 1b 3c
       0.0080800615 -0.0019477002 0.0018611632 0.009472269
0002c0 09 5f 34 3b 21 85 e3 3a c6 87 7e 39 53 2f 40 ba
       0.0027522466 0.0017358401 0.00024273907 -0.00073312706
0002d0 81 8d 68 3b b6 05 92 3a b2 5c c7 bb f3 6d 19 bc
       0.0035484734 0.0011140618 -0.006084048 -0.009364593
0002e0 b2 bf c1 b9 d9 35 db ba 64 0c 71 3b 8b b3 18 bc
       -0.00036954653 -0.0016724422 0.0036781067 -0.00932015
0002f0 93 28 b9 bb 3d 3c 8c bb 45 7c 1c bb 84 fe bd ba
       -0.005650589 -0.004279642 -0.0023877781 -0.0014495407
000300 d1 8a a3 3b ca 85 d3 bb d7 cb e2 bb 4e a9 39 bc
       0.0049909134 -0.006455158 -0.0069212723 -0.011331869
000310 fa 65 08 bc f8 1c 73 3b e3 bf 24 3c 9b 23 35 bb
       -0.008325094 0.0037096124 0.010055515 -0.002763963
000320 02 cb 3d 3c 8d eb 2f 3c b1 98 13 3b e5 de d0 ba
       0.011584045 0.010737312 0.002252143 -0.0015935568
000330 f8 12 10 3b 23 21 7c 3b a8 17 27 3c 4a 3b 0f 3c
       0.0021983963 0.00384719 0.010198511 0.008742163
000340 b8 cc b0 3b 95 28 dc 3b 4b 80 cf bb 65 57 02 bc
       0.005395498 0.006718705 -0.0063324324 -0.007955407
000350 aa bd cb 3a 2f 72 a2 bb 69 e6 57 ba e6 34 57 3b
       0.0015544195 -0.0049574594 -0.0008235933 0.0032837926
000360 35 a1 d0 bb ff 88 af 3b c1 37 2b bc 3c 3a c5 ba
       -0.0063668736 0.0053569074 -0.0104503045 -0.0015047262
000370 02 4a 1b 3a 54 51 f0 3a 30 3e 0f b8 2e df a1 bb
       0.0005923809 0.0018334785 -3.4151773e-05 -0.004939935
000380 ea 87 00 bc 2e b4 9e 3b 48 f3 2a 3c 55 f8 f2 ba
       -0.007844904 0.0048432564 0.010433979 -0.0018537143
000390 dc ac 3d 3b c6 51 96 3a 52 f8 57 bb fc 45 63 3b
       0.0028942144 0.0011468462 -0.0032954407 0.0034679165
0003a0 84 e6 0c bc d5 aa d7 bb bb f5 0f 3c 65 bc 3b 3b
       -0.008599881 -0.006581644 0.008786614 0.0028646227
0003b0 97 5f c2 bb 6f 66 04 bb 89 c4 52 3b c8 b8 88 bb
       -0.0059318054 -0.0020202657 0.00321606 -0.0041724183
0003c0 f2 29 2e bc 1a 25 2a bb 87 18 20 3a 2e ea 1d bc
       -0.010630118 -0.0025962056 0.00061071705 -0.009638352
0003d0 4d 76 09 3c 54 67 2f bb ae 69 fc bb 69 95 aa bb
       0.0083900215 -0.002676447 -0.0077030277 -0.0052057994
0003e0 85 b6 68 3b 26 b4 e7 3b 92 1b 91 b9 78 05 82 3a
       0.003550918 0.007071036 -0.00027677097 0.0009919843
0003f0 2f ae 14 bc 14 dd 11 3c a6 65 1a 3c de 27 bd 39
       -0.009074732 0.008902807 0.009423649 0.00036078593

fc.bias f4 [4]
000000 b6 df c3 ba 8c f6 0c bc b7 a2 2c bc bd 20 0a bc
       -0.001494399 -0.008603703 -0.010536841 -0.008430657
