checkpoints/run_2/1d_cnn_ckpt_10.pth (torch, 52308 bytes, 7 tensors)

model_m.0.weight f4 [8, 1, 8]
000000 2e 97 b3 3e 13 44 95 3c 42 4c ff bc c6 84 a9 be
       0.35076278 0.018220937 -0.031164292 -0.3310911
000010 9e fe 22 be dd 31 4e be e7 6e 7b 3d 2c f6 db 3d
       -0.15917441 -0.20136209 0.06138506 0.10740313
000020 6f 4a 8a 3e 1e 89 8d bd 0b 82 a6 3c bb c6 82 bb
       0.27009913 -0.06910919 0.020325681 -0.0039909757
000030 b1 52 b4 3e 4f f9 ce 3d 8b f3 51 3e 69 15 af be
       0.3521934 0.101061456 0.2050306 -0.34196022
000040 6d 11 af be 8d 88 3f bc 15 4d 4d bd 72 be 96 3e
       -0.34192982 -0.011690271 -0.05012234 0.29442173
000050 83 2f e7 3d f3 2f 7d 3e 19 12 28 3e 03 4b 95 3e
       0.11288359 0.24725322 0.16413154 0.29158792
000060 c2 02 98 be 7b 6e 24 be 7a 51 18 be 57 dd 36 3e
       -0.29689604 -0.1605777 -0.14874831 0.17857872
000070 47 e5 97 be 5f 2c 56 3e db 7b 26 3d 36 62 92 3e
       -0.29667112 0.20915364 0.04064546 0.28590554
000080 49 d4 1c 3e 6a 1e 7f bd 1f c7 89 3e fc d4 c3 bc
       0.15315355 -0.062284864 0.2690973 -0.02390527
000090 1b 0f 85 3e 33 40 53 be 47 a1 6d 3c dc 85 4f be
       0.25988087 -0.20629959 0.014503784 -0.20265907
0000a0 9b 40 53 be 5e 46 8a bd 8a 53 be bd 4f fc ae 3e
       -0.20630114 -0.06751703 -0.092932776 0.3417687
0000b0 2f 26 71 3c 6d 61 55 3e 7b af 8d 3d b0 d5 a9 3e
       0.014718576 0.20837946 0.06918236 0.33170843
0000c0 b9 29 21 3e 42 09 48 be f2 12 b2 3e 25 2b 9c be
       0.15738572 -0.19534782 0.3478008 -0.30501667
0000d0 e1 9b b4 bd 32 c8 7f be af 58 8a 3e 4a e2 8c 3d
       -0.08818794 -0.24978712 0.27020785 0.06879099
0000e0 60 b0 7d be 1d d3 a8 3e 1d 58 19 be ef 91 f3 3d
       -0.24774313 0.32973567 -0.14975019 0.11893069
0000f0 29 cc c9 bb d8 b8 e3 3d a2 17 d9 bd c9 cf 9f 3a
       -0.006158371 0.111192405 -0.10600211 0.0012192662

model_m.0.bias f4 [8]
000000 3a 1a ff 3c 33 a5 d9 3d b9 66 60 be b6 f6 a6 3d
       0.031140435 0.106272124 -0.21914186 0.08152525
000010 2c 54 2c bd d7 d2 1c bb 43 2a b7 bd a7 e0 17 be
       -0.04207246 -0.0023929381 -0.08943608 -0.14831792

model_m.3.weight f4 [16, 8, 8]
000000 bd 7f 66 3d 1c 15 e0 bc 4a 49 a7 bd 9b 99 35 3d
       0.056274164 -0.027353816 -0.08168276 0.044335943
000010 8e da a8 3d ec f7 90 bd 09 c6 ce bd 42 4a 31 3d
       0.08244811 -0.07078537 -0.10096366 0.04328371
000020 f1 ac 76 3d 2c e3 7f bc d9 ab b6 bc 3d a3 c8 bd
       0.060223524 -0.015618127 -0.02229874 -0.0979676
000030 43 cc e3 3d af 85 c8 bd 77 7c 51 3d a4 8f ec 3c
       0.11122944 -0.09791123 0.05114409 0.028877087
000040 d0 09 5f bc c8 d8 0e 3d 84 be 75 3d c0 e3 2e 3c
       -0.013613179 0.034874707 0.059996143 0.010674417
000050 d4 db 27 bd 4e 4b f9 bd 6c fe 32 bd e0 6f 55 bd
       -0.04098113 -0.12172566 -0.043699667 -0.052108645
000060 04 cd b0 3d bc 4e 44 bd 3a 3f c5 3d 48 61 a5 3d
       0.086328536 -0.04792665 0.096312 0.080751956
000070 46 99 ac bc 6a 9e 27 3d 35 5d dd bc d4 17 f2 bc
       -0.02106918 0.04092256 -0.027021984 -0.029552378
000080 80 a6 b1 bb 2e 2a c0 3d 7c 48 a7 3d 74 32 27 bd
       -0.0054214597 0.09383045 0.08168122 -0.0408196
000090 30 6b ab 3c ba 6d ad bd 40 f3 1b bc d8 50 6b 3d
       0.020925134 -0.08468194 -0.009518445 0.057450145
0000a0 e6 61 84 bd 2f 84 95 3b 8d 0e ac bc a4 bd 17 bd
       -0.06463985 0.0045628767 -0.021003032 -0.03704609
0000b0 c2 55 a1 3d a7 92 a3 3d f3 50 a6 3b d4 2b bb bd
       0.07877685 0.07986956 0.005075568 -0.09139219
0000c0 e0 32 9c 3d a8 70 fe 3c 46 58 da bd 74 f5 11 bd
       0.07626891 0.031059578 -0.10661368 -0.035634473
0000d0 48 21 74 3d 60 8c 0b 3d 50 b4 a9 bc 58 20 3b bd
       0.059602052 0.03406942 -0.020715863 -0.045685142
0000e0 40 73 7b 3b 7e e7 97 bd 16 7a 93 3d 38 ce 0d 3d
       0.0038368255 -0.074172005 0.072010204 0.034620494
0000f0 14 9c 91 bd d8 e4 c3 3c 8c 38 fa bd 40 0d d4 3b
       -0.07109848 0.023912832 -0.12217817 0.006471306
000100 15 09 ae 3d c0 9e 3a bd ac 01 eb bd ae a9 17 3d
       0.08497826 -0.045561552 -0.11474928 0.037027054
000110 bc d2 a4 3d 08 40 f3 bd c3 2a aa bd e0 d3 cc bd
       0.08048007 -0.11877447 -0.083089374 -0.100013494
000120 92 ab 6f bd 67 75 00 3d 1b c8 f2 bd c0 9e de bc
       -0.05851323 0.031361964 -0.11854573 -0.027175307
000130 7e 3e c9 bd fb d8 cc 3d 7d ca dd 3c 8e e2 9d 3d
       -0.098263726 0.10002323 0.027074093 0.077092275
000140 02 22 9a bd 48 98 e7 3c 3c 47 af 3d fe f8 cf bd
       -0.07526018 0.028270856 0.08558509 -0.10154913
000150 22 d7 b8 3d 9a bc 8b 3d 42 ac 9c 3d 04 68 22 3d
       0.09025408 0.06823082 0.07650043 0.03964998
000160 c0 d1 1e 3d 56 a2 94 3d aa 69 ce bd 9b 90 54 3d
       0.038774252 0.072575256 -0.100787476 0.05189572
000170 84 da d8 bd 38 c8 e7 3d 63 ba e8 bb 40 94 74 3d
       -0.105885535 0.113174856 -0.007102297 0.059711695
000180 98 62 bd 3c e4 db 3d 3d 4c 9b 71 3d 3e 61 91 bd
       0.023118302 0.046352282 0.058985993 -0.070986256
000190 3a 3b dc bd f8 d4 ad bd 60 43 c0 3c d4 33 f1 3d
       -0.10753484 -0.08487886 0.023469627 0.117774636
0001a0 95 85 e3 3d 32 58 ae 3d 5c ac 34 3d ba c0 4b 3c
       0.11109463 0.08512916 0.044109687 0.012436086
0001b0 ca 5c f4 3d 78 14 19 3d 16 e7 96 3d 9e 0c 82 3d
       0.119317606 0.037373036 0.07368295 0.06350063
0001c0 08 10 7c bd f4 74 fd 3d 90 92 26 3d 60 6d 92 bd
       -0.061538726 0.12375823 0.040667117 -0.07149768
0001d0 60 42 a4 bc 0c 23 04 bd 3a 75 dc 3d a4 fd c1 bd
       -0.020051181 -0.032259986 0.10764547 -0.09472206
0001e0 d0 83 6a 3c 00 5e b3 3a 44 ad c1 3d f0 d7 61 bd
       0.014313653 0.001368463 0.09456876 -0.055137575
0001f0 ca 4a f2 3d a4 13 d5 bd 88 98 43 bd c8 47 f8 bc
       0.11830671 -0.10404137 -0.047752887 -0.030307665
000200 cb a7 97 3d 54 8d 10 3d 22 19 b3 3d 56 d7 92 bd
       0.07405051 0.03529103 0.08745028 -0.07169978
000210 3b 12 a7 3d b6 07 8f 3d db 5e 8d bd 67 aa bd 3c
       0.08157774 0.069838926 -0.06902858 0.023152543
000220 19 85 3a 3d c4 ba ea bd 9e 09 16 3d a2 92 f2 bc
       0.045537088 -0.11461404 0.036630265 -0.029610936
000230 c6 08 30 3c 7f ba 10 3b b8 52 95 bc 47 04 0e 3d
       0.010744279 0.0022083817 -0.01822792 0.034672048
000240 7c fe fc bd 14 49 b3 3d 80 4b 3e bd 72 b3 b1 bd
       -0.123532265 0.08754173 -0.04645872 -0.086768046
000250 40 aa 63 bc 20 87 83 3d f4 81 df 3d 84 c5 fe 3d
       -0.013895571 0.064222574 0.109134585 0.12440017
000260 10 e8 9f 3d 0c 77 48 3c 1a e5 e8 3d 2f c0 52 bd
       0.07807934 0.012235414 0.11371823 -0.05145281
000270 63 19 f8 bd 4b b7 18 bb 67 b9 f7 bc aa e4 8c 3d
       -0.12114217 -0.002330261 -0.030239774 0.06879552
000280 cc 8c 93 bd c0 f4 af bb ce b8 9e 3d 7e cf b6 bd
       -0.07204589 -0.0053697526 0.077500924 -0.08926295
000290 4e 35 ae bd 00 c8 99 bd 96 3b c9 3d 88 b3 9a bc
       -0.08506261 -0.0750885 0.09825818 -0.018884435
0002a0 58 ac a5 3d e5 cd 2e bc 29 95 1c bd aa 1c 2e 3c
       0.080895126 -0.010669206 -0.038228188 0.010626951
0002b0 3e f0 03 bd df 45 25 3d f8 01 81 bd 3d 9c b2 bc
       -0.032211535 0.040349837 -0.06299204 -0.021803016
0002c0 0c 35 d2 3d d0 75 45 bd 48 70 26 bd 74 a9 7d 3d
       0.10264024 -0.048208058 -0.040634423 0.06192918
0002d0 cc a0 9d 3d 40 c6 68 bc 60 9e 8d bd 7e 81 84 bd
       0.07696685 -0.014207423 -0.06914973 -0.06470011
0002e0 fa 86 af 3d 00 16 e2 bc 18 96 75 3d fe 8e ea bd
       0.085706666 -0.027598381 0.059957594 -0.11453055
0002f0 30 fa a1 bc cc 58 46 3d 82 2f 8d 3d a0 e5 a1 bc
       -0.019772619 0.048424527 0.06893827 -0.019762814
000300 72 92 b1 3b a8 13 89 bc 01 0c fc 3d 8f 57 1c bd
       0.005419069 -0.016733006 0.12306977 -0.03816944
000310 5c 41 79 bd c3 66 85 bd 82 e3 89 3d 46 9d 8d 3d
       -0.060853347 -0.06513741 0.06732847 0.06914763
000320 de a3 83 bc 63 03 09 3d d0 b3 da bd c3 ba e4 3c
       -0.016069349 0.033450495 -0.10678828 0.027921086
000330 d2 20 99 3b 79 39 81 3d cb e7 33 3d 5a cb c3 3d
       0.004673102 0.0630979 0.043922227 0.095602706
000340 18 66 ea bc 30 33 98 3c e4 29 3e bd fc 4d b1 3d
       -0.028613135 0.018579096 -0.04642667 0.086574525
000350 34 e1 2f bd 20 82 d6 3d f2 72 f1 3d 14 81 f2 3d
       -0.04293938 0.10474038 0.11789502 0.11841026
000360 15 a3 c6 bd 87 0e bd bc 32 70 54 bc 64 24 bc 3d
       -0.09699074 -0.023078216 -0.012966203 0.091866285
000370 1d 8a d0 3d 5c fc a0 bd 2a 3f ba bd a6 4b 2d 3c
       0.10182593 -0.07860634 -0.09094079 0.010577118
000380 12 e2 c6 3d 00 14 af 39 c0 d2 90 bc fa 69 ae bd
       0.09711088 0.00033393502 -0.017678618 -0.08516307
000390 38 6b f4 3d de 31 df bd 22 1e b2 3d c8 74 8f bd
       0.11934513 -0.10898183 0.08697154 -0.07004696
0003a0 16 63 4f bd 94 cd 9f bd a0 41 10 3d 3b 3a f4 3d
       -0.050631605 -0.07802883 0.035218835 0.11925169
0003b0 04 dc 07 bd 63 2d c6 3d ee 58 ad bd 40 82 69 3d
       -0.033168808 0.096766256 -0.084642276 0.05700898
0003c0 98 47 e8 bd 92 5e ed 3d b8 69 dd 3c 94 da 6a bd
       -0.113417804 0.115903035 0.02702795 -0.05733736
0003d0 84 2d 30 3d 4e 64 a7 bd 80 70 a6 ba 5c 9e 60 bd
       0.043012157 -0.081734285 -0.0012698323 -0.054838523
0003e0 74 f8 1a 3d ac 70 f7 3d e0 58 86 3b d0 63 70 bd
       0.0378346 0.12082037 0.00409995 -0.05868894
0003f0 16 24 da 3d 88 d7 e3 bd 3e 02 f6 3d a8 74 81 bc
       0.10651414 -0.11125094 0.120121464 -0.015802696

model_m.3.bias f4 [16]
000000 be 3c f6 3c bd 16 cd 3d 27 f8 8f 3d 54 19 f5 3c
       0.030058261 0.100141026 0.07029753 0.029919304
000010 86 a8 c9 bd bc 2b b1 3d 30 b8 3e bd 3a 7c 8b bd
       -0.098465964 0.0865092 -0.046562374 -0.06810804
000020 16 fd 8c bd 0f 7d 92 3d 28 2a 67 bd 38 d6 93 3d
       -0.0688421 0.07152759 -0.056436688 0.07218593
000030 00 28 89 3d be e9 b9 bd 3e e0 be bd 9d b8 cd 3d
       0.066970825 -0.09077786 -0.093201146 0.10044978

model_m.6.weight f4 [32, 16, 8]
000000 d6 a9 3e 3c c6 35 92 3d 79 ad b0 bd eb 53 0b bd
       0.011637172 0.07139163 -0.08626837 -0.034015577
000010 42 96 10 3d 93 7b a9 bc f0 73 aa 3d 79 42 d6 3c
       0.035299547 -0.020688808 0.083228946 0.026154744
000020 18 ab 92 bd 0a ef 1e 3d 88 4e ea bc 4c 80 5b bd
       -0.0716154 0.038802184 -0.0286019 -0.05358915
000030 a9 87 5b bd 45 39 8e ba 1c 7b ae 3b 6d b4 2a bd
       -0.053596172 -0.0010850808 0.0053247344 -0.041675974
000040 f5 b3 92 3d ed ad 57 bc 35 fb 40 bd e8 cb b1 3d
       0.0716323 -0.013164026 -0.04711457 0.0868147
000050 d0 fd 05 3d 7a fb 84 3d 3d 94 75 3d bf 07 25 3c
       0.032712758 0.06493278 0.059955824 0.010072648
000060 89 9c a2 3d fb 8c 37 bd 18 72 e8 bb 1b e7 a8 3d
       0.07940013 -0.044812184 -0.007093679 0.08247205
000070 5e c1 7b 3d d7 0e a3 3c 19 bc b0 bd f7 56 98 3d
       0.061463706 0.019904537 -0.08629627 0.07438462
000080 c2 4e 5e 3d 2c bf 85 bc ca 47 81 3d 5a 0a 1e 3d
       0.054274328 -0.01632651 0.06312521 0.03858409
000090 8a 10 91 3c 9a 3e 5b bc c4 47 6d bd 2b 40 81 3d
       0.017708082 -0.013381625 -0.05792977 0.06311067
0000a0 75 87 a5 bd be 81 8a 3c 1b 29 1a 3b da 3d 07 bc
       -0.08082477 0.016907569 0.0023523036 -0.008254493
0000b0 ce b6 a8 bd ee 6b e7 3c 35 ca 70 3d 92 33 84 bd
       -0.08237992 0.028249707 0.05878659 -0.06455149
0000c0 14 6d 42 bd 86 98 b3 3c 76 ff d3 bc 79 5f f6 bc
       -0.047467306 0.021923315 -0.02587865 -0.030074822
0000d0 cd 2d 91 3d 49 96 26 3d 41 50 99 bd 56 04 27 3d
       0.07088814 0.040670667 -0.0748601 0.04077562
0000e0 90 ce 11 3d 30 94 9e 3d 71 94 a5 3d 7b c7 44 bc
       0.035597384 0.07743108 0.080849536 -0.0120104505
0000f0 b6 47 da bc 6b 7a 5b 3d 49 d9 77 bd 70 c5 9f 3d
       -0.026645523 0.053583544 -0.060509954 0.0780133
000100 6e 53 54 bc 04 31 8a bc 14 3f 65 bc e1 d1 a0 3c
       -0.012959344 -0.016869076 -0.01399209 0.019631328
000110 67 c8 de b8 b7 ea 33 bd 08 cc b2 3d a8 18 ec bb
       -0.00010623113 -0.043925013 0.08730322 -0.0072050877
000120 52 b1 48 bd eb 63 80 bd 97 b0 82 bc 35 d1 95 bd
       -0.04899723 -0.06269058 -0.015953345 -0.07315294
000130 14 fc 96 bd be 7f 02 3d bc dc 12 bd 86 11 31 3c
       -0.07372299 0.031860106 -0.03585504 0.010807401
000140 ec a7 3c bb 88 4b 7e bd 39 6e 45 3b e3 63 c0 3c
       -0.0028786613 -0.06208375 0.0030125512 0.02348513
000150 e3 e3 35 3d 10 a2 c5 3c 1b 8d c7 bc d0 03 0d bd
       0.044406783 0.024125129 -0.024359277 -0.034427464
000160 f0 92 89 ba ef fb 58 bd 81 ba 78 3d 0d d7 84 3d
       -0.0010496061 -0.052974638 0.06072474 0.0648633
000170 3a 89 30 3c ca 06 99 bc 24 91 04 bc 12 a5 2d 3d
       0.010774905 -0.018679995 -0.008091245 0.04239375
000180 e5 84 7f bd fc 58 92 3d 4b 88 ae bc 54 fa 4c 3d
       -0.062382597 0.07145879 -0.021305224 0.05004342
000190 1d 03 a7 bd 06 65 9a bd a5 af 62 3d 9f 67 2a bd
       -0.08154891 -0.075388 0.05534329 -0.041602727
0001a0 ab ec af 3c 73 d8 9f bd 2f cd a8 3d cd 58 88 bc
       0.021475157 -0.07804956 0.08242261 -0.016643906
0001b0 50 ac b2 bd 41 8e 60 3d 1c 19 01 bd 9f e0 a3 bc
       -0.08724272 0.054823164 -0.031518087 -0.020004569
0001c0 23 59 f0 bc a1 0c 70 bd 46 cd 99 bd 25 d3 5e 3d
       -0.029339379 -0.058605794 -0.07509856 0.054400582
0001d0 52 52 85 3c 1b b5 6a bd bb 0f b1 bd 91 2f ac bd
       0.016274605 -0.057301622 -0.086455785 -0.0840751
0001e0 ac e0 bb 3c 0d ce 3d 3b 7b 6a a2 bd 79 f8 ad bd
       0.02293428 0.0028961927 -0.07930466 -0.08494658
0001f0 74 2c 78 bd 08 19 68 bd 6e 8c a8 3d eb 79 0a bd
       -0.06058927 -0.056664497 0.0822991 -0.033807676
000200 e2 2c c0 bc f0 16 29 bc d6 77 c6 3b 84 ef 77 bd
       -0.023458902 -0.01032041 0.006056766 -0.060531154
000210 e3 fd b9 3c 33 ab 6b 3c c3 03 2a bc 03 1f 1b bd
       0.02270407 0.014384079 -0.010376873 -0.037871372
000220 ed fa 46 3d 44 40 5f bd 14 b1 91 bd f1 ad 1d 3c
       0.048579145 -0.054504648 -0.07113853 0.00962399
000230 0c 36 92 bd 40 d6 88 3d a4 55 68 3d 4d 2d 85 bd
       -0.07139215 0.0668149 0.0567223 -0.06502781
000240 48 94 5e 3c 3a ae b3 bd cd 11 a6 3d 32 ab ff bc
       0.013585158 -0.087734655 0.08108864 -0.031209562
000250 99 b5 ac bc a5 06 48 3c 9c c2 76 3c 21 c5 4a 3d
       -0.021082686 0.012208615 0.015061047 0.049504403
000260 f6 67 af bc b2 c6 79 3c b9 de 88 bd 60 5b 4d 3c
       -0.021411877 0.015245127 -0.06683106 0.0125339925
000270 c7 d6 9b 3d 67 b5 8b bd c1 12 9f bd ed f6 4b 3d
       0.07609325 -0.06821709 -0.07767249 0.049796034
000280 f3 68 63 3d c6 0f 4b bd 4d 62 24 3d fc 99 84 3d
       0.05552001 -0.04957559 0.04013281 0.06474683
000290 a3 54 a3 3b e3 06 6f bd 4e 1c 9c 3c f1 d7 88 3d
       0.0049844547 -0.058356177 0.019056465 0.066818126
0002a0 69 30 ae 3c 4b f9 4c bd bc da e5 bc 10 66 a1 bd
       0.021263318 -0.05004243 -0.028058402 -0.07880795
0002b0 4f e7 e9 bc d4 fd bf bb ba d0 93 bc 00 65 80 bd
       -0.02855268 -0.005859116 -0.018043865 -0.06269264
0002c0 5e b2 ce 3c e3 78 4b 3d 67 ec 01 bc 2a 64 81 3d
       0.025231536 0.049675833 -0.007929898 0.06317933
0002d0 e0 13 f6 3c 1e cf 39 3d 77 cb a5 3c 84 20 a4 3d
       0.030038774 0.045363538 0.020238621 0.08014014
0002e0 7e f1 89 3d 1d 50 8e 3d 1e c2 23 3d b9 df 4e bd
       0.06735514 0.06948874 0.039980046 -0.050506327
0002f0 88 12 08 3d ab 0d fa bb 93 2c 62 bd ee f9 dd 3b
       0.033220798 -0.007631024 -0.05521829 0.0067741787
000300 61 a2 b1 bd 2a a8 6d bd d4 56 01 3d fd bb c4 3c
       -0.086735494 -0.058021702 0.031576946 0.024015421
000310 84 9c 41 bc 73 dc af bc d5 51 94 bd 90 46 62 3d
       -0.011817101 -0.021467423 -0.07242171 0.055243075
000320 56 a0 a9 bd b2 b1 5d bc 47 36 a4 3c f2 66 4a bd
       -0.08282535 -0.013531135 0.020045413 -0.049414583
000330 16 21 6e bd 45 40 54 3d d7 fa a8 ba 3c 04 99 3c
       -0.058137022 0.051819105 -0.0012892139 0.018678777
000340 30 75 84 bd c0 3a 4f 3d 83 ef b9 3b 89 93 b3 bd
       -0.06467664 0.050593138 0.005674304 -0.087683745
000350 2f fd a7 3d 81 2d fb 3c 5f 67 ac 3d c4 da 36 bd
       0.08202588 0.030661346 0.08418154 -0.044642225
000360 16 b4 a4 3d 44 3e 24 bd 43 61 a1 3d 97 c6 4a bd
       0.08042161 -0.040098444 0.07879879 -0.049505796
000370 ab c0 b3 bd 70 e7 b2 3d 7e 48 21 3d cb 45 1f bc
       -0.08776983 0.087355494 0.039375775 -0.00972123
000380 66 85 8f bd 9c bc 68 3d 02 2b a2 3d 62 2a 90 3d
       -0.070078656 0.056820497 0.07918359 0.07039334
000390 50 df ad bd 48 a2 26 3d c9 a3 b6 3c fc 60 ae ba
       -0.08489859 0.040682107 0.022294896 -0.001330405
0003a0 5f 00 96 3d 6e 5c b4 3d 43 06 6e bd 84 23 49 3b
       0.073242895 0.08806692 -0.05811144 0.0030691335
0003b0 89 a3 29 bc 17 19 22 3b 57 9d c8 3b e2 aa a5 bd
       -0.010353931 0.0024734193 0.006122272 -0.08089234
0003c0 fb 50 92 bd 28 e9 e1 3c ff d1 18 3d 58 c9 a0 3d
       -0.07144352 0.027576998 0.037309643 0.07850903
0003d0 49 0f 3c 3d 4b d3 54 3d 99 1d ab 3d cc ea af 3d
       0.045913015 0.051959317 0.08355255 0.08589706
0003e0 ab d9 71 bd 9c f6 92 bc 17 1c 42 bd 12 90 8c 3d
       -0.059045475 -0.017939858 -0.04739007 0.06863417
0003f0 ad 4c 58 bd 11 18 a7 3d 8e c1 93 bd 1f ba 68 3d
       -0.0528075 0.08158887 -0.07214652 0.056818124

model_m.6.bias f4 [32]
000000 1e 6b 91 3d fd 12 86 3d 73 e9 43 bd 44 10 72 3d
       0.07100509 0.065465905 -0.047830056 0.059097543
000010 ab 53 05 bd 31 39 23 3c 9d b0 32 3c 06 8f 03 3c
       -0.032550495 0.009962366 0.010906366 0.008029705
000020 3d b7 01 3d 4f 94 49 bd e2 33 b2 3d f3 30 85 bd
       0.03166889 -0.049213704 0.08701302 -0.06503477
000030 93 cd a3 bd f7 82 b4 3d 53 c4 9a bd 51 28 33 bc
       -0.079981945 0.08814042 -0.07556977 -0.010934905
000040 e8 be 70 bd 3a 90 21 3d 1b 58 9f 3d 6a 41 ab 3d
       -0.058775812 0.039444186 0.07780477 0.08362086
000050 6d da 48 3d 0c 49 d0 3b ee 6d aa bd 3e d3 5a 3d
       0.049036432 0.006356364 -0.08321749 0.053424112
000060 6b 9f a2 3b fc 42 2e 3d 50 85 39 3c 79 f8 fa bc
       0.0049628518 0.04254435 0.011323288 -0.03063606
000070 14 e7 e6 3c b8 01 3e 3d 8a 79 32 bc bd 19 ca 3c
       0.028186359 0.046388358 -0.010893235 0.024670476

fc.weight f4 [1, 6976]
000000 00 f3 14 3c f4 0e 82 bb 48 5b b9 bb 54 18 31 3c
       0.009091139 -0.0039690677 -0.0056566335 0.010809023
000010 de 13 e3 bb 3b 30 42 3c 63 fa 83 bb 7f 1f 88 bb
       -0.0069298586 0.011852319 -0.004027651 -0.0041541453
000020 e7 9f da 3b 12 28 e2 bb 26 d4 7d bb 2f 35 05 3b
       0.006671894 -0.0069017494 -0.0038731187 0.002032589
000030 ab 60 2e 3b f4 65 3f 3c 49 0b 82 3b ca 8b b1 3b
       0.0026607912 0.011682022 0.0039686305 0.0054182755
000040 3b 5a 49 3b 73 2e 2d bc 9e 5a 9b 3b 55 94 ff 3b
       0.0030723948 -0.010570156 0.004741027 0.007799665
000050 06 00 df bb 1e 99 37 bc 7b 92 f9 ba 5f 76 ba bb
       -0.0068054227 -0.01120594 -0.0019040847 -0.0056903805
000060 e0 a2 df 3b 14 1f 95 3b f3 eb 73 bb de a1 4a ba
       0.006824836 0.004550824 -0.0037219494 -0.00077298086
000070 c6 3a 6b bb ea dc 13 bc 64 ce 19 ba 3b 93 5a ba
       -0.0035893186 -0.009024838 -0.00058672414 -0.0008337979
000080 8b c7 06 bb 75 6a fc bb d8 6e da bb 4f c3 c6 3b
       -0.0020565714 -0.0077031204 -0.0066660456 0.006065763
000090 8e 32 86 3a 49 20 a1 3b ee 14 6b 3b 81 26 26 3c
       0.0010238455 0.004917179 0.003587063 0.010141016
0000a0 75 3d 18 bc de c5 9e bb bb 09 06 3c e5 b1 e3 3b
       -0.009291996 -0.004845365 0.008181031 0.006948697
0000b0 e4 6a 29 3c 0b 50 74 bb 77 2b f1 bb 6d 9c bf ba
       0.010340426 -0.0037279155 -0.0073599177 -0.0014618762
0000c0 f8 9b 42 3b c0 09 38 bc a3 d6 29 bc 43 27 ba ba
       0.0029695015 -0.011232793 -0.010366115 -0.0014202375
0000d0 9b cf 38 3c 52 31 42 3c ea de 7b bb 12 9a 1e bc
       0.011279966 0.011852579 -0.0038432428 -0.009680288
0000e0 6b 86 23 3c 6c b0 1b 3c 6d 34 3b 3c 72 16 0e 3c
       0.009980778 0.0095025115 0.0114260735 0.008672344
0000f0 77 43 34 3b ab b8 26 3c a4 de 1b bc fa 39 33 bc
       0.0027506032 0.010175864 -0.009513531 -0.010939116
000100 b1 3c 04 3a 4c 18 13 bc 90 13 23 bc 50 85 97 ba
       0.0005044444 -0.008977961 -0.0099533945 -0.0011560116
000110 4e 81 1b 3c ab 0a 17 3c 57 21 c4 bb 1a a4 39 3b
       0.009491278 0.009218852 -0.0059854197 0.0028326572
000120 72 4c 1c bc 9c 75 ce 3b 24 00 a3 3b 3e 4d ea 3b
       -0.00953971 0.006300641 0.004974382 0.0071503213
000130 ca cc 85 bb 40 5c ac 3a 38 fd 20 bc 42 2f 06 bc
       -0.0040832506 0.0013150051 -0.009825997 -0.008189978
000140 1a 0c e2 bb ba b3 97 3b f8 d5 3f 3b 7a a7 0c bc
       -0.0068984153 0.0046295794 0.0029271822 -0.008584851
000150 a2 a9 eb 3b c0 5c 14 bc b2 81 46 3a 81 fd cd 3b
       0.0071918527 -0.009055316 0.00075724267 0.0062863235
000160 ee 45 d0 bb 45 4d fb 3b d7 a2 ef bb 34 41 03 bc
       -0.0063559925 0.0076691234 -0.007313113 -0.008011151
000170 2e 48 d3 3b 19 b3 19 bc 0b ac 24 bc 39 c4 23 3c
       0.0064478135 -0.009381079 -0.010050784 0.009995514
000180 e4 d3 01 bb 51 ea 3c bc 69 0e 05 bc 14 43 24 bb
       -0.0019810135 -0.011530475 -0.008121111 -0.0025064396
000190 d8 f8 a6 bb f7 67 8a 3b 90 b5 89 3b e4 71 37 bc
       -0.0050955825 0.0042238194 0.004202552 -0.011196587
0001a0 57 c0 21 3c 87 79 18 3a 1f e9 76 ba bf ba ac bb
       0.009872518 0.0005816449 -0.0009418893 -0.0052712853
0001b0 e2 23 37 bc 29 7c 11 3c f2 ce 3f bc 93 f2 5e bb
       -0.011177989 0.0088797 -0.011707054 -0.0034019097
0001c0 0c 07 43 3c 40 30 c0 b9 a3 c9 bd 3b 8d 04 9a ba
       0.011903536 -0.00036657043 0.0057918592 -0.0011750624
0001d0 9f a5 13 bc 40 ee 54 ba 74 0b d1 bb e1 e8 e7 bb
       -0.009011655 -0.000812266 -0.006379539 -0.007077322
0001e0 4e d5 fd ba 93 a7 1d 3c a9 aa d3 bb 3a f6 ac bb
       -0.0019365938 0.009622472 -0.0064595533 -0.005278376
0001f0 24 20 f8 bb 46 64 f9 bb 28 55 2d bc 5b 2e bd 3b
       -0.007572191 -0.0076108305 -0.010579385 0.0057733483
000200 2e bc 99 3b 40 62 b2 3b b0 54 11 bc 23 80 35 bc
       0.004691622 0.005443841 -0.008870289 -0.011077913
000210 06 c0 ea bb 08 4a 57 b9 08 de 37 3c bb bb 3f 3c
       -0.0071640043 -0.00020531577 0.01122237 0.011702473
000220 5d b7 79 bb 38 c8 41 3b 2c 67 b2 39 36 71 ca bb
       -0.0038103678 0.0029568803 0.00034027675 -0.0061780466
000230 5b d1 1d bc ad 73 94 bb b2 1c ec 3b b9 eb 3e bc
       -0.009632434 -0.004530391 0.007205569 -0.01165288
000240 d1 28 0f 3b 3f 9c 2c bc 37 ae 17 bb c6 dd 0c 3c
       0.0021844397 -0.010535299 -0.0023144612 0.008597797
000250 4f 36 bf bb 28 de 4b bb be c4 25 3c 0a c2 f9 bb
       -0.0058353315 -0.0031107757 0.010117708 -0.007622008
000260 7a 4e 06 3c 1c c7 27 bb 39 e6 01 bc 11 06 1f bc
       0.008197421 -0.0025600856 -0.0079284245 -0.009706036
000270 cc 65 87 bb 78 53 38 3c 65 b6 cf 39 a6 00 2c 3b
       -0.004132008 0.011250369 0.0003961801 0.0026245504
000280 49 32 3c bc 00 6d 32 bc 59 df f6 ba c8 f9 a1 3b
       -0.011486598 -0.010890245 -0.0018834873 0.0049431063
000290 9e 14 28 3b 77 88 3f 3c 07 f2 a9 bb 0e 82 4b 39
       0.0025647054 0.011690251 -0.0051863226 0.00019408038
0002a0 8d 88 fd 3b ff 68 31 bc 58 22 8b 3b 3a c2 2b 3b
       0.0077372254 -0.010828256 0.0042460375 0.0026208297
0002b0 ca d3 ad 3b bd 8f a7 3b 9e ad 1b 3c 91 a6 45 3c
       0.0053047882 0.0051135705 0.009501843 0.012063638
0002c0 f6 9c ed 39 42 cc 19 bc 78 8c 05 bc 14 54 e2 bb
       0.00045321108 -0.009387078 -0.008151166 -0.0069069955
0002d0 6b 12 b6 ba c9 4b e9 bb c2 2c fb 3b 04 a0 12 3c
       -0.0013890987 -0.00711963 0.0076652477 0.0089492835
0002e0 e3 87 79 3b ea 0f 0b bc 60 06 fe 3b e0 45 c3 3a
       0.003807538 -0.008487681 0.007752225 0.0014898144
0002f0 c5 20 1d ba d2 db dd bb d7 25 7f 3b 2d 9d bb 3b
       -0.0005993958 -0.0067705894 0.0038932466 0.005725524
000300 54 3c 3e bc 5f 79 91 ba 70 4f 4c bb 8f 03 13 bc
       -0.011611063 -0.0011098793 -0.0031175278 -0.008973016
000310 87 a6 b0 b8 14 f8 f6 ba c2 3e 10 3c d5 02 08 bc
       -8.423352e-05 -0.0018842244 0.008804025 -0.008301456
000320 78 4d 03 bc 34 e7 b0 3a 67 1d f0 bb 4b 66 ca 3a
       -0.008014075 0.0013496638 -0.007327724 0.0015441863
000330 14 54 12 bc 54 0a 11 3c f9 d3 06 3c ee d1 d3 bb
       -0.008931179 0.00885256 0.008229249 -0.0064642346
000340 b1 3a c6 bb a4 72 91 3b f1 12 d4 b9 63 2b 3e bc
       -0.006049477 0.004438715 -0.00040449903 -0.011607024
000350 fd 16 15 3b 1a db 72 bb 46 ad a4 3b 86 76 1e bc
       0.0022749298 -0.0037056864 0.0050255386 -0.009671813
000360 7c 95 df bb 2b f6 99 3a ad 96 c4 3b a2 e8 e6 bb
       -0.00682324 0.0011746337 0.0059994073 -0.007046775
000370 4c 8c ef 3a 1e fb ec bb 40 b0 31 bb 16 2b 13 bc
       0.0018276065 -0.007232084 -0.002711311 -0.00898244
000380 98 ef e4 ba 0e e6 30 bc 57 91 b0 bb 4c 56 bf 3b
       -0.0017466424 -0.010797037 -0.0053884196 0.005839145
000390 2b d6 32 3c ab 35 85 3a ee 6b ef ba 65 cd 4b 3a
       0.010915319 0.0010163089 -0.0018266418 0.00077744416
0003a0 9a 20 20 3c bf 3a e8 3b 7a bb 27 bc 23 36 9a bb
       0.009773398 0.007087081 -0.010237569 -0.0047061606
0003b0 d5 eb 98 3b 39 76 2e 3c 73 17 62 3b c7 74 69 ba
       0.0046667852 0.010648304 0.003449884 -0.0008905646
0003c0 bd c2 bf bb d6 3d 25 bc 84 01 0a 3c 49 f5 38 3c
       -0.005852072 -0.010085544 0.008423213 0.011288949
0003d0 6b 2a be bb bd 72 74 bb 6c df c6 bb 63 e8 6b bb
       -0.0058033965 -0.0037299835 -0.0060691144 -0.0035996668
0003e0 f6 b3 a3 3a 82 7d 93 3b e0 6b f7 3b ab 33 c6 bb
       0.0012489546 0.0045010457 0.0075507015 -0.00604864
0003f0 51 30 79 bb 79 f4 32 bc c0 d6 fa 3b c6 26 52 bb
       -0.0038023184 -0.010922545 0.0076549947 -0.0032066568
