checkpoint_2_ch_raise_data/run_0/1d_cnn_ckpt_6.pth (torch, 80456 bytes, 8 tensors)

model_m.0.weight f4 [8, 2, 8]
000000 93 e1 97 3d 9d 10 90 bd 0b fb 6d 3e 6b 47 fa ba
       0.07416072 -0.07034419 0.23240297 -0.001909477
000010 fb dc 5d 3e 19 81 44 bd de e9 3e 3e 90 f0 4d bd
       0.21666329 -0.04797468 0.18643901 -0.050278246
000020 a2 67 72 be 73 59 9f 3b 06 23 f9 3d 86 f7 e3 bb
       -0.23672345 0.004862958 0.12164883 -0.0069569973
000030 22 8d d3 bc 96 70 a5 bd ed 27 56 3d 76 e8 0b 3d
       -0.025824133 -0.08078115 0.05228417 0.03415724
000040 12 2a 52 be c0 0f 4c bd c4 7f 01 3e 10 fe 0e bd
       -0.20523861 -0.049819708 0.12646395 -0.03491026
000050 2c 14 69 be a8 68 13 3d 4c e3 97 bd a6 c8 22 be
       -0.22761601 0.03598848 -0.074164 -0.15896854
000060 5c e3 12 3e 44 2f 56 be c2 f3 3d 3e 20 d3 13 3d
       0.14344543 -0.20916468 0.18550017 0.036090016
000070 20 71 32 3e 32 fe 45 be f0 20 69 be c4 05 ba 3d
       0.17425966 -0.19335249 -0.22766471 0.09083131
000080 43 51 7d 3e 8d a0 c3 3d 59 cc 2f 3e d8 20 dc bd
       0.2473803 0.09552107 0.17167796 -0.10748452
000090 e4 82 98 bd 36 c1 68 3e 08 3a 0a 3e 53 3a 04 be
       -0.074468404 0.22729954 0.134987 -0.12912874
0000a0 3c 0b 5e 3e e5 ef 5d be 3b 90 1a be b2 37 24 3e
       0.21683973 -0.21673544 -0.15094082 0.16036871
0000b0 c5 80 6b bd bb 78 d6 3d ac c3 37 3e 0e 0d 29 3d
       -0.05749585 0.10472246 0.17945737 0.041272216
0000c0 01 ab ea 3d 5a 06 0b 3e b9 d7 46 3e d0 6d 84 bd
       0.11458398 0.13576642 0.19418229 -0.064662576
0000d0 ad 9e 0e be b3 d5 f3 3d 6e c4 a1 bd bf 6a 5f be
       -0.13927718 0.11905994 -0.07898794 -0.21818064
0000e0 48 51 17 3e 4b 5b 4e 3e 33 b5 b3 bd 98 70 01 3e
       0.147771 0.20152013 -0.087747954 0.12640607
0000f0 df e1 61 bd 85 c9 20 be 52 f3 4a be 89 1d 01 3e
       -0.055147048 -0.15701874 -0.19819382 0.12608923
000100 75 6a f8 bd 02 86 1a bd c8 be 55 bc e7 72 51 3e
       -0.1212968 -0.037725456 -0.013045974 0.20453988
000110 1f 0b 57 be 2a c8 3c be ea 7f 6e bd 8f 6b 45 3e
       -0.21000336 -0.18435732 -0.058227457 0.19279312
000120 a2 16 2f 3d 60 dc 4b be 45 ca b9 3d 8d 8c 82 bd
       0.042746194 -0.19908285 0.09071783 -0.06374464
000130 f0 c7 92 3d 79 bd 41 3d 0c 32 0b be 3b 81 10 3c
       0.07167041 0.047299836 -0.1359331 0.008819873
000140 84 48 92 bd e8 ce 58 be 68 2c de 3d 20 7d a3 bc
       -0.071427375 -0.21172678 0.108483136 -0.019957125
000150 00 80 33 bc 98 a4 91 3d a0 83 af 3d 00 08 a5 bb
       -0.010955811 0.07111472 0.08570027 -0.005036354
000160 e4 8b 49 3e 30 69 12 be 68 d4 77 3e 2e 97 52 be
       0.1968227 -0.14297938 0.2420212 -0.20565483
000170 d6 89 1d be f0 f6 28 3d 5c 89 bb bd 7c 52 44 be
       -0.15384611 0.041251123 -0.091570586 -0.1917209
000180 a0 f8 56 bd fc 9d 46 be b6 ef 18 3e 70 15 2a bd
       -0.0524832 -0.19396204 0.14935192 -0.04152435
000190 e8 c8 32 3d 00 cd 2b 3c 50 1f 7d bd 36 4a 2e be
       0.04364863 0.0104858875 -0.06179744 -0.17020497
0001a0 74 f7 78 be 86 81 58 3e 34 d1 ae bd 84 a2 61 be
       -0.24313146 0.2114316 -0.08535996 -0.22034651
0001b0 06 30 6e be 2a d0 54 be 48 56 5e be a0 07 95 bd
       -0.23260507 -0.20782533 -0.21712601 -0.07276845
0001c0 4c 10 71 3e c0 33 72 bc 00 62 12 3a 38 6f 78 3d
       0.23541373 -0.014782846 0.0005584061 0.06065294
0001d0 f0 3d 01 3e b4 ad 6a 3e fc b3 65 3e 24 0f 4a be
       0.12621284 0.22917825 0.2243194 -0.19732338
0001e0 60 90 8e bd 94 f3 08 3e 3c 04 a6 bd e4 5c ec bd
       -0.06961131 0.13374168 -0.081062764 -0.11541155
0001f0 38 c3 ea bd 64 23 e9 bd c0 9c 5a 3d d8 d2 56 3e
       -0.11463016 -0.11383703 0.053372145 0.20978868

model_m.0.bias f4 [8]
000000 89 8f e2 3d e0 74 52 bd 70 e0 01 3e bd ef 76 3e
       0.110625334 -0.051380992 0.12683272 0.2411489
000010 01 b5 8b 3d 34 f5 d5 bd 0c 03 4d be c2 03 74 be
       0.06821633 -0.104471594 -0.20020694 -0.23829558

model_m.3.weight f4 [16, 8, 8]
000000 9d d9 32 bd cd a4 e8 3d c6 23 92 bd b6 db f3 bd
       -0.043664563 0.11359558 -0.071357295 -0.11907141
000010 98 e1 ad 3d be e6 e8 bc 98 7a 30 3d 7b 8d 8a 3d
       0.08490294 -0.028430339 0.043085665 0.067652665
000020 f0 c3 72 3c 40 b3 21 3d 9e d2 98 bd a8 29 7c bd
       0.014817223 0.039477587 -0.07462047 -0.061563164
000030 ae 0e d4 3d f8 07 fb bc a0 d1 d5 bc 22 be ef 3d
       0.103543624 -0.030643448 -0.026100934 0.11706187
000040 90 c5 7f 3d 20 07 fa 3b cb f9 dd 3d 28 4e 6e bd
       0.06244427 0.007630244 0.1083866 -0.058180004
000050 5e 61 81 bc 40 20 9c 3d 93 79 d4 3c d5 05 78 3d
       -0.015793499 0.07623339 0.025936877 0.060552437
000060 75 7a f6 bd 86 72 98 bc b2 36 58 3d 0b a2 db bd
       -0.120350756 -0.018609297 0.052786537 -0.107242666
000070 59 cb 2b ba 89 dc d7 bd db a1 ab 3d 54 6c ad 3c
       -0.00065534335 -0.105401106 0.08380481 0.021169819
000080 3d 07 86 3b a4 d0 87 bc af 0b 24 3d 4f 37 36 bd
       0.0040902183 -0.01657898 0.040050205 -0.04448634
000090 57 87 a2 bd 2b 08 b4 bd a4 07 de bd 43 c6 6a bd
       -0.0793597 -0.087906204 -0.10841301 -0.057317983
0000a0 4e e1 b7 3d 50 df 64 bc e8 8f 57 bd e0 10 01 3d
       0.0897852 -0.0139692575 -0.052627474 0.031510234
0000b0 02 14 b8 bd d0 2d 47 3c ea 2c a7 bd f8 db 4a bd
       -0.08988191 0.012156919 -0.081628636 -0.049526185
0000c0 f0 2f 8b bc 7e 13 c7 bd 4c 33 80 3d cc 48 a0 bd
       -0.016990632 -0.09720515 0.06259784 -0.07826385
0000d0 c4 54 56 bd a0 df ec bd ee 84 c9 bd 80 60 15 3c
       -0.052326933 -0.115660906 -0.098398075 0.009117246
0000e0 10 1e 2a bc 30 f4 a8 3d b2 52 93 3d 42 ae c1 3d
       -0.010383144 0.082497 0.07193507 0.09457065
0000f0 3c a7 8b 3d 6c 81 66 3d 5c 38 b0 bd 40 a1 4c bb
       0.06819007 0.05627577 -0.086045 -0.0031224042
000100 d5 c5 bc bc 1b 5e e2 3d 13 a0 84 3c 23 2c 5a bd
       -0.023043552 0.110531054 0.01618961 -0.05326475
000110 59 66 f0 bb 58 ff f1 3d 8e 4a ae bd d6 d9 da 3b
       -0.0073364195 0.11816281 -0.08510314 0.0066788
000120 4e 13 a0 3d f4 78 e7 bd 20 33 9e bb 98 f7 65 bd
       0.07816182 -0.11302367 -0.004827872 -0.056144327
000130 00 e5 34 bd b8 f5 7b bd a8 bc 08 bd 50 59 10 3c
       -0.044163704 -0.061513633 -0.03338304 0.008810356
000140 2f 1f f0 3c 32 61 d3 3c 4c c9 f0 bc 89 79 e4 bc
       0.029311744 0.025803182 -0.02939286 -0.027889984
000150 a3 8a 8f 3d c5 1e ff 3d 5e 59 cd bd 6d a1 ea 3d
       0.07008865 0.12457041 -0.10026811 0.11456571
000160 94 95 0d bc b1 ea 74 bc ee 48 a3 3d 73 9e 80 3d
       -0.008641619 -0.014948533 0.079728946 0.06280222
000170 ce 04 aa 3c f4 c1 b9 bd b6 8d f8 bd c4 9c 6a 3d
       0.020754244 -0.09070197 -0.12136404 0.05727841
000180 c0 a6 8c bc fb ca de 3d 9d 83 5d 3c 1b 65 52 3c
       -0.017169356 0.10878559 0.013520149 0.012841488
000190 0d bc 84 3d 35 ee 1f bc ec 68 db 3b 1d 52 c6 bd
       0.0648118 -0.009761383 0.0066958573 -0.096836306
0001a0 f2 97 b9 3d 60 78 4d 3d a4 1f a9 bd 3e 50 f0 3d
       0.090621844 0.050163627 -0.08257988 0.11734055
0001b0 70 b0 91 bc a6 01 b0 3d 68 40 3c bd 8a df b8 bd
       -0.017784327 0.085940644 -0.04595986 -0.09027012
0001c0 e4 33 e1 3d a4 1a f0 3d 4e c7 e2 3d 58 e0 b0 bc
       0.109962255 0.11723831 0.110731706 -0.02159135
0001d0 16 8d e6 bd 68 be 5a 3d 48 84 5d 3d 9c b1 81 bd
       -0.11257379 0.05340424 0.05408123 -0.063327044
0001e0 c4 c6 d8 bd 38 0b ae 3c e4 31 00 bd 68 c0 15 3d
       -0.105847865 0.021245584 -0.03129758 0.036560446
0001f0 fc 19 e6 3d 32 6b 83 bd c0 de e5 bb 3a 75 fd 3d
       0.11235425 -0.0641693 -0.0070150793 0.12375875
000200 2c dc 8f bd 72 55 de 3d a4 32 41 bd 14 18 e6 bd
       -0.07024416 0.10856141 -0.047167435 -0.11235061
000210 20 b9 87 bd 18 39 08 bd 94 09 fc 3d 00 4c f6 3b
       -0.06627107 -0.033257574 0.123065144 0.007516384
000220 e8 fa 5c 3d 80 ae 3a bd e0 53 a9 bd d8 fd 7d 3d
       0.05395022 -0.045576572 -0.08267951 0.062009662
000230 88 0f 17 bd b6 02 f5 3d 14 19 9e 3d b0 37 e0 3c
       -0.036880046 0.11963408 0.07719627 0.027370304
000240 ce 3c 82 3d 70 59 6a 3d 10 2c b1 3d 98 89 2f 3d
       0.06359254 0.0572142 0.086509824 0.04285583
000250 8e d7 ca bd 14 ff c4 bd 78 67 61 bd d6 f8 8b bd
       -0.09904395 -0.09618965 -0.055030316 -0.06834571
000260 14 3e a9 bd 6e 7f fc 3d 7a 02 ee 3d 68 4c 64 bd
       -0.082637936 0.12328993 0.11621566 -0.05573693
000270 7c b4 19 3d 66 8f dd bd bc d2 d3 3d 08 b3 f7 bd
       0.03752564 -0.10818367 0.10342929 -0.120946944
000280 54 f7 85 3d 30 c4 ab bc 0c 1c 49 bd c8 58 76 bd
       0.06541315 -0.020967573 -0.049099013 -0.060143262
000290 40 ae c4 bd ca c4 e0 bd c8 2e be bd 80 4f cc 3d
       -0.09603548 -0.109750345 -0.092862666 0.09976101
0002a0 44 14 41 bd 04 b4 56 3d 68 6a a1 3c 94 b9 2a 3d
       -0.047138467 0.05241777 0.019704059 0.041680887
0002b0 cc f5 9f bd 96 f5 d5 3d e0 28 ad bb 68 92 ff bd
       -0.07810554 0.104472324 -0.0052844137 -0.12479097
0002c0 f8 1c 87 3d 10 59 82 3c ea c5 c4 3d 52 d2 df 3d
       0.06597322 0.015911609 0.096080616 0.10928787
0002d0 b8 35 dd 3d a0 93 f6 bb 70 ab 42 bc 98 b2 b2 3c
       0.10801262 -0.0075249225 -0.011881694 0.021813676
0002e0 98 8b 2f bd d4 db 25 3d 6c 9d 19 bd bc 61 6b bd
       -0.042857736 0.040492848 -0.037503645 -0.057466254
0002f0 44 12 3b 3d 00 3f a9 3b 30 23 f5 bc 40 63 35 bc
       0.045671716 0.005164981 -0.029924005 -0.011071026
000300 10 01 d0 bc f0 07 4a 3c ba 5a b4 bd 2e d5 db bd
       -0.025391132 0.012330994 -0.08806367 -0.1073402
000310 7a 1e d8 3d 80 74 9b 3a 80 2c d3 bd 00 a2 92 3c
       0.10552688 0.0011860281 -0.10311222 0.017899513
000320 e0 d1 f8 bc 9c 9d c1 bd e4 eb 52 3d 48 6c a4 bd
       -0.030373514 -0.0945389 0.051494494 -0.080284655
000330 30 17 6b bd bc 3c 25 bd 90 98 f1 3c 40 3f 42 3d
       -0.05739516 -0.040341124 0.029491693 0.0474236
000340 ba 67 bc bd e0 a7 86 3d 06 0f df 3d 6a bb a8 bd
       -0.09199472 0.06574988 0.10891537 -0.082388714
000350 90 d6 f2 3d 20 c2 fe 3b 42 e7 d0 3d 56 99 9c bd
       0.11857331 0.0077746063 0.10200359 -0.07646434
000360 de 18 db bd e6 44 b5 bd 70 e8 06 bc b8 08 b0 3c
       -0.106981024 -0.08851032 -0.008234128 0.021488532
000370 e6 84 88 bd 3a 60 d8 bd ba a5 ff bd 24 35 5d 3d
       -0.06665973 -0.10565229 -0.12482782 0.054005757
000380 f0 a6 df 3d f4 b3 fe 3d 00 11 4f 3c a0 ef 1a bc
       0.10920513 0.12436667 0.01263833 -0.009456545
000390 88 1b 40 3d 80 07 f4 ba 94 06 ba 3d 88 29 27 bd
       0.046901256 -0.0018617958 0.09083286 -0.04081109
0003a0 40 e2 df bd 56 26 8c bd 50 a6 5c bd 10 16 a7 3c
       -0.10931826 -0.068432495 -0.053869545 0.020396262
0003b0 78 23 46 3d d4 95 5d 3d 9c a2 51 3d 10 82 80 3d
       0.04837367 0.054097965 0.051180467 0.062748075
0003c0 e0 fc 4f 3d 52 00 f6 3d b4 ce 60 bd 8c e5 87 3d
       0.05077827 0.1201178 -0.054884627 0.066355795
0003d0 d0 81 a4 bd e0 b0 ea bb c0 7d ee 3d 60 76 dc bb
       -0.08032572 -0.0071621984 0.11645079 -0.0067279786
0003e0 34 2e 4b bd 58 5d 3e 3d c4 0c 61 bd 6a 94 ee bd
       -0.04960461 0.04647574 -0.054943815 -0.116494015
0003f0 70 04 09 bc 92 04 c2 3d 94 e8 11 3d 00 59 b5 bb
       -0.008362874 0.09473528 0.035622194 -0.0055342913

model_m.3.bias f4 [16]
000000 65 af 7d 3d ca 6d 32 3d 18 dd 8a bd 58 fc 48 3d
       0.061934847 0.043561734 -0.067804515 0.04906878
000010 34 8d 2f 3d 30 16 ee bd b8 25 e4 bd 0c 67 01 bd
       0.04285927 -0.11625326 -0.11140007 -0.031592414
000020 81 6b b1 3d 28 e3 ab bd a0 c1 b4 3d ae dc ae bd
       0.08663083 -0.08392936 0.088259935 -0.08538185
000030 8e a4 de bd 5b ed 4a 3d ba e2 c7 bd 69 95 03 bd
       -0.1087123 0.049542766 -0.097600415 -0.03212491

model_m.6.weight f4 [32, 16, 8]
000000 6b 0c 86 bd 4d 65 99 bd 7e 98 9b 3d 20 d1 c7 3c
       -0.06545337 -0.07490025 0.07597445 0.02439171
000010 94 47 22 bc 62 c7 17 bd f8 9c b2 3c 5d de 3c bd
       -0.009904761 -0.03705538 0.021803364 -0.0461105
000020 59 4f 8b bd 6e 54 55 bc ec ae 0a bd 05 f7 81 bd
       -0.06802244 -0.013020618 -0.033858225 -0.06345943
000030 c9 4a b1 3d 72 60 af 3d 57 90 45 bd c1 79 a5 bd
       0.08656842 0.08563317 -0.048233356 -0.08079863
000040 f3 e2 fa bc e6 52 a2 3a be 93 83 3d da 55 eb bb
       -0.030625796 0.0012384325 0.06424664 -0.007181865
000050 cc 02 90 3d 14 b1 08 3d a7 8f 42 3d f3 0a 0d bc
       0.070317835 0.033372 0.04750028 -0.0086085675
000060 d0 6f a6 bd bc ca 7e 3d 3a ba 7c bd f6 49 2c 3b
       -0.08126795 0.06220506 -0.061701037 0.0026289201
000070 27 77 a0 bd 42 a3 38 3d 41 ef b2 bd 24 a9 8b bd
       -0.078352265 0.04507757 -0.0873704 -0.068193704
000080 36 b3 45 3c 81 bc 6b bd 54 aa aa 3d 07 f7 2c 39
       0.012066653 -0.05755282 0.08333269 0.00016495223
000090 8a 32 ef bc 07 13 39 3c 7d 09 68 3d 91 30 99 3d
       -0.029198904 0.01129604 0.056649674 0.074799664
0000a0 92 71 a6 3c 92 15 49 3d 84 9e 84 bc b2 0f 96 bc
       0.020317826 0.049092837 -0.016188867 -0.018318031
0000b0 61 e6 34 bd 8f 5a 06 3c ab 85 9b bc 8f e0 c4 bc
       -0.04416502 0.008200302 -0.018984636 -0.02403286
0000c0 bd c9 45 bd ba 14 24 bd 1f f5 70 bc 66 47 86 3d
       -0.048288096 -0.04005883 -0.014706879 0.06556587
0000d0 de 27 8d bd e7 51 5d bc ce f5 6e 3d 13 bc da 3c
       -0.0689237 -0.013508297 0.058339886 0.026701009
0000e0 da 21 98 bb 27 10 72 bd 33 84 c3 bb f1 c7 a9 3d
       -0.0046427073 -0.059097435 -0.005966687 0.08290089
0000f0 42 1b 39 bd 98 53 24 bd de 98 d7 ba 98 de cc 3c
       -0.04519201 -0.040118784 -0.0016448756 0.025008485
000100 19 f4 74 bd 5d 52 35 bc 6a fd a7 bd 1f 3a 18 3d
       -0.059803102 -0.011067 -0.08202632 0.037164804
000110 ad 2f 1e 3d a2 49 be 3c 72 20 26 bd 6a fa 50 3d
       0.038619686 0.02322847 -0.040558286 0.051020063
000120 c1 5c 80 3b ee 43 5c 3d d5 9b 95 3d 00 d0 33 bd
       0.003917307 0.05377572 0.07305113 -0.043899536
000130 15 09 e3 3b 6e fd 31 3b 06 32 55 3d 90 ff 44 ba
       0.006928573 0.0027159113 0.05204966 -0.00075148884
000140 7a 9a cf 3c 00 27 18 bd 5e 95 95 3a 50 87 97 3d
       0.025342215 -0.03714657 0.0011412313 0.07398856
000150 5c 3b 4d 3c cd 16 6a 3d 54 30 52 bd d1 de a2 3d
       0.012526359 0.05715065 -0.05131562 0.07952655
000160 57 8b 8e 3d 6a d0 6d bd ce 33 0b 3d 25 fb aa 3d
       0.06960171 -0.058060087 0.03398495 0.08348683
000170 0b d6 6e bd 71 ef 2f bd 4f 0c 67 3d 7e f4 09 bd
       -0.058309596 -0.04295296 0.056408223 -0.03368043
000180 fd c2 9d 3d 7e 6f 76 3d d4 c1 b2 ba 49 2d 9a 3b
       0.07703207 0.06016492 -0.0013638088 0.0047051054
000190 c3 ef 5b bd 46 86 aa 3c 6a c1 a0 3c 75 2a 66 3d
       -0.05369545 0.02081598 0.019623477 0.056192834
0001a0 07 8a 40 bd 3b a1 b3 bd ec 24 20 bc e1 a8 e1 3c
       -0.047006633 -0.08770987 -0.009774428 0.027546348
0001b0 c0 5d 81 3d 02 42 7d bd 13 56 1e 3b 36 f5 8f 3d
       0.063167095 -0.061830528 0.002416019 0.07029192
0001c0 dc 48 9f bc b1 ed 6b 3d 73 78 a9 bc 0a af 40 bd
       -0.019443922 0.057599727 -0.020687317 -0.04704193
0001d0 e9 9a a4 3d 14 2f 78 3d 5c 4c 87 3d 9a c2 49 3d
       0.08037359 0.060591772 0.06606361 0.049257852
0001e0 76 2c d8 ba 87 d0 44 bd 77 cc d8 3c 05 43 c4 3c
       -0.0016492743 -0.04805043 0.026464684 0.023957739
0001f0 89 e3 27 bd 83 e7 73 bd 9d 2d 36 3d c8 f5 b2 bd
       -0.04098848 -0.05954696 0.044477094 -0.08738285
000200 77 ca 89 bc 8c c7 8a 3d 88 2f 7c 3d 6c c1 82 bd
       -0.016820176 0.06776342 0.061568767 -0.063845485
000210 f8 2e 8d 3c 7c 4d 93 3d 12 c4 1f 3d 68 cf 9f 3c
       0.01723431 0.07192513 0.039005347 0.019508079
000220 69 61 4f 3d 9f b2 cc 3c 65 c3 19 3b ba f9 85 bd
       0.050630007 0.024987517 0.0023462411 -0.06541772
000230 7b 01 b3 3d c2 d1 90 bd 08 04 8e bd 7b c8 ed bc
       0.08740517 -0.07071258 -0.06934363 -0.02902626
000240 5c 5c 60 bd 8a 95 1a bc 8d 76 46 bd 9a 1e 94 3a
       -0.05477558 -0.009435067 -0.048452903 0.0011300624
000250 32 76 89 bd 53 3c 4a 3d e6 47 8e 3d 13 e4 8d bb
       -0.06711997 0.049373936 0.06947307 -0.004330167
000260 88 02 7a bc ac 5c a9 bd 40 73 54 bd 44 24 60 bd
       -0.015259393 -0.08269629 -0.051867723 -0.054722086
000270 81 1a af 3b 3a 34 09 bd 81 fe a1 bd 44 a3 65 3c
       0.0053437357 -0.033497073 -0.07909871 0.014015976
000280 1a 6b ba 3c 5c 49 88 bd 30 fa 9b 3d 51 07 1b bd
       0.022756148 -0.06654617 0.07616079 -0.037848774
000290 4b 63 9c bd 28 df 70 bd c1 11 9f 3d 66 93 90 3d
       -0.07636126 -0.05880657 0.07767058 0.07059364
0002a0 9f cf 79 bd 0e 8f 57 bd c5 b1 83 bd b0 fa 7d bd
       -0.06098902 -0.052626662 -0.06430391 -0.062006652
0002b0 64 56 69 bd 20 f1 9b 3b 36 65 40 bc 75 4c a1 bd
       -0.056967154 0.004758969 -0.011742881 -0.07875911
0002c0 0a 1a 2b 3c 3e 41 48 3d 4b 1f d2 bc 6d 6c e0 b9
       0.01044322 0.048890345 -0.025649687 -0.00042805393
0002d0 21 19 c1 3c 83 39 82 3d 94 26 96 bd ec ff af bd
       0.023571553 0.06358626 -0.07331577 -0.08593735
0002e0 d2 d7 b1 bc bd 5a 10 3d 8c c5 7f 3d 4b e0 6a 3b
       -0.021709356 0.035242785 0.062444255 0.0035839255
0002f0 a2 ef 7e bd 0b 40 93 bd ab f8 5d bd 39 f7 a4 3c
       -0.06224025 -0.071899496 -0.054192226 0.020137416
000300 81 80 c4 bc bb 46 a9 bd 29 0f 93 3b 44 6d 85 bd
       -0.023987057 -0.08265444 0.004487891 -0.065149814
000310 fb 4d 35 bd b4 6f 41 bd 6d 67 48 3a 89 ad a7 3c
       -0.04426382 -0.04722567 0.0007644806 0.02046849
000320 37 56 08 bd 4d f9 11 3d a3 ed b2 bd 2d db 89 bd
       -0.033285346 0.035638142 -0.08736732 -0.067312576
000330 17 50 c8 bc 40 f8 7a 3c 7b f1 96 3d 2f ae 94 3d
       -0.024452252 0.0153179765 0.073702775 0.072597854
000340 6d 9c e3 3b ff 84 47 bd 3e 67 1b ba f5 5f 65 bd
       0.0069461376 -0.04871082 -0.0005928165 -0.055999715
000350 e3 3b 71 bd 77 4f e7 3c 2f d2 40 3d f4 54 5d bd
       -0.058895003 0.028236134 0.047075447 -0.054036096
000360 6c 14 0e bd a2 15 46 3b b2 23 59 3c a2 67 53 bd
       -0.034687445 0.0030225297 0.013253139 -0.051612504
000370 00 42 3e bc 79 3b fb bc 19 71 45 3c bd cc 9f bd
       -0.011612415 -0.030668007 0.01205089 -0.078027226
000380 d7 e1 af bd 86 92 aa 3d a0 91 9f bc fe b1 c6 bb
       -0.085879974 0.083287284 -0.01947862 -0.006063699
000390 ef ce 88 3d 68 6f c3 3c 69 72 2a 3c ca 4b 4f 3d
       0.066800945 0.023856834 0.010403254 0.050609387
0003a0 18 f2 ca bc ae 4e bb ba 03 ad a6 3c 6d d1 aa bc
       -0.024773642 -0.0014290416 0.02034617 -0.020851815
0003b0 71 42 a0 3d f7 95 a9 3d d2 60 3d bd e1 71 aa bc
       0.07825173 0.08280557 -0.046234913 -0.020806255
0003c0 5f 19 7e 3d ec 56 e5 3c 19 11 3e bd da 3f 08 bd
       0.062035915 0.02799555 -0.046403024 -0.03326402
0003d0 1e 01 3b 3c 0a 3a 8e bd 00 28 b8 bc 10 f5 92 3c
       0.011413841 -0.06944664 -0.022480011 0.01793912
0003e0 c5 4a bf bb 2f 83 36 bc ce 8b 83 bd 50 f9 ed 3b
       -0.0058377706 -0.011139675 -0.0642315 0.0072623864
0003f0 23 f7 9d 3d 50 2c 3c 3d 7a 28 ba bc ae 43 4d 3d
       0.07713153 0.045940697 -0.022724379 0.050113373

model_m.6.bias f4 [32]
000000 1a bb 89 3d 19 da 72 bd 57 6b 51 3d 6c 43 41 3c
       0.0672514 -0.059290025 0.051127758 0.01179586
000010 09 ba 22 bd 97 2a 97 3c 15 97 86 bd 33 58 74 bd
       -0.0397282 0.018452926 -0.06571785 -0.059654426
000020 f5 f7 8c 3d f4 f5 65 bd f6 7d cf 3a 8b 7d b2 3d
       0.068832316 -0.056142762 0.0015830386 0.08715352
000030 95 54 5c 3c 57 e7 8c 3d 03 d8 40 bc 87 86 26 3d
       0.0134479 0.06880062 -0.011770251 0.04065564
000040 13 60 d3 bc 8b 30 66 bd 88 79 52 3d 25 d5 2f bd
       -0.025802648 -0.056198638 0.051385432 -0.04292788
000050 67 19 bf bc 66 14 08 bd b9 e3 76 3c 7a 33 bb 3c
       -0.023327542 -0.03322258 0.015068942 0.022851694
000060 85 db 7d bd 80 c6 8e 3d 01 ec 2b 3d 4a c9 a9 3c
       -0.06197693 0.069714546 0.041973118 0.020725865
000070 30 4b a9 bc ac 27 3a 3d 4d 74 8f bd 01 86 2b 3c
       -0.020665735 0.04544799 -0.070046045 0.010468961

fc.weight f4 [2, 6976]
000000 ea fb 16 3c a1 ca 19 bc c4 da b8 bb 40 cd 8d bb
       0.009215334 -0.009386689 -0.0056413133 -0.004327446
000010 ac ad 16 3c 65 a2 2c bb bc 04 00 3b d7 7d a4 ba
       0.00919668 -0.0026341912 0.0019534072 -0.001254971
000020 09 af 19 bc d3 71 d2 3b 25 7b e5 ba f9 30 9a 3a
       -0.009380111 0.0064222603 -0.0017508013 0.0011763863
000030 19 17 ce bb 53 71 21 3c 45 27 6a bb 30 b8 2b bc
       -0.0062893745 0.009853679 -0.0035728973 -0.010480925
000040 35 c1 0e 3c 73 25 8f bb 14 b2 2c 3c 43 6c 3c 3c
       0.008713056 -0.004368478 0.010540504 0.011500421
000050 04 0b b6 3a 7c ee 2f 3c af ab e3 3a e5 02 3f bb
       0.0013888781 0.010738011 0.0017369891 -0.0029146012
000060 f4 d8 2f 3c 64 6e 86 3b f6 4d cc bb 6a 5d 35 3c
       0.010732878 0.004102515 -0.0062348796 0.011069635
000070 5d 3d fc 3b e5 c0 1d bc e2 cd 22 bc 77 69 3a 3c
       0.0076977448 -0.009628509 -0.009936782 0.011377684
000080 07 e8 cc bb a4 1c e0 3b d5 5c 9b 3b 9a c4 00 bc
       -0.0062532458 0.0068393517 0.004741291 -0.007859373
000090 1a 95 58 3b d2 d7 6f ba e4 74 24 3c 13 46 0b bc
       0.0033047856 -0.0009149286 0.0100376345 -0.008500594
0000a0 83 9c c7 3a 45 0e 2f bb 26 d4 b8 3b b6 1d 0d bc
       0.0015229139 -0.0026711386 0.0056405244 -0.008613041
0000b0 e8 e2 c4 bb 88 4c 00 3c a0 41 93 3a 0c c4 85 bb
       -0.0060084946 0.0078307465 0.0011234768 -0.0040822085
0000c0 0a 2d 15 3c fd 2b 80 bb 32 42 7e ba a1 da 2a bc
       0.009104976 -0.003911494 -0.0009699195 -0.010428102
0000d0 75 57 93 bb a6 44 ff 3b 4b f6 02 bc 26 2f 82 3b
       -0.0044965097 0.007790166 -0.007993291 0.0039729057
0000e0 f7 8b 51 bb 43 18 2e 3c b7 07 97 3b fb ec 37 bb
       -0.0031974295 0.010625902 0.004609074 -0.0028064835
0000f0 28 43 21 3c 82 79 0a 3c b0 71 01 3c fd 7c 27 bc
       0.009842671 0.008451821 0.00790064 -0.010222671
000100 74 27 74 3b 66 7c 00 bc c3 71 81 ba f6 9b ce ba
       0.0037254961 -0.007842159 -0.0009875823 -0.0015763033
000110 41 01 c8 3b f4 1e 49 3a d9 ae 88 ba 96 2b 2e bb
       0.006103665 0.0007672154 -0.0010428085 -0.0026576272
000120 9b 14 b6 3b 58 bc 3a bc 33 d0 c4 3a 8f 6e a3 3a
       0.0055566556 -0.011397444 0.0015015661 0.0012468862
000130 fb 50 08 3c df 50 12 3c e1 35 2b 3c 42 d0 48 ba
       0.0083200885 0.008930414 0.010449857 -0.00076604274
000140 4d 44 ff bb e7 5f 39 ba 71 57 1b 3c 31 62 f4 ba
       -0.0077901245 -0.00070714805 0.009481297 -0.0018644986
000150 5a fd 02 3c 0e ee a6 3b 9e 7f ad ba 1f 1d 7f 3b
       0.007994974 0.0050942963 -0.0013236885 0.003892727
000160 76 3e 42 3c 93 a0 43 3c 7b 9e 88 bb ad 81 1d bc
       0.011855712 0.011940139 -0.004169283 -0.009613437
000170 38 a0 d5 bb 05 d7 8b 3b 72 ae d0 bb 60 e0 25 bc
       -0.0065193437 0.0042675757 -0.0063684518 -0.010124296
000180 d3 bb 05 bc 14 cb b1 3a e4 9d d3 3b 31 62 d4 ba
       -0.008162457 0.001356455 0.006458031 -0.001620358
000190 a6 e2 0b 3c a1 24 96 3b 02 24 f6 bb eb 61 0a 3c
       0.008537924 0.004582003 -0.0075116167 0.008446197
0001a0 b3 88 34 bc d5 1c ac 3b 54 d7 2a 3c b5 97 fc 3b
       -0.01101892 0.0052524605 0.010427315 0.0077085146
0001b0 55 9e 23 bc ba 9a 3c 3c ff c7 f9 bb a7 72 0e 3c
       -0.00998648 0.011511499 -0.0076227183 0.008694327
0001c0 a3 4a eb bb 8a 9d a3 bb e7 16 1d bc ea 12 94 b9
       -0.0071805282 -0.0049931454 -0.00958798 -0.00028242852
0001d0 33 29 aa 3b ef 2d 85 bb f2 c8 15 bb 9b 8c 99 bb
       0.0051928996 -0.0040643136 -0.0022855368 -0.004685951
0001e0 22 83 08 3b 76 f6 44 3c 36 61 36 3c 71 34 43 3c
       0.0020830114 0.0120216515 0.011131575 0.0119143585
0001f0 c2 37 ee b8 b5 d1 13 b9 53 00 1a bb 9b d5 0b bc
       -0.0001135911 -0.00014097134 -0.0023498728 -0.008534814
000200 04 81 34 3b 02 fe 25 3b 92 c7 c2 3b d5 5f 3a 3c
       0.002754272 0.0025328402 0.005944201 0.011375387
000210 c0 22 86 39 e3 a4 00 3c 14 25 31 3c 1d a2 e7 bb
       0.00025584362 0.007851812 0.010812063 -0.007068886
000220 67 92 8b 3b 9b b4 34 3c 5f 94 25 bc cd d4 31 bc
       0.004259396 0.011029388 -0.010106175 -0.010853958
000230 38 fe 40 3a 82 26 17 3c 17 6e 01 bc 29 78 04 bc
       0.00073621003 0.00922549 -0.007899783 -0.008085289
000240 cf 3e 9b bb 9f 96 d9 bb 10 9c 17 bb 46 5e 96 bb
       -0.004737712 -0.00664027 -0.0023133792 -0.004588875
000250 42 d5 55 38 77 d1 d2 ba 17 4b 00 bc 9c 8d f4 3b
       5.098177e-05 -0.0016084154 -0.007830403 0.00746317
000260 0c d0 1b 3c 10 c3 90 3a 09 38 6d 3b 93 2a 24 3c
       0.009510051 0.0011044461 0.003619673 0.010019916
000270 f8 55 a7 3b 9f e3 96 3b a5 3d 80 3b 89 6c 0a 3c
       0.005106684 0.0046047713 0.0039135986 0.008448728
000280 2a d0 01 bc 74 07 41 bc 52 6d c3 ba 1a ed 1e 3a
       -0.007923165 -0.011781562 -0.0014909899 0.00060625526
000290 46 4d 26 3b 5d 22 fe 3b 66 25 30 bc cb da 83 37
       0.0025375648 0.0077555613 -0.010751104 1.57183e-05
0002a0 fc b2 91 bb b1 ab 21 ba 31 76 54 bb 52 10 25 bc
       -0.0044463854 -0.00061672466 -0.003241908 -0.010074692
0002b0 41 a9 6f 3b 73 b2 87 bb 4f 42 52 bb 9d ef 31 bc
       0.003656939 -0.004141146 -0.003208298 -0.010860351
0002c0 b3 1f 41 ba b4 f1 13 3c 5c 64 41 bc ab ee 39 bc
       -0.0007367089 0.0090297945 -0.011803713 -0.011348407
0002d0 24 cb 97 3b 8a 8c 92 bb 75 98 ba bb 2b 75 31 bc
       0.0046323705 -0.00447232 -0.005694444 -0.010831158
0002e0 6e 0f 12 3b 22 37 38 bc b9 d3 c0 ba d8 04 c4 bb
       0.002228703 -0.011243613 -0.0014711536 -0.0059820227
0002f0 a9 a9 0f bb b3 3e 11 3c 8a f4 36 3c d1 a6 7b 3b
       -0.0021921194 0.008865046 0.011166701 0.003839899
000300 6c cf 00 bc 99 21 9f bb da a4 c3 ba 28 e4 31 bb
       -0.007861953 -0.0048563 -0.0014926449 -0.0027144048
000310 70 3c 82 3b 67 8f 05 3c c1 a4 2f 3c c2 62 6c 3b
       0.00397449 0.008151866 0.010720433 0.0036069606
000320 b7 bf 29 3c b7 60 f1 3b e2 95 07 bc f2 38 c4 3b
       0.01036065 0.0073662656 -0.008275481 0.0059882337
000330 66 ed 87 bb d9 1a 2f ba 3c 76 e4 3b 94 6d 07 3c
       -0.004148173 -0.0006679721 0.0069721024 0.008265872
000340 31 8b ce bb fb b1 4d 39 c4 7f b9 3a 03 8d 11 bc
       -0.006303214 0.00019616626 0.0014152457 -0.0088837175
000350 89 16 f5 3b 48 ad 13 3c 84 cd 77 3b 77 2c 8b 39
       0.007479493 0.009013481 0.0037811706 0.00026545275
000360 ee 01 0e bc 00 c1 11 3c b8 55 22 3c 1b 8d 09 bc
       -0.008667452 0.008896112 0.009908132 -0.008395459
000370 b6 26 8b b8 94 ba e4 bb 10 e8 d8 ba 81 dd 9c 3b
       -6.635247e-05 -0.0069802497 -0.0016548652 0.0047871475
000380 ab 0d 26 3c 99 a3 4e 3b 04 bc 03 bc bd e0 f8 3b
       0.010135095 0.0031530617 -0.008040432 0.0075951503
000390 69 e6 28 bc 5b 49 69 bb 45 d6 c3 3b 64 28 e4 ba
       -0.01030884 -0.0035596702 0.0059764707 -0.0017407057
0003a0 ec 12 b8 bb c5 ae 43 bc f1 f0 2e bb 4c f0 27 3b
       -0.00561749 -0.011943524 -0.0026693905 0.0025625406
0003b0 6d 87 a6 bb 58 47 71 3a 03 71 11 bc be e2 2b 3c
       -0.005082062 0.00092040515 -0.008877042 0.010491071
0003c0 fa 7a 16 3c 18 7d 2f bb 9d 99 15 3c 09 7d 73 b9
       0.009184593 -0.0026777443 0.009130863 -0.00023220865
0003d0 9c 9d c5 3a b7 f6 37 bb 08 b0 a0 bb c4 55 cf bb
       0.0015076878 -0.0028070637 -0.004903797 -0.0063273627
0003e0 d6 6b 0b 3c e8 ca b3 bb 9c 67 89 3b 35 76 32 ba
       0.008509597 -0.005486835 0.0041932594 -0.00068077754
0003f0 e9 8a 11 3c 57 5a ac 3b da 77 16 3c cb 74 ad bb
       0.008883216 0.005259793 0.009183848 -0.005293464

fc.bias f4 [2]
000000 c9 92 ad 3b 25 20 e3 bb
       0.005297039 -0.006931322
