checkpoints/run_6/1d_cnn_ckpt_10.pth (torch, 52308 bytes, 7 tensors)

model_m.0.weight f4 [8, 1, 8]
00000000: 48cb 6cbe 1cd4 92be 160a 1e3e 5657 663e
00000010: 5eda 063d ff94 cfbd bd0f f3bd 2c77 243e
00000020: 1202 133e d93b 9fbd a0c1 a8be 19f6 48bc
00000030: eb38 9a3d 8ada b0be b31e 14bd 3d53 cb3d
00000040: e1ad 18bd 0437 9ebb 8580 1bbe b448 e03d
00000050: 0ef3 493e 8c1b 89be 4b62 5c3c caf8 3c3e
00000060: 4d50 11be e0a8 ab3d da13 bcbd 0d46 493e
00000070: 20d5 b1bd 65bd 24bd 3489 06be 19a0 0abe
00000080: 7fd0 493e cb05 8cbd 9a12 ef3d 8832 80be
00000090: b1f7 aebe 8c99 da3d 7211 1dbe b359 65be
000000a0: 174b 8f3d 49dd 1dbe 943a 603e 4131 8bbe
000000b0: d0ee 673e 8d7c 8a3d 0a09 0e3e 4846 c33d
000000c0: 3f3b ae3e 27dd aebe fd9a d73c 2829 613e
000000d0: 0eb0 623e 9a70 4d3e 0505 a9be 1fd0 8fbe
000000e0: cad6 8ebe ffda 3fbe 3dfd 013e 38ae 623d
000000f0: 5161 f03d 8643 a43e 28e3 35bd f1c3 73bc
-0.2312442 -0.28677452 0.15433535 0.22494254 0.032923095 -0.101358406 -0.11868236 0.16061085
0.14356259 -0.07775087 -0.32960224 -0.0122657055 0.075303875 -0.34541732 -0.03616209 0.09927986
-0.0372752 -0.0048283357 -0.15185745 0.10951367 0.19721624 -0.2677883 0.013451169 0.1845428
-0.14190789 0.0838182 -0.09183474 0.19655629 -0.086832285 -0.040219683 -0.13138276 -0.13537635
0.19708441 -0.068370424 0.1167347 -0.25038552 -0.3417335 0.10673818 -0.15338686 -0.22397499
0.06996744 -0.15416445 0.21897346 -0.27186015 0.22649693 0.067620374 0.13870636 0.095348895
0.34029576 -0.341531 0.026319021 0.21988356 0.22137472 0.20062485 -0.33011642 -0.2808847
-0.27898246 -0.18735884 0.12694259 0.05534193 0.11737312 0.32082766 -0.044406086 -0.014878259

model_m.0.bias f4 [8]
00000000: 5fc1 9fbe fd4e 523e ec87 933e 8582 d4bd
00000010: 69cd cb3b d466 5fbb 1008 2dbe 080c 7fbd
-0.31202218 0.20537944 0.28814638 -0.10376457 0.006219555 -0.003408839 -0.16897607 -0.062267333

model_m.3.weight f4 [16, 8, 8]
00000000: 70c6 213d c200 86bd bc10 9ebd a096 c1bd
00000010: d8cb d6bc b827 b43d d823 4b3d 4879 bcbd
00000020: 5f34 d93c 19e4 2e3d 2b5d d239 0353 63bd
00000030: 379a b3bd 023e d43c ba0d aebd 4f42 533c
00000040: e0b2 cf3c a363 dbbd 81e7 d13c cf49 a13d
00000050: 9015 febd 32d3 60bd 0698 8bbd 9360 7f3c
00000060: 3017 ebbd a069 05bd 6c81 8abd 8ab7 abbd
00000070: baec 9dbd b826 6dbd 6cde 093d 4405 133d
00000080: dbb9 a3bc 0186 cabd 153e d3bd 6b63 a1bd
00000090: 72f2 7d3d a6f1 f23d 557f ee39 bd82 bfbc
000000a0: 6260 803d ac31 d63c e59c 21bc aeb4 403d
000000b0: 5f00 17bd b12c 43ba 8a71 c83d 46ca 263d
000000c0: 5850 edbd a88e 7dbd 081c a7bc 1afc a73d
000000d0: 6c7f 45bd 38f7 503d 567f 883d b02a 5a3d
000000e0: c0aa 3b3d 40fd 49bc 847d d93d 1080 e33c
000000f0: 00c7 b3bb 1c2d 683d 7448 84bd a03a 913d
00000100: 48e9 cabd 208e 0d3d 8a02 de3d 003e 7eba
00000110: 2470 4b3d 400c 2c3c 6296 d4bd 204e b23c
00000120: 1e19 8c3d aa7e f6bd f835 bbbc b6c8 b93d
00000130: ac4c c0bd 1433 dc3d eac2 92bd a0e2 eabc
00000140: 106e 2dbd 142c f83d 6649 91bd a683 a3bd
00000150: e449 15bd a8e2 a4bd a82e f0bc 80f3 61bc
00000160: c066 3a3d 2c6e a93d 0ce6 53bd d812 c9bc
00000170: 5c88 e1bd 44fd 5d3d 56af a13d f43b 7fbd
00000180: cc63 28bd 3092 183d b06d a9bd b06a 1a3d
00000190: 6ee5 f83d c0e2 313b ace4 733d 129f c0bd
000001a0: 28da 67bd a00b 21bc 02d9 d3bd 4aa6 9d3d
000001b0: b839 893d d6aa c83d dc58 6fbd 8888 b03c
000001c0: 1c11 7b3d 9025 423c e850 0d3d 0440 b7bd
000001d0: f066 fdbc fc31 843d 10d6 b5bd e4af 35bd
000001e0: c250 d83d 48f3 8fbc 005c 323b 3011 113c
000001f0: b21f d13d 7ec7 8a3d 367f d83d d81b 803c
00000200: 809d e9bd 30e3 ac3c 02dd b03d 9055 b0bd
00000210: dc61 48bd f063 e53c ccd2 42bd 64a5 64bd
00000220: a0ec 923d 1c04 aabd 40dc cabc e802 47bd
00000230: 683b 463d f023 953c 204e 15bc 00d9 1f3d
00000240: 505f 74bd c497 7bbd 4003 593b 78cd c5bc
00000250: 48de bbbc 64b9 9dbd 7811 f03d 0493 7fbd
00000260: d2b4 a83d 9679 e8bd cc2a babd 92a4 9dbd
00000270: 3cba c5bd f080 78bc 0e76 dc3d b845 ecbd
00000280: 0c8e 44bd 56bf 87bd a0e3 95bd 420f d63d
00000290: 705b c83c 4e81 c73d 40d7 8ebd 6ea0 a3bd
000002a0: b451 3d3d 6247 a63d 9072 08bd a018 adbb
000002b0: c0f7 bebc a631 be3d 08c2 99bc c494 fe3d
000002c0: 6007 b43d c0a2 a4bb 581e c13c 7897 51bd
000002d0: f2b8 af3d a477 6a3d 58a3 7ebd 7a01 dcbd
000002e0: 54d4 ea3d 986d 973c cc95 d43d f6f8 813d
000002f0: 2cc4 263d fc37 593d 0cac 193d 00a2 adb9
00000300: 6819 e13d 88b8 e63d 7027 64bc aaa4 813d
00000310: 8492 07bd b0db 35bd d0b1 e53d cc91 04bd
00000320: 628d b73d f6af 563d 58f7 9a3b 649f 6b3d
00000330: 2689 5bbd 7eef 463d a5db a63d a34c dbbd
00000340: f9fb 75bd 8fc5 f13d cce7 a93c 5a03 713d
00000350: 1afc d03d 9d0a cebd 0b89 0b3c 0e07 a2bd
00000360: 30ab 0f3c 9849 10bd c0f9 b13d 6073 b9bb
00000370: 8060 fdbb cc74 973d 86d3 993d f01e d53d
00000380: 678f a73d 33bc d13d 5730 bb3c 1dc3 6cbd
00000390: 6812 f43d f6fe febd 1d1f cc3d 652c 51bd
000003a0: eb72 8b3d 2eb8 ee3b cb65 723b fbba cbbb
000003b0: bf3a da3d a0a2 36bd ec21 cabd 2df3 fabb
000003c0: 00f4 043b c808 743d fcbb 0ebd cc57 92bd
000003d0: 360a 943d fed0 f43d 9238 c3bd a898 ce3d
000003e0: 1825 2a3d 6235 bf3d b873 ffbc c600 94bd
000003f0: 00f7 67bd f08c c13c 3664 ba3d d021 023d
0.039495885 -0.06543113 -0.077180356 -0.094525576 -0.026220247 0.08796638 0.04959473 -0.0920282
0.02651423 0.042698 0.00040123737 -0.055499088 -0.087696485 0.025908474 -0.08498712 0.012894227
0.025353849 -0.107123636 0.025623085 0.07875406 -0.124064565 -0.05488891 -0.068161055 0.01558699
-0.11479032 -0.032571435 -0.067629665 -0.08384617 -0.07711168 -0.057898253 0.033659384 0.035893694
-0.019986084 -0.098888405 -0.103145756 -0.078802906 0.061998792 0.11862497 0.00045489767 -0.02337777
0.062683836 0.026146732 -0.009864067 0.04704731 -0.03686559 -0.0007445319 0.09787281 0.040720247
-0.1158759 -0.061903626 -0.020399109 0.082023814 -0.048217222 0.051017016 0.066649124 0.053263366
0.045817137 -0.012328446 0.10619643 0.027771026 -0.005486369 0.056683645 -0.06459132 0.0709126
-0.09907776 0.03455937 0.10840328 -0.000969857 0.049667493 0.0105009675 -0.10380246 0.021765769
0.06840728 -0.12035878 -0.022852883 0.09071486 -0.09389624 0.1075193 -0.07166083 -0.028672516
-0.042341292 0.12117782 -0.07094078 -0.07984094 -0.03644742 -0.08051044 -0.029319122 -0.013790965
0.045508146 0.08272967 -0.05173306 -0.024545118 -0.110123366 0.05419661 0.07894771 -0.062313035
-0.0411108 0.03724879 -0.08272874 0.0376994 0.12153135 0.002714321 0.05954425 -0.0940534
-0.056604534 -0.009829432 -0.10344125 0.07697733 0.06700462 0.09798209 -0.058434352 0.021549478
0.061295614 0.011849776 0.034500986 -0.08947757 -0.030932873 0.06454846 -0.0887872 -0.044357195
0.10562278 -0.01757206 0.002721548 0.0088541955 0.102111235 0.06776331 0.105711386 0.015638277
-0.11406994 0.021104425 0.08635904 -0.0861007 -0.04892145 0.028001755 -0.047564313 -0.05582179
0.07174039 -0.08301565 -0.024763227 -0.048586756 0.048396498 0.018205613 -0.009112865 0.039025307
-0.05966121 -0.06142403 0.003311351 -0.024145827 -0.02293314 -0.07701376 0.11722082 -0.062396064
0.08237614 -0.11351316 -0.09090194 -0.07697405 -0.09654662 -0.01516746 0.10764705 -0.11536735
-0.04798703 -0.06628291 -0.07318807 0.10452129 0.024457663 0.0974146 -0.069746494 -0.07989584
0.046220496 0.08119084 -0.03331238 -0.0052824765 -0.023311496 0.092868134 -0.01876928 0.124307185
0.08790469 -0.005024284 0.02357404 -0.051169842 0.085801974 0.057243004 -0.062167495 -0.10742469
0.114662796 0.018484876 0.10380134 0.06346314 0.040714428 0.053031906 0.037517592 -0.0003311783
0.10991174 0.11265665 -0.013925418 0.06330235 -0.033098713 -0.044398963 0.11215556 -0.032365605
0.089625135 0.052413903 0.0047291927 0.057525054 -0.05359759 0.04856824 0.081473626 -0.10707977
-0.060054753 0.118052594 0.020740412 0.058841087 0.102043346 -0.10060618 0.00851656 -0.07911502
0.008768842 -0.035226434 0.08690214 -0.0056595057 -0.007732451 0.07395324 0.07511048 0.104062915
0.08181649 0.10240974 0.022850199 -0.057803262 0.11917573 -0.12450974 0.09966872 -0.05106773
0.06809028 0.0072851395 0.0036986943 -0.006217358 0.10655736 -0.044588685 -0.09869751 -0.0076583833
0.0020287037 0.059578687 -0.034847245 -0.07145652 0.0722851 0.119539246 -0.09532274 0.100877106
0.04153928 0.09336354 -0.031183109 -0.0722671 -0.056632042 0.023626775 0.09101145 0.031770527

model_m.3.bias f4 [16]
00000000: 85b7 c43d 0850 97bd 64e7 00bd 247b b739
00000010: e003 c0bc 0966 803d 3d8f 51bd a852 d3bc
00000020: 1b73 833d 685b 94bc 80ae f03d df21 5d3b
00000030: 41ae 64bc f294 dabd 9c5a c3bd ef21 b33d
0.09605316 -0.073883116 -0.03147067 0.00034996227 -0.023439348 0.06269462 -0.051161993 -0.02579625
0.06418439 -0.018109992 0.11752033 0.0033742113 -0.013957561 -0.1067294 -0.09538767 0.08746707

model_m.6.weight f4 [32, 16, 8]
00000000: 14d7 753c ec6b 3cbd 9cc0 92bd 4801 1dbd
00000010: 84a5 9e3c 9bf0 a8bd a41a 87bc acc5 88bc
00000020: 06a2 68bd df6a 55bc d07f 80bd 0c91 43bd
00000030: 0214 113d 0b70 b13d c1b0 a43d d9d4 a93d
00000040: 6c63 843d 92bf 8cbd 8967 4c3c 9b72 9f3d
00000050: 3db8 543b 1a3a 2f3c 2ae6 a6bd 552d 37bd
00000060: 6910 57bd d998 bc3b a442 46bd fea9 88bd
00000070: 2fc8 89bd 6849 adba 1dd8 733c 726e 92bd
00000080: 983a 85bd 7ea2 933d 1db8 b4bd 4427 263d
00000090: cd30 f6bc edf5 853c 8b76 94bd 0783 953d
000000a0: 4467 3ebd 12df 2a3d 333b cd3c c8f6 a0bd
000000b0: 732e a93d fc7d d33b 304c 6fbd eb59 b33d
000000c0: 05c8 ab3d 426e 8f3d 50c2 9fbd f8a9 023d
000000d0: df2a 373c 8ca5 b0bd 2461 21bd 8df7 173d
000000e0: 4050 0ebd b874 953d e983 a83d b458 d13c
000000f0: f52f debc e771 7a3b 4b6a b3bd 6f2d 923d
00000100: 670e 21bc c26f 5b3c fe3f 793d de73 023c
00000110: 71b5 023d 5a66 03bd 6704 cdbb b05a 733b
00000120: 0d10 163b 0ffc be3c 59e2 a23d 4a4b 083d
00000130: fa10 a73d 369c a33d 6bdb ae3c 76cc 4f3d
00000140: 8237 1ebd 2550 a93d 93ce 2e3d e697 a4bd
00000150: 227c 4f3d 51d8 873d 84ee 62bd 24e8 193d
00000160: 4699 8ebd 0396 3d3d f13c f6bc 4267 d83c
00000170: a4ed 7c3d 574e a53d 7262 c4bc 87f6 613d
00000180: 1eb5 1c3d a7b7 48bd ff71 efbc ce90 46bd
00000190: d307 87bd bee7 ddbb 090f b73b cb92 6abd
000001a0: de83 89bd aebf 68bd c3e5 87bd f8b0 e9bc
000001b0: a919 473d 5afe 99bb edf6 43bd 9188 953d
000001c0: 257a 8a3d dbec 57bd 9bb2 9d3c 681b 77bd
000001d0: 4b30 f23c b968 85bd 4cc1 6dbd e869 dc3c
000001e0: 9d42 463d 3a39 423c 8d4e 48bd f408 0ebd
000001f0: 2816 893c 92f9 ebbc 27ab 6e3d 533b 7bbd
00000200: 50e4 cc3c e912 053d b4ef 453d c6c0 12bd
00000210: 2f9b 5fbd e1a3 843d 4da0 89bd 3302 22bc
00000220: 656e e4bc b0de 08bc 55d9 abbc fc01 5ebd
00000230: b1d7 973b 958d 1fbd 20a5 38bd 8626 643d
00000240: 097b 57bc 9eba 81bc 4a73 1a3c 81d2 953d
00000250: 71b4 d7ba c31d dbbc 3031 353d 057b eb3c
00000260: 0abe 883d 74ef 30bc 0b52 633c a78d a43a
00000270: 514d 0b3d c601 87bd 4cfc b53c 8288 8bbd
00000280: 4cff 7bbb 2f03 99bd 028f f9bc ced1 213c
00000290: 1fd4 76bc 17f4 8ebd 1c50 92bc b697 95bc
000002a0: 65a1 4f3d e31a fc3c 1c4b 80bd 691e 473d
000002b0: e98f 40bd c472 be3c 006c 963d 42b2 a9bd
000002c0: 5b4f 3dbd 7058 8fbd 33e9 893d fee7 9dbd
000002d0: 8eee 91bd 95c6 a23d 7f11 b3bd a1da 01bd
000002e0: b8a8 96bd 67d9 15bd dc26 7a3c 7041 853d
000002f0: 30b4 993d 92ca 95bd 60fe 1b3d ff5e cebc
00000300: dcee a3bc 737c e6bc c2e0 b23d ca87 6c3d
00000310: 3f23 acbd 2908 9d3d c6e2 7ebd 441b c0bc
00000320: 9603 9f3d 557b 963c 1e90 5f3c e037 a8bd
00000330: 47c6 46bd c7c5 d93c 26e9 283d 338d 42bd
00000340: fea2 29bd 82a1 ab3d 43c2 b63c a9a3 b9bc
00000350: a5ab edba d415 3fbd 3372 afbd 62f7 68bd
00000360: 4e07 873d 0bf7 aabd 7780 b0bd 0c48 38bd
00000370: 1ec6 123d b9c9 e23c fb2b 8d3d 51b9 40bd
00000380: 5c1f f63c aa1d 703c 75b9 0cbd 06ae 41bd
00000390: 01c6 d4bc dd9a 873d 9474 80bc 1216 0cbd
000003a0: a060 bebc 59a2 df3c d7bd c5bc 7631 863d
000003b0: a42b 4cbd 0fd9 b2bd 7ed9 d03b b923 9fbd
000003c0: bc34 3b3c f6ac 813c 435b a5bd 55e1 92bc
000003d0: 7048 86bb 2e67 9d3d 0e1a 84bd 679b 21bc
000003e0: d7e0 82bd 029e 003d d6b2 543d cc0e a4bd
000003f0: 26c2 a13d 37f7 2c3d 546a a3bd 8a15 aebd
0.015004892 -0.04600136 -0.071656436 -0.0383313 0.019366033 -0.08249017 -0.016492195 -0.01669582
-0.056795143 -0.013025968 -0.06274378 -0.04774575 0.03541947 0.086639486 0.08041526 0.082925506
0.06464276 -0.06872477 0.012475857 0.07785531 0.0032458447 0.010695005 -0.08149369 -0.044720966
-0.052505884 0.0057555255 -0.048403397 -0.066730484 -0.06727635 -0.0013220729 0.014883068 -0.07149972
-0.065053165 0.07208727 -0.08824179 0.04056479 -0.030052567 0.016352618 -0.07249173 0.07300382
-0.0464852 0.041716643 0.025052642 -0.0785957 0.082608126 0.0064542275 -0.058422267 0.08757385
0.0838776 0.07003452 -0.07800734 0.031900376 0.011179655 -0.086253256 -0.03939928 0.037101317
-0.0347445 0.07297653 0.08228285 0.025554992 -0.027122477 0.0038214864 -0.08760508 0.07137572
-0.009830094 0.013393344 0.060852043 0.007962195 0.031911317 -0.032080032 -0.0062566283 0.0037132911
0.002289775 0.02331355 0.07953329 0.033274926 0.08157535 0.07988779 0.021344861 0.0507321
-0.038627155 0.082672395 0.042677473 -0.08036785 0.05065549 0.06633056 -0.055403247 0.037574902
-0.06962828 0.04628564 -0.030058356 0.026416425 0.06175007 0.08071583 -0.023972724 0.055166747
0.038258664 -0.04900327 -0.029229162 -0.04847794 -0.06593289 -0.0067720106 0.005586509 -0.0572689
-0.06714605 -0.056823425 -0.066356204 -0.028526768 0.048608456 -0.0046995105 -0.04784291 0.073014386
0.067615785 -0.052716117 0.019250205 -0.06032887 0.029564044 -0.06514115 -0.05804567 0.026905969
0.04840337 0.011854464 -0.048903037 -0.034676507 0.016734198 -0.028805528 0.058268692 -0.061335873
0.025011212 0.032488737 0.0483243 -0.035828374 -0.054591354 0.0647657 -0.06720028 -0.00988822
-0.027884671 -0.008353874 -0.020977655 -0.05420111 0.0046338667 -0.038953383 -0.04507935 0.0557008
-0.013151892 -0.015836056 0.009426901 0.07315541 -0.0016456974 -0.02674759 0.044236362 0.028745184
0.06676872 -0.010799278 0.013874541 0.0012554423 0.03400928 -0.06592135 0.022215031 -0.06813146
-0.003845173 -0.0747131 -0.0304637 0.0098766815 -0.015065222 -0.0698015 -0.017860465 -0.018260818
0.050691027 0.03077454 -0.06264326 0.048612986 -0.047012243 0.023248084 0.07344818 -0.08285953
-0.046218257 -0.0699929 0.06733932 -0.077102646 -0.07125579 0.07948033 -0.087435715 -0.03170264
-0.07356399 -0.036584284 0.015268054 0.06506622 0.07505071 -0.07314028 0.038084388 -0.025191782
-0.020011358 -0.028135514 0.087342754 0.057746686 -0.0840516 0.07667572 -0.062227987 -0.023450501
0.07764356 0.018369356 0.0136452 -0.08213782 -0.048528936 0.026583565 0.041237973 -0.04749794
-0.041415207 0.083804145 0.022309428 -0.022661047 -0.0018132819 -0.046651676 -0.08566704 -0.056876548
0.0659319 -0.08347901 -0.08618253 -0.044990584 0.03583347 0.02768408 0.06893154 -0.04705173
0.03004425 0.01465551 -0.034356553 -0.047285102 -0.025973322 0.06621335 -0.015680589 -0.034200735
-0.023239434 0.027299093 -0.024138374 0.06552403 -0.049846306 -0.08732807 0.0063735833 -0.077704854
0.011426147 0.015829545 -0.080740474 -0.017929712 -0.0040979907 0.076856956 -0.06450282 -0.009863711
-0.06390541 0.031400688 0.051928364 -0.08010635 0.07898359 0.04222795 -0.07979265 -0.08500202

model_m.6.bias f4 [32]
00000000: 8b28 9d3d 4749 9a3d 59f4 cb3c 2799 70bd
00000010: b850 adbc 9040 3abd db35 6b3c 6bf3 2d3d
00000020: 2280 9dbd fd4c 26bd 70be b4bd 00f9 473c
00000030: 3b75 0b3d 1a43 b0bd 1d2b 543d 5df7 ddbb
00000040: a3e3 81bd 5daf 743c c486 16bd 2ca0 883d
00000050: 64c5 933d 5ced c83c 75bf 76bc b002 623d
00000060: f616 c33c 1dea b83c aff9 793d 7ce5 3c3c
00000070: 0f24 7d3d 3e25 ef3c c45e 45bd daec 6f3c
0.076737486 0.07533508 0.024896787 -0.058739807 -0.021156654 -0.045471728 0.014356102 0.04246847
-0.07690455 -0.040600765 -0.088253856 0.012205362 0.034047347 -0.086065486 0.05179893 -0.0067738728
-0.063422464 0.014934388 -0.036749616 0.06671175 0.07215384 0.024527244 -0.015060295 0.055178344
0.02381466 0.022572571 0.061029132 0.011529323 0.061801966 0.029192563 -0.04818608 0.014643872

fc.weight f4 [1, 6976]
00000000: b0a3 fd3b aecb 873b b11f 95ba 5899 15bc
00000010: f90e d2bb e411 07bb bb77 ef3b 8c39 3fbc
00000020: fecf 69b9 239a 91bb 885d 47bc 0c01 2abb
00000030: 2059 7e3b 1c27 97bb bcfa 1dbc f293 d93b
00000040: 96ae 333c 18dc 343c 7962 423b 909d 17bb
00000050: bdbe acbb 088d a0bb 4604 2d3c af57 3e3c
00000060: b58b 213b 4c4b 2ebc 8204 993b 7790 acb9
00000070: 0126 083c 0082 c33b eb33 073b f212 3bbc
00000080: 8882 d43a 1ea3 623b 2d3a 5f3a cdcf 46bc
00000090: c278 67bb 5ccb 303c eddb 1b3c cb05 12bc
000000a0: fcd7 eebb 3263 8abb 3c15 243b 054a 013b
000000b0: 1306 3a3c 964e 34bc 5cae 843b d653 c33b
000000c0: 3657 a93b dea8 353c 7def 1b3b 21bf 31ba
000000d0: 2169 2e3b 74c6 0a3c fce1 0a3c f341 193c
000000e0: cd95 a63b 3358 8ebb 810e 9cbb c624 543b
000000f0: c7d1 d03b d38d 43bc 24c4 44bb 01ae 93bb
00000100: fdbc 99bb d238 04bc f360 da3b 6324 3f3c
00000110: b1ca d5bb e3d9 713b 116d cf3b 6427 053c
00000120: 4cc3 d3bb 1b3a 43bc 850f eebb d9a7 1cbc
00000130: 11cf 9c39 9678 b739 dc92 3d3c 9d93 23bc
00000140: 2780 243c 2747 2ebb 0884 66bb 2e27 913b
00000150: 8558 203c 0b62 bf3a 826b 503b b273 243c
00000160: df70 773b 9621 323c 2c94 09bc 7e5b ee3b
00000170: b537 b73a a6a7 98bb 63e7 3ebc 17a4 373c
00000180: 7926 0bbc 4a2b efba 6471 bd3b 255b 803b
00000190: a0d8 ebba fa96 513a e806 2cbc 33b9 023c
000001a0: 3460 82bb 83fc 2d3c 3c98 f0bb a89b f3bb
000001b0: 801c 0a3c 2dfc 0f39 da75 d9bb cdef 3d3c
000001c0: f0ad bd3b b8ed 64ba 72a4 c43b cf03 cfbb
000001d0: f4ff 90bb 4999 08bb 2ef9 a5bb 50e0 26bc
000001e0: db32 b3bb cee1 cfbb 227a 2f3c 3984 2cbc
000001f0: 3074 a13b d767 703a afb4 9c3b ec5a 0ebc
00000200: 50c5 583a 2714 f4bb 5d51 e1ba cd6a c3bb
00000210: 1976 f1bb 36dd d43b c944 fe3b 55bc 03ba
00000220: ec5c 2abc 09a5 c239 bbd0 5fbb 0fa9 a43b
00000230: 6d37 083b 3c29 dfbb 3abd 243c 7fcb 2cb8
00000240: eb8a 8c3a 84b8 f3bb c8c2 9a3b 8ac8 2a3c
00000250: 5a88 20bc de35 5cbb 1b00 c3bb fc94 edbb
00000260: b6a3 773b e0eb a73b 5c79 353c 2238 083c
00000270: 3bd0 17bc dfbb 3a3c 129c f6b9 5c1f 0d3c
00000280: 9872 8b38 27f5 02bb dc98 11bc 3485 2abc
00000290: 4714 2b3c f946 d4bb 7c9c 08bb 861f 3fbc
000002a0: 0b4b b7ba 7614 c73b a7ed 3abc 25c5 fcba
000002b0: ae9a 41bc a8e8 273c 6fe5 55ba fa8b a53b
000002c0: 6848 3eba abdb 8fba a891 c83a 4059 063c
000002d0: fc40 2f3c f2db eabb 09f1 3e3c e422 823b
000002e0: 1eee 77bb a19a 3c3b 1a13 243c 3abd 02bc
000002f0: 5ffe 123b d664 a73a 5668 bbbb 0d94 24bc
00000300: 231b a7b9 66ea fabb 1a0c 33bc 873e 5fbb
00000310: ed3d 103c 538b ce3b 3f0a efbb 50ab 8b3a
00000320: c2ac 5dbb c5a4 1f3c 2adc 27bc e33f c2bb
00000330: a9a9 0a3c de05 333c 8ee5 273b 77ac 91bb
00000340: 853f d43b b140 463b 699c 1bbc 2d4e a03b
00000350: d22b 2f3b d7be fdbb 235a c6bb c5f6 2e3c
00000360: 49a5 913b f8d4 eaba e3cf 163c bde1 9b3b
00000370: 0adf 27bc 4684 9438 0b8e b03a 86f3 8bbb
00000380: e384 06bc bcce a4ba a426 89bb 1d10 3c3a
00000390: 39f1 543b 00e9 b0bb b713 fb3a 48bc 6e3b
000003a0: 372f 253b 266c 933b e286 e13b b723 273c
000003b0: 4ab1 813b 4611 ebbb 4c0f 383c 8f07 3f3c
000003c0: 69bb 1e3c 10cd 2dbc 91b8 eabb b791 f4ba
000003d0: ac83 18bb 76f4 4a3b fd27 753b 489b 023a
000003e0: e516 ef3b 1ae0 edbb 535c 93bb 24de f2ba
000003f0: 9f82 223c 01f3 fdbb a091 f03b 94f7 3b3c
0.0077404603 0.0041441536 -0.0011377243 -0.009130798 -0.0064104763 -0.002061003 0.007307974 -0.011671435
-0.00022298095 -0.0044434234 -0.012168296 -0.0025940565 0.0038810447 -0.0046128165 -0.009642299 0.006639951
0.0109669175 0.011038803 0.0029660745 -0.0023134686 -0.005271761 -0.0048996247 0.010560101 0.011617585
0.0024649922 -0.010638069 0.004669727 -0.0003291403 0.008309842 0.005966425 0.002063031 -0.011418091
0.0016213218 0.0034582089 0.0008515444 -0.0121345045 -0.003531978 0.010790672 0.009512884 -0.008912514
-0.007288931 -0.004223251 0.002503707 0.0019727957 0.011353987 -0.0110050645 0.0040491056 0.0059609218
0.005167867 0.011087624 0.002379387 -0.00067804946 0.0026612955 0.0084701665 0.00847673 0.009354102
0.0050837756 -0.0043440103 -0.004762471 0.0032370551 0.0063726637 -0.011935669 -0.0030024135 -0.004506827
-0.0046917186 -0.008070188 0.0066643893 0.01166639 -0.006524407 0.0036903552 0.0063301404 0.008127067
-0.00646249 -0.011915709 -0.0072650337 -0.009561502 0.00029908915 0.00034994324 0.011570659 -0.009983924
0.0100403195 -0.0026592703 -0.0035173912 0.0044297194 0.00978673 0.0014601363 0.003180236 0.01003735
0.0037756485 0.010872265 -0.008397143 0.0072740903 0.0013978394 -0.004658657 -0.011651847 0.011208556
-0.008493059 -0.0018247154 0.0057813395 0.0039171153 -0.0017993636 0.00079952145 -0.010499693 0.007978725
-0.0039787535 0.0106192855 -0.0073423665 -0.007434327 0.0084296465 0.00013731486 -0.0066363635 0.0115928175
0.005788557 -0.00087329326 0.0060010487 -0.0063175927 -0.0044250432 -0.0020843318 -0.005065105 -0.010185316
-0.005468709 -0.0063440567 0.010710271 -0.010529571 0.0049271807 0.0009170747 0.0047822814 -0.00868867
0.0008269148 -0.0074486914 -0.0017190386 -0.0059636594 -0.0073688147 0.006496097 0.0077596647 -0.0005025317
-0.010398131 0.00037125524 -0.0034151513 0.005025036 0.002078499 -0.0068103354 0.010054881 -4.1197516e-05
0.0010722553 -0.0074377675 0.0047229268 0.010423789 -0.009798134 -0.0033601443 -0.0059509403 -0.0072504263
0.0037786788 0.005124554 0.011076298 0.008314164 -0.009265955 0.011397331 -0.00047037058 0.008613434
6.649381e-05 -0.0019982548 -0.008886542 -0.010407735 0.010441846 -0.006478187 -0.0020845225 -0.011665231
-0.0013984157 0.006075437 -0.0114092 -0.0019284828 -0.011816664 0.010248341 -0.00081594934 0.005052087
-0.0007258714 -0.00109755 0.0015302198 0.00819999 0.010696646 -0.007167333 0.011654147 0.0039714444
-0.0037831138 0.002877869 0.01001432 -0.007979685 0.002242945 0.001277114 -0.005719225 -0.010045064
-0.0003187294 -0.007657337 -0.010928178 -0.0034064369 0.008803827 0.00630323 -0.0072949226 0.0010655914
-0.0033824896 0.009743874 -0.010245362 -0.005928026 0.008463302 0.010926692 0.0025619003 -0.0044456082
0.0064772987 0.0030250961 -0.00949774 0.004892132 0.0026729 -0.007743697 -0.0060532256 0.010678952
0.0044447524 -0.0017916253 0.0092048375 0.0047571347 -0.010246048 7.081828e-05 0.0013470066 -0.0042709736
-0.008210394 -0.0012573819 -0.0041855145 0.0007174032 0.0032492413 -0.0053988695 0.0019155656 0.0036428142
0.0025205144 0.0044989763 0.0068825344 0.010201386 0.003957902 -0.00717369 0.011234116 0.011659517
0.009688237 -0.010607973 -0.0071631153 -0.0018659149 -0.0023271842 0.0030968464 0.0037407868 0.0004982245
0.0072964304 -0.007259381 -0.00449709 -0.0018529338 0.009918838 -0.0077499156 0.0073415786 0.011472601
