checkpoints/run_6/1d_cnn_ckpt_5.pth (torch, 52296 bytes, 7 tensors)

model_m.0.weight f4 [8, 1, 8]
000000 d6 93 90 3e 7d d0 a8 be 79 e7 73 3d 8e 43 8d 3e
       0.2823779 -0.32971564 0.05954692 0.27590603
000010 29 9f a0 3e 6c 64 82 be ad 47 6d 3e 58 a7 17 be
       0.3137143 -0.2546724 0.23171873 -0.1480993
000020 ec 29 87 3e e8 3d 54 bc 4b 17 da 3d dc a0 b2 bd
       0.2639917 -0.012954213 0.10648974 -0.08722088
000030 6e 7b fd 3d 97 c1 87 be 73 73 47 3e b5 50 9e 3e
       0.12377058 -0.26514885 0.19477634 0.3092095
000040 b4 4d c5 3d 94 55 b0 3e 26 35 74 be 6c 9f 72 ba
       0.09633961 0.3444029 -0.238484 -0.0009255323
000050 57 b7 8f be 49 21 67 be f7 4e 3f 3d 6d bf 3b 3e
       -0.28069565 -0.22571291 0.046706166 0.18334742
000060 12 c3 9f 3e 15 05 00 3e 20 4e 33 be cb 2e c3 3d
       0.31203514 0.12501939 -0.17510271 0.095304094
000070 a5 f5 96 3e 8d cc ad 3d 71 5f ad be a3 84 e1 3d
       0.29484287 0.084862806 -0.3386188 0.110116266
000080 74 fe 8e 3d 2e 14 6d be cb 5b 93 bb 31 3e 9e 3e
       0.06982127 -0.23152229 -0.0044970266 0.30906823
000090 a5 dd b3 3c 32 5d 8d 3c f0 66 96 bc 61 b5 ef bc
       0.021956274 0.017256353 -0.018359631 -0.029261293
0000a0 33 5a 6f be 63 f5 51 3e 45 51 15 3d b0 3c 37 bd
       -0.23374252 0.20503764 0.036454458 -0.04473561
0000b0 f7 12 a6 3e 1b 21 a1 be 76 06 e2 bd af 45 ae bc
       0.32436344 -0.3147057 -0.110363886 -0.021273462
0000c0 3b 4f df 3d ec 4e a3 be b0 be 37 3e 13 2c 66 3e
       0.10903784 -0.3189615 0.17943835 0.2247775
0000d0 c8 c9 8d 3e aa d5 26 3e 16 fb aa be 18 29 8b 3e
       0.2769301 0.16292444 -0.33394688 0.2717979
0000e0 89 39 64 bd 89 08 1d 3e a6 b2 99 3e 9c dd 98 be
       -0.055718932 0.15335287 0.3001911 -0.29856575
0000f0 75 9b 9e 3e b7 51 e3 bd 41 f8 34 3e 5c f7 62 bd
       0.3097798 -0.1109957 0.17672826 -0.05541168

model_m.0.bias f4 [8]
000000 09 6d c4 bd b7 1f 0a bd a6 0e 56 3e 2c 1e af be
       -0.09591109 -0.033721652 0.20904025 -0.34202707
000010 b8 c0 8f be 81 f6 83 3e e4 91 ae 3e 15 b2 63 bd
       -0.2807672 0.25774005 0.3409568 -0.055589754

model_m.3.weight f4 [16, 8, 8]
000000 0c 60 e5 3d 5c 16 5f bd 00 36 92 3a 2c 6b 1f 3d
       0.1119996 -0.054464683 0.0011155009 0.038920566
000010 22 62 c1 bd c8 c0 7f bd 3c 38 02 bd 00 bc ed 3b
       -0.094425455 -0.06243971 -0.03179191 0.0072550774
000020 80 31 bc bb 2c ef 9c 3d 00 ed 20 ba 80 c8 73 bb
       -0.0057432055 0.07662806 -0.00061388314 -0.0037198365
000030 00 55 7c 3d ac 1f 11 3d d8 d6 02 3d 58 b9 54 bd
       0.0616045 0.035430595 0.031943172 -0.05193457
000040 e4 90 c2 3c f2 6f 8d 3d f0 eb 8e bd bb ce 4f 3d
       0.02375073 0.069061175 -0.06978595 0.050734263
000050 3b 0d a5 bd e2 5a 79 3d 81 4b 99 bd 46 fe cc 3b
       -0.08059164 0.06087769 -0.07485104 0.0062558977
000060 a8 5f 87 bc 6a 3c 88 3d 24 34 55 3d bc 32 2b bd
       -0.016525105 0.06652148 0.05205168 -0.04179643
000070 a0 fb 95 3b 2e ae f9 3d a0 51 46 3d 50 9e 39 3d
       0.004577115 0.12191425 0.048417687 0.045316994
000080 7e 58 fc bd ee b6 8b 3d a0 0b 4d bd 7a ae 80 3d
       -0.12321566 0.068220004 -0.050059915 0.06283279
000090 00 4a d0 bc 48 de 01 3d 50 64 b2 bd 90 eb a2 3c
       -0.025425911 0.031706125 -0.08710539 0.019887716
0000a0 d3 a8 ed bd 7f 74 be 3c 4a 10 ca bd de b7 a7 bd
       -0.11604466 0.023248909 -0.09866388 -0.08189367
0000b0 3a 05 fc 3d ba e8 8f bc 70 15 b1 3c 9c c9 fa 3d
       0.123056844 -0.017567027 0.021616668 0.12245485
0000c0 7d c0 9f 3d d8 f6 61 3d d3 9f e3 3d fc b0 1a bd
       0.07800386 0.05516705 0.111144684 -0.03776644
0000d0 ac de ae bd 6e 5f ab bc 0f 29 aa bd 06 b5 e9 3d
       -0.08538565 -0.020919528 -0.083086126 0.114114806
0000e0 a2 9b ed 3d 40 99 0a bd 00 a2 c1 39 60 76 8a 3b
       0.1160195 -0.033837557 0.00036932528 0.004225537
0000f0 2a fd ee 3d 20 bb 8e 3d f4 ef 87 bd ee 04 d6 3d
       0.11669381 0.06969285 -0.06637564 0.10450159
000100 d4 a6 09 3d 8e 6b a6 bd 50 23 8c 3d 7c e8 7a 3d
       0.033606365 -0.08125983 0.06842673 0.06125687
000110 b6 fc 83 3d 8c 2e e3 3d 88 e3 f1 3d 44 ef 44 3d
       0.06444685 0.110928625 0.11810976 0.048079744
000120 d6 f5 ce bd 04 2e aa bd 4c e9 9c 3d f0 8b 69 bd
       -0.10105483 -0.08309558 0.07661685 -0.05701822
000130 1c ad 26 bd 50 df b4 bc 6e be dc bd 74 1b 63 3d
       -0.040692434 -0.02207914 -0.10778509 0.055446103
000140 c6 b9 fe 3d 80 99 aa 3c 58 1d d0 3c 00 a8 87 38
       0.12437777 0.020825148 0.025404617 6.468594e-05
000150 5e 5e b9 bd 96 b1 c8 bd bc fd ad bd a4 82 ed bd
       -0.09051202 -0.09799497 -0.084956616 -0.11597183
000160 a0 1f 72 bc fa 43 de bd 6c d1 d5 3d 72 30 de 3d
       -0.014778048 -0.10852809 0.10440335 0.10849084
000170 78 66 4a bd 50 26 37 bc f8 04 fc bd aa de 93 bd
       -0.049414128 -0.011178568 -0.12305635 -0.07220204
000180 a8 7b 97 3d 80 ec de ba 30 96 e7 bc 40 5b 2d 3b
       0.073966324 -0.0017007738 -0.028269857 0.0026452094
000190 2c 38 23 3d 84 cd 15 bd 60 ed 07 3c 5a 56 e0 bd
       0.03984849 -0.036572948 0.008296341 -0.1095397
0001a0 e0 1f 85 3d fc 97 32 bd 1c 03 7e 3d 1e 9e b6 bd
       0.0650022 -0.043601975 0.062014684 -0.08916877
0001b0 8a 6b ab bd 10 c5 f8 bc 30 61 cc 3d 5c 9e 38 3d
       -0.08370121 -0.030367404 0.099794745 0.0450729
0001c0 16 b5 b1 bd 7c 94 06 bd 8e 65 92 3d 82 89 a2 bd
       -0.086771175 -0.03285645 0.07148276 -0.07936384
0001d0 f0 c3 e1 3d 9c 12 b0 bd 94 8d 40 3d cc 27 35 3d
       0.110237 -0.085972995 0.04701002 0.044227406
0001e0 9e f7 8e 3d 82 37 ac 3d 72 8a cb bd b0 d8 38 bd
       0.06980823 0.08409025 -0.09938516 -0.045128524
0001f0 cc a2 6c bd 2c 6d 39 bd 08 e0 fa bd 00 3b cb 3c
       -0.057772443 -0.04527013 -0.12249762 0.024808407
000200 3a 36 e7 bd f6 2c d2 3d 34 bb b9 bd 0c 72 f2 3d
       -0.1128964 0.10262482 -0.09068909 0.11838159
000210 0c 5b de 3d 00 3c 4e 3a 04 dc 16 bd 18 14 26 bd
       0.108572096 0.0007867217 -0.036830917 -0.040546507
000220 94 c7 68 bd 94 cf f8 bd 3a 5f f5 bd ce 6f 84 bd
       -0.056830958 -0.121489674 -0.11981054 -0.064666376
000230 98 54 88 3c 18 33 50 bd 4a 52 ac 3d 78 09 74 3d
       0.0166419 -0.050829977 0.08414133 0.059579343
000240 c6 ae f9 3d 77 2e ff bd 78 dd 48 39 9a 52 fa 3d
       0.121915385 -0.12460034 0.0001915599 0.12222786
000250 32 00 98 3d 98 19 ff 3d 82 13 c2 bd 19 64 b1 3d
       0.07421912 0.124560535 -0.09476377 0.0866167
000260 06 6d ef 3d c4 b1 e3 3d a0 3e bd 3b dc 84 01 bd
       0.116907164 0.111178905 0.0057752877 -0.031620845
000270 76 d4 e1 3d e8 93 9b bc 74 28 ba 3d 28 fc fa bc
       0.11026852 -0.018991426 0.09089747 -0.030637816
000280 a6 31 b5 3d d0 0c d2 3d 9e 41 b6 3d 56 01 e1 3d
       0.0884736 0.1025635 0.08899234 0.10986583
000290 e4 7d e7 3d 66 3a 9f bd 68 06 d4 3d 2c 10 e0 3d
       0.113033086 -0.077748105 0.103527844 0.109405845
0002a0 b8 7f b7 3d d5 93 58 bd 39 17 fb 3d 99 22 7c 3d
       0.08959907 -0.05287536 0.12260289 0.061556432
0002b0 b5 bd c1 3d 8e 4f d7 3c 03 5f 6b 3d f6 0b d3 bd
       0.09460012 0.026283052 0.057463657 -0.10305016
0002c0 63 15 76 3d 58 03 d3 3d 76 bf 3a 3d af 54 44 bd
       0.06007899 0.10303372 0.045592748 -0.047932323
0002d0 75 61 0b bd 8e d2 9a bd 37 a7 8a 3d 77 7c f7 bd
       -0.03402849 -0.07559691 0.06770175 -0.12084287
0002e0 30 b6 96 bc c2 7e be bd 58 e0 b4 bc 30 64 b8 bc
       -0.01839742 -0.09301521 -0.022079632 -0.02250871
0002f0 14 83 e1 bd 10 1d a8 3d 50 85 7a bd e0 aa 1f 3c
       -0.11011329 0.08208668 -0.061162293 0.00974533
000300 52 8c 9c bd 58 17 20 bd 38 3b d8 bc 1c d1 22 3d
       -0.076439515 -0.039084762 -0.026395425 0.039750203
000310 f0 56 c5 bc 0c 52 50 bd 24 4a 3b bd 40 71 ca 3b
       -0.024089307 -0.050859496 -0.045725003 0.0061780512
000320 8e b9 8f 3d 92 7f e7 3d 9e 36 8b bd 38 7a f9 3d
       0.070178136 0.11303629 -0.06797527 0.121815145
000330 3c 72 75 bd 00 72 8a 3c 80 05 0c bd b4 50 fc 3d
       -0.059923396 0.016900063 -0.034184933 0.123200804
000340 8a 0c b6 3d d0 47 b3 bd ed 4a d0 3d 73 44 cc 3c
       0.088891104 -0.087539315 0.10170541 0.024934983
000350 1c f1 34 bd 56 c1 80 3d 2f 09 ca 3d 7f 47 b0 bc
       -0.044175252 0.06286876 0.09865033 -0.021518467
000360 80 73 75 bc 34 23 97 bd 9a e9 ec 3d 10 06 af 3c
       -0.014981151 -0.07379761 0.115679935 0.021365196
000370 38 b0 c4 3d 4e bc d3 bd d4 fb 98 bd 24 f0 e9 3d
       0.096039236 -0.10338651 -0.074699074 0.11422756
000380 d8 7f c6 3d 2e a5 fb 3d 5c 92 a1 bd 90 20 84 3c
       0.09692353 0.12287365 -0.07889244 0.016128808
000390 f8 56 e0 bc fc 4a 9c bd 48 87 64 bd 80 1f f6 ba
       -0.02738522 -0.0763149 -0.055793077 -0.0018777698
0003a0 76 f0 c2 3c 2e 0d a0 3d 1b 87 c2 bc 48 ce 50 bd
       0.023796301 0.07815014 -0.023746064 -0.050977975
0003b0 79 2f f7 bc 66 0d bb 3c c5 16 ba 3d c2 e1 b0 3d
       -0.030174004 0.022833537 0.09086374 0.0863681
0003c0 6e 3b 72 3c c7 0b f0 bc 97 c7 93 bd 0b 1a 5d bd
       0.014784677 -0.02930249 -0.07215803 -0.053979915
0003d0 c2 b2 c1 3d 51 bc 65 3b 8b d6 8f 3d 6d ee 18 bc
       0.094579235 0.0035054872 0.07023343 -0.009334189
0003e0 70 23 ee bd c8 f4 3c bd 7e 95 88 3d e0 13 c0 3b
       -0.11627853 -0.04613188 0.06669138 0.0058617443
0003f0 a0 6b 0c 3d 12 ff d0 bd ca c4 86 3d 18 c3 a0 bd
       0.034282327 -0.10204901 0.06580503 -0.07849711

model_m.3.bias f4 [16]
000000 2a 25 c5 3d 38 ae 87 bd d7 4d a9 3d 72 4e 67 3d
       0.09626229 -0.066250265 0.082668 0.056471296
000010 c0 97 17 3d a0 94 e4 bc 8d c8 d9 3d 1e 62 9c bd
       0.037009954 -0.027902901 0.10633955 -0.07635902
000020 0e 15 90 3d 68 55 f7 3c 9a 27 30 bd d4 93 49 bd
       0.07035266 0.030192092 -0.043006517 -0.049213246
000030 00 d5 c5 3b f5 45 9b 3c 00 bc ad bb 09 7f 0a 3d
       0.0060373545 0.018954257 -0.0053019524 0.033812556

model_m.6.weight f4 [32, 16, 8]
000000 2f 06 91 bd 78 c5 b3 bd 3f 24 77 bd eb f6 b4 bc
       -0.070812576 -0.087778986 -0.0603373 -0.022090396
000010 36 fc a8 bd d4 ea 3d bd 8d 1e 3b 3c 74 87 83 3c
       -0.082512304 -0.046366528 0.011420858 0.0160558
000020 fb 10 24 bd a0 d2 a2 bd b6 4b 0c 3d fa 5d 7d 3c
       -0.040055256 -0.0795033 0.03425189 0.0154643
000030 1e 9d a1 3d 96 10 58 bd 13 a9 ab bc 24 68 ab bd
       0.07891296 -0.052750193 -0.020954644 -0.083694726
000040 a5 94 9e 3d 64 66 9a bd 60 62 86 3d 9b e5 53 3c
       0.077431954 -0.07539061 0.06561732 0.01293316
000050 40 3e da 3c d2 a4 01 3d 49 4b 9e bd 4a 24 d1 3c
       0.026641011 0.031651326 -0.07729203 0.02553
000060 5f 25 77 3d 1d 86 3a 3d b1 3e 8f 3d 5c 3c 4c 3b
       0.060338374 0.045538057 0.06994379 0.0031163907
000070 6f 20 01 bd bd 8e bb bc 8e 88 8e bd 67 da 49 bd
       -0.03152507 -0.022895211 -0.069596395 -0.04928055
000080 3c 0c 1d bc 20 0e b0 3c c9 40 9c bd 41 20 1d 3c
       -0.009585436 0.02149111 -0.07629544 0.009590209
000090 f1 fc 23 bd b8 9e 75 3d 80 c6 78 bc 7e 2b 9a 3d
       -0.040036146 0.05996582 -0.015184045 0.07527827
0000a0 e6 86 75 bd 3c af 86 3a 47 8f a2 3d 88 c2 0d bc
       -0.059943102 0.0010275613 0.07937484 -0.008652337
0000b0 07 80 7b bd 78 e5 5f 3d 0e 53 78 3d 67 1a 42 3d
       -0.061401393 0.054662198 0.060626082 0.04738846
0000c0 0a e3 6d 3c 5b fd d0 3c ad d5 88 bd 37 58 c1 bc
       0.014519462 0.025511434 -0.066813804 -0.023601634
0000d0 d3 61 a4 3d 56 31 d8 3c 00 bb 99 3c 2f 52 47 bd
       0.08026471 0.026390713 0.018765926 -0.04866236
0000e0 38 34 b0 3c 7c 2b 98 bd 4d e5 76 3d 72 a5 9b 3c
       0.021509275 -0.07430169 0.060277272 0.018999789
0000f0 65 05 a8 3b 98 ed 6f bb cf 59 8f bd 34 ca 0c 3c
       0.005127596 -0.0036610123 -0.069995515 0.008593131
000100 ba de a6 bd 25 fc b2 bd c2 7f 9d bd 2a 17 62 3b
       -0.081479505 -0.08739499 -0.076903835 0.003449867
000110 a2 61 77 3d 22 95 39 3c bc 7f 65 3c 42 71 a5 bd
       0.060395844 0.01132706 0.014007505 -0.08078243
000120 72 16 01 3d 9d 12 4f 3d 34 15 a6 3d b3 cc d4 bc
       0.031515546 0.05055486 0.08109513 -0.025976514
000130 f7 97 56 bc bd 29 94 bb f0 e0 39 bd 1b 57 31 3d
       -0.013097755 -0.004521577 -0.045380533 0.04329596
000140 a9 aa c9 3b 4d 54 4e 3d 5d ff 85 bc 40 d4 27 bd
       0.0061543775 0.050373364 -0.016357118 -0.0409739
000150 e3 3e b3 3d 4b 78 29 3d e6 ce 17 bd db 05 24 3d
       0.08752229 0.041374486 -0.037062548 0.040044647
000160 cf 66 37 bd 57 d2 46 3c 58 3c 7d 3d 6e c8 53 3d
       -0.04477578 0.01213511 0.061825126 0.051704817
000170 fc 08 90 3d b2 65 ad 3d 1d 5b 0e 3d 27 d5 23 3b
       0.07032964 0.084666625 0.03475486 0.0024998875
000180 80 21 5f bc 57 df 9f b8 27 7f 9f bd 29 f2 42 3d
       -0.013618827 -7.623311e-05 -0.07787924 0.047594223
000190 fb 14 b3 bd 02 10 4a 3d 42 e0 80 bd a8 41 0e bd
       -0.08744236 0.049331672 -0.06292774 -0.034730583
0001a0 bc c3 0b bc df 8a aa bc 60 7f 7b bd cb a9 0d 3d
       -0.008530553 -0.020818172 -0.06140077 0.034585755
0001b0 e7 35 96 bc 30 94 77 3d 5e 85 28 3d a3 5a 75 3d
       -0.01833625 0.060444057 0.041142814 0.05990089
0001c0 4e 91 4b 3d af 16 8d bc ab 55 86 3d d8 64 b2 3d
       0.04969912 -0.01722273 0.065593086 0.08710641
0001d0 1d 09 40 3d 19 36 f3 3c 05 47 b1 bc 32 0e 8a bd
       0.04688369 0.029688882 -0.02164031 -0.06740989
0001e0 3b 0f 3a bd 16 57 8c 3d 66 94 8d 3d 9b 71 8a b9
       -0.04542468 0.06852548 0.069130704 -0.00026406054
0001f0 77 0f b1 3d 5f 77 30 bc 74 fd b4 3d 00 89 98 bd
       0.08645528 -0.010770648 0.08837405 -0.07448006
000200 d3 c0 71 bd ef 08 a4 bd a4 d4 b3 3d 85 f5 1a 3d
       -0.059021782 -0.080095164 0.08780792 0.037831802
000210 d2 a1 ab 3d d1 db 4b bd 64 2a 79 3d 4d 11 0b 3d
       0.08380474 -0.04977018 0.060831442 0.033952046
000220 ab 65 5b bb 11 92 86 bb 16 91 3a 3d d4 9b 1c 3d
       -0.0033477347 -0.004106768 0.04554852 0.038234547
000230 83 2c 31 3d 59 8a 81 bd 7d c5 49 bd 28 3e d7 bc
       0.04325534 -0.06325216 -0.049260605 -0.026274756
000240 cd a9 8d bd b8 19 d7 bc c1 cf b0 3d b5 81 ac bd
       -0.069171526 -0.02625738 0.08633376 -0.08423177
000250 d6 2a cc bc 72 32 a8 bd e0 a3 0a 3d 10 bf 6e bd
       -0.02492277 -0.08212747 0.03384769 -0.05828768
000260 f6 1e 19 bd bd 34 7e 3d 50 35 00 bd 21 0a 86 3d
       -0.037383042 0.062062014 -0.031300843 0.06544901
000270 7d dd 5f bd 25 e6 87 bd a5 8e 82 3d e7 67 02 bd
       -0.054654587 -0.066356935 0.063748635 -0.03183737
000280 d5 7d a0 bd 9d ca 92 3d a9 81 a8 3d b8 b9 2e bd
       -0.078365006 0.07167552 0.08227856 -0.042657584
000290 b8 34 3a 3b 2f 9b ad bd 09 86 e0 3c 33 e3 c2 bc
       0.002841277 -0.084768645 0.027407663 -0.023789978
0002a0 49 1d d1 bb a5 8d 39 3d 9a 87 92 3d 41 95 26 bb
       -0.006381665 0.0453011 0.0715477 -0.0025418552
0002b0 bb 38 92 bd ef 8d b1 3d 6e f2 eb 3c bb ab 84 3c
       -0.07139727 0.0866965 0.028802123 0.016195169
0002c0 af c9 73 bc 08 ff 85 3d ad 11 9b bd 8d 7f 9f bc
       -0.014879628 0.06542784 -0.07571731 -0.01947
0002d0 f7 59 1a 3d cf 19 0f bd 96 3f fa bc 6c c7 95 3d
       0.037683453 -0.034936722 -0.030547898 0.07313427
0002e0 f1 f6 9f bd 32 b4 88 bd b1 df 8a bd 6c f0 4f 3d
       -0.07810772 -0.066749945 -0.06780947 0.050766394
0002f0 df ee af bd 3c 45 04 bd 6c 7c 21 bd c5 c9 8b 3c
       -0.08590483 -0.03229259 -0.0394253 0.017063985
000300 64 c8 71 3d a2 05 d3 3b a3 04 af 3d ff 69 7d 3d
       0.059028998 0.0064398805 0.08545806 0.061868664
000310 70 ee 4c bd 90 b5 aa bc a0 c0 91 bd 7b b1 91 3d
       -0.05003208 -0.020838529 -0.071168184 0.0711393
000320 20 01 46 bd db 5d af 3d 1f 84 3b bd 5b f1 8f 3d
       -0.048340917 0.085628234 -0.045780297 0.07028457
000330 8a 34 9e bd 25 8d 85 3d b1 64 53 3c bd 35 f0 3c
       -0.07724865 0.06521062 0.012902425 0.0293225
000340 dc 86 70 3d 4b 5f bb bc bb fe 81 bd 4a 33 69 bd
       0.058722362 -0.022872588 -0.06347414 -0.05693368
000350 c2 23 08 3d b7 1a 0f bd 46 1c 90 bd 6b 0b 36 bd
       0.033237226 -0.034937587 -0.07036643 -0.044444483
000360 98 76 a3 bd bc 43 75 3d f7 60 96 3d fd 7c 4d 3d
       -0.07981604 0.05987905 0.07342713 0.050168026
000370 e6 35 a1 3d fc d3 27 3b 06 6e 43 bd 7e d2 73 bd
       0.078716084 0.002560853 -0.04771235 -0.059526913
000380 06 93 97 bd 37 d5 26 bd 41 e7 97 3d 51 13 b0 3d
       -0.07401089 -0.04073068 0.07417155 0.08597434
000390 09 f6 95 bd 25 c9 9f 3d 61 9d 5a bd d6 d5 83 3d
       -0.07322318 0.07802037 -0.053372744 0.0643727
0003a0 9d f7 23 bd 39 d9 18 3d 3e d2 5f bd 50 f2 57 3d
       -0.040031064 0.037316535 -0.054643862 0.05272132
0003b0 92 b6 88 3d 73 d2 aa 3d 61 b7 a7 3d 24 c5 8d bb
       0.066754475 0.08340921 0.081892736 -0.0043264795
0003c0 c1 ed a2 bc a3 06 94 3d 1a 08 80 bd 75 49 a0 bd
       -0.01988876 0.07227828 -0.06251545 -0.07826511
0003d0 fc 2a 38 bd 6d 55 59 3d 1b 02 8e bd 0d 9e ae bb
       -0.044962868 0.053059984 -0.06933995 -0.0053288997
0003e0 f8 86 6c bb fd df bb bc 5c b0 56 bd b6 f5 a7 3d
       -0.003609119 -0.022933954 -0.052414283 0.082011625
0003f0 52 c7 19 3d 26 e1 39 bd fb 81 32 3d 51 a4 28 3c
       0.037543602 -0.045380734 0.04358099 0.010293082

model_m.6.bias f4 [32]
000000 05 b9 76 bd 6a 9a 1c 3d 7a 51 ef bc 6d a4 9e 3d
       -0.060235042 0.0382332 -0.029213656 0.077462055
000010 25 5c 61 bd f9 09 5e bc fa d3 a1 bd c5 8a 0d 3d
       -0.055019516 -0.013552182 -0.079017594 0.03455617
000020 e4 74 dd bc 7c 0a 4f 3c 6e bf 54 bd 0b b0 6e 3d
       -0.027033277 0.012636777 -0.051940374 0.058273356
000030 89 ee 1a bd b0 e0 2c bb 31 c9 87 bc e3 e0 b3 bd
       -0.03782514 -0.0026379041 -0.016575428 -0.08783128
000040 ba eb a9 bc fd f0 e8 bc d7 e5 a4 3d 81 06 31 3c
       -0.020742286 -0.028435225 0.08051651 0.010804773
000050 05 64 57 bd 99 46 d3 bb de b4 42 3d f2 63 a3 bd
       -0.05258562 -0.006447625 0.04753577 -0.079780474
000060 c6 e9 b1 3d 21 8a 3f 3d 32 71 87 3d 05 45 63 bd
       0.08687167 0.04676259 0.06613387 -0.055485744
000070 66 22 6d bd ce 9e 19 bd fc 46 9c bd 41 92 60 3b
       -0.057894133 -0.037504964 -0.07630727 0.0034266862

fc.weight f4 [1, 6976]
000000 ad 81 d5 3b 5f b2 13 3c d1 05 f4 3a 75 bb 43 bc
       0.0065157027 0.009014695 0.0018617456 -0.011946549
000010 d1 82 11 3c c1 ce 31 bb 05 6d b4 3b 27 51 9f ba
       0.008881287 -0.0027131292 0.00550616 -0.0012154923
000020 d8 80 84 b9 dd 75 5e 3b 1e b6 71 bb ab a4 e3 3b
       -0.00025272998 0.0033944764 -0.0036882232 0.00694712
000030 7e d5 3b bb cb ec f4 ba eb 3d ac ba 8e 6e 2d bb
       -0.0028661187 -0.0018686292 -0.0013141012 -0.00264636
000040 40 3b 3f 3c 02 a9 86 3b 36 63 57 bb 98 d2 28 3c
       0.011671841 0.004109503 -0.003286553 0.010304116
000050 2a 8a c5 3a 2e fc 78 bb 2e b3 2c 3c 98 4a 3f 3c
       0.0015071083 -0.0037992108 0.010540767 0.011675499
000060 be 26 06 3b 03 d7 3d 3c 3e b7 37 3c 3f 24 bc 3b
       0.002046987 0.011586907 0.011213122 0.0057416256
000070 11 de 22 bc d7 99 d2 ba a7 8a b9 3a 03 5f 25 bc
       -0.00994064 -0.0016067576 0.0014155702 -0.010093453
000080 29 9f 38 bc 5d ba 1d bb 50 36 37 3b a1 3a 59 b9
       -0.0112684155 -0.002406738 0.0027955957 -0.00020716574
000090 e8 85 af 3b d6 1e 0f bc 3b c4 ad ba a0 a8 34 3c
       0.005356539 -0.008735379 -0.0013257334 0.011026531
0000a0 c0 af a3 3b e3 87 21 bc 49 8c ae bb 42 2b 8b ba
       0.0049953163 -0.009859058 -0.005326782 -0.001061775
0000b0 7f 34 2a bc c5 12 cd bb 52 b3 24 3a d8 dd 08 3c
       -0.010388493 -0.006258341 0.00062828243 0.008353673
0000c0 04 24 43 3c a6 ce 16 3c 97 67 af bb 58 b9 08 bb
       0.011910442 0.009204542 -0.005352925 -0.0020862427
0000d0 05 a0 d6 3b 53 72 c9 39 ca 22 cd bb 91 90 d4 3b
       0.0065498375 0.00038422886 -0.0062602507 0.00648696
0000e0 17 86 0c bb 29 f8 03 3c ca 8c 26 bc c4 a9 3b bb
       -0.0021442228 0.008054771 -0.010165403 -0.0028635124
0000f0 b9 b3 1a bc 89 f3 a1 bb f3 a0 9e 3b a2 49 4e bb
       -0.009442263 -0.0049423617 0.004840964 -0.0031476994
000100 69 12 bd 3b ed 81 d5 3a af a5 9b 3b cf e3 ba b8
       0.005770017 0.0016289331 0.0047499756 -8.911604e-05
000110 2d 52 bc ba e9 00 e9 3b 8c 41 2f 3c 53 e1 15 3b
       -0.0014367752 0.007110704 0.01069678 0.00228699
000120 69 b6 fb bb 71 02 41 3c f4 fb 10 bc d3 a5 2c 3c
       -0.007681657 0.011780367 -0.008849133 0.010537582
000130 71 36 03 bc 21 65 29 bb c0 c4 9f 3b c1 38 2b bc
       -0.008008585 -0.002584763 0.0048757493 -0.010450543
000140 37 f5 2a bc b3 88 1e 3c 58 e8 06 bb d9 eb 11 3b
       -0.01043444 0.009676146 -0.0020585265 0.002226582
000150 ce 09 14 bc fc 82 ba bb 2d 69 b0 bb 85 b4 04 3c
       -0.009035541 -0.005691884 -0.0053836317 0.00809968
000160 15 81 2b bc 39 df c3 3b d0 9f 32 bc 4f 19 c5 bb
       -0.010467787 0.005977538 -0.01090236 -0.00601498
000170 be e5 07 bc 6c 6e 51 3b 20 3f 37 3c a4 8c b1 ba
       -0.008294521 0.0031956686 0.011184484 -0.0013545942
000180 b7 59 9f 3b 7d 20 f8 3b 35 14 dc 3b 18 68 05 bc
       0.0048629898 0.0075722323 0.006716276 -0.008142494
000190 e0 c4 a4 bb e2 01 eb 3a 25 e8 fe bb e0 53 73 bb
       -0.005028352 0.0017929638 -0.0077791386 -0.003712885
0001a0 3b 69 f6 3b 39 a8 0a 3c 55 72 e7 3b 9a 9a 29 bc
       0.0075198687 0.008462959 0.00706319 -0.010351801
0001b0 5a 36 a5 b9 68 39 39 3b ed cc 0e bb da 9f 1b bc
       -0.00031511748 0.0028262977 -0.0021789626 -0.009498561
0001c0 09 5b 0d 3b 20 1c c2 3b 2c 81 f9 3b c6 71 25 3c
       0.0021569154 0.005923763 0.0076142754 0.0100979265
0001d0 c2 81 35 3b f0 31 1a 3a bb 7e f1 bb 10 11 bb ba
       0.002769575 0.0005882075 -0.007369844 -0.0014272053
0001e0 bc 64 54 b9 4f 1f ca 38 c3 df 43 3c 79 f9 2a 3c
       -0.00020255422 9.637942e-05 0.011955204 0.0104354555
0001f0 c5 7f 39 3c 43 af 1f 39 b1 d7 93 3b a9 dc 35 3c
       0.011321967 0.00015228712 0.0045117964 0.011099973
000200 12 34 1d bc ae c1 31 bb 2c ec d0 3b dc 2f 88 3b
       -0.009594934 -0.0027123499 0.00637581 0.004156096
000210 be a6 05 3c a1 33 cf bb ff 04 1b 3c c6 9b ac 3b
       0.00815743 -0.0063232933 0.00946164 0.005267593
000220 b5 37 f8 bb 6f ed 87 bb 51 e0 24 bc 43 5d df bb
       -0.007575 -0.0041481773 -0.010063247 -0.0068165376
000230 30 02 68 3b 45 18 36 3c 53 44 01 3c 66 a6 2e bc
       0.0035401694 0.011114185 0.007889825 -0.01065979
000240 3d 38 1d bc 46 38 8f bb 2b e3 0d bb ef 03 7f bb
       -0.009595928 -0.004370722 -0.0021650295 -0.0038912257
000250 b3 a2 d2 3b b0 c2 b9 ba 6d e4 c1 bb 07 5a f3 3b
       0.0064280867 -0.0014172401 -0.005917123 0.0074265036
000260 03 45 0e bb 3f de 99 3b 99 99 32 3c cb 7c f1 ba
       -0.0021708615 0.0046956833 0.010900878 -0.0018424032
000270 e2 28 42 3c da 5e 06 3c bb 16 c4 bb 47 de cb ba
       0.011850568 0.008201325 -0.005984155 -0.0015553915
000280 5d fe 27 bc 01 5b aa 3b 28 47 83 3b c2 73 6f bb
       -0.010253516 0.005198837 0.004006285 -0.0036537503
000290 af b4 7a bb 08 6d bc 3b 38 4d 02 3c 4f da e4 3b
       -0.0038254668 0.005750302 0.007952981 0.006984032
0002a0 1b 54 fc 3b d1 69 96 bb f0 56 f6 bb d7 03 fc bb
       0.007700456 -0.004590251 -0.007517688 -0.0076908874
0002b0 77 b0 31 3b 88 cd cc 3b d2 c9 d8 bb bc bf 46 37
       0.0027113238 0.006250087 -0.0066158557 1.1846361e-05
0002c0 0a 0f ee b8 d2 79 f1 ba f3 9d 47 bb 7d 50 f8 3a
       -0.000113515256 -0.0018423146 -0.0030459135 0.0018944886
0002d0 fd c9 11 3c f4 db ba ba 48 e0 0d bc ff a8 92 bb
       0.008898255 -0.0014256225 -0.00865943 -0.0044757123
0002e0 e5 27 4e 3b 06 4c a5 bb 1a 89 15 3c 5d 89 41 3b
       0.0031456884 -0.005044463 0.009126926 0.0029531338
0002f0 d0 96 57 3b 52 eb 34 bc 56 b5 b1 bb 10 b9 69 bb
       0.0032896288 -0.011042433 -0.0054232283 -0.0035663284
000300 47 aa 82 3b 18 e3 73 3b a1 ca 93 3b be 5f 81 3b
       0.003987584 0.0037214216 0.004510239 0.003948181
000310 a6 e4 3d bc 41 34 c7 ba 36 fa 15 3c fe 63 d0 3b
       -0.011590159 -0.0015198068 0.009153893 0.0063595762
000320 7b 06 04 bb ac c0 f7 3a 06 4d 33 bc a4 a0 1b 3c
       -0.0020145464 0.0018902025 -0.010943657 0.009498749
000330 f0 27 05 3b f4 45 01 3c a7 f6 19 bc 99 85 fb bb
       0.0020317994 0.007890213 -0.009397185 -0.007675838
000340 dc cf 71 bb 8f da 09 3c 38 4b bc bb ff df 11 bb
       -0.0036897575 0.008413925 -0.0057462715 -0.0022258756
000350 50 9c 2b 3c 1e 14 94 3b d2 e9 73 bb 72 64 14 3a
       0.0104742795 0.0045189997 -0.0037218225 0.00056607195
000360 a2 3d 8d 3b ca 0b 60 39 69 20 13 39 ee 37 ef 3b
       0.0043103257 0.00021366696 0.00014031086 0.0073003685
000370 ea 2f 06 bc 19 c1 75 37 59 b6 15 3c 9f fa ff 3b
       -0.008190135 1.4648097e-05 0.009137713 0.007811859
000380 c7 de 8a 3b cf fb 85 bb ba 19 41 3c eb e3 2f bb
       0.004237983 -0.004088856 0.011785919 -0.002683873
000390 9b 7b 36 3c 62 bc fa 3b 2e 0b 9a 3b c7 e2 22 3a
       0.011137868 0.0076518515 0.0047010398 0.0006213602
0003a0 14 5c 9d bb 3b ab 9d 3b f8 1d 13 3b 0e 21 20 bc
       -0.0048022363 0.004811672 0.0022448283 -0.009773506
0003b0 86 4f ae bb 5c 10 34 bc c3 d3 9e bb 58 b4 25 3c
       -0.0053195385 -0.0109902285 -0.0048470213 0.010113798
0003c0 b9 36 b8 3b 41 5e a7 b7 ed d1 07 bc d6 ab 07 3b
       0.005621758 -1.9951842e-05 -0.008289796 0.0020701787
0003d0 ac bb aa bb 79 5d 3a 3c 47 3c 81 39 e5 04 14 3c
       -0.0052103605 0.011374825 0.00024649707 0.00903437
0003e0 8f 66 b2 3b cb a9 17 3c f4 03 f2 bb d4 10 34 3b
       0.005444355 0.00925679 -0.007385725 0.002747585
0003f0 14 f7 48 3b 9a e6 58 bb 19 89 2d 3c 78 ca bd bb
       0.0030664848 -0.0033096434 0.010591769 -0.0057919584
