checkpoints/run_8/1d_cnn_ckpt_14.pth (torch, 52308 bytes, 7 tensors)

model_m.0.weight f4 [8, 1, 8]
0	0x3d6868d4	0.056740597
1	0xbe5510ef	-0.20807241
2	0xbd5fecc0	-0.05466914
3	0x3e0f0000	0.13964844
4	0x3e2a5c09	0.16636671
5	0x3db37033	0.08761635
6	0x3e532886	0.20620927
7	0x3e9243bb	0.285673
8	0xbe678405	-0.22608955
9	0xbd2bd17d	-0.04194783
10	0x3e9dee56	0.30845898
11	0xbde71bb6	-0.11284582
12	0xbe691fd0	-0.22766042
13	0x3e446e8d	0.19182797
14	0x3db32462	0.08747174
15	0xbeab29bd	-0.3343028
16	0xbdafa636	-0.08576624
17	0x3cd355b0	0.025797695
18	0xbcefc9f2	-0.0292711
19	0x3e9e18ee	0.30878395
20	0x3e90e2ce	0.28298038
21	0x3e83e209	0.2575839
22	0xbe3aa757	-0.18227898
23	0xbdcba03f	-0.09942674
24	0x3d79bf72	0.060973592
25	0x3ddd3e7b	0.10802933
26	0x3c62fd27	0.013854302
27	0x3de4adae	0.11165939
28	0x3e9b6adc	0.30354965
29	0xbe972c5e	-0.29526037
30	0x3de31e4c	0.11089763
31	0xbeaaa5d2	-0.33329636
32	0x3e9d11d7	0.30677673
33	0x3d5cfadf	0.053950187
34	0x3e1bd624	0.15218407
35	0x3d0cda2b	0.03438775
36	0xbea12eee	-0.31481117
37	0x3d92f551	0.07175697
38	0xbe828a11	-0.2549596
39	0x3eab9209	0.33509853
40	0x3c987b63	0.018613523
41	0x3e9d3380	0.30703354
42	0x3e25f29f	0.16205834
43	0xbe2b47a0	-0.16726542
44	0xbe8ae1ad	-0.27125302
45	0xbeadad7b	-0.33921418
46	0xbe96900f	-0.29406783
47	0x3e870d96	0.26377553
48	0x3e756886	0.23965654
49	0x3e32a24f	0.17444728
50	0x3e68acd1	0.22722174
51	0xbd0cbcba	-0.03435967
52	0xbea976a7	-0.33098337
53	0xbea8c057	-0.32959244
54	0x3e554677	0.20827661
55	0x3d8fc663	0.07020261
56	0x3ea4c6eb	0.32183012
57	0xbdb35fac	-0.08758482
58	0x3e6a11e2	0.22858384
59	0xbeb34c73	-0.35019264
60	0xbca8f689	-0.02062537
61	0x3e8c5849	0.27411106
62	0x3e2af153	0.1669362
63	0xbe3c3fca	-0.18383709

model_m.0.bias f4 [8]
0	0x3e96e683	0.2947274
1	0xbe4a51ae	-0.19757721
2	0x3c9f3512	0.019434486
3	0xbeb4862f	-0.35258624
4	0x3b1b1170	0.0023661517
5	0xbe10479a	-0.14089814
6	0xbe9596ed	-0.2921671
7	0x3e2210ad	0.15826674

model_m.3.weight f4 [16, 8, 8]
0	0xbd1ae616	-0.037817083
1	0x3db164ac	0.0866178
2	0x3d772cb6	0.060345374
3	0xbdb9c56c	-0.09070858
4	0x3d833086	0.064057395
5	0x3db340ab	0.08752569
6	0x3dc6167c	0.09672257
7	0x3d866bc2	0.06563522
8	0xbdfae59c	-0.12250826
9	0xbd8af7ee	-0.0678557
10	0x3d529128	0.051407963
11	0x3d2c71c4	0.042100683
12	0xbd5261c0	-0.051362753
13	0x3d9c0a78	0.07619184
14	0xbdd76f66	-0.105192944
15	0x3d47809c	0.048706636
16	0xba9c7a5c	-0.0011938321
17	0x3dddde70	0.10833442
18	0x3d59b30c	0.053149268
19	0xbdf6976b	-0.120405994
20	0x3dd98f48	0.10623032
21	0xbd0ec990	-0.034860194
22	0xbdbda910	-0.09260762
23	0xbdcac63e	-0.09901093
24	0xbdfc18cc	-0.12309417
25	0x3da22e7c	0.079190224
26	0x3cffe348	0.031236306
27	0xbd3c7880	-0.046013355
28	0xbc42e360	-0.011895031
29	0xbd2bd264	-0.04194869
30	0x3da6b2a0	0.08139539
31	0xbdb91a3a	-0.090382054
32	0xbdab3a20	-0.08360696
33	0xbd7aaa0f	-0.061197337
34	0xbd617ccf	-0.055050667
35	0xbd9ebf1c	-0.07751295
36	0x3d528ade	0.051401965
37	0xbde837bd	-0.11338756
38	0xbde8c939	-0.11366505
39	0x3d6f7925	0.05846514
40	0x3d9a3768	0.07530099
41	0x3dd0102a	0.10159333
42	0x3d99709a	0.0749218
43	0xbd888378	-0.06665701
44	0xbd1bfe10	-0.03808409
45	0xbc6a07f0	-0.014284119
46	0x3da07b52	0.078360215
47	0x3dcb6070	0.09930503
48	0x3ce74400	0.028230667
49	0xbd765058	-0.060135216
50	0xbbc19220	-0.005907312
51	0x3d70cd20	0.058789372
52	0xbdaa619a	-0.08319397
53	0x3df3d8a0	0.11906552
54	0xbd127054	-0.035751656
55	0xbdd62c22	-0.104576364
56	0x3df5f87b	0.120102845
57	0x3dfa7fb3	0.12231388
58	0xbc3701dd	-0.011169878
59	0x3c85eff4	0.01634977
60	0xbd3c4a7e	-0.04596948
61	0xbdc2dc29	-0.095146485
62	0xbd9910ff	-0.07473945
63	0xbd16083d	-0.03662895
64	0xbd896cfa	-0.06710239
65	0xbdaa4328	-0.0831359
66	0x3d984068	0.074341595
67	0xbbce8c60	-0.006303355
68	0xbbe17020	-0.0068798214
69	0xbdd41bce	-0.10356866
70	0x3da33740	0.079695225
71	0xbdf904a6	-0.1215909
72	0x3d5b5788	0.053550273
73	0x3ddd63e4	0.10810068
74	0xbc6100c0	-0.013733089
75	0xbdaed0ce	-0.0853592
76	0xbde375ec	-0.11106476
77	0x3dca988c	0.09892377
78	0xbb4b6a40	-0.0031038672
79	0xbd149284	-0.03627254
80	0xbd88101a	-0.06643696
81	0x3cbd8008	0.02313234
82	0x3dc1705a	0.094452575
83	0xbd012130	-0.03152579
84	0x3d7feab4	0.06247969
85	0x3d532534	0.05154915
86	0x3d7f268c	0.06229262
87	0xbb139c00	-0.0022523403
88	0x3db4adf4	0.088222414
89	0x3de80730	0.11329496
90	0xbd9afb02	-0.07567407
91	0xbd45b4f0	-0.04826826
92	0x3d99e710	0.07514775
93	0x3cfef290	0.031121522
94	0x3d8f0228	0.06982833
95	0xbc2ae310	-0.0104301125
96	0xbdaf3fac	-0.08557066
97	0x3c8e60a8	0.017380074
98	0xbd6a0998	-0.057138056
99	0xbdabc716	-0.08387582
100	0xbcaa4d98	-0.020788953
101	0x3dfb1c6c	0.122612804
102	0x3df14494	0.11780658
103	0x3c96fe78	0.018431887
104	0x3d68ed70	0.056867063
105	0x3da4611a	0.08026333
106	0xbde425d6	-0.11140029
107	0x3d9e3380	0.077246666
108	0xbdedeb54	-0.11617151
109	0xbd17fdcc	-0.037107274
110	0x3ddaee1c	0.10689947
111	0xbdd1b416	-0.10239427
112	0x3c7e9860	0.015539259
113	0xbd95bac2	-0.07311012
114	0xbdeb55ce	-0.11490975
115	0xbdffef7e	-0.124968514
116	0x3de0113a	0.10940786
117	0x3c6c93e0	0.014439553
118	0x3bedfd80	0.0072628856
119	0xbdacf950	-0.0844599
120	0x3d7081d8	0.05871758
121	0xbd041434	-0.03224583
122	0xbd3d0e68	-0.046156317
123	0x3d9489b0	0.07252824
124	0x3de47f3c	0.111570805
125	0xbdf38334	-0.118902594
126	0xbd8d946e	-0.06913076
127	0xbdec3c86	-0.115349814
128	0xbc0f59e0	-0.008749455
129	0xbda45dca	-0.08025701
130	0x3d769cb4	0.060208037
131	0x3dbad06a	0.09121783
132	0x3c8678e0	0.01641506
133	0x3cfa6340	0.030564904
134	0xbc129400	-0.008946419
135	0x3d933358	0.071875274
136	0xbdb0a598	-0.086253345
137	0xbdb9ce94	-0.09072605
138	0xbd7030d4	-0.058640316
139	0x3df76dde	0.120815024
140	0xbc4b10e0	-0.01239416
141	0x3d34034c	0.043948457
142	0x3df80b9c	0.12111589
143	0x3db404fa	0.08790012
144	0x3dd707bc	0.10499522
145	0x3c5ec840	0.013597548
146	0xbddcbf66	-0.10778694
147	0x3d7b5784	0.06136276
148	0xbd867dcc	-0.065669626
149	0x3d56a194	0.052400187
150	0xbd88dce8	-0.066827595
151	0xbd1e7d34	-0.03869362
152	0xbdceb7dc	-0.10093662
153	0xbd8c00da	-0.068361
154	0x3dfbcc9e	0.12294887
155	0xba464000	-0.00075626373
156	0x3ddc171c	0.10746595
157	0xbda459ec	-0.08024964
158	0x3d9e1906	0.077196166
159	0x3d1f821c	0.03894244
160	0x3df0da7e	0.11760424
161	0x3b42d4c0	0.002972886
162	0x3d334134	0.043763354
163	0xbd604500	-0.054753304
164	0xbd48eb70	-0.049052656
165	0x3db3780c	0.087631315
166	0x3dd24320	0.10266709
167	0xbd83b9b2	-0.06431903
168	0x3cc00c58	0.023443386
169	0xbc1513e0	-0.009098977
170	0x3d9923de	0.07477544
171	0x3df8a614	0.12141052
172	0x3d392408	0.045200378
173	0xbbb39ec0	-0.005481571
174	0x3d6dbb78	0.058040112
175	0x3cde96b0	0.027171463
176	0x3cc757a0	0.024333775
177	0x3da37e6c	0.079830974
178	0xbdf30980	-0.11867046
179	0x3dd597b6	0.10429327
180	0x3bc5d0e0	0.0060368627
181	0xbdc13a34	-0.094349295
182	0xbd2139fc	-0.03936194
183	0xbd1d2f34	-0.038375095
184	0x3d490cec	0.04908459
185	0x3dd8fe9e	0.105954394
186	0xbc9e4f20	-0.01932484
187	0x3c389a90	0.011267319
188	0x3dc33db0	0.0953325
189	0x3d69dd98	0.057096094
190	0x3c89f2f0	0.016839474
191	0x3d8bc1c0	0.06824064
192	0x3d7ca7be	0.06168341
193	0x3cbd7837	0.023128612
194	0x3d943d20	0.07238221
195	0xbd2a3f4f	-0.041564282
196	0x3d9e1454	0.07718721
197	0x3dd29086	0.10281472
198	0xbc7561b1	-0.014976905
199	0x3cd378c5	0.025814423
200	0xbcd2df50	-0.02574125
201	0x3cf80fb8	0.030280933
202	0x3c21e7f0	0.009881958
203	0x3dfc311e	0.12314056
204	0xbd2e2a60	-0.04252088
205	0x3df408ba	0.11915727
206	0xbcbe9138	-0.023262605
207	0xbde72298	-0.11285895
208	0xbd115776	-0.0354838
209	0xbde7fd49	-0.11327607
210	0xbd162842	-0.036659487
211	0x3c7c11a8	0.015385069
212	0x3d0c934c	0.03432016
213	0xbd4fbc37	-0.050716605
214	0x3c32da29	0.010916271
215	0x3dbd425c	0.09241173
216	0x3ce7ea18	0.028309867
217	0x3b321540	0.002717331
218	0xbdb36898	-0.08760184
219	0x3ca84bf0	0.020544022
220	0x3cbf9978	0.02338861
221	0x3d1099c8	0.035302907
222	0xbbea1e20	-0.0071447045
223	0x3da62a96	0.081135914
224	0x3d46ef10	0.04856783
225	0xbd30c7a3	-0.04315914
226	0xbc2029c3	-0.009775582
227	0x3d3a26b3	0.045447063
228	0xbdbb8a25	-0.09157208
229	0x3daafe60	0.083492994
230	0xbcfd3efc	-0.030913822
231	0xbddbaf1d	-0.107267596
232	0x3de06708	0.10957152
233	0xbdbd6c7a	-0.09249206
234	0x3dd954c6	0.106118724
235	0xbcf3f390	-0.029779226
236	0x3d91322a	0.07089646
237	0x3dd2c91a	0.10292263
238	0xbcd2f748	-0.025752679
239	0x380cf000	3.360212e-05
240	0xbd75c8bc	-0.06000589
241	0xbb8cce00	-0.004297018
242	0xbd343cfc	-0.04400347
243	0xbda14b1e	-0.078756556
244	0xbd9f4376	-0.07776539
245	0xbd9a3c88	-0.07531077
246	0x3d8cf28a	0.06882198
247	0x3d831bf8	0.06401819
248	0x3d7cdbe9	0.06173316
249	0x3d0a3be5	0.033748526
250	0x3db0e362	0.0863712
251	0x3db18683	0.08668234
252	0xbc4852b1	-0.012226746
253	0x3d6701ba	0.05639813
254	0x3d64612c	0.055756733
255	0x3d1fc407	0.039005306

model_m.3.bias f4 [16]
0	0x3db5a01f	0.08868431
1	0x3d99d70a	0.075117186
2	0xbde8afc0	-0.11361647
3	0x3c9ae03f	0.018905757
4	0x3dd109de	0.1020696
5	0xbccbbc58	-0.024870083
6	0xbd76bfa0	-0.06024134
7	0xbc8869e8	-0.016652063
8	0x3db943f6	0.09046166
9	0x3d54d576	0.051961385
10	0xbdfa66fe	-0.122266755
11	0x3d8c31ec	0.06845459
12	0x3d2d2938	0.042275637
13	0x3d592e94	0.053022936
14	0xbd3c2028	-0.045929104
15	0x3da232e4	0.07919863

model_m.6.weight f4 [32, 16, 8]
0	0xbd9a38b5	-0.07530347
1	0x3cc9d1fc	0.024636261
2	0x3d9a36b4	0.07529965
3	0x3d533ba7	0.05157056
4	0x3d2f2451	0.042759243
5	0x3d4176a7	0.047232296
6	0x3cbb3759	0.02285354
7	0x3da437a2	0.080184236
8	0xbdb071e3	-0.08615472
9	0x3d18b64c	0.037283227
10	0x3d74b781	0.059745315
11	0x3d047036	0.032333575
12	0xbd3a1998	-0.045434564
13	0xbac55799	-0.0015056013
14	0x3d915cb8	0.07097763
15	0x3da4feb9	0.08056397
16	0xbd3fe77b	-0.046851616
17	0x3bf78448	0.007553611
18	0x3d1032e0	0.03520477
19	0x3da505f0	0.08057773
20	0x3d3eea45	0.046610136
21	0xbd9da9b0	-0.07698381
22	0xbd14e42e	-0.03635042
23	0xbca48d4a	-0.020086903
24	0x3d64e3f3	0.05588145
25	0xbd4779d3	-0.048700165
26	0x3d9563a1	0.07294393
27	0x3d8fff9b	0.07031175
28	0x3cde324d	0.027123595
29	0xbd79e8e8	-0.061013132
30	0xbd62244e	-0.055210404
31	0xbd4e52c6	-0.050371908
32	0xbd910700	-0.07081413
33	0xbd614bc4	-0.055003896
34	0xbd1725f6	-0.036901437
35	0xbd9bf969	-0.076159306
36	0xbd0d44ac	-0.03448932
37	0x3d48d4c2	0.049031027
38	0xb9dd894f	-0.00042254708
39	0xbd7d0f6a	-0.061782278
40	0x3d01d522	0.0316974
41	0xbda8b26f	-0.082371585
42	0x3c8fbec4	0.017547019
43	0xbc9db881	-0.019253017
44	0xbc8e168b	-0.017344734
45	0xbd304d6c	-0.043042585
46	0xbd9a3695	-0.07529942
47	0x3ab8d248	0.0014100755
48	0x3ca88671	0.02057192
49	0xbd2f7531	-0.04283637
50	0x3c29c175	0.010361065
51	0xbd888098	-0.06665152
52	0x3d816cf4	0.06319609
53	0x3d4032a8	0.04692331
54	0x3d7657c8	0.06014231
55	0x3d2a4abf	0.04157519
56	0x3d4b83c5	0.049686212
57	0xbd105fb8	-0.035247535
58	0xbbd866cf	-0.0066040526
59	0xbd894d55	-0.06704203
60	0xbd4e5392	-0.050372668
61	0xbd86cb4c	-0.065817446
62	0xbd9fcab8	-0.078023374
63	0xbd45272f	-0.04813307
64	0x3d55fa72	0.052240796
65	0xbd445d41	-0.047940496
66	0xbc408323	-0.011750015
67	0xbcc35008	-0.023841873
68	0x3d9680f4	0.073488146
69	0x3d89535b	0.06705352
70	0x3d9aebe3	0.07564523
71	0xbd9c0922	-0.076189294
72	0xbcb25c3a	-0.021772493
73	0x3d7b7450	0.06139022
74	0xbc9736b0	-0.018458694
75	0x3da5b347	0.08090835
76	0x3da7c3f8	0.08191675
77	0x3dab23b7	0.083564214
78	0xbca25e4f	-0.01982036
79	0xbd7e75a8	-0.062123924
80	0x3bae4c4b	0.0053191534
81	0xbd7514cf	-0.059834298
82	0x3d430935	0.047616202
83	0xbd501de6	-0.050809763
84	0xbd90789b	-0.07054254
85	0x3c30617f	0.010765432
86	0xbd63c277	-0.055605378
87	0xbd7dbc44	-0.061947122
88	0xbd6bdbcc	-0.05758266
89	0xbd9847f0	-0.07435596
90	0xbd17a0fe	-0.03701877
91	0x3bc82063	0.0061073764
92	0xbd9be59e	-0.076121554
93	0x3c25ae2f	0.010112329
94	0x3ca89ce3	0.020582622
95	0x3da7d4c0	0.08194876
96	0x3d9739b3	0.07384052
97	0x3d11daa4	0.035608903
98	0xbc6399c6	-0.013891643
99	0x3db1422a	0.08655198
100	0x3d2b04c8	0.041752607
101	0x3cef8d9a	0.029242326
102	0x3d3631bc	0.044481024
103	0xbd531330	-0.05153197
104	0x3ce87917	0.028378053
105	0xbdad92b7	-0.08475249
106	0x3d3aeec7	0.045637872
107	0x3cd61da3	0.026137179
108	0x3d89b747	0.067244105
109	0x3d503227	0.05082908
110	0xbc2636e7	-0.010144926
111	0x3c987cc2	0.018614177
112	0xbd9e8fe4	-0.07742289
113	0xbd8a4976	-0.06752293
114	0x3ce47703	0.02788878
115	0x3d8ccad8	0.06874627
116	0xbbed05e4	-0.0072333682
117	0xbd940bc6	-0.07228808
118	0x3d72cff5	0.059280355
119	0x3d0e244a	0.034702577
120	0xbcb154bd	-0.021646852
121	0x3d94d17b	0.07266518
122	0x3d857c37	0.06517833
123	0xbd8d977b	-0.06913658
124	0xbd5c4f31	-0.05378646
125	0xb99f0a8d	-0.00030334704
126	0x3dae949a	0.08524437
127	0x3da71bdf	0.08159613
128	0x3d54c01a	0.051941015
129	0xbd2dae5e	-0.042402618
130	0x3d5424bd	0.05179285
131	0xbd21b292	-0.03947694
132	0xbc98a90a	-0.018635292
133	0xbd24c8f6	-0.040230714
134	0x3da445f3	0.08021154
135	0x3dadf1cb	0.08493384
136	0xbd657389	-0.056018386
137	0xbd365cd3	-0.044522118
138	0x3cf9683a	0.030445207
139	0xbd8381d0	-0.06421244
140	0xbdae429d	-0.08508799
141	0xbd688b43	-0.056773435
142	0x3d4fe2a8	0.050753266
143	0x3d98bc85	0.07457832
144	0xbd420ca9	-0.047375355
145	0x3b15f03b	0.0022878784
146	0xbd61a358	-0.055087417
147	0xbd292b8d	-0.0413013
148	0x3caa9706	0.020823967
149	0xb852ce63	-5.0260114e-05
150	0xbcc1a0d9	-0.023636268
151	0xbbdd94a3	-0.0067621036
152	0x3a49e5f8	0.00077018095
153	0xbd431085	-0.047623176
154	0xbd9e797d	-0.07738016
155	0x3d156c69	0.03648034
156	0x3da16604	0.07880786
157	0x3caa2cd3	0.020773327
158	0xbda9fbe0	-0.082999945
159	0x3d8aba1d	0.067737795
160	0x3d27292c	0.04081075
161	0xbda76a1e	-0.08174537
162	0xbcbf7fa5	-0.023376295
163	0x3ccc12dc	0.024911337
164	0x3d14ab81	0.03629637
165	0xbd9105bc	-0.07081172
166	0xbd23895c	-0.039925918
167	0x3ac53b50	0.0015047584
168	0x3dadde71	0.08489693
169	0x3a83459a	0.001001525
170	0x3d9f86c1	0.07789374
171	0xbd275019	-0.04084787
172	0xbca40f83	-0.020026928
173	0xbd3872f4	-0.045031503
174	0x3db26d78	0.08712286
175	0xbca1f754	-0.019771256
176	0x3cdfc90a	0.027317543
177	0x3d10ed0b	0.03538231
178	0xbc7c4969	-0.015398362
179	0x3c927d35	0.017881969
180	0xbd87bc47	-0.06627708
181	0x3dae725c	0.08517906
182	0xbd781caf	-0.06057423
183	0xbd33e076	-0.043915235
184	0xbd15c4fa	-0.036564805
185	0x3bf9dee9	0.00762545
186	0xbd9bf371	-0.07614792
187	0xbdb33a19	-0.087513156
188	0xbd6d0e0c	-0.057874724
189	0x3c5647ee	0.013078673
190	0x3cb840a9	0.02249177
191	0x3d8f6b40	0.07002878
192	0xbd3d719d	-0.04625093
193	0xbcc7499f	-0.024327097
194	0x3d708739	0.05872271
195	0xbc9be198	-0.01902847
196	0xbc263a37	-0.010145715
197	0x3d5cb23d	0.05388092
198	0xbc47cd5d	-0.0121949585
199	0xbcd29314	-0.025704898
200	0x3daedaaa	0.085378006
201	0xbdaec1e2	-0.08533074
202	0x3d7ced4b	0.061749738
203	0x3d37fc98	0.044918627
204	0x3c8a4c05	0.016881952
205	0x3cab892a	0.020939428
206	0xbc0b7b58	-0.008513294
207	0xbc730b63	-0.014834258
208	0x3db1f381	0.08689023
209	0x3d8c6adf	0.068563215
210	0x3d03c1c1	0.0321672
211	0xbd055367	-0.03255024
212	0x3d9d7e68	0.07690126
213	0x3c8d549f	0.017252265
214	0xbd2faf05	-0.04289152
215	0x3cf35985	0.029705772
216	0x3aa40186	0.0012512661
217	0xbcae2fb9	-0.02126299
218	0xbdadda46	-0.08488898
219	0xbda0eea7	-0.07858019
220	0x3d74d2c0	0.0597713
221	0x3d45c40a	0.04828266
222	0xbd49505a	-0.049148895
223	0xbd543ed3	-0.051817726
224	0x3d78f9d2	0.060785122
225	0x3ce02dc8	0.02736558
226	0x3db354de	0.087564215
227	0x3d892c9a	0.0669796
228	0x3b3d72af	0.0028907468
229	0xb9e4ff65	-0.00043677833
230	0x3a0d8d1a	0.0005399749
231	0xbbebe76d	-0.007199219
232	0x3c9ea787	0.019366993
233	0xbce76968	-0.028248504
234	0xbd05161b	-0.032491785
235	0xbb9ec014	-0.004844675
236	0xbce62f08	-0.028098598
237	0x3d9202d3	0.07129445
238	0x3db4c25f	0.08826136
239	0x3d1d3ee4	0.038390055
240	0xbd861a93	-0.065480374
241	0x3d136343	0.035983335
242	0xbcc89360	-0.024484336
243	0xbd8aa735	-0.067701735
244	0x3b291b60	0.002580367
245	0x3c2e51a4	0.010639582
246	0xbcd23b6c	-0.0256631
247	0xbcfbe982	-0.030750994
248	0xbd2ad9ab	-0.04171149
249	0x3daafbba	0.08348794
250	0xbda0f7fc	-0.07859799
251	0xbda77e2a	-0.08178361
252	0x3da2ed95	0.079554714
253	0xbd1b4de5	-0.037916083
254	0xbd61f9d2	-0.055169888
255	0x3d7fe864	0.062477484

model_m.6.bias f4 [32]
0	0x3db29da7	0.08721476
1	0xbdaaf32e	-0.08347164
2	0x3b1e2593	0.0024131283
3	0x3cf0d5ef	0.029398886
4	0x3d81459d	0.06312106
5	0xbd82707d	-0.06369112
6	0x3d4075b2	0.046987243
7	0xbc97ceb3	-0.018531179
8	0xb9e4689c	-0.0004356549
9	0x3d62346f	0.055225786
10	0xbd84b7cd	-0.0648037
11	0xbdb2c101	-0.08728219
12	0xbdacc7cb	-0.08436545
13	0xbd2d4105	-0.042298336
14	0xbd9c4114	-0.076296
15	0x3b29f695	0.0025934328
16	0x3d9bab8c	0.07601079
17	0xbd422840	-0.047401667
18	0xbda44467	-0.08020859
19	0xbbca5abc	-0.006175367
20	0x3c9e96c2	0.019358996
21	0x3d326966	0.043557547
22	0x3d8dd55f	0.06925463
23	0x3db33118	0.08749598
24	0x3d723965	0.059136767
25	0x3d736755	0.059424717
26	0xbd5fbfa3	-0.05462612
27	0xbd520458	-0.051273674
28	0x3d1972f6	0.03746315
29	0x3d4a4e0d	0.04939084
30	0x3d1aa38a	0.03775362
31	0xbd3b2f2b	-0.04569928

fc.weight f4 [1, 6976]
0	0xbc013bf4	-0.007887829
1	0x3c217c89	0.009856352
2	0xbc054494	-0.008134026
3	0x3b83ae07	0.0040185484
4	0x3bbbb5e2	0.005728469
5	0x3bc9d482	0.006159366
6	0xbbb2e8f1	-0.0054598977
7	0x3a4027ec	0.00073301676
8	0x3be64cfc	0.00702822
9	0x3ba646b3	0.005074346
10	0x3c1c40b5	0.009536912
11	0x3a1549d9	0.0005694903
12	0x3c0f6d92	0.008754151
13	0x3b9f23af	0.0048565487
14	0x3c04d039	0.008106285
15	0x3c2782c1	0.010224045
16	0x3c2db2f5	0.010601749
17	0xbad70927	-0.0016405926
18	0xbb14baf2	-0.0022694436
19	0x3c2a7155	0.010402997
20	0x3be0dc0c	0.006862169
21	0xbc2470db	-0.010036672
22	0x3c2a860f	0.010407939
23	0xbc1757f2	-0.009237276
24	0x3b357b7f	0.0027692018
25	0x3b5c8441	0.0033648165
26	0xbb6f67e6	-0.0036530434
27	0xb9c94d42	-0.0003839527
28	0xbc2cb1b5	-0.0105404155
29	0x3bf5c195	0.0074998834
30	0x3c38ade5	0.011271928
31	0x3c1d21b0	0.009590551
32	0xbbb33430	-0.0054688677
33	0xbb797e6f	-0.0038069745
34	0x3a2dfcfd	0.00066371245
35	0x3b146598	0.0022643562
36	0xbbdfe9d3	-0.006833294
37	0x3b30d8d2	0.0026984704
38	0xbbc8dcc8	-0.006129835
39	0x3b44b6a6	0.0030016094
40	0xbbbfc4a9	-0.005852301
41	0xbb81daed	-0.0039628656
42	0xbc2a1a3a	-0.010382229
43	0x3c3464d9	0.011010372
44	0x3bc44f86	0.0059909252
45	0xba248546	-0.0006275963
46	0x3c16d00e	0.009204878
47	0x3c2e68ed	0.010645133
48	0xba9d5157	-0.001200239
49	0xbb22b530	-0.0024827234
50	0xbc2e20c1	-0.010627926
51	0xbc36e101	-0.011162044
52	0xbc2f60f4	-0.010704268
53	0x3bce51dc	0.0062963795
54	0xbbd8e30f	-0.0066188644
55	0x3b9941f2	0.0046770507
56	0xbc318ec4	-0.010837261
57	0x3c1ef483	0.009701851
58	0x3bea24ff	0.0071455236
59	0xbc178410	-0.009247795
60	0x3b6fb6d9	0.0036577492
61	0x3baf11aa	0.005342682
62	0x3bc851c1	0.0061132615
63	0xbbe0de0d	-0.006862408
64	0x39b02bd9	0.00033602005
65	0x3b27dd79	0.0025614186
66	0x3b909510	0.004412301
67	0x3b1a2592	0.0023520929
68	0x3b4b6a87	0.0031038837
69	0xba74aae5	-0.00093333266
70	0x3be55510	0.0069986656
71	0xbb1d096a	-0.002396191
72	0xbc0deede	-0.008662907
73	0xbc055fa2	-0.008140476
74	0xbb4d0854	-0.0031285482
75	0xbc0c4a0d	-0.008562577
76	0x3b4e2ff8	0.0031461697
77	0x3b211c6d	0.0024583593
78	0x3c117476	0.008877864
79	0xbb39a2e9	-0.0028325862
80	0xbb9e1ce6	-0.0048252223
81	0xbb45c5f2	-0.00301778
82	0x3c353e30	0.01106219
83	0x3bd7b9e3	0.0065834387
84	0xbbb77108	-0.005598191
85	0xbbc0d72e	-0.0058850264
86	0x3a8ca5a6	0.001073052
87	0xbbd2dd58	-0.0064350776
88	0x3a048eea	0.0005056696
89	0xbc247b59	-0.010039174
90	0x3bdf5046	0.0068149893
91	0xbb9ab9f0	-0.0047218725
92	0x3bac8175	0.005264456
93	0xbb31abc2	-0.0027110432
94	0x3ab6447b	0.0013905907
95	0xbbd203eb	-0.0064091585
96	0x3bac79de	0.005263551
97	0xbc3fce07	-0.011706836
98	0x3c2031a5	0.009777461
99	0xbb2a6317	-0.0025999004
100	0x3c0b2bd2	0.008494334
101	0xbabdc564	-0.0014478383
102	0xbc17cd93	-0.009265321
103	0xbafaff5c	-0.0019149589
104	0xbc2caa45	-0.010538642
105	0xba23cd4e	-0.00062485493
106	0x3a0a5163	0.000527641
107	0x3bbb2c18	0.0057120435
108	0xba1880a0	-0.00058175065
109	0x3c2fd630	0.010732219
110	0xbc0abd96	-0.008468052
111	0xbb041a42	-0.0020157252
112	0x3c132628	0.008981265
113	0xbbd66730	-0.0065430626
114	0xbbdaa757	-0.0066727805
115	0x3bbc54a1	0.0057473932
116	0x3ba115c8	0.0049159266
117	0xbb857126	-0.0040723262
118	0x3b509e96	0.0031832806
119	0xbc329b2c	-0.010901254
120	0x3b14a861	0.002268337
121	0xbc35382b	-0.011060755
122	0x3c2a4cab	0.010394256
123	0xbc22522d	-0.009907288
124	0x3b72bbbd	0.003703817
125	0x3a4668ab	0.00075686973
126	0xbc3cbb49	-0.011519262
127	0xbb97bdce	-0.004630781
128	0xbb5c849c	-0.0033648377
129	0x3bdcfe73	0.0067442
130	0xba8fbfc4	-0.0010967185
131	0xbc3c2315	-0.011482974
132	0x3c1b910c	0.009495031
133	0x3b8aeb00	0.00423944
134	0xbc255b77	-0.010092608
135	0xbbaf3c15	-0.0053477385
136	0xbaa2656e	-0.0012389848
137	0x3c0835e9	0.008313634
138	0xbc14326d	-0.009045226
139	0xbc22664c	-0.009912085
140	0x3b27fdc8	0.0025633443
141	0x3c44fcae	0.012023134
142	0x3a3f980e	0.00073087297
143	0xbb46f3f7	-0.0030357817
144	0x3b87ebdb	0.004147989
145	0x3c1b00f9	0.009460681
146	0xbbfd3fa2	-0.007728533
147	0x3c0962e9	0.008385398
148	0xba3edf11	-0.0007281164
149	0x3c1e0599	0.009644889
150	0x3b766e92	0.0037602526
151	0xbbc7d374	-0.006098205
152	0xbba90cc4	-0.0051589925
153	0xbc32c9ae	-0.010912342
154	0x3ac9f45e	0.001540791
155	0xbb1450e8	-0.0022631232
156	0x3c069260	0.008213609
157	0xbb3c17d5	-0.0028700728
158	0x3bae0f8d	0.0053119124
159	0x3b68c213	0.0035516068
160	0x3c36079a	0.011110211
161	0x3c1ed487	0.009694225
162	0x3b9659b0	0.0045883283
163	0xbbd1aafb	-0.0063985563
164	0x3b13f0e7	0.002257401
165	0xbbaf9986	-0.0053588776
166	0x3b8e3fc5	0.004341098
167	0x3b13063a	0.0022434131
168	0xbbacf3ca	-0.0052780854
169	0xbc2c0454	-0.010499079
170	0xb85824ae	-5.1532574e-05
171	0x3bc50e06	0.0060136346
172	0x3b83b5e7	0.004019487
173	0x3c1633b7	0.009167603
174	0x3b538d0b	0.0032280113
175	0xbbed110c	-0.007234698
176	0xbb029a93	-0.001992856
177	0xbb22f7de	-0.0024866979
178	0xbb01b0bd	-0.0019789182
179	0xbc24d4a7	-0.010060466
180	0x3bab0ab6	0.0052197827
181	0xbbfd07f4	-0.0077218954
182	0xbc0bcadb	-0.008532251
183	0x3c247124	0.01003674
184	0x3c41c766	0.011827325
185	0x3b490f72	0.0030679372
186	0xbc298029	-0.010345497
187	0x3becee31	0.007230543
188	0x3b670ef0	0.0035256706
189	0xbc1b1928	-0.009466447
190	0xbbb6f44b	-0.005583321
191	0xbc085c2a	-0.008322755
192	0xbbf22f2c	-0.007390877
193	0xbb768427	-0.003761539
194	0x3bbd02b7	0.005768146
195	0xbc3becfe	-0.011470078
196	0x3c2c1fb0	0.010505602
197	0x3bb7f667	0.0056140902
198	0x3ac396bc	0.0014922242
199	0x3bfd9157	0.007738273
200	0x3ba1b5d8	0.0049350075
201	0x3c3878dc	0.011259284
202	0xbb9dba27	-0.004813451
203	0x3a925fdf	0.0011167488
204	0xbb274082	-0.0025520627
205	0x3a94755b	0.0011326479
206	0x3bfe1e74	0.007755095
207	0x3b206c55	0.0024478633
208	0x3bc4cb3e	0.0060056737
209	0xbb7d12ab	-0.0038615863
210	0xbacc8f97	-0.0015606758
211	0x3bc3da88	0.0059769787
212	0xbb1102b2	-0.002212685
213	0xbba2fbcd	-0.0049738646
214	0xbbaa63be	-0.0051998785
215	0x3c304e34	0.010760833
216	0xbb70feb5	-0.003677291
217	0xbacd561a	-0.0015665919
218	0x3c0da3f7	0.008645049
219	0x3c0716aa	0.00824515
220	0x3a36e73e	0.0006977207
221	0xbbc110ea	-0.005891909
222	0x3b2743d7	0.0025522613
223	0xbaba958d	-0.0014235243
224	0xbbe9865c	-0.0071266126
225	0xbc24ae06	-0.010051256
226	0x3c08483b	0.008318002
227	0xbbc7eda7	-0.0061013284
228	0xbc40d0f2	-0.011768566
229	0xbc0a64f7	-0.008446923
230	0xbac0ed80	-0.0014719218
231	0xba879c45	-0.0010346255
232	0xbb9c9d14	-0.0047794674
233	0xba218e45	-0.00061628624
234	0x3c34b62f	0.011029764
235	0x3c030b0a	0.007998237
236	0xbc13d06d	-0.009021861
237	0x3bf9885f	0.0076151337
238	0xbb93136c	-0.0044883993
239	0x3affca5f	0.0019515267
240	0x3c30fbef	0.010802253
241	0x3c2c8a41	0.010531009
242	0xbbc61dd0	-0.0060460344
243	0xb9b53b31	-0.0003456711
244	0x3ae85d90	0.0017728079
245	0x3c11de2a	0.008903066
246	0xbc2651dd	-0.010151354
247	0x3b312886	0.002703221
248	0x3c11a7b1	0.008890078
249	0xbbc66f25	-0.00605573
250	0xbb489e9f	-0.0030612124
251	0x3c26a85c	0.010171976
252	0xba981bff	-0.0011605023
253	0xbbc570ac	-0.0060253944
254	0x3c18fe39	0.009337955
255	0xba0ae5ac	-0.0005298506
