checkpoints/run_8/1d_cnn_ckpt_8.pth (torch, 52296 bytes, 7 tensors)

model_m.0.weight f4 [8, 1, 8]
00000000: 9606 343e 1a82 203e 362f a2be cdca 2e3e
00000010: ef31 9f3d d8e8 1d3e 718b cabd 298a 63be
00000020: 418f a1be 68a5 053e 5f5c 9b3e e368 c33d
00000030: 58a6 123e e0c4 4cbe 62dd 0cbd a010 55be
00000040: 2e94 abbe 2d1d acbe 16db 9f3d ebdf a43e
00000050: 1e06 9abe 8007 89be a849 873d ead7 2dbe
00000060: 26e1 603e 334a 893d 8748 3f3e f19c 9d3e
00000070: ca60 4e3e 8525 62be c1b3 3bbe 12f2 8a3e
00000080: a204 e03d b99b 483e da2c 593e ba5f ce3d
00000090: 3104 33bd f9c1 593d 9d38 763e ab33 afbe
000000a0: f7b0 5bbe 64d5 ec3d 92c6 4f3e 9fb5 8a3d
000000b0: 0b7a 02be a712 6f3d 9e6c 8d3d 50b6 913e
000000c0: fc27 2f3d 4a5c 2abe bcc0 4b3e fa65 b33e
000000d0: 34a0 f0bd c416 773c 2128 8fbe 1b63 70be
000000e0: a712 243e 507b f0bd 7bcb 38be 651c 233e
000000f0: bac4 b7bd abb5 65be be8d a2be 9d8a 07be
0.17580637 0.1567463 -0.31676644 0.1706955 0.07773196 0.15420854 -0.098898776 -0.22220673
-0.31554607 0.13051379 0.3034391 0.0954149 0.14321268 -0.19996977 -0.034390815 -0.20807123
-0.3351149 -0.3361601 0.07805459 0.32202086 -0.30082792 -0.26763535 0.06605846 -0.16976896
0.21960887 0.067036055 0.1868001 0.307838 0.2015411 -0.22084625 -0.1833029 0.2713781
0.10938384 0.19590653 0.21208516 0.10076852 -0.04370517 0.053163502 0.24045034 -0.34219107
-0.21454225 0.115641385 0.20290592 0.06772923 -0.12741868 0.058367398 0.06905483 0.28459406
0.04276274 -0.16636768 0.19897741 0.3503874 -0.11749306 0.015081111 -0.27960303 -0.23475306
0.1602274 -0.1174227 -0.18046372 0.159288 -0.089730695 -0.22432582 -0.31748766 -0.1323647

model_m.0.bias f4 [8]
00000000: eda6 603e fa9e 33bd 26d1 953e bccc fa3b
00000010: 16fe b63d e508 aabe be27 fabd a9d5 8f3d
0.21938677 -0.043852784 0.2926113 0.007653801 0.08935182 -0.3320991 -0.122146115 0.07023174

model_m.3.weight f4 [16, 8, 8]
00000000: fee6 f2bd 629a df3d 3794 cd3d e598 cebd
00000010: 05ff 4ebd 3cad fb3d 3db7 47bd 7ef2 723d
00000020: e4b1 0cbd 4809 a8bd a4be a63d 58db 04bd
00000030: 36b9 a2bd 6c4a d33d 6489 78bd ba35 a13d
00000040: 9494 dabc 502a a33d b7c8 b33d dace 80bd
00000050: fa50 f73d 179f fabc 452d e93d a9dd 343b
00000060: 9343 283d 89e7 b8bd ef1c fb3d 9103 bf3d
00000070: 6c65 14bd 8ed4 b33d b452 ecbd 8c6b 663d
00000080: 9c89 9fbd c36e 123c 3ae3 543b aade 0c3d
00000090: 04fe 8c3d d5c1 f9bd e724 143d b4fe a1bd
000000a0: b4c0 7dbd 10f9 4bbc e856 c4bc 2007 713d
000000b0: 3201 bf3d e8a2 c53c c086 983b 9893 f33c
000000c0: 108d 473c eca4 463d 4689 a33d 125f fdbd
000000d0: 00a7 dbbb ac8f 173d 287c c13d 40d4 de3c
000000e0: 0b08 aebc 0785 113d 75e5 cbbc 3f77 f3bd
000000f0: 0b80 963c f97b e63d 9fbf 76bd 59ab c43d
00000100: 2c1e 53bd bf6f 77bd 7a84 6f3d fa38 b5bc
00000110: 485f 4d3d 3e80 58bd 49d0 893d 732d 8a3b
00000120: dc8b 29bd 48ef ad3c c87d 2cbd fa74 ddbd
00000130: fe9f 9b3d 16a3 913d 60f8 45bc 1875 1f3d
00000140: e2c7 573d 4977 963d a57c 4c3c 0b82 503d
00000150: 66e9 d53b 1c49 aabc ce77 11bc f2d5 85bd
00000160: 52de fb3d 9eea 203d e133 f1bc 9db7 44bd
00000170: d2fa 4d3d 6f53 de3c ac6c 373b b23d 283c
00000180: 2ea9 39bd b1cc cebd 9ba1 b03d 011a fb3d
00000190: b7ae cd3d 596d 93bd 9128 a6bb 2b77 353c
000001a0: 482a ca3d 007d 92bc ce37 f33d 2037 cdbc
000001b0: 7802 b63d 0c04 b23d 8c06 883d 1248 a73d
000001c0: c687 9dbd 58d5 debc 4070 733d 50bb 2dbc
000001d0: 66d1 8f3d 00fa 7d3c bcf5 48bd d83f 763d
000001e0: 0ca0 85bc 2360 6a3c a379 553d f5ea e13b
000001f0: d720 7d3c c9bd b3bd 0cbd 3e3d 2c83 bbbd
00000200: 3e78 cbbd 165b 953d e030 ac3b 1a99 ee3d
00000210: 028f fcbd b203 bbbd ac74 e7bd c8b7 95bc
00000220: c0c0 633b 20a1 ba3b c832 073d e0c7 fb3d
00000230: 1a80 803d 5e81 b9bd 5414 28bd eea1 82bd
00000240: d643 d8bd b002 c23c 5c95 a13d 842a 653d
00000250: 5081 52bd f86b a63c d0f4 0ebc 7004 333c
00000260: 4047 a8bc 30af ed3c 361d f4bd acf7 5a3d
00000270: 701c 623c d00c 4a3c 8c97 353d 225f a5bd
00000280: 480e a93c 0e3a 87bd cc21 48bd 58d0 9b3c
00000290: 487e 363d 5c15 87bd 388e bbbd 4ea8 9fbd
000002a0: 66a5 ba3d 005b fd3d a0bd f9bb 34be 573d
000002b0: 380b 16bd 00f4 69ba 36d3 ca3d bcf6 95bd
000002c0: 10c7 0e3c 82d1 e9bd a87d c7bd a8b1 f6bc
000002d0: c43a 303d 8cba 5e3d 6825 da3d a8d2 d9bd
000002e0: 6832 e83c 6047 6b3d ba46 e73d 4c17 b2bd
000002f0: 88b3 40bd a2ea a83d 1cc5 793d 569b e9bd
00000300: 1e61 c1bd 0074 abb9 4ecd 9dbd c4b8 38bd
00000310: 1456 6cbd e007 b3bd 4c0a b3bd 1ec9 86bd
00000320: a63f dbbd b045 62bd b4b4 42bd b849 f43c
00000330: 7291 89bd 3e6d cebd aa94 e83d b281 f3bd
00000340: fef4 c33d 3096 febc f8cc c4bd d256 f8bd
00000350: c04f 863b 1014 97bd 9c29 30bd 18c1 143d
00000360: 40dd 45bc 1e2f f6bd 54b2 cb3d 54ce 68bd
00000370: c031 cd3c 8ccf 2f3d 7efd e4bd 8a0f c83d
00000380: 6879 a03d aefa fbbd 8433 3cbd 18b7 a2bd
00000390: 988e b6bc e6b7 db3d 8028 72bd 50b9 a2bd
000003a0: f8e8 f63d 0868 ae3d a0d6 f0bd eca7 d13d
000003b0: b4b0 823d 8013 e9bd f8de 1d3d 708c 053d
000003c0: 7840 fcbc 4013 80bc a8dc 993d e81b 9fbd
000003d0: 5a8d c1bd 06a1 f43d b892 19bd 40a3 82bd
000003e0: 506b fcbd 843b e93d 2cc4 44bd c8a3 b3bd
000003f0: 84b4 10bd 506f 6b3d 7461 e23d 02cd ea3d
-0.118604645 0.10918118 0.10038035 -0.10087756 -0.050536174 0.12288901 -0.048758734 0.05931329
-0.034349337 -0.08204895 0.081418306 -0.032435745 -0.079454824 0.10316929 -0.0606779 0.07871576
-0.026682176 0.07967055 0.08778518 -0.06289454 0.12075992 -0.030593438 0.113855876 0.002759794
0.04108007 -0.09028537 0.12261378 0.09326852 -0.036229536 0.08780776 -0.11539212 0.05625491
-0.07789919 0.00893754 0.003248407 0.034392036 0.06884387 -0.12195174 0.036168005 -0.07909909
-0.061951354 -0.012449518 -0.023967221 0.058844686 0.093264 0.024125531 0.0046547353 0.029733464
0.012179628 0.048497126 0.07985167 -0.12371649 -0.0067032576 0.03700225 0.09447509 0.027200818
-0.02124407 0.035527255 -0.024889687 -0.11887979 0.018371603 0.11254115 -0.060241338 0.096029945
-0.051542446 -0.060409304 0.05847595 -0.022121895 0.050139695 -0.052856676 0.0672918 0.0042168438
-0.041393146 0.021232262 -0.04211214 -0.10813327 0.075988755 0.07111184 -0.012083143 0.03893003
0.052680857 0.073469706 0.012480889 0.05090527 0.0065280674 -0.020786814 -0.008878661 -0.065349475
0.122982636 0.03928625 -0.029443683 -0.04802667 0.05028803 0.027139394 0.0027988357 0.010268616
-0.045327358 -0.100976355 0.08624574 0.12260819 0.1004309 -0.07198591 -0.005070754 0.011075775
0.09871346 -0.01788187 0.11875878 -0.0250507 0.088871896 0.08692178 0.06641874 0.08168043
-0.07691912 -0.02720134 0.05943322 -0.010603741 0.070223615 0.015501499 -0.049062476 0.06011948
-0.016311668 0.014305147 0.052117955 0.006894464 0.015449724 -0.08776433 0.046567008 -0.091558784
-0.09935044 0.07292764 0.00525485 0.116502956 -0.12331964 -0.09131564 -0.1130155 -0.01827611
0.003475234 0.005695477 0.033007413 0.122939825 0.062744334 -0.09057878 -0.04103501 -0.06378542
-0.10559814 0.023682922 0.07889816 0.05594875 -0.051392853 0.020315155 -0.00872536 0.010926351
-0.020541787 0.0290142 -0.11919634 0.053458855 0.013800725 0.012332156 0.04433398 -0.08074786
0.020636693 -0.0660287 -0.048860356 0.019020244 0.044554025 -0.06595871 -0.091579854 -0.077957734
0.091135785 0.123708725 -0.007621482 0.052671626 -0.036631793 -0.00089246035 0.099035665 -0.073224515
0.008714452 -0.114169136 -0.09740764 -0.03011401 0.043024793 0.054377124 0.10651666 -0.106358826
0.028344348 0.057441115 0.11292787 -0.0869585 -0.047046214 0.08247878 0.060978994 -0.11406581
-0.09442352 -0.00032702088 -0.077051744 -0.04509808 -0.057699278 -0.087417364 -0.08742198 -0.06581329
-0.10705499 -0.05524224 -0.047535613 0.029820308 -0.067171946 -0.1007943 0.113564804 -0.11889972
0.09568213 -0.031077474 -0.09609407 -0.12125935 0.0040988624 -0.073768735 -0.04300843 0.03631696
-0.012076676 -0.12020706 0.09946123 -0.056837395 0.025048137 0.04292254 -0.11181162 0.09768589
0.078356564 -0.12303673 -0.045947567 -0.079450786 -0.02228479 0.10728435 -0.059120655 -0.07945502
0.12056154 0.08515936 -0.117596865 0.10237107 0.0638136 -0.113806725 0.038542718 0.032604635
-0.03079246 -0.01563418 0.0751279 -0.077689946 -0.09450789 0.11944775 -0.037493438 -0.06378794
-0.12325156 0.11388305 -0.048038647 -0.08771473 -0.035328403 0.057479203 0.11053744 0.114648834

model_m.3.bias f4 [16]
00000000: 196e e43d eb38 c83d d0d3 1c3c 8091 dbba
00000010: 38a9 fd3d b162 923d fc1b d0bd 7bcf d03d
00000020: f87f c9bc 7486 54bd f008 e1bc b9a9 debc
00000030: 42df 24bc 10b1 d3bc a27e a43d f68f f3bd
0.11153812 0.09776481 0.009571984 -0.0016751736 0.123857915 0.0714773 -0.101615876 0.10195824
-0.024597153 -0.051886037 -0.027470082 -0.02718054 -0.010062994 -0.025841266 0.08031966 -0.11892693

model_m.6.weight f4 [32, 16, 8]
00000000: 3578 aabc ba33 75bc 0bf4 8e3d c084 8cbd
00000010: bb2b 4cbd 5519 653b af34 9abc 1017 623d
00000020: 7bd5 af3d 4e2e 813d 3e36 9d3d 6f9d 453d
00000030: 2f32 8c3d 36f3 5abd fea5 d2bb 4242 283b
00000040: 785f 4a3d 66bd 413d 30ec c3bc 13cb 803d
00000050: e158 d6bc 2f97 90bb 7291 99bd d02f b13d
00000060: 8e1b b33d 9643 26bb 2dbb 67bd 3e69 30bd
00000070: 4f7e a8bd 358d 80bd b6c1 7d3d 2e4f 273c
00000080: 9f47 3abd a4a3 b03c bd65 b3bc 5b6d 4f3c
00000090: 31c2 953c 1ab8 0b3c 81fe 6f3d d282 873d
000000a0: c097 913d e72b 70bd 6c28 153c 4dd1 6abd
000000b0: 5ac3 df3b ed26 a53d 1278 203d c4ca ab3d
000000c0: 2558 b2bd a2d9 87bb 1891 6fbc 995d 90bc
000000d0: 093f 503d c161 96bd 7516 a7bc 5ae0 76bd
000000e0: 41a3 88bd 15cf b4bd 7908 9ebd f59b 1e3d
000000f0: b511 b43d 7da4 373c a441 88bd 8b26 ae3d
00000100: b535 48bd 3d7a 64bc 313a 37bc 4ae3 2f3d
00000110: af7e c1bc 060b 42bd 9528 94bd a74f 87bd
00000120: 483e e93c 822e 88bd 945e 9c3d feda 09bc
00000130: 254b 83bd 8315 a2bc d05c 853d 5aae 213d
00000140: 8bee a73d dacd 9fbd e8cc 393c efe2 823d
00000150: da33 a13d ec1d 863a 2790 aa3d c5b4 9d3d
00000160: 2ea4 febc 658f 79bd bc23 24bc 6696 583d
00000170: 4c11 9b3d 54cc b33d 1745 1e3d b3f3 9cbc
00000180: 5941 a13d 0de9 d43c 07d4 7e3d f2c5 a53d
00000190: ab56 713d c925 95bd 4b74 77bc 24e4 a1bd
000001a0: ad34 233d 9751 4dbd 3254 a2bd c079 0abd
000001b0: e991 5abd dcf1 9a38 a879 8d3d ba64 143d
000001c0: ff62 a43d 1fa1 523c 5724 893d 3d79 3d3d
000001d0: 3875 853d 5c9c ab3b 8d67 3b3d c2e1 f8bc
000001e0: 4e12 053d 27a1 333d 67e0 a0bd 931b 4f3d
000001f0: 5a66 89bd 85b8 e6bc 922c 3b3d 91bb 82bd
00000200: b099 9a3d f1bc b1bd ec6a 873d 4aa2 07bd
00000210: a816 a2bd 039d 823d 3fb7 2b3d 4cee 1b3c
00000220: ac3f 483d f5f8 26bc 1b54 6fbd 9a99 5a3d
00000230: 76b8 4dbd 299f a8bd 55f0 84bd 51dd 8bbd
00000240: b0d7 7bbd c316 2c3d f663 2e3d 18a5 7d3d
00000250: 0b27 96bd 14dc 113d 7727 923d 26f1 563d
00000260: c484 29bd 5c43 82bd 33d1 3e3d eebb 9dbd
00000270: 9526 743d c1aa 723d af0e 3b3d 0e1a 45bd
00000280: 1b53 e8bb d6a5 7b3d d5e3 483d 70a7 ffbc
00000290: 67e9 02bd 6b73 8ebd 1199 db3c 04b9 aa3d
000002a0: 0494 ddbb 0d27 49bb f142 afbd 5be9 1a3d
000002b0: f054 cf3b e2b6 403c 9243 53bd 100f 1d3d
000002c0: 4f32 873d 874b 313d 6656 863d f151 58bd
000002d0: 6728 7fbb 9dbc 89bd f956 22bd 6f04 9a3d
000002e0: f792 86bd 716a 7abd a39b 83bd 0790 89bd
000002f0: e455 703d f61e 983d bfa9 82bd e53a 3c3d
00000300: dda3 983d 9984 6d3d 4334 aa3d 904c e0bc
00000310: a2fc abbd 2576 993d 8efd febc 9bd3 733d
00000320: f245 b1bd b9da 533d 154d 93bd 0cdd 57bd
00000330: 9f83 a2bd 302f 223b 8ae3 bcbc 21f1 753d
00000340: d41a 1d3d 8c82 cfbb ad61 a4bd d519 5b3c
00000350: 29db 993d db9f 14bd 560c 79bd c3b1 69bd
00000360: 8e07 483d f458 fe3b 8981 2e3d 538e a83d
00000370: 3341 b7bc e7dd 063b 915b 6c3c d9b4 4dbd
00000380: 0a1f 963d 0317 bc3c 5de5 0e3d f24c b03b
00000390: 2f39 643c ad53 5c3d df52 553c 787f 3fbd
000003a0: 6931 353c 5e9a 983c 1afd 04bd a354 64bd
000003b0: c4f5 43bd abea 853d c425 2a3d 1373 043d
000003c0: dc6e 463c c730 88bd 7085 c33c 2ed2 6d3d
000003d0: 2f01 263d 91f0 aa3d 03fb 203d 149b 5d3d
000003e0: 76ec f8b9 aa32 b6bc 5ae2 a6bd 1385 143d
000003f0: 7a93 f4bc 04c1 2dbd 4348 993d 3541 c2bc
-0.020809272 -0.014965946 0.06980141 -0.068612576 -0.049846392 0.0034957726 -0.01882395 0.055197775
0.0858564 0.0630766 0.076763615 0.048245843 0.06845509 -0.0534546 -0.006428479 0.0025674258
0.049407452 0.047299765 -0.023916334 0.06288733 -0.026165428 -0.0044125537 -0.074984446 0.08651698
0.0874549 -0.0025369874 -0.05657499 -0.043069117 -0.082272165 -0.06276933 0.061952315 0.010211749
-0.04547846 0.021562405 -0.021899099 0.01266035 0.018281074 0.00852778 0.058592323 0.06616749
0.07109022 -0.05863562 0.009103876 -0.05732851 0.0068287076 0.08064065 0.039177008 0.08388284
-0.087082185 -0.004145817 -0.014621995 -0.017622756 0.050841365 -0.07342864 -0.02039645 -0.060272552
-0.06671763 -0.0882856 -0.0771646 0.03872295 0.0879244 0.011208651 -0.06653145 0.08503445
-0.048879344 -0.0139451595 -0.0111833075 0.04294137 -0.023619978 -0.047373794 -0.07234303 -0.06606989
0.02847208 -0.06649496 0.07635227 -0.008414028 -0.06410817 -0.019785648 0.06511843 0.039472915
0.08199795 -0.07802935 0.011340357 0.063909404 0.07871218 0.0010232306 0.08328276 0.07700495
-0.031084146 -0.060927767 -0.010018285 0.052877806 0.075716585 0.08779207 0.038640108 -0.019159174
0.07873792 0.025990034 0.062213924 0.08094396 0.058920544 -0.072825976 -0.01510341 -0.079048425
0.039845157 -0.05012664 -0.07926215 -0.033807516 -0.053361807 7.388342e-05 0.0690797 0.036228873
0.080266945 0.012855797 0.066963844 0.0462582 0.06516498 0.0052371453 0.04575305 -0.030381087
0.03248816 0.04385486 -0.07855301 0.050563406 -0.06708975 -0.028164158 0.045696802 -0.06383432
0.07548845 -0.08678616 0.066121906 -0.033113755 -0.079144776 0.06377604 0.041922804 0.009517264
0.048888847 -0.010191192 -0.05842982 0.053369142 -0.050224744 -0.082334824 -0.06491152 -0.06829322
-0.061484993 0.042013895 0.0425758 0.061925024 -0.073316656 0.035610273 0.071364336 0.05247607
-0.04138638 -0.06360504 0.046586227 -0.0770186 0.059607107 0.059244875 0.0456683 -0.04812055
-0.007089985 0.06143745 0.049045403 -0.03120777 -0.03196087 -0.06955608 0.026806386 0.0833607
-0.0067620296 -0.0030693442 -0.0855769 0.0378202 0.006327264 0.011762353 -0.051578112 0.038344443
0.066013925 0.04328492 0.06559448 -0.05281252 -0.0038933994 -0.06725428 -0.039633725 0.07520377
-0.06571 -0.061136667 -0.0642617 -0.06716924 0.05867566 0.0742778 -0.06380033 0.045954604
0.074531294 0.057987783 0.083107494 -0.027380258 -0.08397795 0.074932374 -0.031126764 0.059527975
-0.08655919 0.051722262 -0.071924366 -0.05270104 -0.07935261 0.0024747364 -0.023057718 0.06004441
0.038355663 -0.006332701 -0.08026443 0.013372858 0.075125046 -0.036285263 -0.06080278 -0.057054292
0.04883533 0.007762069 0.042604003 0.08230271 -0.022369957 0.0020579041 0.014426128 -0.050221298
0.07330139 0.022960192 0.034886707 0.0053802663 0.013929649 0.053790737 0.013020246 -0.046752423
0.011059144 0.018628296 -0.03246794 -0.05574478 -0.047841802 0.065389 0.041539922 0.032336306
0.012111392 -0.066499285 0.023867339 0.05806177 0.040528473 0.08346666 0.039301883 0.054102972
-0.00047478423 -0.022240955 -0.08148642 0.036259722 -0.029855479 -0.042420402 0.07484486 -0.023712734

model_m.6.bias f4 [32]
00000000: 73b1 00bc 95f8 80bc e6ba e23c 6ac4 973d
00000010: 6669 943c 2a37 55bd a18b b1bc 1c60 3b3c
00000020: ab0b b43d 2b63 25ba e448 99bd 8837 a8bd
00000030: a331 6fbd 01ab a53d 045c a13d cbca 833d
00000040: 66a1 41bd d4f1 ac3d 6bf7 763d ec1d 86ba
00000050: 3397 28bd 55d3 25bc 1bbf 573d 6e7f 94bd
00000060: d72e 323c 0d1b ae3d 7cf1 2dbd fd7c b8bc
00000070: 1653 52bd 05bb 613d 9f76 9bbc 8f3d 2b3d
-0.007854807 -0.015743533 0.02767701 0.0741051 0.018116664 -0.05205456 -0.021673026 0.0114364885
0.08791288 -0.00063090277 -0.07484606 -0.08213717 -0.058396947 0.08089257 0.07878879 0.06435164
-0.047273062 0.084445626 0.06029455 -0.0010232306 -0.04115982 -0.010121186 0.052672487 -0.07250868
0.010875425 0.08501253 -0.042466626 -0.022520537 -0.05134877 0.055109996 -0.018977461 0.041806754

fc.weight f4 [1, 6976]
00000000: a110 1b3b 335f b8bb cb39 b93b ba87 15bc
00000010: e0ec eb3b d94f 203c 9d93 1bbb 766f 02bb
00000020: 1b96 30bc ef5e 933b ae2f 313c e16e 8a3b
00000030: 804a 883b bfd6 e53b c33f 0cb9 b80b 0c3c
00000040: 04c9 383c 5804 273c e66b f03b 2266 143c
00000050: 360e 993b 8182 493a c49b 01bc 0e10 91ba
00000060: 1973 f4bb 8320 c03a 6ada 9abb a297 233b
00000070: f596 a13b 0233 3abc 90fd 0abb 5a6f 11bb
00000080: c9d4 5f3b 456f c43a 7de4 fc3b 7a52 c43b
00000090: 0ac4 d6bb 7a87 3c3c 520f 0b3c a299 2d3c
000000a0: cc9e 6bbb 29a1 2fbc c111 e1bb fdc4 173c
000000b0: 4c88 dcba 9a92 8239 2d98 33bc 80af eabb
000000c0: b28e f8bb 63a0 ffbb 0bb5 9bbb 9258 3abb
000000d0: 5a82 f93b ea06 343c b29e 8f3b 31f5 49ba
000000e0: f690 f8bb 0e10 84bb 5278 37bb 512f ff3b
000000f0: abd5 d1b9 a8ef 453c 8293 b93b 5e3a 5bb7
00000100: e74b 843b 1b55 b03b 990a ec3b e3ee 11bc
00000110: 823b ba3b ccd3 c63b 7e4a 17bc acd6 3e3c
00000120: 6efa 33bc 1997 953a 180b bdba 57c9 8ebb
00000130: 03a3 edbb 2e20 c03b e4e7 cfbb 7124 30bc
00000140: a31d f0ba 6ffd bfba bfdd c9bb 8092 b6b8
00000150: 583a f73b d7c9 b5bb 2cd9 83ba 7be7 283c
00000160: 1a19 dfb9 809f 973b 49d7 ab3b 8727 03bc
00000170: 6a08 3fbb 3ca9 273c e570 30bb 0254 3ebc
00000180: c619 e0bb 9008 8ebb ccfa 84ba f740 babb
00000190: 183c 91bb c738 6b3b 2a8d aebb a8e6 36bb
000001a0: 1f42 2a3a 5248 30bc 2b44 703b ebf7 31bc
000001b0: 616b 723b c9c9 603b 313f eeba df8d 60bb
000001c0: 03df 0a3c 59ab 923b c50d 37bc dc57 b7bb
000001d0: dbac 363c 443b 3ebc 14ad 0bbc 32be 16bc
000001e0: 45ef 13bc f306 423c 2ba3 a73b 73d5 ab3b
000001f0: a291 21bc 627e 44bb 8e9c b6bb d4be 233a
00000200: 4d46 4bbb af92 e53b a4cb 343c 2199 36bc
00000210: 5a80 bdbb 35ba 203c ba07 d43b 42f3 38b8
00000220: e6cc d7bb 5e74 193c 8d92 b2ba 6f10 8e3b
00000230: 7886 a6bb 1261 0abc 7964 3bbb f81c 9dbb
00000240: 1750 053c 3dc8 3abb c7ca 833b 3da6 213c
00000250: 763c cdbb 4425 2cbc fe5d 36bb ab0f d63b
00000260: ece2 b93b 00f8 a73a e14b bbbb e1ab 0c3c
00000270: 52af c8bb 932f a7b9 9999 eebb f85b 623b
00000280: 1d72 023c 60de 093c ac87 11bc 2868 a43a
00000290: 8e35 863b 1065 5a3b 0997 bbba 032f 20bb
000002a0: 6025 26bc cbef bf3a e9a7 153c b069 ddb9
000002b0: e99f b23b 045a fbbb 510d 3a3b dba3 01bc
000002c0: 8523 6a3b aa5e ab3b cacd 12bc c0d8 27bc
000002d0: 7149 18bb ea9f cabb 4905 0ebc 7809 46bb
000002e0: c7cf c73b 7ab7 88bb 2f5b 6fba 79ba 013c
000002f0: d660 3abc 03c1 133c 2022 8b3b 8684 a63b
00000300: 0349 9bba 48c8 f8bb 5c2e b23b e6c0 eabb
00000310: 070d 0c3c 5412 fcbb 7752 23bb c207 d23b
00000320: e9d2 e9bb b9f4 743b e672 70bb c485 ad3b
00000330: 5fb5 10bc 7cd1 463c e586 3cbc e757 e1bb
00000340: b60f 9f3b 4e0e 863b b8c5 0abc a44d 513b
00000350: 48e3 b23b c1e9 2a3c 9571 87bb d57a 293c
00000360: f4c5 6abb 31fa 19bc 6e6d b2bb d5f0 61b9
00000370: cbc3 afbb 3722 0d3c aecb a63b 1c36 c3bb
00000380: 5674 a53b c634 953b 7f4c 42bc 9ad5 0a3c
00000390: 3423 193c fc55 c9bb 931b 323b a7dc 42bc
000003a0: de86 20bc 74f4 2e3c 0965 693b d1de f2bb
000003b0: 01f3 c7bb 6d41 853b 06ba f23a f775 f0bb
000003c0: b28f 96ba 62e6 3639 882a f7bb ba1b 12bc
000003d0: 9f3c 31bc 7dbf 313c ca7c 85bb fedc 8abb
000003e0: 2bfe c9b9 7344 7a3b 4cf4 3dbc 4e51 8ebb
000003f0: a430 b13a d8e9 da3b a0bf 033b 1018 1e3b
0.0023661035 -0.005626583 0.0056526414 -0.009126598 0.0071998686 0.009784662 -0.0023739107 -0.0019902862
-0.010777975 0.004497401 0.01081459 0.0042246436 0.0041592717 0.007014125 -0.00013375194 0.008547716
0.011278395 0.010193907 0.0073370812 0.0090575535 0.0046708835 0.0007686988 -0.007910673 -0.0011067407
-0.00746001 0.0014658127 -0.004725744 0.0024962206 0.0049313256 -0.0113647 -0.0021208264 -0.0022191615
0.003415393 0.0014986774 0.0077176676 0.0059912773 -0.0065541314 0.0115069095 0.008487539 0.010595711
-0.0035952805 -0.010719576 -0.0068685715 0.009263274 -0.0016825288 0.0002490476 -0.0109615745 -0.0071620345
-0.00758537 -0.007801102 -0.0047518066 -0.002843414 0.007614416 0.010987977 0.0043829316 -0.0007704078
-0.00758564 -0.004030234 -0.00279953 0.007787623 -0.00040022781 0.012081064 0.0056633363 -1.3067007e-05
0.0040373686 0.005381239 0.007203412 -0.008907053 0.0056833634 0.0060677286 -0.009234069 0.011647861
-0.010985 0.0011412828 -0.0014422862 -0.0043574977 -0.0072520985 0.005863211 -0.006344782 -0.010750876
-0.0018319379 -0.0014647673 -0.0061604674 -8.705724e-05 0.007544797 -0.005547743 -0.0010059229 0.0103090955
-0.00042552577 0.004627168 0.00524417 -0.0080050295 -0.0029149302 0.01023322 -0.002692276 -0.011616709
-0.00683901 -0.004334517 -0.0010145544 -0.005684014 -0.0044322126 0.0035891996 -0.0053268867 -0.0027908478
0.0006494838 -0.01075943 0.0036661725 -0.010862331 0.0036990272 0.003429996 -0.0018176791 -0.003426425
0.008476022 0.0044759926 -0.0111727165 -0.0055951905 0.01114961 -0.01161081 -0.008525152 -0.0092006195
-0.009029214 0.011842477 0.0051158867 0.005243951 -0.009861382 -0.0029982557 -0.005572862 0.0006246392
-0.0031017244 0.0070060114 0.01103488 -0.011144907 -0.005783123 0.00981002 0.0064706476 -4.409557e-05
-0.006585705 0.009366123 -0.0013623998 0.004335455 -0.005081948 -0.008445995 -0.0028593822 -0.004794713
0.008136771 -0.00285007 0.0040219757 0.009866294 -0.006263311 -0.010506932 -0.002782702 0.0065326295
0.005672803 0.0012814999 -0.0057158326 0.008585901 -0.0061244154 -0.00031888168 -0.007281494 0.003453968
0.007961777 0.008414835 -0.008882444 0.0012543248 0.0040957397 0.0033324398 -0.001431198 -0.0024442084
-0.010140747 0.0014643607 0.009134271 -0.00042231148 0.0054511917 -0.007670643 0.0028389285 -0.007912601
0.0035726738 0.0052297907 -0.008960197 -0.010244548 -0.0023237134 -0.006183614 -0.008668252 -0.0030218046
0.006097767 -0.0041722627 -0.0009130714 0.007917994 -0.011375627 0.009018186 0.0042460114 0.005081716
-0.0011847321 -0.0075922348 0.0054376554 -0.0071641086 0.008548028 -0.0076926146 -0.002492098 0.006409616
-0.007135738 0.0037377311 -0.0036689579 0.005295487 -0.008832305 0.012134906 -0.011506771 -0.006876934
0.004854168 0.0040910607 -0.008469991 0.0031937147 0.005459223 0.010431708 -0.004133413 0.010344227
-0.0035823556 -0.009398029 -0.005445174 -0.00021547389 -0.0053639165 0.0086141145 0.0050901985 -0.005957378
0.0050492687 0.00455341 -0.011859058 0.008473778 0.009346772 -0.0061442833 0.002717708 -0.011893428
-0.00979778 0.010678399 0.00356132 -0.0074118157 -0.0061019664 0.0040666373 0.0018518574 -0.0073382813
-0.0011486916 0.00017442697 -0.007542912 -0.008917743 -0.010817676 0.010848877 -0.004073714 -0.00423777
-0.00038527077 0.0038187772 -0.011593889 -0.0043431884 0.0013518524 0.0066807084 0.002010323 0.002412323
