checkpoints_avg_on_outputs/run_2/1d_cnn_ckpt_8.pth (torch, 277576 bytes, 8 tensors)

model_m.0.weight f4 [8, 9, 8]
000000 a8 61 05 3c 6d a0 c4 bd 71 f6 c7 3d 83 3a 83 bd
       0.008140959 -0.09600911 0.09763802 -0.064076446
000010 17 1f c5 3c 35 e2 7e bd 36 62 86 bd f6 d0 85 bd
       0.024062676 -0.062227447 -0.06561701 -0.06533997
000020 60 a0 89 3d 64 2c cf 3d 3b ed af bd ae 72 82 3d
       0.06720042 0.10115889 -0.0859017 0.0636953
000030 e5 bd 61 bc 81 30 e9 3d 70 ac d1 3d b7 87 5c bd
       -0.013778185 0.113862045 0.10237968 -0.053840365
000040 2d 7f 91 3c 48 d1 ec 3d ff 3d e9 3d 0e a1 56 bd
       0.017760837 0.11563355 0.11388778 -0.052399687
000050 0b c0 06 bd 30 7e c8 bd a7 ad c2 bd 86 52 41 3c
       -0.03289799 -0.09789693 -0.09505778 0.01179946
000060 b8 86 3b bc eb 85 47 bc b3 fc 33 bd 5a e1 95 3c
       -0.011445694 -0.012177925 -0.043942165 0.018295933
000070 53 29 c8 3d 5c 20 55 3c 2b 70 8d 3c ed 11 bf bd
       0.09773507 0.013008203 0.0172654 -0.09329591
000080 82 82 3c 3d 27 fd bf bd 81 d2 98 bd 36 52 10 3c
       0.0460229 -0.09374457 -0.074620254 0.008808663
000090 db 07 e8 3d 95 dc 7e bd 8d e9 65 bd 9b bf ab 3c
       0.11329623 -0.062222082 -0.056130935 0.020965388
0000a0 4d 06 5c 3d 66 d8 63 bd 8f c5 a8 bd dd 1b 29 bd
       0.053716946 -0.055626296 -0.08240806 -0.041286338
0000b0 6a b2 75 bd 5b b9 95 3d c4 40 15 3d 8a 28 be 3d
       -0.059984602 0.073107444 0.03643872 0.09285076
0000c0 34 ac 9a 3d 4f 1e d0 bd 9e 8f 9a 3d fc 6b 4b bd
       0.075523764 -0.10162031 0.07546924 -0.04966353
0000d0 ab be da 3d b3 43 b6 bd 61 a4 3f 3d 66 fb 96 b9
       0.10680898 -0.08899631 0.046787623 -0.00028797536
0000e0 4f 55 20 3d 46 60 6f 3d 87 17 8b bd 28 85 d8 bb
       0.039143857 0.058441423 -0.06791597 -0.0066076703
0000f0 c3 a7 6d 3c b9 0c cf ba 20 f1 ed 3d 8b 43 d3 bd
       0.01450533 -0.0015796638 0.116182566 -0.10315617
000100 a2 dc 7b bd 04 de db 3d 1a c4 98 bd d1 13 8c bd
       -0.06148971 0.107357055 -0.074592784 -0.06839717
000110 45 bb ea 3d d7 df 4f bd 69 7f 9f bd 41 cc 9b bd
       0.114615 -0.05075058 -0.077879734 -0.07607318
000120 e9 13 91 bc cf 71 6e 3d 58 f0 00 bd 2f b8 b2 3d
       -0.01770969 0.058214005 -0.03147921 0.087265365
000130 d4 35 35 bd c8 88 b6 3d 2f 4f f0 bd 52 07 c0 bd
       -0.044240788 0.08912808 -0.11733853 -0.09376396
000140 13 dc b7 bd eb c9 2a 3d 55 4f e5 bd 30 c8 c5 bd
       -0.08977523 0.04169647 -0.11196772 -0.09657323
000150 bf ce 0d 3d 02 dc 57 3d 81 df f4 3c 9f 3d 7d 3d
       0.034620997 0.05270005 0.029891731 0.061826345
000160 8a e7 1d bd d8 2d 88 bd 3c 3c bd 3d 4c 94 9d 3d
       -0.03855089 -0.06649369 0.092400044 0.07694301
000170 d1 a9 97 bd 4d 48 e3 3d ba 52 a7 3d 0f 39 c9 bd
       -0.07405437 0.11097775 0.08170076 -0.09825336
000180 36 c1 cc 3d 02 08 95 3d cc 19 be 3b 7d 19 df 3d
       0.099977896 0.07276918 0.005801415 0.108935334
000190 b7 5f d7 3d c4 26 b1 3a 30 25 54 3d 58 50 9b bd
       0.10516303 0.0013515581 0.051793277 -0.07583684
0001a0 9c 63 dd bd 0a 9a 98 bd dc 41 ed 3d 0e 3e c6 3d
       -0.108100146 -0.074512556 0.11584827 0.09679805
0001b0 bc f3 aa bd 21 7d 1e 3c a4 ec 86 bd 8c 2b 37 bd
       -0.0834727 0.009673388 -0.06588104 -0.044719264
0001c0 08 b0 e5 bd 9e ab ae bd dc de 87 3d a1 d8 bd bd
       -0.11215216 -0.08528827 0.06634304 -0.09269834
0001d0 97 6c 8a bd a1 b2 8d bd ee 6f 9a bd 29 d7 3c bc
       -0.06758993 -0.069188364 -0.0754088 -0.011525908
0001e0 86 db b2 3d d7 c0 a8 3d fd bc 77 bb d9 c7 c7 3d
       0.08733277 0.08239906 -0.0037801855 0.09754915
0001f0 75 f4 e5 bc bf 53 29 3d f1 36 97 3b 26 9b bf 3d
       -0.028070668 0.041339632 0.004614704 0.09355764
000200 96 9d 3b 3c 95 8f c9 bc 48 3b 99 bd 20 d5 a1 3d
       0.011451146 -0.024604598 -0.0748201 0.079019785
000210 b8 06 c7 bd 99 17 90 bc d6 9e 14 bc 99 56 b6 bc
       -0.097180784 -0.017589377 -0.009071073 -0.02225809
000220 8d 99 d1 3b ec 6a e8 3d c3 f8 72 3c 1b 70 b2 3c
       0.0063964785 0.11348519 0.014829817 0.021781972
000230 f8 68 1f 3d 0d 4e e8 bd e9 c1 4d 3d 2b 9c e2 3d
       0.038918465 -0.11343012 0.050233755 0.11064943
000240 4b 2c af bd 2c ba b0 bd c5 4f 20 3b eb 7d 7f bd
       -0.0855337 -0.086292595 0.002446161 -0.062375944
000250 df 34 04 3d c9 75 cd 3c 97 e1 24 3d 80 cd e7 3d
       0.032276984 0.025080578 0.0402542 0.11318493
000260 69 02 cd 39 a6 53 90 3d b6 73 4f bd 72 e1 39 bd
       0.00039102443 0.07047205 -0.05064746 -0.045381017
000270 b7 89 a7 3d 4a 7e ef bd 78 f6 49 3b 6c a2 d1 bd
       0.08180564 -0.116940096 0.0030817073 -0.10236058
000280 ca 55 81 bd 66 5a c9 3d 5d 07 7a 3c 03 21 bc bd
       -0.06315191 0.09831695 0.015260545 -0.09185984
000290 1d 27 cb bc 5d b1 79 bd ec f5 79 bd d4 34 1a 3c
       -0.024798924 -0.060960162 -0.061025545 0.009412009
0002a0 c4 c5 03 3d 42 13 4b 3d ea 07 0d 3d 97 5c e3 3d
       0.032171026 0.049578913 0.034431376 0.111016445
0002b0 1b de c0 3d df f5 7d bd 92 e9 f6 bb 6e 1f bf bc
       0.09417363 -0.06200206 -0.007535168 -0.023330417
0002c0 1e 77 ca bd 74 9a 10 bb 03 89 b6 3d 67 b7 33 3d
       -0.09886001 -0.0022064717 0.08912852 0.043876078
0002d0 6e e3 e1 3c 42 69 2f 3d 73 fe 10 bc 95 61 cb 3d
       0.027574267 0.04282499 -0.008849728 0.09930722
0002e0 e7 f1 e1 3d 14 15 e1 bd c4 16 e8 3c 49 5a e1 bd
       0.11032467 -0.109903485 0.028331168 -0.11003549
0002f0 f5 2f 8e bd de 67 e3 3d 8a db cf bd b9 77 df bd
       -0.06942741 0.111037955 -0.10149296 -0.10911507
000300 84 be e2 bc 8e 87 7f bd d2 e8 7c bd 22 63 5a 3d
       -0.027678736 -0.062385134 -0.061745472 0.053317197
000310 b6 1b 84 3c 51 d5 9f bd ee a7 b1 bb 9c 1b 7b 3c
       0.016126495 -0.07804359 -0.00542163 0.015326407
000320 83 d9 86 3c 99 fb e5 ba 1c 29 92 3d 27 ce 3d 3d
       0.01646114 -0.0017546295 0.07136747 0.04633918
000330 20 0e f3 3c b6 47 b7 bd ca aa ce 3d 1d 4f 5b 3d
       0.029669821 -0.08949225 0.10091169 0.053542245
000340 cf 21 a6 bd 07 7f cf bd ea 40 9c bc ff d9 ed 3d
       -0.08111917 -0.101316504 -0.019073922 0.11613845
000350 27 9e 98 3d 7d 39 b1 3d d4 4e ce bd bf bd 95 3d
       0.0745204 0.08653543 -0.10073629 0.07311582
000360 e2 bf a9 3c 80 08 62 3d dc 7d ed bd c2 ac d7 bd
       0.02072138 0.055183887 -0.115962714 -0.10530998
000370 9a 23 9d 3c 85 c3 c7 3d 91 d2 07 3d 28 6c 20 bd
       0.019182015 0.09754089 0.033159796 -0.039165646
000380 cb 2d 67 3d 8a 63 7e bc 03 4a ae 3d db 16 a5 bd
       0.056440156 -0.015526662 0.0851021 -0.08061
000390 42 09 82 bd 61 3e 31 bd fc fd 66 3d 57 c9 a2 bd
       -0.06349422 -0.04327238 0.056394562 -0.07948559
0003a0 7c 30 a2 bc 43 37 49 bd 87 52 8a bd 3a 10 af bd
       -0.01979851 -0.049124967 -0.06754022 -0.08548017
0003b0 47 26 77 3d 25 cb 80 3c c3 ba 21 3c c9 77 e0 bd
       0.06033924 0.015721867 0.009871188 -0.10960347
0003c0 48 54 f0 bd 1d 15 1a 3b 12 52 7c 3d b1 c2 db 3c
       -0.117348254 0.002351112 0.061601706 0.026826235
0003d0 dc 35 a1 bd 1b 29 8f bd a7 d0 e9 3d e5 0c 10 bd
       -0.07871601 -0.06990262 0.114167504 -0.035168547
0003e0 7e 6f bc 3c f7 69 d1 bd 5c 59 e1 bd 87 83 4c 3d
       0.023002382 -0.10225289 -0.11003372 0.04993012
0003f0 ec 28 9c 3d 69 db c3 bc 07 d1 b1 3c 1e 90 ee 3d
       0.07624993 -0.023908334 0.021706117 0.11648582

model_m.0.bias f4 [8]
000000 49 48 f3 bc 7c 45 b2 3d 3a 3d a8 bc b2 7b ef 3d
       -0.029697554 0.08704659 -0.020537008 0.11693515
000010 27 26 dc 3a 83 7b c5 3d 32 84 bc 3d f6 57 b8 3d
       0.0016796038 0.096426986 0.09204902 0.09001152

model_m.3.weight f4 [16, 8, 8]
000000 40 d5 67 3b b0 db 09 bc 30 4e 5f 3d a6 b3 8b 3d
       0.003537491 -0.008414194 0.054517925 0.068213746
000010 d8 21 9d 3c 28 6d 63 3d 30 b2 b7 3c e6 41 9e 3d
       0.019181177 0.05552402 0.022423834 0.07727413
000020 d0 3d f3 3c d8 bc 7c bd 48 de eb bd b0 b6 5d 3d
       0.02969256 -0.061703533 -0.11517006 0.054129303
000030 c0 35 d9 bd 88 97 b8 3c ca 04 a3 3d 20 70 b7 bc
       -0.10605955 0.022533193 0.07959898 -0.022392333
000040 6c ae 18 3d 20 9e f8 3d 18 36 73 bd 38 ca db 3d
       0.037275717 0.12139535 -0.05937776 0.107319295
000050 a0 0d dd 3b 5c 34 c9 3d a0 e6 64 3d 60 73 8f bb
       0.006746009 0.0982444 0.055884004 -0.0043777674
000060 50 3d 20 3c ec 31 7e bd 86 ae bb 3d ac 85 fd bd
       0.009780243 -0.062059328 0.09164147 -0.123790115
000070 34 be 98 bd f0 0d 5e bd 28 19 4a 3d 56 b0 f4 bd
       -0.07458153 -0.05421251 0.049340397 -0.11947696
000080 94 ba ba bd 56 b0 f1 bd 80 8b e0 bb a8 e2 51 bd
       -0.09117618 -0.118012115 -0.006852567 -0.051241547
000090 28 c7 cc 3c d0 59 e9 bc dc 4d 66 3d 50 a5 8b 3d
       0.024997309 -0.028485209 0.056226596 0.0681864
0000a0 5e 2e a8 3d 58 01 10 3d 48 dd cb 3c 70 f8 0c bd
       0.08211969 0.03515753 0.024885789 -0.034416616
0000b0 52 e3 c4 3d 2e bd d1 3d 22 3b ca 3d 24 b3 c1 bd
       0.096136704 0.10241161 0.0987456 -0.094579965
0000c0 98 b6 db bd 12 f9 f3 3d 68 b9 ba bd 10 86 01 3d
       -0.10728186 0.11912741 -0.09117395 0.031621993
0000d0 90 5b 74 bd cc 27 7e bd 4c f6 eb bd 40 bf a8 bb
       -0.059657633 -0.062049672 -0.11521587 -0.005149752
0000e0 32 a5 8a bd f0 49 ce 3c ae 4c b6 3d da 5d b4 bd
       -0.0676979 0.02518174 0.08901344 -0.08806963
0000f0 1a 88 88 bd a2 6a c8 3d 4c 6e f6 bd e8 e6 99 3d
       -0.06666584 0.097859636 -0.12032756 0.07514745
000100 76 c4 d3 bd ca 6a 8c bd d0 a9 dd bd 36 1a af bd
       -0.10340206 -0.06856306 -0.10823405 -0.08549921
000110 8c aa d5 3d 90 6c 14 bc 00 e9 99 3b 60 6d fb 3c
       0.1043292 -0.009059086 0.004696965 0.030691803
000120 1c 0d 4e bd b6 2e 88 bd 10 22 f2 bd 40 20 53 3b
       -0.05030547 -0.066495344 -0.11822903 0.0032215267
000130 24 7d 0f 3d c8 88 11 bd 68 2d d2 bd 10 6a 7a 3c
       0.035031453 -0.035530835 -0.10262567 0.015284076
000140 10 b4 07 3d b0 1b e3 3c de e1 b6 3d da 36 f0 bd
       0.033130705 0.027723163 0.089297995 -0.11729212
000150 b0 2e d5 bc c4 99 9f 3d e8 1a 0c 3d 3e 6d de bd
       -0.026023239 0.07793 0.034205347 -0.1086068
000160 04 8b 1d bd 50 97 6f bd 14 1a 4f bd 58 e6 c0 bd
       -0.038462654 -0.058493912 -0.05056198 -0.094189346
000170 d2 46 a6 bd d0 d6 28 bd 90 b6 35 3c 80 f8 b1 bd
       -0.08118977 -0.041220486 0.01109089 -0.08689976
000180 a0 59 19 bc d2 1c eb 3d 70 be 63 3d 56 c5 fd 3d
       -0.009359747 0.114801064 0.055601537 0.123911545
000190 d2 df a7 bd b0 d6 fc 3c 60 64 25 3c 18 d6 96 bd
       -0.08196987 0.03086409 0.010094732 -0.07365054
0001a0 0a 4c 9a 3d 10 fd 3e 3d 7c 4d 33 3d 50 e8 0a bc
       0.075340346 0.046628058 0.043775067 -0.008478239
0001b0 84 f5 a6 bd 54 96 36 3d 98 d4 c4 bd 6e c7 a3 3d
       -0.08152297 0.044576958 -0.096108615 0.079970226
0001c0 60 9d 8b 3b 50 f7 b8 3d 70 5d b3 3d b4 6d a2 bd
       0.004260704 0.09031546 0.08758056 -0.079310805
0001d0 28 2d 69 bd 3e 3f 95 bd ac ce fd 3d b0 df 2a bc
       -0.05692783 -0.07287453 0.12392935 -0.010429308
0001e0 c8 03 fa bd 72 33 cc 3d d0 af 0f 3c b0 60 8d bc
       -0.122077525 0.0997075 0.008769944 -0.017258018
0001f0 fc 00 50 3d 48 16 fc 3c 44 19 fa bd 50 eb fa 3c
       0.05078219 0.030772343 -0.1221185 0.030629784
000200 74 42 9f bd e0 8e cc 3c e0 11 c0 3d 48 94 d8 3d
       -0.07776347 0.024970472 0.093784094 0.105751574
000210 c8 1f 5e 3d f8 77 fe bd bc 15 93 3d a0 a3 50 3c
       0.054229528 -0.12425226 0.0718188 0.012734324
000220 3f 59 98 bd a2 2d 22 3d 98 c9 a3 3d c6 cf 25 3d
       -0.07438897 0.0395943 0.07997435 0.04048135
000230 ec d8 72 bd 7e 2b 7d 3d 00 88 c9 3d ce 00 c9 3c
       -0.059288904 0.061809056 0.09840393 0.024536517
000240 18 90 c8 3d 48 a0 e0 3d 20 ee 47 3d 08 b1 70 3d
       0.09793109 0.10968071 0.048811078 0.05876258
000250 94 3e 88 bd f0 37 b7 bd 60 b0 1b bc c6 aa d4 bd
       -0.06652561 -0.08946216 -0.0095025 -0.10384135
000260 e8 37 c2 3d 4b 4f 41 bd dd b1 71 3d 8d 29 29 3d
       0.094833195 -0.04719476 0.059007514 0.04129939
000270 98 a3 25 bd a3 4a e9 3a 71 92 b0 3d 5e ec d6 bd
       -0.04043922 0.0017798733 0.086216815 -0.10494302
000280 60 33 ab bb df 84 88 bd 9d 68 e7 bc c8 1e 92 3d
       -0.0052246302 -0.06665968 -0.028248126 0.07134777
000290 4f 2c 0a bd 3b 36 e0 bc a8 a0 ee 3d dc b9 94 bd
       -0.033733662 -0.02736961 0.116517365 -0.07262012
0002a0 83 7a ed bd ac e7 30 3d ae 20 e7 bd 09 cf 58 bd
       -0.11595633 0.04318969 -0.1128553 -0.05293182
0002b0 49 bd e4 3c 82 b1 ab 3d c1 08 e5 3d e3 40 0a bc
       0.02792229 0.08383466 0.1118331 -0.008438322
0002c0 6f d7 af 3d b1 2b fe bd 39 86 b0 bc 7c f0 84 bc
       0.085860126 -0.12410677 -0.021548377 -0.016227953
0002d0 6a 06 06 b6 78 d5 97 bd e4 76 42 3d 55 12 85 3c
       -1.997129e-06 -0.07413763 0.047476664 0.016244093
0002e0 66 31 96 bd 2a 9a fd 3d e8 0b f1 bb 84 16 d5 bd
       -0.07333641 0.1238292 -0.0073561557 -0.10404685
0002f0 24 c2 aa 3d 63 71 4f 3b 6c 21 9b bc c8 a9 37 3c
       0.08337811 0.0031653277 -0.018936835 0.011209913
000300 12 b9 bc bd 4c 68 e5 bd ec da 03 3d 4a 38 ed 3d
       -0.09214987 -0.11201534 0.032191202 0.11583002
000310 a4 84 33 3d 90 1e db bc 8a 44 a0 3d 22 fe 8c 3d
       0.043827668 -0.026747972 0.07825573 0.068844095
000320 1f 9e b6 bd e3 77 c9 bd fa 51 04 bd a8 fa 4a bc
       -0.08916878 -0.0983732 -0.03230474 -0.012388863
000330 ea b8 3b bc b3 0e fd bd 8d 9c 72 3c 33 4b f9 3d
       -0.011457661 -0.12356319 0.014807832 0.12172546
000340 e0 12 bd bd 40 32 9c 3c e0 9d 6d bc ae 01 a0 bd
       -0.09232116 0.01906693 -0.014502972 -0.078128204
000350 f0 bf be bd 58 c8 a4 bc 40 87 a7 3c 00 12 67 3d
       -0.09313953 -0.020115063 0.020450234 0.05641365
000360 ae 9d e7 bd 3e cf 98 3d f5 a3 8c 3c 59 fc bb 3d
       -0.11309372 0.07461403 0.017168025 0.09178991
000370 52 5e c5 bd d9 6c 3c 3d bf f5 c1 bd 1e 44 d7 3d
       -0.09637131 0.046002243 -0.094707005 0.10511039
000380 22 2c 93 bc ef 99 be 3d e3 c1 98 3d 1d 20 0f bc
       -0.01796538 0.09306704 0.07458856 -0.008735684
000390 38 ae 97 3d a7 e3 cb 3d a2 89 8b 3d 54 8b 98 bd
       0.074062765 0.099555306 0.06813361 -0.0744845
0003a0 4e 51 4a bd 78 d2 cf 3d f0 af d4 bd a9 82 33 3c
       -0.049393944 0.101475656 -0.1038512 0.010956445
0003b0 96 01 f7 3c 96 9e fb bd 34 63 c3 bc 11 59 73 3d
       0.030152123 -0.12286107 -0.023851015 0.059411112
0003c0 4a d0 f1 bd 7d b5 0d 3d 17 9b c6 bd 86 68 17 bd
       -0.11807306 0.03459691 -0.0969755 -0.036964916
0003d0 ba ad 66 3c 64 20 01 bc aa 91 e4 3d 02 56 fe 3d
       0.014079506 -0.007881258 0.11160596 0.124187484
0003e0 88 1c b1 bd bf da bf 3d e6 37 a9 bc 53 0e 9d b8
       -0.0864802 0.093678944 -0.020656537 -7.4890115e-05
0003f0 4c c6 8e bd bb 5b b1 3d fe ac c5 3d 9c 57 b4 bd
       -0.06971416 0.08660074 0.09652136 -0.08805773

model_m.3.bias f4 [16]
000000 18 e9 df 3c 8c 13 68 bd fe 18 13 3d 44 bd 58 3d
       0.027332827 -0.056659266 0.035912506 0.052914873
000010 f2 43 b1 bd dc 39 06 3d 80 2f 70 bd 2d e7 e0 3d
       -0.08655538 0.032770023 -0.05863905 0.10981593
000020 d2 02 a9 3d bb 9d f7 3d 04 19 12 3d ee d9 98 3c
       0.08252491 0.120906316 0.035668388 0.018658604
000030 e0 d8 3c bd 50 66 cb 3c a3 91 da 3d e0 0b bc bd
       -0.046105266 0.02482906 0.10672309 -0.091819525

model_m.6.weight f4 [32, 16, 8]
000000 46 22 02 3b d7 08 15 3d f6 1d 9c 3c 66 a8 98 bc
       0.0019856854 0.036385383 0.019057255 -0.018634986
000010 0b 2c a2 3d 95 94 37 3d 1d 15 31 bd fc ab ad 3d
       0.07918557 0.044819433 -0.043233026 0.08480069
000020 3f 93 6b 3d 2e 7d 9b 3d 9f 3c 9a 3c da a2 ad bd
       0.05751347 0.075922355 0.018827735 -0.08478327
000030 16 88 83 3d 85 f7 90 bd 48 66 b3 bd a9 8e 3b 3d
       0.06422441 -0.070784606 -0.08759743 0.04579035
000040 31 b1 4f bd fc 87 d7 bb ac d8 05 bd 8a 4a 81 bc
       -0.050706092 -0.00657749 -0.032677338 -0.015782613
000050 87 63 91 3d a3 87 3a 3d b3 c2 a4 bd e2 17 e4 bc
       0.070990615 0.04553951 -0.080449484 -0.02784342
000060 75 aa 5f bd 5f 0b a6 bc 1a 16 f7 bc d0 fa 48 bc
       -0.05460592 -0.020269094 -0.030161906 -0.01226683
000070 d1 0c 67 3d 8a 62 7b 3c 03 84 7c bc b6 44 09 bd
       0.056408707 0.015343318 -0.015412333 -0.033512793
000080 6f 03 88 bd 58 f6 88 3d 8c c3 0d bd 88 47 2c 3c
       -0.0664128 0.06687611 -0.034610316 0.010515101
000090 e1 2c 87 bc 06 11 48 3d 51 75 b0 3d ac 82 48 3d
       -0.016500892 0.04884436 0.08616126 0.048952743
0000a0 8f 6a 51 bd c1 14 9b bc 5b 84 a1 bc 72 26 f5 3c
       -0.051127013 -0.018930795 -0.019716432 0.029925559
0000b0 23 eb 4e bc f5 94 ca 3c 76 b7 13 3d 79 f2 24 bb
       -0.012629303 0.024729231 0.036063634 -0.002516894
0000c0 6d 4d fd bc 4e b5 db 3b 8f 6a 4f bd 65 e3 a2 bd
       -0.030920709 0.006704963 -0.05063873 -0.07953528
0000d0 00 95 b9 bb aa b0 b1 3c f1 07 ae bd 94 b4 4e bd
       -0.005663514 0.021690685 -0.084976085 -0.05046518
0000e0 7f 29 72 bd ac f2 a8 3c 4e bd 5b 3c 9a 7a f7 bc
       -0.059121605 0.020623527 0.013411833 -0.030209828
0000f0 cf c0 76 bd b8 83 b4 3d 57 02 3e bd 97 d1 89 bd
       -0.06024247 0.08814186 -0.04638895 -0.06729429
000100 91 cf 1c bd 4a 7f 7f bd 1e 75 30 bd 4d 06 83 3d
       -0.03828389 -0.06237725 -0.04308044 0.06397686
000110 30 b3 08 3d c7 fd a1 bb 19 f4 82 3d 3a 99 23 bb
       0.03337401 -0.0049435827 0.06394214 -0.0024963156
000120 99 96 82 3d e0 05 79 bd ca 66 75 bd 84 04 97 bd
       0.063763805 -0.06079662 -0.05991248 -0.07373908
000130 25 5b 27 bd 82 82 ae bd 17 51 47 bd 46 3e 97 bc
       -0.040858407 -0.08520986 -0.048661318 -0.018462311
000140 fa 63 16 3d 41 9c 34 3d c2 44 1d 3c c8 48 90 3c
       0.03671644 0.044094328 0.009598913 0.01761283
000150 25 54 6a bd b2 ef 96 3c 83 65 95 bd fb 3c fa bc
       -0.057209153 0.018424843 -0.072947524 -0.030546656
000160 29 23 83 3d 74 14 97 3d a5 4b 93 bd 80 86 fd bc
       0.06403191 0.07376948 -0.071921624 -0.030947924
000170 b4 4e 56 3d 9c e2 97 3c f2 b7 ab 3c 6f a0 7f bb
       0.05232115 0.018540673 0.020961735 -0.0039005538
000180 33 9d 0b 3d c1 ca c3 bc e2 db a1 bc 8c d0 9d 3d
       0.034085464 -0.023900392 -0.019758169 0.07705793
000190 d3 72 88 3d 30 fc a4 bd 50 a9 a1 bd 3b 47 4a bd
       0.06662526 -0.080559134 -0.07893622 -0.049384337
0001a0 31 8e fd 3c b5 63 6f bc b2 f3 2b bc 27 28 97 bc
       0.030951591 -0.014611174 -0.010495113 -0.018451763
0001b0 26 3c 94 bd 50 0d 61 bd 18 ad 96 3d 91 f8 cb bb
       -0.07238035 -0.054944336 0.07357234 -0.0062247
0001c0 96 11 16 bd fd ce 0e bd 27 e7 3c 3d da a5 78 3d
       -0.036637865 -0.03486537 0.04611888 0.060705043
0001d0 dc d7 0c 3c 53 5a 90 bd 87 42 90 bd 82 bb 9b 3d
       0.008596387 -0.07048478 -0.07043939 0.07604124
0001e0 03 9c 81 bb 88 0a ab bd db 20 ba 3c f5 b9 af 3d
       -0.0039553656 -0.08351618 0.022720745 0.0858039
0001f0 b8 59 b0 3d 9c 82 9c bd 05 7b 9f bc fc 23 3b 3c
       0.086108625 -0.07642099 -0.01946784 0.011422154
000200 38 00 94 bd c3 1b 2b 3c dd 4a 0f bd 03 44 af bd
       -0.07226604 0.010443631 -0.034983505 -0.08557894
000210 6d d8 0e 3d 3b 9f ec bc a4 ef 87 3d db 54 87 3d
       0.03487437 -0.02888452 0.06637505 0.06607982
000220 06 51 36 3d c0 a5 89 3d df db 92 3c 0a 2a 3b 3d
       0.044510864 0.067210674 0.017927108 0.04569439
000230 d9 f4 67 3d 97 09 00 3d bc c3 85 bd ed c2 57 bd
       0.05662999 0.031259146 -0.06531474 -0.05267613
000240 c0 21 99 3d cb 60 77 bc ab ae ae 3b ca 1f 9a bd
       0.074771404 -0.015098761 0.0053308806 -0.075255945
000250 47 8d 44 3d ad d8 9a 3d 60 fb 87 bc 62 64 14 bc
       0.047986295 0.07560859 -0.016599357 -0.009057136
000260 93 35 72 bd fe 4c f3 bc 12 9b 84 3d cf ac 9e 3a
       -0.059133124 -0.029699799 0.0647489 0.0012105944
000270 c1 39 9f bd 4f 8f a2 bc b8 d1 29 3d f2 10 fd 3c
       -0.077746876 -0.019843725 0.04145977 0.03089187
000280 87 fc 11 bd 47 70 94 3d f4 c5 59 bd 90 d8 b0 3d
       -0.03564122 0.07247978 -0.0531673 0.08635056
000290 84 70 99 bd 5a 99 88 3d 5e 7b 89 3d ed 5d 04 3d
       -0.07492164 0.066698745 0.067129835 0.032316137
0002a0 27 6c 59 3d 80 10 4d bd d6 b7 91 3c cf 0d 9c bd
       0.053081658 -0.050064564 0.017787855 -0.07619821
0002b0 3d ac 2e 3d 36 d7 66 3d 78 55 83 3d 1a f5 76 bd
       0.042644728 0.056357585 0.06412786 -0.06029234
0002c0 50 68 04 3d 3a 04 b8 3c 18 85 2c bd f7 8b 88 bd
       0.032326043 0.022462953 -0.042119116 -0.06667321
0002d0 4e 97 a6 bd 53 38 4a bd c2 cd 3b 3d 30 3d a0 3d
       -0.08134328 -0.04937012 0.045850523 0.078241706
0002e0 35 f2 97 3b 85 70 bd 3c c7 91 eb 3c f5 1f b0 bb
       0.0046370276 0.023124943 0.028756035 -0.0053749033
0002f0 c6 de 2e bd 9a 95 86 bd 64 e6 cd 3b b5 02 bb bc
       -0.042692922 -0.06571503 0.006283568 -0.02282844
000300 eb e4 88 3d 7f 40 38 bd c5 e9 0a bc 92 0e 1a bc
       0.06684288 -0.044983383 -0.008478587 -0.009402888
000310 b5 82 99 bd 9c cd 53 bc 0f ab 8a bd 55 8a 98 bd
       -0.074956335 -0.012927439 -0.06770908 -0.0744826
000320 33 9b 0b bd 62 8b 9d bc e2 dc 61 bd e2 eb 38 bd
       -0.034083556 -0.019231502 -0.05514229 -0.04514683
000330 6c d2 d8 3c 91 a7 a4 bd d0 87 0e bc 2d f8 02 3a
       0.026467524 -0.08039773 -0.008699372 0.00049960875
000340 b8 79 55 3d 70 70 9c bd 7e 72 ff 3c 83 cb 2d 3d
       0.052118033 -0.07638633 0.031182524 0.042430412
000350 8e 22 e4 bc d5 f0 f5 bc 6d 7f 58 3d 85 cd 73 bd
       -0.027848508 -0.030022064 0.052855898 -0.05952217
000360 ba 2a 3b 3d e1 55 a0 bd 2d 4e 2d bb 70 3a 84 3b
       0.045695044 -0.0782888 -0.0026444301 0.0040352866
000370 44 e9 09 bc b4 c7 22 bd e8 13 ab bd 8e 26 3c 3d
       -0.008417431 -0.039741233 -0.08353406 0.045935206
000380 f3 ca a2 bd e5 b3 67 bd e0 2e af bc 50 46 8b 3d
       -0.07948866 -0.056568045 -0.021384656 0.068005204
000390 97 79 26 3c a4 da 41 bd 86 da 47 bd c8 88 b4 3d
       0.010160825 -0.047327653 -0.048792385 0.088151515
0003a0 92 f7 8c bc b0 14 38 bc 46 a9 7d 3d f9 b0 05 3d
       -0.017207894 -0.011235401 0.06192901 0.032639477
0003b0 70 ce bc bc 22 e2 a6 3c ee be 88 bd ec 3e a0 3d
       -0.023047656 0.0203715 -0.06677042 0.078245014
0003c0 18 e5 91 3c 42 a5 b2 3c dd 69 66 bd e9 5b 2d bd
       0.017809436 0.021807317 -0.056253303 -0.04232398
0003d0 60 56 66 3d c4 44 50 3d 3d 81 1b bd e1 08 25 3d
       0.056234717 0.05084683 -0.037965048 0.04029167
0003e0 64 6a 6d bd 32 1c 87 bd 2a e3 ef bb b5 78 9b 3d
       -0.05796279 -0.06597175 -0.0073207812 0.075913824
0003f0 95 e1 54 3d 57 84 ce bc 9e 51 8f bd 98 cc 18 3d
       0.051972944 -0.025209589 -0.06997989 0.03730449

model_m.6.bias f4 [32]
000000 b2 3e 27 bd c8 63 95 bd a7 12 6f bc f2 13 a8 3d
       -0.040831275 -0.072944224 -0.014591849 0.08206929
000010 9d b5 8f bc 53 30 d3 ba d2 8f 67 bd 61 0b 24 bd
       -0.017542655 -0.0016112424 -0.056533642 -0.040049914
000020 09 a4 95 3c 4f 82 43 bd 68 50 b2 bd 69 3f a8 bd
       0.018266695 -0.047731694 -0.087067425 -0.082152195
000030 c5 43 5b bc 94 a0 09 bd 61 1c d5 bc 21 c9 2c bd
       -0.013382857 -0.033600405 -0.026014509 -0.042184
000040 e2 ab 20 3d 66 66 92 bd 4d 47 92 3a 30 7a 77 3c
       0.03922642 -0.07148437 0.0011160165 0.015104815
000050 ec fe ae bd c0 88 61 3d 02 e3 c1 3a 12 3b 25 bc
       -0.08544716 0.055062056 0.0014792385 -0.010084884
000060 db de 38 bd 40 a3 6c bc 8c c4 60 3c 4f af 91 3c
       -0.045134407 -0.014443219 0.013718735 0.017783789
000070 7e 9f 3e bd 4a e5 88 3d bd 09 09 bc 65 c4 a9 3d
       -0.046538822 0.066843584 -0.008364138 0.082894124

fc.weight f4 [9, 6976]
000000 d2 72 66 39 d4 ec 40 bc cc 83 01 bc 45 0b 1a bc
       0.00021977283 -0.011775214 -0.007904958 -0.009402101
000010 ae ba 96 bb e0 34 a7 3b ce 4d 3e 3c eb cd 23 bc
       -0.0045998907 0.0051027387 0.01161523 -0.009997825
000020 d7 87 1f bc a8 32 3a bb ab 83 0f 3c 0d d7 1d 3c
       -0.009736977 -0.002841154 0.008759419 0.009633792
000030 2a b6 18 bc 11 30 70 bb 97 95 11 bc c7 47 01 bc
       -0.009320775 -0.0036649744 -0.008885763 -0.007890648
000040 b1 1a 7b 3a 90 15 8a 3b 1e 44 3f 3c 7c 58 38 38
       0.00095788675 0.004213996 0.011673955 4.3951426e-05
000050 75 67 a6 bb aa 6a 40 bc df 9f aa bb e5 d4 34 b9
       -0.005078251 -0.011744181 -0.0052070464 -0.00017245447
000060 09 d1 11 3c f7 74 3b 3c 00 92 e3 bb 8f 92 be bb
       0.0088999355 0.011441461 -0.006944895 -0.005815811
000070 c2 6e 78 bb 5b 0b 01 bb 4d e8 af ba 80 56 3b 3c
       -0.0037907814 -0.0019690606 -0.0013420671 0.011434197
000080 32 f3 47 bb 5a 87 39 3a 37 51 1c b5 62 05 4c 3b
       -0.0030509946 0.0007077359 -5.823271e-07 0.0031131138
000090 f9 ba 08 3b 90 14 eb 3b b4 45 f8 bb e1 ce aa ba
       0.0020863398 0.007174082 -0.0075766686 -0.0013031625
0000a0 d7 5a 42 bc 19 a5 eb 3a c0 bc aa 3b 73 8d 47 bb
       -0.011862478 0.001797828 0.005210489 -0.00304493
0000b0 7e ec 20 bb cb 9c 35 3b 52 80 bd ba 50 53 07 3c
       -0.0024555023 0.0027711864 -0.0014457798 0.008259609
0000c0 7b 11 87 3b 60 1f d8 3b 1f 05 82 3b e7 7f c1 ba
       0.004121957 0.006595537 0.0039678956 -0.0014762849
0000d0 eb 72 88 3b 3d ce 81 3b 8a 17 ea bb 20 60 3f 3c
       0.00416409 0.003961353 -0.0071439194 0.011680633
0000e0 20 30 ac 39 9d 47 2c bb a8 23 36 3b a3 0e c4 bb
       0.00032842252 -0.0026287802 0.002779225 -0.00598319
0000f0 45 7e d7 3b 63 41 db b8 b1 da dc 3b 14 42 34 3c
       0.006576332 -0.00010454913 0.0067399372 0.011002082
000100 4d 51 02 bc 3f dd c6 3b 04 05 d9 3b 07 f2 86 bb
       -0.007953954 0.006068855 0.0066229124 -0.0041182074
000110 81 8e 27 bb 0f a9 93 3b 4d fb 9b bb d8 3b 3f 3a
       -0.0025567117 0.0045062373 -0.004760182 0.0007294989
000120 e4 c3 10 bc 7e 24 16 3b cc 00 9c 3b ca 50 64 bb
       -0.008835766 0.0022909935 0.004760837 -0.0034838193
000130 d9 fe 26 bc fe 34 16 bb c6 00 09 bb 65 c8 a4 39
       -0.010192596 -0.002291977 -0.0020905002 0.00031429823
000140 ca 63 c1 bb f2 10 d7 bb 9a e6 3d bc 77 c4 84 bb
       -0.0059017884 -0.0065632993 -0.011590624 -0.0040517407
000150 2b 30 af 3b 4c 8e 03 bc b1 83 35 bc bb f4 6f 3b
       0.0053463182 -0.008029532 -0.011078761 0.0036614377
000160 f2 51 fe bb f3 e4 a4 bb 5a ac 2d bc 05 55 30 3c
       -0.0077612335 -0.0050321757 -0.010600174 0.010762458
000170 71 e4 1e bc 3c 78 1f bc c8 49 37 bb df e9 94 ba
       -0.009698019 -0.009733256 -0.002796756 -0.0011361203
000180 a9 89 ed bb 4a bf 2c 3c c8 4a 2e 3c a7 39 f3 3b
       -0.0072490764 0.010543654 0.010637946 0.007422644
000190 d8 f7 9c bb 8b ec cd bb d2 30 a9 3b 7b c7 f6 bb
       -0.0047902875 -0.0062843016 0.0051632905 -0.007531104
0001a0 92 0c 32 3c 2a 90 ce bb 99 8c 36 3c 59 af 54 ba
       0.010867255 -0.006303807 0.0111419195 -0.0008113287
0001b0 64 f2 1e 3c 7b 62 7b 3b d6 94 25 3c 7f a5 c0 3b
       0.009701345 0.003835826 0.010106286 0.0058791037
0001c0 40 15 fd bb 8a 74 34 3c f1 5b 42 3c 36 c0 9a bb
       -0.0077234805 0.011014113 0.011862741 -0.0047226204
0001d0 5c 09 05 bb 4d 3d 2e 3b a7 60 85 bb 41 7e 3c 3c
       -0.0020299768 0.002658683 -0.0040703597 0.011504711
0001e0 13 3b 83 bb 20 4a 15 bc c7 a0 2a 3c 53 56 10 3c
       -0.004004845 -0.009111911 0.010414309 0.008809644
0001f0 74 42 b4 3b 09 cd fe bb d0 7f b3 ba b9 a8 c7 3b
       0.005501086 -0.007775907 -0.0013694707 0.0060931114
000200 fb 5d 84 3b 7f bd 5a bb 3a d7 57 3b 9a 81 42 3c
       0.0040395237 -0.0033377109 0.0032934682 0.01187172
000210 11 16 32 bc 35 be c8 bb 4b eb 33 bc a4 e9 57 3b
       -0.010869519 -0.00612619 -0.010981391 0.0032945657
000220 98 19 3c bc d2 d4 3b bb 71 65 81 3b 55 08 e9 bb
       -0.011480711 -0.0028660786 0.0039488603 -0.007111589
000230 8f ae 98 bb 8e c9 2b 3c 57 17 3e bc e7 24 bb 3b
       -0.004659481 0.010485066 -0.011602244 0.005711186
000240 86 36 ed ba 8f d9 87 3b db fa 3c 3c 8c fc 1c 3b
       -0.0018097914 0.004145808 0.011534418 0.002395424
000250 c9 51 38 3c d8 07 3e bc a6 a5 f3 37 ef 9a 16 3c
       0.011249968 -0.01159855 2.9044993e-05 0.0091922125
000260 eb bb 6b 3b a0 c0 c8 bb 08 49 3d bc 51 7c b7 bb
       0.0035970162 -0.0061264783 -0.011553057 -0.0055995365
000270 21 59 f6 bb 29 ee 74 bb 17 19 cc bb 5b 73 91 3b
       -0.007517949 -0.00373734 -0.006228577 0.0044388003
000280 48 ee 30 3c 73 cd 37 bc e8 36 d1 3b be 93 2d bc
       0.010798998 -0.0112184165 0.006384719 -0.0105943065
000290 45 04 05 bc db 9a b6 bb 2e be b7 ba 41 0d e1 3a
       -0.008118694 -0.0055726594 -0.001401847 0.0017170088
0002a0 b4 c9 78 b9 f1 c1 b8 bb 8e 62 22 bc d9 ca 32 bc
       -0.00023726263 -0.005638354 -0.009911193 -0.01091262
0002b0 29 9b 63 ba 00 fa 3b bc bb 45 36 3c bc 1a 41 bc
       -0.00086824835 -0.011473179 0.0111250235 -0.011786159
0002c0 b1 c9 64 bb 6b 4d 7e 3b ad be 86 3a b7 4b c9 bb
       -0.0034910257 0.003880347 0.0010280214 -0.006143059
0002d0 31 c8 80 b9 cb 5b 19 bb f8 bb ac ba 1c f9 2b 3c
       -0.00024563217 -0.002340066 -0.0013178578 0.010496404
0002e0 0a 40 cc 3b 24 4a 28 bb 9b 34 5d ba e9 b5 3c bb
       0.00623322 -0.0025678957 -0.000843832 -0.002879495
0002f0 e4 2b 92 bb 0b 99 12 bc d3 8a 61 ba 11 84 d4 bb
       -0.0044607986 -0.008947621 -0.0008603755 -0.00648547
000300 67 34 c5 bb 4d c3 3a 3c f6 e8 f3 3b 7e b2 3f 3c
       -0.0060182097 0.011399102 0.0074435426 0.011700271
000310 55 6b 23 3c 54 53 4d bb a4 70 14 3c 47 68 73 3b
       0.00997432 -0.0031330185 0.009060059 0.0037141012
000320 ef 45 17 3c dc 36 1c 3c 73 b1 72 bb 79 3e 7d 3b
       0.009232982 0.009534564 -0.0037032038 0.0038641973
000330 06 b3 20 3a c2 2a 90 3b 1d ce 5a 3b 7d 56 95 ba
       0.0006130192 0.0043996284 0.0033387013 -0.0011393573
000340 3c ef b4 3a 86 17 f0 b9 29 60 bc bb 8c 76 20 bc
       0.0013804208 -0.00045793894 -0.005748768 -0.009793889
000350 4a d3 3e 3c 9c 60 22 bc c0 92 0a bb 05 17 91 bb
       0.011647055 -0.009910729 -0.0021144599 -0.004427793
000360 41 05 2d bc 20 e0 ac 3b a2 25 2d 3c 22 1f b3 3b
       -0.010560335 0.005275741 0.010568054 0.005466358
000370 23 c3 b7 3b b9 de ef ba 2c 0a 99 bb 6c 92 b4 39
       0.005607979 -0.001830063 -0.004670402 0.00034441368
000380 6e 87 63 3a ec b1 a0 bb ef d2 99 bb 54 8b 1c bc
       0.00086795434 -0.0049040224 -0.0046943347 -0.009554703
000390 03 21 1d bc b4 46 7b bb 3c cd c1 bb 9b c5 08 3b
       -0.00959039 -0.0038341703 -0.0059143584 0.0020869735
0003a0 79 28 4f bb 8c e9 88 ba e3 72 17 bc 5d 05 26 3b
       -0.0031609817 -0.0010445579 -0.0092437 0.0025332787
0003b0 64 7e 89 3a c4 36 07 3c 26 66 85 3b bb 9a 80 3b
       0.0010489938 0.008252803 0.004071015 0.0039246953
0003c0 07 3f 00 ba d1 b3 17 3c a3 69 ab bb 09 9d f5 bb
       -0.00048922043 0.00925918 -0.0052310987 -0.0074955267
0003d0 73 62 c1 3b a9 64 f7 bb 7e 69 2a bc b5 28 0a bc
       0.0059016286 -0.0075498414 -0.010401128 -0.008432557
0003e0 85 b2 8c bb 59 c1 c2 b9 c8 16 82 3b 76 dc 02 3c
       -0.004293742 -0.0003714662 0.003970001 0.007987132
0003f0 f5 32 38 bc 0f 73 f1 bb ea 20 09 3c e4 64 42 3c
       -0.011242618 -0.0073684524 0.008369664 0.0118648745

fc.bias f4 [9]
000000 8c 6e 1f ba dd 02 ee bb 90 51 bf 3a ff c3 04 3c
       -0.00060818414 -0.007263525 0.0014596451 0.00810337
000010 c3 e7 87 bb 70 53 ca 3a 72 e5 1b 3c 88 ed 2a 3c
       -0.004147501 0.0015436243 0.009515153 0.010432608
000020 35 9d 93 bb
       -0.0045048245
