checkpoints_avg_on_data/run_1/1d_cnn_ckpt_5.pth (torch, 52296 bytes, 7 tensors)

model_m.0.weight f4 [8, 1, 8]
-0.31429732 0.21369846 0.26380837 -0.05945968 0.32919887 0.046360016 0.3075051 0.06380839
-0.023051381 -0.24817756 0.008533516 -0.08895052 0.3341463 0.3377668 -0.2242902 -0.28848118
-0.01624723 -0.060191557 -0.2809132 -0.30372992 0.30758592 0.289281 0.30972475 -0.15172186
-0.021676883 0.34577897 0.19447444 -0.29508454 0.10217842 0.23101923 -0.04129072 -0.2597842
-0.019753773 0.2629445 0.081335716 -0.04617412 -0.31661814 0.11310226 -0.18319799 -0.04045746
-0.018134497 -0.32937214 -0.140967 0.011332965 0.090278685 -0.22719438 0.04956132 0.2902293
-0.25187525 0.28295556 0.16400379 0.08237677 0.19068797 0.24023151 -0.036785897 0.35283887
-0.17820294 -0.19809495 0.07662765 -0.06997254 -0.2165706 -0.28776222 0.17516576 0.33957642
00000000: 94eb a0be c5d3 5a3e e411 873e fe8b 73bd
00000010: c18c a83e 00e4 3d3d 4f71 9d3e f9ad 823d
00000020: 40d6 bcbc 4222 7ebe 29d0 0b3c b12b b6bd
00000030: 3915 ab3e c5ef ac3e 55ac 65be ceb3 93be
00000040: e918 85bc 6c8b 76bd dbd3 8fbe 7d82 9bbe
00000050: e77b 9d3e a41c 943e 3e94 9e3e fa5c 1bbe
00000060: b893 b1bc f109 b13e 4f24 473e 5215 97be
00000070: eb42 d13d 4e90 6c3e 7520 29bd 6f02 85be
00000080: aad2 a1bc a9a0 863e 5793 a63d 1321 3dbd
00000090: c61b a2be 28a2 e73d 4198 3bbe b9b6 25bd
000000a0: cc8e 94bc 77a3 a8be a759 10be e7ad 393c
000000b0: 08e4 b83d a5a5 68be d000 4b3d ef98 943e
000000c0: cbf5 80be 8ddf 903e 9cf0 273e 27b5 a83d
000000d0: b543 433e 40ff 753e cfac 16bd 4ca7 b43e
000000e0: d57a 36be 67d9 4abe f5ee 9c3d c34d 8fbd
000000f0: afc4 5dbe 9255 93be a75e 333e f6dc ad3e

model_m.0.bias f4 [8]
-0.019002622 0.19292684 -0.15639912 -0.20163485 0.3265067 0.12581195 -0.19572186 -0.05496269
00000000: 63ab 9bbc 9d8e 453e 1727 20be 5e79 4ebe
00000010: e32b a73e d9d4 003e 506b 48be 8f20 61bd

model_m.3.weight f4 [16, 8, 8]
0.068893895 -0.023239896 0.02153489 0.04737915 0.031442344 0.020638436 0.07865839 0.08121887
-0.009085561 0.05268014 0.027059887 -0.054782957 -0.03365627 0.017713789 -0.07867168 0.027228013
-0.09373587 -0.122589976 0.044874966 0.030841976 -0.08260414 -0.06841928 -0.08831783 0.07180709
0.0711416 -0.024975508 -0.023423031 0.12381227 -0.006235227 0.0119371265 -0.074268386 0.028263658
0.037416372 -0.020462694 0.019405313 -0.11796053 0.05193583 -0.028576871 -0.03988205 0.050382316
0.0029660186 0.032002643 -0.115178265 0.057488743 0.06033857 0.10382989 -0.09854325 0.004630268
-0.072735235 -0.051965773 0.051359355 -0.06937143 0.073641255 -0.08247213 0.01796417 0.076383114
-0.06950286 0.042733043 0.025485933 0.0297257 0.02115634 -0.11189772 0.09750959 0.08400452
-0.102607295 -0.058548197 0.0159069 -0.031954423 0.11931886 -0.08579861 0.024157643 0.11968525
0.10757658 0.051158726 0.021062195 0.039721623 0.003931716 0.044021547 0.020492598 -0.06279877
0.09368622 0.0012737364 0.09245244 0.059254944 -0.124205574 0.05863987 -0.07042356 0.019507304
0.110409796 -0.11364415 0.024802342 -0.11727281 0.1069171 -0.08260603 -0.036238357 -0.073854566
-0.08473261 -0.11608054 -0.09950352 0.09316161 0.021327406 -0.09845056 -0.10715012 0.09570037
0.088951305 -0.062172234 0.08427769 -0.011873633 -0.08541854 0.008718148 -0.112355605 -0.037406996
0.00018377602 0.056470126 -0.06886229 -0.08182798 0.002347067 -0.042321086 -0.10332094 0.026968852
0.09735282 0.018825874 -0.07247315 0.0022754073 0.03635913 -0.024329007 0.042314366 -0.10183714
0.08739367 -0.0046940744 0.038290933 -0.04667747 0.036144763 -0.05442965 -0.042487457 -0.084307194
0.10582577 -0.09622745 -0.04243082 0.099177204 -0.04633224 -0.09672135 0.102286465 0.093299545
-0.03454101 0.03574598 0.114810824 -0.031529143 -0.11072539 0.03220114 0.06483765 -0.08227794
-0.017442629 0.025231212 -0.04689555 0.093063906 -0.03673029 0.11994833 0.091151625 0.097136706
0.02574354 0.00821539 -0.034938987 0.015498787 0.084823355 -0.09023856 -0.0017384981 0.1106779
0.0512183 0.12057653 -0.077507645 -0.0046113385 -0.050693415 0.05174173 -0.064606205 -0.124904566
0.04149981 -0.11666106 -0.09617537 0.015064448 -0.063237235 -0.11723156 -0.02232106 -0.11449629
-0.0014950782 -0.057043657 0.111093774 -0.07936609 0.07702172 -0.11023575 -0.047728315 -0.026872203
-0.010762244 -0.037342906 0.050330818 0.04859546 -0.014477164 0.12146264 0.0403108 -0.096633956
-0.07051107 0.093536794 -0.06919128 0.05748421 -0.021554261 -0.08574535 -0.04705763 -0.11129238
0.11014472 0.011412635 0.08369881 -0.08946422 0.026325613 0.02045536 0.019865006 0.107274845
0.11597818 0.080111966 -0.057116896 0.042520702 -0.11766222 -0.033354163 -0.0035082102 -0.048462614
0.07158749 0.06305474 0.1047734 -0.08542547 -0.10678482 0.021386757 -0.057856053 -0.033464387
-0.028168991 0.09832317 -0.07515283 0.118405566 0.0911361 -0.07742223 0.083207056 -0.066929445
0.018875927 -0.06803176 0.015595928 -0.06944212 0.07158515 0.075358346 -0.05976762 -0.109956816
0.10170935 0.12167606 0.040125877 0.04216042 0.07048315 0.039634004 0.033387527 0.034216836
00000000: 3e18 8d3d 9861 bebc f069 b03c a410 423d
00000010: b0c9 003d f011 a93c a617 a13d 1456 a63d
00000020: 9bdb 14bc 21c7 573d b2ac dd3c 1864 60bd
00000030: 28db 09bd 821c 913c 9e1e a1bd 480d df3c
00000040: 98f8 bfbd 7410 fbbd d0ce 373d 50a8 fc3c
00000050: 5c2c a9bd 681f 8cbd fadf b4bd 980f 933d
00000060: b0b2 913d 7099 ccbc a8e1 bfbc 4a91 fd3d
00000070: e050 ccbb f093 433c 061a 98bd 3089 e73c
00000080: e941 193d 61a1 a7bc e4f7 9e3c 4a95 f1bd
00000090: aaba 543d 0b1a eabc 5c5b 23bd b05d 4e3d
000000a0: 8961 423b 3415 033d 95e2 ebbd 5179 6b3d
000000b0: 9425 773d c4a4 d43d 0bd1 c9bd 81b9 973b
000000c0: 36f6 94bd 10da 54bd 305e 523d 9c12 8ebd
000000d0: 3ad1 963d 26e7 a8bd 9829 933c c06e 9c3d
000000e0: 8457 8ebd d808 2f3d e0c7 d03c 5083 f33c
000000f0: 1050 ad3c a22a e5bd 1cb3 c73d 900a ac3d
00000100: c623 d2bd 3cd0 6fbd 304f 823c a4e2 02bd
00000110: 725d f43d 2eb7 afbd 40e6 c53c 8a1d f53d
00000120: 1c51 dc3d d08b 513d a08a ac3c 24b3 223d
00000130: a0d5 803b f04f 343d 18e0 a73c a49c 80bd
00000140: 90de bf3d 80f3 a63a b457 bd3d 50b5 723d
00000150: 7e5f febd 5c30 703d 3a3a 90bd c8cd 9f3c
00000160: 881e e23d 44be e8bd 482e cb3c ba2c f0bd
00000170: 5af7 da3d 5a2d a9bd ac6e 14bd 1041 97bd
00000180: 4a88 adbd a2bb edbd 80c8 cbbd 84cb be3d
00000190: d0b6 ae3c 72a0 c9bd 8671 dbbd 8efe c33d
000001a0: 1a2c b63d 50a8 7ebd c899 ac3d a089 42bc
000001b0: eaef aebd 90d6 0e3c b21a e6bd 1438 19bd
000001c0: 00b4 4039 384d 673d ac07 8dbd 6e95 a7bd
000001d0: 40d1 193b e058 2dbd ee99 d3bd c8ed dc3c
000001e0: ea60 c73d b838 9a3c ce6c 94bd 001f 153b
000001f0: 50ed 143d a04d c7bc d451 2d3d fe8f d0bd
00000200: 74fb b23d c0d0 99bb f4d6 1c3d e030 3fbd
00000210: 880c 143d a0f1 5ebd 5407 2ebd 40a9 acbd
00000220: 2ebb d83d e612 c5bd f1cb 2dbd 6b1d cb3d
00000230: e0c6 3dbd d815 c6bd 917b d13d d513 bf3d
00000240: e07a 0dbd 606a 123d f021 eb3d b424 01bd
00000250: fec3 e2bd 58e5 033d 9ac9 843d 5681 a8bd
00000260: d8e3 8ebc b0b1 ce3c 8c15 40bd 4a98 be3d
00000270: 8072 16bd 78a7 f53d b4ad ba3d 9cef c63d
00000280: 1ee4 d23c d899 063c 2f1c 0fbd a0ee 7d3c
00000290: deb7 ad3d ffce b8bd 51de e3ba 18ab e23d
000002a0: 48ca 513d d4f0 f63d 54bc 9ebd b61a 97bb
000002b0: e6a3 4fbd 23ef 533d 4250 84bd f7cd ffbd
000002c0: b4fb 293d feeb eebd 98f7 c4bd e0d0 763c
000002d0: 8682 81bd 1a17 f0bd a8da b6bc 087d eabd
000002e0: 80f6 c3ba 9ca6 69bd 2285 e33d b08a a2bd
000002f0: 90bd 9d3d 48c3 e1bd c47e 43bd 1823 dcbc
00000300: 2054 30bc e0f4 18bd b027 4e3d 080c 473d
00000310: a031 6dbc 68c1 f83d f01c 253d 06e8 c5bd
00000320: 1c68 90bd 3890 bf3d 28b4 8dbd 9074 6b3d
00000330: 9092 b0bc 429b afbd 80bf 40bd 42ed e3bd
00000340: 8e93 e13d 10fc 3a3c 486a ab3d 0439 b7bd
00000350: d0a8 d73c 0092 a73c f0bb a23c eab2 db3d
00000360: f885 ed3d be11 a43d 68f3 69bd 302a 2e3d
00000370: e4f8 f0bd 609e 08bd 00ea 65bb bc80 46bd
00000380: 769c 923d d822 813d 7093 d63d 8cf3 aebd
00000390: 00b2 dabd 4833 af3c 78fa 6cbd f411 09bd
000003a0: a8c2 e6bc a85d c93d bae9 99bd 9e7e f23d
000003b0: 90a5 ba3d 8c8f 9ebd 7668 aa3d 4e12 89bd
000003c0: b0a1 9a3c 3c54 8bbd 1086 7f3c ac37 8ebd
000003d0: 3c9b 923d 7a55 9a3d e4ce 74bd 0a31 e1bd
000003e0: fe4c d03d 4c31 f93d 085b 243d 68b0 2c3d
000003f0: 7859 903d 4457 223d 5cc1 083d f426 0c3d

model_m.3.bias f4 [16]
0.10392744 0.021425575 0.120175295 -0.076743916 0.021202385 -0.07546824 -0.025741935 0.032875717
-0.12082133 -0.059327766 0.006637782 -0.07034479 0.04619733 -0.12380439 0.039759204 -0.047770724
00000000: e9d7 d43d b084 af3c 771e f63d ea2b 9dbd
00000010: a0b0 ad3c 188f 9abd c0e0 d2bc b0a8 063d
00000020: 2c71 f7bd ac01 73bd c081 d93b ee10 90bd
00000030: 6939 3d3d 288d fdbd 8cda 223d 3cab 43bd

model_m.6.weight f4 [32, 16, 8]
0.021350907 -0.035488605 -0.054055773 0.0030591907 0.015726233 -0.049127836 -0.05408925 -0.0082949335
0.0076607587 -0.06351901 -0.060178682 -0.065187156 0.055310003 0.023606913 -0.05486172 0.024223901
-0.033530384 0.082072444 0.07328191 0.0065781805 0.032166686 -0.00026309214 0.005002466 0.022978293
0.038490545 0.06961542 -0.080144905 -0.004848384 -0.07701074 -0.03643497 -0.023067065 -0.03357574
0.069791704 -0.013226956 0.050889894 0.00986329 0.023944542 -0.004910635 0.056109708 -0.013131082
0.0031813178 0.05662134 0.057964653 0.07828427 0.036832824 0.07703977 0.023907473 -0.025217555
0.07429218 0.036581874 0.029267509 0.032409746 0.023073692 -0.07485507 -0.081880726 0.006722022
0.03941666 -0.041340526 -0.06262816 0.081169985 0.059113007 -0.05310366 -0.0795044 0.017943451
-0.03217286 0.022792373 0.04604763 -0.052481655 0.057024516 -0.056171685 0.06309737 -0.055493522
-0.015066961 -0.017026937 -0.069933444 0.04720722 -0.07898346 0.016549645 0.056765206 -0.079808354
0.077369176 0.08700948 -0.06601956 0.016845526 0.08529934 -0.048530694 -0.007507976 0.041320357
-0.086015455 0.049011715 0.088138044 -0.026877772 0.02608855 0.05075988 0.027182989 -0.004033696
0.05906275 0.039525736 -0.08184096 0.04877382 -0.0034213986 0.036589496 -0.013771059 0.036767535
-0.06997067 0.035914604 0.015603785 -0.036358643 0.0856014 -0.03897066 0.004065074 -0.03208529
-0.007617442 -0.022753429 0.07328458 -0.00957805 0.035766512 -0.034171335 0.0509834 0.016287597
0.072595395 0.06425469 -0.018208629 0.014223254 0.04121867 -0.08111881 0.04664301 -0.051125284
-0.060612194 0.024789544 0.07880206 0.07352385 -0.021181563 -0.026837626 0.072694935 0.067418985
-0.070393845 0.010894222 -0.07525337 0.009545218 0.058528475 -0.01033427 0.042892393 -0.034737326
-0.0003529377 0.048660073 -0.08315625 0.04569638 -0.052345533 -0.07401429 0.04669031 0.06962126
0.05028765 0.05128929 -0.051234636 0.05605086 -0.06848191 0.040613934 -0.038230825 -0.056179523
0.0011209165 -0.06857476 0.06778922 -0.008480125 0.04548116 -0.050036095 0.04332916 -0.065511346
0.077058755 -0.02828457 0.032921325 0.0047200257 0.01599615 0.03323952 0.068994455 0.070151195
-0.0250223 -0.08413892 0.059242886 0.06497376 -0.030072019 0.0005201553 -0.04735333 -0.03481653
-0.04416466 -0.08576056 -0.05431523 -0.07415441 0.0042782845 0.043009203 -0.056793638 -0.065286204
0.06318412 -0.07220637 -0.00042445038 -0.08771398 -0.07096526 -0.034899615 -0.022316113 -0.016371185
-0.0762785 0.058300585 -0.0013844186 0.059944555 0.014067069 -0.082555264 0.074554205 0.065359436
0.015796354 -0.057332356 -0.044319425 0.029242095 -0.050384976 -0.018436275 -0.040713772 0.01204815
0.047704067 -0.038421024 0.022753008 0.028646644 0.05871063 0.045151096 -0.033256445 0.05625268
-0.04642295 -0.08584525 -0.051045995 -0.051837534 0.027847402 0.025131429 0.07031426 0.009449661
-0.031116785 -0.07893107 0.05837251 0.027699225 -0.074784905 0.044529904 0.029558828 -0.045758486
0.08250917 -0.01844564 0.045493625 0.06491835 -0.051250335 0.037343033 -0.056476586 -0.044573948
-0.07490579 0.027385779 -0.07541187 0.017952133 0.033943355 0.065101884 0.014724423 -0.008798987
00000000: 19e8 ae3c 805c 11bd 9669 5dbd b47c 483b
00000010: 4dd4 803c 453a 49bd b08c 5dbd 79e7 07bc
00000020: 1a07 fb3b 4116 82bd ec7d 76bd d880 85bd
00000030: be8c 623d 4963 c13c afb6 60bd 3471 c63c
00000040: 2857 09bd 9915 a83d d314 963d c78d d73b
00000050: 37c1 033d a1ef 89b9 baeb a33b f93c bc3c
00000060: 43a8 1d3d 8892 8e3d 0323 a4bd 31df 9ebb
00000070: cfb7 9dbd d63c 15bd 24f7 bcbc b786 09bd
00000080: f4ee 8e3d e0b5 58bc ec71 503d a399 213c
00000090: 5827 c43c 64e9 a0bb 4bd3 653d c023 57bc
000000a0: a87d 503b c7eb 673d 586c 6d3d 8153 a03d
000000b0: 04de 163d 07c7 9d3d 9bd9 c33c 0c95 cebc
000000c0: 8026 983d e0d6 153d 6ac2 ef3c 15c0 043d
000000d0: 0a05 bd3c 9d4d 99bd 15b1 a7bd 6844 dc3b
000000e0: 5d73 213d af54 29bd 3143 80bd 733c a63d
000000f0: 7b20 723d 3983 59bd 34d3 a2bd 25fe 923c
00000100: b0c7 03bd 12b7 ba3c 719c 3c3d 01f7 56bd
00000110: 8a92 693d 4814 66bd 3239 813d 2d4d 63bd
00000120: 6adb 76bc 137c 8bbc 4439 8fbd 5c5c 413d
00000130: 15c2 a1bd 1f93 873c a282 683d 9072 a3bd
00000140: bb73 9e3d 0732 b23d 4335 87bd a1ff 893c
00000150: 6cb1 ae3d 1fc8 46bd 7805 f6bb 893f 293d
00000160: df28 b0bd 82c0 483d b881 b43d c62e dcbc
00000170: a8b7 d53c 98e9 4f3d dcae de3c 182d 84bb
00000180: c8eb 713d bde5 213d 3c9c a7bd 0fc7 473d
00000190: 8b39 60bb dede 153d 02a0 61bc 8e99 163d
000001a0: c84c 8fbd 311b 133d 05a7 7f3c cdec 14bd
000001b0: c94f af3d b39f 1fbd 5034 853b dd6b 03bd
000001c0: bc9b f9bb 6665 babc 3a16 963d 41ed 1cbc
000001d0: e87f 123d 3ef7 0bbd f8d3 503d 916d 853c
000001e0: e5ac 943d f797 833d 432a 95bc a708 693c
000001f0: e8d4 283d 9e21 a6bd be0c 3f3d bf68 51bd
00000200: 7e44 78bd 7113 cb3c f962 a13d ac93 963d
00000210: f584 adbc 95da dbbc 15e1 943d f712 8a3d
00000220: a62a 90bd ae7d 323c 701e 9abd 8c63 1c3c
00000230: 8ebb 6f3d 1251 29bc efaf 2f3d ba48 0ebd
00000240: 7f0a b9b9 c94f 473d d34d aabd 212c 3b3d
00000250: 4568 56bd ce94 97bd 573e 3f3d 9795 8e3d
00000260: 6cfa 4d3d b814 523d 69db 51bd 9695 653d
00000270: 3e40 8cbd cc5a 263d ed97 1cbd 801c 66bd
00000280: b7eb 923a ec70 8cbd 13d5 8a3d 39f0 0abc
00000290: 744a 3a3d a6f2 4cbd eb79 313d d02a 86bd
000002a0: fbd0 9d3d 0bb5 e7bc 83d8 063d 72aa 9a3b
000002b0: 5c0a 833c 2a26 083d f74c 8d3d 6eab 8f3d
000002c0: 91fb ccbc 0751 acbd aba8 723d f610 853d
000002d0: 9859 f6bc 085b 083a 91f5 41bd c79b 0ebd
000002e0: 01e6 34bd 3ca3 afbd a679 5ebd 44de 97bd
000002f0: da30 8c3b 6b2a 303d 72a0 68bd c6b4 85bd
00000300: ad66 813d efe0 93bd c488 deb9 63a3 b3bd
00000310: 3c56 91bd e6f2 0ebd 48d0 b6bc dd1c 86bc
00000320: e737 9cbd 98cc 6e3d 6175 b5ba 6c88 753d
00000330: 9079 663c bc12 a9bd e0af 983d 2bdb 853d
00000340: 5b67 813c 55d5 6abd 4988 35bd 1e8d ef3c
00000350: 7a60 4ebd ac07 97bc 7cc3 26bd 9b65 453c
00000360: 5765 433d 5d5f 1dbd 8464 ba3c 5eac ea3c
00000370: 8f7a 703d 5bf0 383d e937 08bd 3669 663d
00000380: fe25 3ebd a2cf afbd 9b15 51bd 9853 54bd
00000390: 3c20 e43c 6de0 cd3c ec00 903d c0d2 1a3c
000003a0: a1e8 febc 9da6 a1bd 0318 6f3d 7ce9 e23c
000003b0: d428 99bd fd64 363d 5b25 f23c 406d 3bbd
000003c0: 91fa a83d 501b 97bc 8657 3a3d e9f3 843d
000003d0: dfeb 51bd 02f5 183d fe53 67bd 2c93 36bd
000003e0: 3568 99bd 2458 e03c 8a71 9abd 5a10 933c
000003f0: 3008 0b3d 2354 853d b53e 713c a029 10bc

model_m.6.bias f4 [32]
-0.0015625539 -0.054303244 -0.0017005174 0.04294906 0.07101109 0.073033854 -0.074252695 0.079109065
0.08521692 0.046091035 0.07047616 -0.040164407 0.059001297 0.07801218 0.045172766 0.01974949
0.069694586 -0.08122801 -0.038594626 0.040018927 -0.0849317 0.07378181 0.07408399 -0.035692733
-0.039505422 0.048065923 -0.07833805 -0.039827075 -0.025123851 0.057916403 -0.044003945 -0.026838217
00000000: 9cce ccba 146d 5ebd e5e3 deba 5beb 2f3d
00000010: 436e 913d c692 953d cc11 98bd ef03 a23d
00000020: 3586 ae3d f4c9 3c3d ce55 903d 6f83 24bd
00000030: 58ab 713d dac4 9f3d 1407 393d afc9 a13c
00000040: 09bc 8e3d df5a a6bd 6615 1ebd e3ea 233d
00000050: acf0 adbd eb1a 973d 59b9 973d 8b32 12bd
00000060: 70d0 21bd c6e0 443d b36f a0bd b721 23bd
00000070: 89d0 cdbc c039 6d3d 7b3d 34bd d2db dbbc

fc.weight f4 [1, 6976]
0.004101906 0.008323141 0.011608848 0.0005669515 0.009138354 -0.0015052572 -0.011199788 0.008232087
-0.011007428 0.011031232 0.0010162683 -0.0041196984 -0.007031499 0.0068555395 -0.009731769 -0.0083078435
-0.0076532457 0.004373209 0.0044745365 -0.0009585554 0.011106621 0.0024674614 -0.0020050686 0.0015285092
0.003213284 -0.0011785504 0.004391769 0.0053700735 -0.004195864 0.011127501 -0.0072599114 0.007964649
0.00561091 -0.00021572504 0.008659422 0.0026536484 -0.006341127 -0.008535905 0.003172691 -0.0026035546
-0.0024746282 0.0031781376 -0.010651768 -0.009132532 -0.0021689674 0.005758879 0.0031505313 0.01052506
-0.010775166 -0.0020820508 -0.0043494185 0.0054434002 0.00856737 0.0016202006 0.0012311408 0.006616208
-0.006924085 -0.0030189166 -0.006773733 -0.0073675266 0.0058773053 -0.0058917953 0.008098763 -0.0060953517
-0.00061050046 0.0045901737 -0.011453389 0.009209664 0.00965354 0.00952852 -0.0009308696 0.0021220562
0.0035946444 1.5376168e-05 0.0017280903 0.0035525034 0.0016582046 0.006078333 0.0103418995 -0.0018621418
-0.0076629403 -0.003190292 -0.0022355176 -0.0065898243 0.0028994114 0.0022502588 0.010256244 -0.0005269163
0.00450202 -0.0023901712 0.00083504396 -0.0041229236 0.0008487395 -0.00068301393 -0.011762718 -0.0056189243
0.0029261203 -0.008690828 -0.0039224336 -0.0016022377 -0.0063795 -0.011964795 -0.010219528 0.0019864982
-0.00069515203 0.010143016 0.003775469 0.008657599 0.00965409 -0.005827253 0.0039123897 -0.0040365322
-0.00021973977 0.0077852937 0.010923747 -0.009067152 0.008761835 -0.009827371 0.009451969 -0.0041904785
0.0054210704 -0.003408262 -0.004348668 -0.010473875 -0.004675477 0.0068283123 -0.0035156456 0.0046434063
-0.008817601 0.0046305778 0.008743402 0.0074878223 -0.005299233 0.0014090034 0.0011289376 0.005960216
0.006002557 -0.010361953 -0.011332715 0.0005265154 0.0056131184 0.0006550334 0.010140825 -0.0030228691
-0.0060507697 0.004594399 -0.0036365234 -0.009540185 -0.0049948306 0.01088401 -0.0012736019 0.004825846
0.0022125077 -0.0008325239 -0.0044889175 -0.0079413885 0.007045779 0.0013084821 -0.0016112723 0.008197509
-0.009099472 0.0028553687 -0.010174004 0.0074026315 -0.0034227157 -0.0012321775 -0.008925059 -0.009030024
0.00021675942 -0.0014751654 0.0072748405 0.0019202464 0.010494273 -0.0059843073 -0.011126068 -0.0052004983
0.009486529 -0.0045181946 0.0019221328 -0.005268411 -0.0006873478 0.010830355 0.010776091 -0.0071019414
0.0043713143 -0.006866008 -0.0011489483 0.0010346929 0.0042874594 -0.01154751 -0.0041637276 0.002451028
0.0058865855 -0.00679195 -0.00017411799 -0.0036066456 -0.011669941 -0.011446963 -0.0104021 -0.011778233
0.003201135 0.004570924 -0.00047392416 0.006945068 0.0057801134 -0.0022868686 0.007269134 0.0024848613
0.0012354862 0.0008281729 0.0012699233 -0.009926229 -0.006831093 0.0019400455 0.009609432 -0.009731511
-0.005813651 -0.0012985283 -0.0069896867 0.0063943416 -0.011867341 -0.00031441383 0.010167138 -0.0038019654
-0.010805961 -0.0013891556 -0.009133634 -0.008035712 0.00892803 0.0014989015 -0.009468855 -0.00809398
-0.011869169 0.009028047 -0.00057508657 -0.0038441112 -0.010077461 0.0013391626 0.0046246895 -0.002676958
0.0054105613 0.0045563146 0.011197741 0.004388173 0.007668292 -0.008362459 -0.0074596936 0.0030763787
0.01112854 0.011412176 -0.011599737 -0.0010588364 0.0035086665 -0.005360708 -0.010642465 -0.009205981
00000000: 4869 863b c95d 083c 0a33 3e3c 799f 143a
00000010: 09b9 153c 0d4c c5ba 517f 37bc e0df 063c
00000020: 8058 34bc 57bc 343c 4e34 853a 89fe 86bb
00000030: 7d68 e6bb 6fa4 e03b ff71 1fbc 9f1d 08bc
00000040: 14c8 fabb 234d 8f3b 229f 923b 9047 7bba
00000050: 8bf8 353c 22b5 213b 7867 03bb 4258 c83a
00000060: f695 523b 9779 9aba d4e8 8f3b 71f7 af3b
00000070: 757d 89bb 1f50 363c 8de4 edbb 297e 023c
00000080: b9db b73b 4034 62b9 40e0 0d3c d5e8 2d3b
00000090: 3bc9 cfbb 2eda 0bbc ecec 4f3b 66a0 2abb
000000a0: 5f2d 22bb 4d48 503b c184 2ebc 9ea0 15bc
000000b0: 3c25 0ebb fab4 bc3b 2579 4e3b 4d71 2c3c
000000c0: 528a 30bc 0473 08bb 9185 8ebb 8d5e b23b
000000d0: 275e 0c3c e95c d43a 3b5e a13a c6cc d83b
000000e0: 6fe3 e2bb 04d9 45bb 31f6 ddbb 4b6b f1bb
000000f0: 6996 c03b f60f c1bb adb0 043c 84bb c7bb
00000100: fe09 20ba 2b69 963b ffa6 3bbc 21e4 163c
00000110: e229 1e3c 821d 1c3c 9a05 74ba 3212 0b3b
00000120: 2094 6b3b 12fc 8037 1781 e23a 1ed1 683b
00000130: 1d58 d93a c12c c73b 1271 293c 1c13 f4ba
00000140: 6719 fbbb 3814 51bb c381 12bb 74ef d7bb
00000150: 0d04 3e3b 1479 133b ce09 283c c120 0aba
00000160: ae85 933b 6ba4 1cbb dae6 5a3a 9719 87bb
00000170: f27d 5e3a 4a0c 33ba 6ab8 40bc f41e b8bb
00000180: 27c4 3f3b fa63 0ebc c287 80bb 2d02 d2ba
00000190: 200b d1bb fd07 44bc cf6f 27bc e92f 023b
000001a0: dd3a 36ba e52e 263c dc6d 773b 9ad8 0d3c
000001b0: 302c 1e3c 8bf2 bebb 8133 803b e344 84bb
000001c0: f269 66b9 c71b ff3b 84f9 323c 648e 14bc
000001d0: cd8d 0f3c fb02 21bc 6edc 1a3c 4850 89bb
000001e0: 3ca3 b13b 265d 5fbb 457f 8ebb 9e9a 2bbc
000001f0: be34 99bb 09c0 df3b bf66 66bb b727 983b
00000200: b377 10bc 1abc 973b 7c40 0f3c 685c f53b
00000210: 30a5 adbb 4fae b83a dcf8 933a ea4d c33b
00000220: 19b1 c43b 2ec5 29bc daac 39bc da05 0a3a
00000230: 40ee b73b 8cb6 2b3a b425 263c 541b 46bb
00000240: 8945 c6bb 9d8c 963b bd52 6ebb 704e 1cbc
00000250: adab a3bb d952 323c fdee a6ba 2122 9e3b
00000260: b8ff 103b bc3d 5aba c517 93bb 991c 02bc
00000270: 47e0 e63b 6081 ab3a 5431 d3ba d84e 063c
00000280: f415 15bc 2321 3b3b deb0 26bc c691 f23b
00000290: a44f 60bb 0481 a1ba 693a 12bc aaf2 13bc
000002a0: ea49 6339 565a c1ba c961 ee3b c7b0 fb3a
000002b0: 2cf0 2b3c 0218 c4bb 1d4a 36bc f168 aabb
000002c0: 636d 1b3c 5d0d 94bb 13f0 fb3a a2a2 acbb
000002d0: 212f 34ba cd71 313c 348e 303c 67b7 e8bb
000002e0: 3e3d 8f3b 40fc e0bb 4f98 96ba 889e 873a
000002f0: d17d 8c3b c431 3dbc e16f 88bb 6da1 203b
00000300: 42e4 c03b 028f debb 7193 36b9 795d 6cbb
00000310: 4833 3fbc 0b8c 3bbc 926d 2abc 7df9 40bc
00000320: 22ca 513b b1c7 953b 0679 f8b9 7493 e33b
00000330: 1b67 bd3b 4adf 15bb ea31 ee3b 0ed9 223b
00000340: 0af0 a13a be19 593a 8e73 a63a 9fa1 22bc
00000350: 5dd7 dfbb 2049 fe3a e170 1d3c ea70 1fbc
00000360: 7080 bebb 6133 aaba be09 e5bb a087 d13b
00000370: 3c6f 42bc e9d7 a4b9 1194 263c 652a 79bb
00000380: 7c0b 31bc 5414 b6ba 3da5 15bc 38a8 03bc
00000390: df46 123c ca76 c43a 4223 1bbc 9d9c 04bc
000003a0: e776 42bc 60ea 133c 68c1 16ba 7ced 7bbb
000003b0: ef1b 25bc d786 af3a b58a 973b e76f 2fbb
000003c0: 144b b13b 234d 953b bb76 373c aaca 8f3b
000003d0: 4c46 fb3b b202 09bc 7270 f4bb 129d 493b
000003e0: 7b54 363c 23fa 3a3c d30c 3ebc a7c8 8aba
000003f0: a8f1 653b e1a8 afbb bc5d 2ebc afd4 16bc
