checkpoints_avg_on_data/run_1/1d_cnn_ckpt_9.pth (torch, 52296 bytes, 7 tensors)

model_m.0.weight f4 [8, 1, 8]
0.17910075 -0.093523435 0.21582529 -0.27021015 -0.08177943 -0.15239044 -0.095515296 -0.29976207
0.23085858 -0.34695232 0.09274158 -0.106711656 -0.1291426 0.030913815 -0.2818447 -0.032546084
-0.010394349 -0.23506507 0.2821026 -0.26166373 0.021422949 0.23892154 0.3473845 -0.22748318
-0.04753861 0.115528174 -0.06388312 0.29408026 -0.1853457 0.24396622 -0.107979715 0.34496954
-0.0028677136 -0.14380988 -0.039497245 0.18358362 -0.21064332 0.23091516 0.29116842 -0.038517036
0.3242376 0.066784985 0.26218516 0.11676231 0.0062620435 -0.310255 -0.2359281 0.32509008
0.19986577 -0.035234686 0.1408092 -0.14536177 -0.16766089 0.057542194 -0.092096694 0.10235056
-0.21451733 -0.10127394 -0.0002557311 0.26075414 0.050403375 0.31864125 0.15200035 0.024757016
00000000: 3066 373e 3789 bfbd 4e01 5d3e fc58 8abe
00000010: f97b a7bd 3d0c 1cbe 869d c3bd 6a7a 99be
00000020: 3166 6c3e bca3 b1be 4cef bd3d a48b dabd
00000030: f53d 04be f83e fd3c f34d 90be 0b4f 05bd
00000040: 0f4d 2abc e6b4 70be c16f 903e caf8 85be
00000050: 2e7f af3c d9a7 743e 62dc b13e 5af1 68be
00000060: d8b7 42bd 099a ec3d 27d5 82bd b091 963e
00000070: 43cb 3dbe 48d2 793e 7824 ddbd d99f b03e
00000080: 40f0 3bbb e642 13be ddc7 21bd 58fd 3b3e
00000090: e2b2 57be 0675 6c3e 0714 953e 0ac4 1dbd
000000a0: 7902 a63e 91c6 883d 223d 863e 1421 ef3d
000000b0: d431 cd3b bed9 9ebe 2397 71be 3572 a63e
000000c0: 9da9 4c3e 3f52 10bd 4930 103e b7d9 14be
000000d0: 4caf 2bbe 5db1 6b3d 319d bcbd 2c9d d13d
000000e0: 6eaa 5bbe b668 cfbd a613 86b9 9181 853e
000000f0: c573 4e3d f224 a33e fba5 1b3e 3acf ca3c

model_m.0.bias f4 [8]
-0.27657658 0.1319268 0.17761324 -0.22640629 -0.26111457 0.084903255 0.050964013 0.12951647
00000000: 729b 8dbe d217 073e 3fe0 353e 0dd7 67be
00000010: cfb0 85be c2e1 ad3d a4bf 503d f79f 043e

model_m.3.weight f4 [16, 8, 8]
-0.011001989 0.1049144 0.1004719 0.08404045 -0.09511317 -0.073342994 0.112813205 0.041788593
-0.07871951 -0.018316617 0.097078905 -0.09582333 0.10888578 -0.031548534 -0.074267976 0.112352595
-0.008235717 -0.051898003 0.08504987 0.12290535 -0.06135341 -0.004009848 0.09968831 0.015033593
0.027910352 -0.030493945 0.09716487 -0.0015774816 -0.048621535 -0.117783725 0.008751765 -0.12408435
0.04785706 0.02111502 0.047292784 -0.0230328 -0.109056845 -0.109766334 -0.12023336 0.028518975
-0.07092644 -0.10471692 -0.08760381 -0.06886334 0.060347382 0.009137038 0.106368594 0.11469147
0.09747412 -0.07468349 0.05418636 -0.034418344 0.052523263 -0.07440501 -0.05853401 0.10463586
0.08782677 0.112797625 0.053812303 0.07933385 0.04818363 0.09871438 -0.107030734 0.082978494
-0.06445949 -0.019719392 -0.018340975 0.09679617 -0.11397554 -0.070443004 0.020672098 -0.08614722
0.07587461 -0.10130568 0.02412793 0.093017414 0.076609716 -0.11091052 -0.08778848 0.108377084
0.02001068 0.110061824 -0.06847201 0.020803615 0.10858013 0.124123186 0.12476149 -0.05990602
0.108767 -0.049788088 0.088764235 -0.08045578 0.11574116 -0.09309845 0.016673386 0.0614561
0.0345788 -0.01129894 -0.08866227 -0.045174927 0.078277856 0.09600358 -0.032584727 -0.05650282
0.11976659 0.025263488 -0.09532046 0.0034369677 0.047326133 -0.09054941 0.06566012 0.09856862
-0.094262674 0.06742065 0.08872251 -0.038028583 -0.101140246 -0.044990703 0.039793566 0.096246645
-0.08346377 -0.012569994 -0.011239275 -0.083355576 -0.10600972 0.033134475 -0.043264613 -0.003575638
0.015194908 0.021930724 0.123686165 0.068071395 0.010486603 -0.02031909 0.038453385 -0.119358554
-0.09440285 0.044507697 -0.07155129 0.009816304 -0.005316958 0.11918779 -0.018524662 0.029790431
-0.06022194 -0.029133126 0.06703098 0.122314915 -0.017894521 -0.12325309 -0.05492051 -0.05053398
-0.019553825 0.099052384 -0.12128927 0.037684828 0.05740647 -0.054566577 -0.11781183 0.12491588
0.06759429 0.06721255 -0.048493773 0.008273587 -0.060288996 0.057429045 0.103981465 0.037409335
-0.051360026 -0.05959785 -0.03761907 -0.117714465 -0.016451076 0.0685723 -0.026071474 -0.023321614
-0.01593189 0.015653819 0.07675853 -0.038042843 -0.08838552 -0.037351087 0.0069050193 -0.061075702
-0.06991911 -0.027340725 0.00931254 -0.084526986 0.052542627 0.0771988 0.06892082 -0.075075686
-0.05534467 -0.120783 -0.108312204 -0.105548516 -0.0016421974 0.09823899 -0.04251167 0.10962598
-0.08884981 -0.0020975173 -0.116524875 -0.06750414 0.0418749 -0.08942209 0.05072522 -0.027536392
0.055675536 0.034713864 -0.007970646 -0.1007891 -0.059565276 0.115453154 0.018679336 -0.025543943
-0.062515825 -0.11162506 -0.015457079 0.08425325 -0.120977536 0.009017482 0.04829587 0.058797404
-0.08224006 0.06329781 0.0382106 0.056126297 -0.09872948 0.029147416 -0.047817707 -0.08199184
0.076900706 0.07532774 -0.04198253 -0.11233877 0.12076707 -0.02333422 -0.016367212 -0.08016546
-0.026320502 -0.029811546 -0.08511031 0.11725885 0.028732017 -0.04005906 -0.06361297 0.042365238
-0.03885138 -0.07704465 0.06904802 -0.079699844 0.06934193 0.07710159 -0.0665641 -0.06258175
00000000: b041 34bc 5cdd d63d 36c4 cd3d 661d ac3d
00000010: b2ca c2bd da34 96bd 9c0a e73d 842a 2b3d
00000020: b237 a1bd bb0c 96bc 4ed1 c63d 063f c4bd
00000030: 82ff de3d 0939 01bd cf19 98bd 1e19 e63d
00000040: 1aef 06bc 0093 54bd a02e ae3d cdb5 fb3d
00000050: b74d 7bbd 0b65 83bb 6229 cc3d 764f 763c
00000060: 40a4 e43c 70ce f9bc 60fe c63d 80c3 ceba
00000070: 6027 47bd 9838 f1bd 9063 0f3c f01f febd
00000080: c405 443d 68f9 ac3c 14b6 413d 48af bcbc
00000090: 3259 dfbd 2ccd e0bd e83c f6bd a0a0 e93c
000000a0: e241 91bd d375 d6bd a069 b3bd 3908 8dbd
000000b0: d12e 773d 84b3 153c c7d7 d93d 5de3 ea3d
000000c0: 83a0 c73d a8f3 98bd 84f2 5d3d 40fa 0cbd
000000d0: a222 573d a761 98bd 5cc1 6fbd 534b d63d
000000e0: 86de b33d 7102 e73d 4a6a 5c3d c979 a23d
000000f0: 335c 453d c42a ca3d ee32 dbbd a1f0 a93d
00000100: 5603 84bd 908a a1bc d03f 96bc 123d c63d
00000110: 026c e9bd 6c44 90bd 8858 a93c f46d b0bd
00000120: 2664 9b3d 5a79 cfbd f0a7 c53c ea7f be3d
00000130: 8ee5 9c3d 0e25 e3bd 72ca b3bd cef4 dd3d
00000140: 70ed a33c 1868 e13d 0e3b 8cbd 586c aa3c
00000150: 425f de3d 4c34 fe3d f482 ff3d 0460 75bd
00000160: 3cc1 de3d 98ee 4bbd 06ca b53d 00c6 a4bd
00000170: b409 ed3d 66aa bebd a096 883c 64b9 7b3d
00000180: 80a2 0d3d 301f 39bc 9094 b5bd 5809 39bd
00000190: 2450 a03d 869d c43d 9077 05bd 806f 67bd
000001a0: 3048 f53d 60f5 ce3c 6037 c3bd c03e 613b
000001b0: 0cd9 413d f871 b9bd d078 863d 58de c93d
000001c0: ca0c c1bd d613 8a3d 26b4 b53d dcc3 1bbd
000001d0: 9e22 cfbd 2c48 38bd 94fe 223d f61c c53d
000001e0: 0eef aabd 60f2 4dbc f024 38bc 54b6 aabd
000001f0: a01b d9bd 04b8 073d 3c36 31bd 4055 6abb
00000200: 10f4 783c 10a8 b33c 2c4f fd3d 0469 8b3d
00000210: 00d0 2b3c 3874 a6bc 4c81 1d3d 4272 f4bd
00000220: 4856 c1bd b44d 363d 7c89 92bd 90d4 203c
00000230: e039 aebb ba18 f43d 08c1 97bc 100b f43c
00000240: 48ab 76bd 98a8 eebc 8a47 893d 3e80 fa3d
00000250: 8897 92bc 1e6c fcbd 54f4 60bd b8fc 4ebd
00000260: 582f a0bc fadb ca3d 8266 f8bd 685b 1a3d
00000270: 0c23 6b3d 3481 5fbd 5447 f1bd e6d3 ff3d
00000280: e06e 8a3d bca6 893d 68a1 46bd f08d 073c
00000290: 98f1 76bd b83a 6b3d 3cf4 d43d 883a 193d
000002a0: e45e 52bd e01c 74bd 7416 1abd 4814 f1bd
000002b0: 68c4 86bc a26f 8c3d d893 d5bc f80c bfbc
000002c0: 9883 82bc 703c 803c 9433 9d3d d0d2 1bbd
000002d0: 7803 b5bd 74fd 18bd 8043 e23b 842a 7abd
000002e0: c031 8fbd a8f9 dfbc a093 183c 7c1c adbd
000002f0: f036 573d 681a 9e3d 5c26 8d3d 48c1 99bd
00000300: 18b1 62bd 145d f7bd cad2 ddbd d229 d8bd
00000310: 003f d7ba 8631 c93d b820 2ebd 9683 e03d
00000320: e4f6 b5bd 8076 09bb 98a4 eebd 9c3f 8abd
00000330: 0485 2b3d ee22 b7bd 40c5 4f3d 0094 e1bc
00000340: 080c 643d 2030 0e3d 5097 02bc 846a cebd
00000350: b8fa 73bd b472 ec3d 6805 993c 8841 d1bc
00000360: 4c08 80bd ae9b e4bd b03f 7dbc f88c ac3d
00000370: 12c3 f7bd 10be 133c e4d1 453d 8cd5 703d
00000380: 7a6d a8bd 48a2 813d b882 1c3d b0e4 653d
00000390: ae32 cabd 90c6 ee3c 80dc 43bd 56eb a7bd
000003a0: 1e7e 9d3d 6e45 9a3d e0f5 2bbd de11 e6bd
000003b0: ba54 f73d 6827 bfbc 8814 86bc ca2d a4bd
000003c0: 189e d7bc 5837 f4bc 504e aebd 6825 f03d
000003d0: 685f eb3c f814 24bd 8447 82bd 2c87 2d3d
000003e0: a022 1fbd 96c9 9dbd 0c69 8d3d ac39 a3bd
000003f0: 2403 8e3d 70e7 9d3d c252 88bd dc2a 80bd

model_m.3.bias f4 [16]
0.09896551 -0.05685173 0.011199281 -0.039419428 -0.051964387 -0.015673729 -0.063472465 -0.08677858
-0.071257025 0.01961685 -0.094191164 -0.016373754 0.10931949 0.070957854 0.026763618 0.05632156
00000000: 6eae ca3d 5cdd 68bd 307d 373c 4476 21bd
00000010: 9cd8 54bd 3166 80bc dafd 81bd f8b8 b1bd
00000020: 34ef 91bd 84b3 a03c 4ce7 c0bd 4022 86bc
00000030: e6e2 df3d 5a52 913d 603f db3c 70b1 663d

model_m.6.weight f4 [32, 16, 8]
0.025216764 0.023669012 -0.024585765 0.08791424 -0.016070481 0.018943097 0.0861283 0.07252147
-0.054073837 -0.07946734 0.07592037 0.022288432 -0.052404642 0.086864516 -0.03189796 -0.08561218
-0.049495142 -0.058777425 -0.0029912565 -0.07166889 -0.019684054 -0.08376726 -0.08380927 -0.008581636
-0.07477735 -0.08079482 -0.07948297 -0.042184096 -0.022615029 0.0136880735 0.052945144 -0.087176226
-0.0026056236 0.05371029 -0.02268119 0.05922577 -0.01220107 -0.063172795 0.067879155 0.026553988
-0.028860377 -0.05639064 0.047958117 0.014408573 -0.024899544 -0.08247623 0.033999894 0.067428134
-0.014532739 -0.012979164 0.063734494 -0.040651593 0.06665023 0.0615388 -0.0198277 -0.041157797
0.06636767 -0.0027082933 -0.04536495 -0.013852289 0.009280567 0.008208625 -0.024806844 0.0079592215
0.08188454 -0.0071345554 0.043745983 0.02339365 0.07316044 0.06978675 0.012984843 -0.07095556
0.026506908 -0.0038454034 -0.06611525 -0.023943845 0.032868337 0.016721228 0.08131499 -0.05687071
0.06926438 -0.07665594 0.068440095 -0.085312046 0.0036675977 -0.06058838 -0.06146378 0.003747508
0.046815086 0.049063157 0.069927044 0.08585288 -0.022738203 0.032681372 -0.0456518 -0.005094869
0.06670394 -0.016287707 -0.01664138 -0.0643788 -0.0038336713 0.07031401 -0.057064876 0.016072057
-0.060247026 0.050006893 -0.08022978 0.046233892 -0.060106646 0.046815597 -0.005168855 0.07340009
-0.010306005 0.0819 -0.051967654 -0.055857405 0.059006535 -0.009544367 0.01575475 -0.08696656
0.085766695 -0.027786367 -0.08252637 -0.0029958412 -0.07716194 0.06192546 0.074188836 -0.0010770222
-0.0043619224 -0.08595154 0.06314957 -0.027214538 0.033381645 0.045748267 -0.010946592 -0.027111031
0.08448638 0.07282668 -0.020699477 0.053119294 -0.00845194 0.061652724 -0.05334656 0.022063928
-0.028321175 -0.06439005 -0.08515229 0.019834781 -0.0083242655 -0.03637942 0.015457441 -0.0857473
0.06047823 -0.069462866 -0.06293596 0.055824015 0.039318487 0.00890899 0.04837645 -0.0062185144
0.008796405 0.07318693 -0.034135237 -0.04902984 0.08074322 -0.046795562 -0.061320312 -0.04142918
0.06660443 -0.053190656 -0.08190507 0.03934475 0.06290896 -0.016675819 -0.07830706 -0.06493284
0.012066611 0.0070406627 -0.07757699 0.0068919472 -0.01920515 0.028569873 0.05505018 -0.073517844
-0.01932394 -0.0053033694 -0.07401093 -0.0032594898 0.008011579 -0.04486965 0.08658831 0.07855674
-0.03309851 0.031335235 0.050901297 -0.043384902 -0.006595971 0.06342604 0.018876087 0.010871295
0.07929043 0.038187016 0.024290452 0.070065476 -0.055377383 0.015415706 -0.0049474034 -0.05698041
0.07957413 -0.01817743 -0.059628256 -0.028570063 -0.08414399 0.009919808 0.070916474 0.023902046
0.084946066 0.06772715 0.031735163 -0.057360362 -0.014574391 0.08437175 -0.05898482 0.01411106
-0.021160241 -0.04951445 0.020735348 -0.058107372 0.05535656 -0.0082624955 0.08799329 -0.026540186
0.050671812 0.020850986 -0.0075667584 -0.027314862 -0.07843826 -0.0038112553 -0.035767455 -0.031386238
0.0780056 0.0031019947 -0.009152214 -0.03332698 0.036009304 0.011812613 -0.044536263 0.043680694
-0.06352424 -0.08650187 -0.04284492 0.016329154 -0.07345023 0.07108935 0.08482722 0.017161852
00000000: 6393 ce3c 84e5 c13c 1668 c9bc 620c b43d
00000010: 3ea6 83bc 8e2e 9b3c 0964 b03d 2386 943d
00000020: 877c 5dbd c6bf a2bd 247c 9b3d 3b96 b63c
00000030: 40a6 56bd 06e6 b13d 6fa7 02bd 7055 afbd
00000040: 6bbb 4abd 99c0 70bd f508 44bb 24c7 92bd
00000050: 7440 a1bc 2b8e abbd 32a4 abbd fd99 0cbc
00000060: de24 99bd c177 a5bd f8c7 a2bd 3bc9 2cbd
00000070: 2743 b9bc f143 603c 02dd 583d 7389 b2bd
00000080: 1cc3 2abb 52ff 5b3d e7cd b9bc b996 723d
00000090: ffe6 47bc bd60 81bd 3a04 8b3d c087 d93c
000000a0: 996c ecbc dff9 66bd bb6f 443d ef11 6c3c
000000b0: 21fa cbbc 4ce9 a8bd 7943 0b3d c317 8a3d
000000c0: ba1a 6ebc 8fa6 54bc 3b87 823d 4982 26bd
000000d0: ea7f 883d 1c10 7c3d b36d a2bc 1495 28bd
000000e0: c6eb 873d 9f7d 31bb 99d0 39bd b6f4 62bc
000000f0: 850d 183c 787d 063c b937 cbbc 6567 023c
00000100: 15b3 a73d fdc8 e9bb fd2e 333d 0aa4 bf3c
00000110: 24d5 953d 5bec 8e3d 61be 543c 2651 91bd
00000120: 0425 d93c 2a03 7cbb 6f67 87bd e225 c4bc
00000130: f3a0 063d f5fa 883c 7988 a63d 43f1 68bd
00000140: 7cda 8d3d cafd 9cbd 522a 8c3d 15b8 aebd
00000150: 145c 703b 852b 78bd 72c1 7bbd c098 753b
00000160: 2dc1 3f3d 73f6 483d e935 8f3d a2d3 af3d
00000170: 7845 babc e7dc 053d 62fd 3abd dcf2 a6bb
00000180: 139c 883d cc6d 85bc 8153 88bc 08d9 83bd
00000190: 553e 7bbb cb00 903d dcbc 69bd 8ca9 833c
000001a0: 96c5 76bd 07d4 4c3d 834f a4bd c05f 3d3d
000001b0: 6332 76bd b6c1 3f3d 805f a9bb c952 963d
000001c0: 85da 28bc 30bb a73d 09dc 54bd bcca 64bd
000001d0: d6b0 713d fa5f 1cbc 1b10 813c 861b b2bd
000001e0: 73a6 af3d 3ca0 e3bc 9603 a9bd e055 44bb
000001f0: 1407 9ebd 8da5 7d3d 51f0 973d de2a 8dba
00000200: 75ee 8ebb 5c07 b0bd 9054 813d 06f1 debc
00000210: 31bb 083d 8962 3b3d 5659 33bc f417 debc
00000220: 3207 ad3d 2826 953d f391 a9bc 9e93 593d
00000230: 017a 0abc 9187 7c3d ec81 5abd 69bf b43c
00000240: cf01 e8bc eede 83bd 5364 aebd 8d7c a23c
00000250: 8062 08bc 9602 15bd 3541 7d3c 489c afbd
00000260: 05b8 773d 8c42 8ebd 92e4 80bd b9a7 643d
00000270: 6c0c 213d 03f7 113c 6226 463d aec4 cbbb
00000280: cc1e 103c 07e3 953d 64d1 0bbd 83d3 48bd
00000290: b45c a53d b4ac 3fbd 022b 7bbd a5b1 29bd
000002a0: e767 883d 72de 59bd d8bd a7bd f627 213d
000002b0: 6ad6 803d ba9b 88bc 745f a0bd 82fb 84bd
000002c0: 09b3 453c 5cb5 e63b afe0 9ebd d8d5 e13b
000002d0: 1e54 9dbc 5e0b ea3c 4c7c 613d 8690 96bd
000002e0: 3d4d 9ebc e3c7 adbb 0b93 97bd 2a9d 55bb
000002f0: ff42 033c 3dc9 37bd 3655 b13d 5be2 a03d
00000300: 4e92 07bd 6059 003d e17d 503d 5eb4 31bd
00000310: 0423 d8bb 83e5 813d 06a2 9a3c 841d 323c
00000320: 0563 a23d fd69 1c3d c5fc c63c 7d7e 8f3d
00000330: 65d3 62bd 2892 7c3c d41d a2bb 4a64 69bd
00000340: c3f7 a23d d5e8 94bc c23c 74bd c40b eabc
00000350: af53 acbd b186 223c a83c 913d 39ce c33c
00000360: 34f8 ad3d 88b4 8a3d bbfc 013d b3f2 6abd
00000370: 6dc9 6ebc 19cb ac3d 119a 71bd 1332 673c
00000380: 3e58 adbc aacf 4abd 2ddd a93c ff01 6ebd
00000390: 8fbd 623d 6b5f 07bc d335 b43d ce6a d9bc
000003a0: 3f8d 4f3d b0cf aa3c 92f2 f7bb 6bc3 dfbc
000003b0: 3da4 a0bd 41c6 79bb e580 12bd db8e 00bd
000003c0: 66c1 9f3d d64a 4b3b 2bf3 15bc df81 08bd
000003d0: 7e7e 133d b189 413c a86b 36bd 87ea 323d
000003e0: ff18 82bd e427 b1bd 287e 2fbd b8c4 853c
000003f0: 136d 96bd 4b97 913d e5b9 ad3d 0397 8c3c

model_m.6.bias f4 [32]
-0.044856984 0.057424653 -0.041990418 0.03792865 0.0402352 -0.031594332 0.030776331 0.018015832
-0.08106074 -0.05618967 0.05839142 -0.0070680156 -0.0012705168 0.060215507 0.06264398 0.06759782
-0.03131754 -0.072551034 -0.06609897 0.024293875 0.020538611 -0.084516734 0.08692144 0.011296009
0.018234724 -0.0061779483 0.062101293 -0.041123796 -0.019922161 0.012600759 0.013486439 0.06445945
00000000: f5bb 37bd 1d36 6b3d 25fe 2bbd 125b 1b3d
00000010: aacd 243d 0f69 01bd a51e fc3c f095 933c
00000020: 2c03 a6bd 2427 66bd d72b 6f3d d09a e7bb
00000030: 7887 a6ba 89a4 763d 7d4b 803d ba70 8a3d
00000040: d246 00bd a395 94bd e65e 87bd f303 c73c
00000050: 9740 a83c 1c17 adbd de03 b23d e512 393c
00000060: fd60 953c 6370 cabb ed5d 7e3d 6d71 28bd
00000070: cd33 a3bc 6a73 4e3c 3af6 5c3c 5103 843d

fc.weight f4 [1, 6976]
-0.009736184 -0.003157658 0.0109981205 0.0004469862 -0.008380054 -0.0034741953 -0.00024246375 0.006559705
-0.010087744 -0.001708295 0.003231096 -0.009680759 -0.0017989585 0.00977128 -0.0040372466 0.001250454
0.006559065 -0.006606448 0.010273857 0.008858483 0.011378948 -0.008956679 0.007161986 0.011226596
-0.0048017018 -0.0012669414 -0.010226504 0.0017758793 0.011694347 -0.010359826 0.0010185951 -0.00338291
0.009148313 0.006464386 0.011555459 0.000620276 0.002204323 -0.0011127931 -0.008178618 -0.0018823583
0.0029015983 0.0003930141 0.005599257 0.0012114625 0.0036631173 -0.01186259 -0.011370796 0.009386236
0.005754077 0.0042007165 -0.0052252505 0.011039753 0.0040266383 0.004619305 -0.0012313931 0.004394768
0.0068176147 0.002428138 -0.0029537429 -0.0045027193 -0.0034931963 0.006397545 0.0055380277 0.0045588203
-0.0003783149 0.0013125679 0.003317342 -0.00081574783 0.00024238114 -0.00965379 -0.003344999 0.0063990033
0.0052800174 -0.0018072511 0.007591398 -0.008032888 0.008452729 0.0008173493 -0.011788135 -0.0033787533
0.007967429 -0.0066422266 0.004548005 -0.0010474836 -0.009020751 0.009591738 0.0049792486 -0.0029665974
0.006497298 0.0037084518 0.011103022 -0.0032817132 -0.00018567084 0.00032292146 -0.004619786 -0.004918121
0.007961624 0.0057944986 -0.0016829789 0.00090760505 -0.00891261 0.0032856385 -0.007953141 0.010953416
0.00540774 -0.00908905 -0.006928211 -0.0041982727 0.010985821 0.003689337 -0.005528215 -0.010374955
0.0055725235 -0.0050265277 0.011664047 0.005854 0.0031373245 -0.0092261005 -0.0017516324 -0.008690325
-0.00069943554 0.0005858766 -0.0026316624 -0.011392981 -0.009268828 0.00553654 0.00871278 0.0014471152
0.0009557185 0.0037307257 -0.009491412 -0.00911667 0.005524077 0.0029019513 0.009234604 0.0071138847
-0.011319593 -0.006945724 -0.0030150374 0.0069157975 0.009144385 0.005511221 0.004214021 -0.0021488515
-0.0027415892 0.009817996 -0.009822633 -0.003918687 -0.010444913 -0.004539708 0.009948346 -0.009643748
0.010877459 -0.008021797 0.011938268 -0.0034776567 -0.011207832 0.0022207887 0.0020248576 0.0076196175
0.0038344588 -0.00831517 -0.009874268 -0.01143107 -0.0033685577 0.007842554 0.011520804 -0.0020245204
-0.0059657395 0.0069289673 0.010195332 -0.003419752 0.0058909655 0.007991694 -0.0054559074 0.011963384
-0.0063785464 -0.0022272633 0.009720816 0.010269313 -0.00903437 0.0020578818 -0.00849888 0.004080773
-0.000872432 -0.00049702247 0.008867562 -0.0019947637 -0.006660871 -0.008020274 0.0048627094 0.0095743
0.004500981 -0.00806915 -5.0483435e-05 0.005835744 -0.003119203 0.0044722483 0.009036566 0.009180267
-0.007853382 0.008062694 -0.003084311 -0.002760541 -0.008769311 0.008125723 0.0042658783 -0.002943663
0.0069173737 0.0018399019 0.008919168 -0.0018501654 -0.003132642 -0.0032778014 0.0018144168 -0.011064006
-0.0066107973 -0.000401967 0.0029079793 0.008843334 0.003621566 -0.000688994 0.008414909 -0.0068678753
-0.011719193 -0.0051702997 -0.01029458 -0.0035705492 -0.0053653535 0.011383028 0.008843746 -0.011545241
0.011268308 0.00798163 -0.008193908 0.0087658195 -0.0057516955 -0.0069828206 -0.008919891 -0.009812912
0.0007368931 0.011845585 0.0068194424 0.0028456019 0.010928974 0.011632728 -0.008083391 0.0056181294
0.0021890735 -0.0101867905 0.008197365 -0.0015378271 -0.005003121 0.00024495745 0.0089406725 0.011975013
00000000: 8484 1fbc b6f0 4ebb 7631 343c 7959 ea39
00000010: 7e4c 09bc 53af 63bb de3d 7eb9 cbf2 d63b
00000020: 1147 25bc dee8 dfba ccc0 533b 0c9c 1ebc
00000030: 08cb ebba b817 203c e14a 84bb 46e6 a33a
00000040: 6ded d63b e77a d8bb ae53 283c 2c23 113c
00000050: c46e 3a3c 09bf 12bc 18af ea3b c2ef 373c
00000060: 9857 9dbb 800f a6ba 118d 27bc 9fc4 e83a
00000070: a599 3f3c 42bc 29bc 6182 853a d0b3 5dbb
00000080: cee2 153c 33d3 d33b 1c53 3d3c 059a 223a
00000090: 6776 103b 24db 91ba 9cff 05bc 77b9 f6ba
000000a0: be28 3e3b 760d ce39 f979 b73b f0c9 9e3a
000000b0: e910 703b 4f5b 42bc 934c 3abc bac8 193c
000000c0: b28c bc3b 2aa6 893b 9438 abbb 15e0 343c
000000d0: e4f1 833b 8a5d 973b b266 a1ba fc01 903b
000000e0: 4c66 df3b 6521 1f3b 9593 41bb 8c8b 93bb
000000f0: 1cee 64bb 7fa2 d13b 5878 b53b 2862 953b
00000100: 9158 c6b9 780a ac3a c367 593b e9d7 55ba
00000110: b127 7e39 ee2a 1ebc c537 5bbb bbae d13b
00000120: ff03 ad3b 49e1 ecba 43c1 f83b 609c 03bc
00000130: 517d 0a3c 6243 563a 0623 41bc 136e 5dbb
00000140: d289 023c 09a7 d9bb 6e07 953b b84b 89ba
00000150: c6cb 13bc aa26 1d3c f728 a33b 3f6b 42bb
00000160: 49e7 d43b 7f09 733b 73e9 353c 0312 57bb
00000170: a3b0 42b9 c94d a939 9361 97bb 3028 a1bb
00000180: 7971 023c c7df bd3b 6797 dcba 58ec 6d3a
00000190: 3206 12bc de53 573b e44d 02bc f575 333c
000001a0: 6933 b13b 3dea 14bc 0c06 e3bb aa91 89bb
000001b0: dffd 333c cec8 713b 0726 b5bb b7fb 29bc
000001c0: b799 b63b 92b5 a4bb 8f1a 3f3c e9d2 bf3b
000001d0: 929b 4d3b 1229 17bc 0897 e5ba dd61 0ebc
000001e0: 535a 37ba 8395 193a f877 2cbb a0a9 3abc
000001f0: 48dc 17bc dd6b b53b 0cc0 0e3c 21ad bd3a
00000200: 2f89 7a3a 317f 743b de81 1bbc 165e 15bc
00000210: 5103 b53b aa2e 3e3b bd4c 173c 971b e93b
00000220: d075 39bc f598 e3bb ef97 45bb ea9d e23b
00000230: 55d2 153c 7997 b43b c515 8a3b bfd3 0cbb
00000240: 3cac 33bb a9db 203c 1cef 20bc 5468 80bb
00000250: 2421 2bbc d5c1 94bb 63fe 223c d000 1ebc
00000260: 5f37 323c db6d 03bc ba98 433c 66e9 63bb
00000270: 0ea1 37bc a78a 113b 79b3 043b fcad f93b
00000280: 8b4b 7b3b 5a3c 08bc afc7 21bc 6249 3bbc
00000290: 05c3 5cbb 0e7e 003c c1c1 3c3c d1ad 04bb
000002a0: 407c c3bb 640c e33b 520a 273c eb1d 60bb
000002b0: 0009 c13b 98ef 023c 78c7 b2bb 1202 443c
000002c0: 2003 d1bb 47f7 11bb 0f44 1f3c 9f40 283c
000002d0: e504 14bc 87dd 063b e33e 0bbc 01b8 853b
000002e0: ecb3 64ba 9d4a 02ba 4049 113c 95ba 02bb
000002f0: 7043 dabb 7867 03bc 5d57 9f3b 86dd 1c3c
00000300: f77c 933b 7834 04bc 2dbe 53b8 c539 bf3b
00000310: 8b6b 4cbb f08b 923b 1b0e 143c d568 163c
00000320: 79ab 00bc 6419 043c 2722 4abb 31ea 34bb
00000330: 28ad 0fbc c121 053c c8c8 8b3b 78ea 40bb
00000340: 23ab e23b dd28 f13a b421 123c 4081 f2ba
00000350: 034d 4dbb 62d0 56bb bad1 ed3a ce45 35bc
00000360: 639f d8bb 19bf d2b9 cc93 3e3b a2e3 103c
00000370: cc57 6d3b 9b9d 34ba b0de 093c ea0b e1bb
00000380: dc01 40bc 9e6b a9bb 99aa 28bc e0ff 69bb
00000390: d9cf afbb e17f 3a3c 5ce5 103c 4028 3dbc
000003a0: b69e 383c 62c5 023c be3f 06bc 839e 0f3c
000003b0: b878 bcbb 25d0 e4bb bc24 12bc 56c6 20bc
000003c0: 0f2c 413a fc13 423c a175 df3b 477d 3a3b
000003d0: 700f 333c 3397 3e3c 3370 04bc 4918 b83b
000003e0: 8f76 0f3b 7fe6 26bc 3e4e 063c ea90 c9ba
000003f0: 39f1 a3bb a26d 8039 e67b 123c d832 443c
