checkpoints/run_7/1d_cnn_ckpt_6.pth (torch, 52296 bytes, 7 tensors)

model_m.0.weight f4 [8, 1, 8]
000000 8d 6a c2 3d 80 03 3f be 2b 1e 96 bd 93 fa 8c be
       0.09492979 -0.18653679 -0.07329973 -0.27534923
000010 e2 0a 23 3d 0f f6 74 be 67 9f 60 be f7 9c 94 3d
       0.0398053 -0.23921989 -0.21935807 0.07256501
000020 d4 36 92 3e 47 5e 9e bd b3 43 96 be f2 b3 99 be
       0.28557456 -0.07732826 -0.29348525 -0.300201
000030 2a a3 03 be 60 5d d9 bd 7f 91 a1 3e a6 12 a1 be
       -0.12855211 -0.10613513 0.31556317 -0.3145954
000040 63 ce 33 be 82 ad 95 be cf eb 13 3e bc 0a e4 bc
       -0.17559199 -0.29233938 0.14445423 -0.02783715
000050 a5 a7 5e 3e 15 b1 96 be 13 53 b2 be a0 e9 ae 3c
       0.21743639 -0.29431978 -0.34829006 0.021351635
000060 8a 0a 5b bd f7 8c 83 be eb a0 af 3d b9 ea f7 bb
       -0.053476848 -0.25693485 0.085756145 -0.007565823
000070 e1 0b 69 3d 4f 45 94 be 03 b6 07 bd 30 77 94 3e
       0.056896094 -0.28959128 -0.033132564 0.28997183
000080 09 1a 0b 3d a3 5a 5e 3d a8 e4 b1 bd 27 fe 6b 3e
       0.033960376 0.054285657 -0.08686191 0.2304617
000090 96 fb 37 be 46 69 af 3d 87 b5 75 3c 2b 17 48 be
       -0.17967066 0.08565001 0.014996893 -0.19540088
0000a0 0d d6 2d 3d 3d bc b7 bc a9 52 16 be 9b 73 8f be
       0.042440463 -0.022428626 -0.1467997 -0.28017887
0000b0 40 b6 a9 3e ce af 89 3e 3b 6e 4a 3e 65 6b 3d 3c
       0.33146858 0.2689194 0.19768612 0.011561249
0000c0 03 c4 b2 be 8d a3 61 3e 76 1a 4c 3e 4c 6f 86 3e
       -0.3491517 0.22035046 0.19931969 0.26256788
0000d0 59 cc b0 3e 04 17 a6 bd 26 92 4a 3c d2 ac db 3c
       0.34530905 -0.08109859 0.012363946 0.026815806
0000e0 8d da 0c 3c 1d e9 9a be 7c ba 35 bc 53 0c 7d be
       0.008597028 -0.30255976 -0.011091825 -0.24711733
0000f0 c5 94 69 be e1 45 3e bd 7b 76 98 3e c4 74 5d be
       -0.22810657 -0.04645336 0.29777893 -0.21626574

model_m.0.bias f4 [8]
000000 2d bd 8d 3d 6d 62 0b 3e 8f 14 9e bd 98 8b 7b bd
       0.06920848 0.13611765 -0.07718765 -0.061412424
000010 1c fd 28 3e 65 89 64 3e d4 02 9e be ff a5 35 3e
       0.16502804 0.22318037 -0.30861533 0.17739104

model_m.3.weight f4 [16, 8, 8]
000000 72 52 a9 bd ae 8e 17 bd c3 7c b5 3d 07 ca 85 bd
       -0.08267678 -0.037001304 0.08861687 -0.06532674
000010 4a 80 91 bd af 5f bd bd 6c b1 96 3d e3 d6 f9 3c
       -0.07104547 -0.09246766 0.07358059 0.030497974
000020 ca 93 c8 bc e2 6a fb bc 9f 47 cb bd 28 11 6f bd
       -0.024484534 -0.030690614 -0.0992577 -0.05836597
000030 b3 f8 c4 3a ab ee 50 3d 59 9b 91 bd c4 a6 c9 3d
       0.0015027731 0.05100886 -0.07109708 0.09846261
000040 e8 ea ae bc e2 fa 80 bd ea e8 93 3d c8 ec 91 3d
       -0.021352246 -0.06297852 0.07222159 0.071252406
000050 40 7f c5 3b e6 d2 9f bd fc ea d4 bd 94 53 d4 3d
       0.0060271323 -0.078038976 -0.10396382 0.10367504
000060 9c 4f c2 bd 14 5b c0 3d 72 5f ad bd 58 49 03 3d
       -0.094878405 0.09392372 -0.084654704 0.032052368
000070 62 af c1 bd 2a a3 ee bd a8 43 86 bc c0 bc 0b bd
       -0.0945728 -0.11652215 -0.016389683 -0.034115553
000080 32 6a 4d bd 6d 15 9d 3d dd 3e 61 3d 71 52 34 bd
       -0.050150104 0.07670102 0.05499159 -0.044023935
000090 22 0d bc bc b4 8f a4 bd 51 86 2b 3d 1c b1 19 bd
       -0.022955481 -0.08035222 0.04187614 -0.03752242
0000a0 c6 78 e1 3d ed a3 e3 3d c8 f1 c6 3c 83 48 e3 bc
       0.11009364 0.11115251 0.024285212 -0.027744537
0000b0 0d c5 9c 3d 80 44 ba 3d 56 d5 fc bc be 19 10 3d
       0.07654772 0.090950966 -0.030863445 0.0351808
0000c0 c4 48 4f 3d 26 b5 d1 bd da 8d 83 3d fc b9 91 3d
       0.050606504 -0.102396294 0.064235404 0.07115552
0000d0 e0 97 66 3c a0 ae 24 3d cc 96 f2 bd 40 ba 42 3b
       0.014074296 0.040205598 -0.118451685 0.0029713064
0000e0 45 94 b8 bd 6d 52 1c 3d 49 cc 46 3d 9e ff c5 3d
       -0.09012655 0.038164545 0.048534665 0.09667896
0000f0 6c 11 a8 3c c5 9f 95 3d a8 87 5d 3c 10 69 a7 bd
       0.02051612 0.07305864 0.0135211125 -0.08174336
000100 b2 1f e3 bd 10 94 d3 3d 00 79 25 bd ae 9f b5 bd
       -0.1109003 0.10330975 -0.040398598 -0.08868347
000110 c8 c0 84 3d 38 81 1f bd ee a7 ef 3d a0 bf a7 bb
       0.064820826 -0.038941592 0.11701952 -0.005119279
000120 d0 cd 62 bc 00 60 31 38 0a ad c2 3d 80 7c b9 bb
       -0.013843015 4.2289495e-05 0.09505661 -0.0056605935
000130 2c dc e7 3d 1c e1 8f 3d 44 72 fa bd 1a 79 cb bd
       0.11321291 0.07025358 -0.12228826 -0.09935208
000140 c8 8c 89 bc e0 0c 9d 3c 48 d5 c7 bd d4 9d 74 3d
       -0.016790763 0.019171178 -0.09757477 0.05972083
000150 50 c7 ee bd 78 d4 c8 bc 92 e5 fd bd e6 7a da bd
       -0.116591096 -0.024515375 -0.12397303 -0.10667972
000160 de 90 c2 bd 0c 8f 2d bd c0 91 6a 3d 5a 1c d6 bd
       -0.095002875 -0.04237275 0.057267904 -0.104546264
000170 c8 d0 f5 bd 70 ee 7e bd 62 90 a5 bd d8 46 f4 bd
       -0.120027125 -0.06223911 -0.080841795 -0.11927575
000180 fe eb b4 bd 90 6c 2f bd f0 5e f7 3d a4 a8 6e 3d
       -0.088340744 -0.042828143 0.12078655 0.058266297
000190 c0 ab f7 3d 14 95 f4 3d aa ce 87 3d 66 e0 80 3d
       0.120933056 0.11942497 0.06631215 0.062928006
0001a0 60 87 f8 3c f6 06 8d bd d8 d7 83 bd ac 39 4a bd
       0.03033799 -0.06886093 -0.06437653 -0.049371406
0001b0 ae 87 a3 bd d2 9a d7 bd 76 a0 c4 3d 3c fd 05 3d
       -0.07984863 -0.105275765 0.09600918 0.032712206
0001c0 c6 f8 8a 3d f0 2f 13 3d 08 14 1a bd f2 38 ec 3d
       0.06785731 0.03593439 -0.03761676 0.11534299
0001d0 a4 b8 70 bd e0 41 a4 bb 00 86 0f 3d a0 1b 98 3d
       -0.058769837 -0.0050127357 0.0350399 0.07427144
0001e0 08 ee 86 3c c0 15 e7 bd 46 58 d0 bd cc 32 54 3d
       0.016470924 -0.11283445 -0.10173087 0.051806256
0001f0 a8 7c 94 bd d6 d2 9d bd fe d8 e0 3d dc 53 8c bd
       -0.07250339 -0.077062294 0.10978888 -0.068519324
000200 26 1d d1 bd d2 91 16 bd 80 20 d4 3d 57 73 bd 3d
       -0.10210638 -0.03676016 0.103577614 0.09250515
000210 a8 11 13 bd f7 71 c9 3d b9 3c f2 bd 76 89 17 3c
       -0.03590551 0.0983619 -0.11827988 0.009249082
000220 25 1f 78 3c b5 63 d8 3a 44 53 74 3c c0 5f d8 bd
       0.015144144 0.0016509207 0.01491243 -0.10565138
000230 1c 47 8f bd 04 85 f7 3d 0c 31 0d 3d 55 1a 16 bd
       -0.06995985 0.120859176 0.034470603 -0.036646206
000240 78 e8 81 3c 50 61 93 3c 98 67 82 3d 60 0b 7d bc
       0.01585792 0.017990738 0.06367415 -0.015444607
000250 e4 2b 37 bd 64 c8 70 3d 64 c5 ab 3d 58 31 c3 3d
       -0.04471959 0.058784857 0.08387259 0.09530896
000260 90 44 59 bd da 2e dd 3d b0 f0 1e 3c f8 78 d2 bd
       -0.053043902 0.10799952 0.009700939 -0.10276979
000270 86 e0 9c 3d 00 f1 30 3c 70 49 4b 3c a6 1e ea bd
       0.07660012 0.010799646 0.012407646 -0.11431627
000280 e2 5c af bd 49 f1 d9 bc c8 ce 87 3d 8c 14 cc 3d
       -0.08562638 -0.026604312 0.06631237 0.099648565
000290 5d e6 7b bd 4f bc cd 3d 4f dc 32 3d da b9 38 3d
       -0.06149899 0.10045683 0.043667134 0.045099117
0002a0 24 b2 f1 3d 9c 6c 4c 3d 00 5c a9 bd dd 69 c9 bd
       0.11801556 0.049908265 -0.08269501 -0.09834645
0002b0 31 a4 ea bd 01 f3 0c 3c 2f f3 f3 3d ca 3c c6 3d
       -0.11457098 0.0086028585 0.11911618 0.09679563
0002c0 00 9d 73 bb a0 6c e3 3b e0 7c 8c bd a6 bd b5 3d
       -0.0037172437 0.0069404393 -0.068597555 0.08874063
0002d0 40 09 31 3b 00 5a ac ba 40 eb bb bd 28 e9 f5 3c
       0.002701357 -0.0013149381 -0.0917573 0.030018404
0002e0 2c a5 34 bd f5 49 86 bb d8 1c b3 bd 10 4d aa bd
       -0.044102833 -0.004098172 -0.08745736 -0.0831548
0002f0 dd 80 f0 bd 96 94 9e 3c fc eb 92 bc 96 5b cd bb
       -0.11743329 0.01935796 -0.017934792 -0.0062670214
000300 b4 73 53 3d ac 4a 98 3d 02 96 84 3d 16 7c b5 bd
       0.051624015 0.074361175 0.06473924 -0.08861558
000310 8b 6a 2a bd be 45 55 bd 6f 5c f1 3d c3 cd 16 3d
       -0.041605514 -0.052068464 0.117852084 0.036817323
000320 44 10 a3 3d 69 76 5e bc 0d b0 8a 3c 78 01 34 3c
       0.07962087 -0.013578036 0.01692965 0.010986678
000330 2e c3 64 3d 75 2d ed 3d 71 07 7e bd 29 fb 98 3d
       0.0558502 0.11580936 -0.062018815 0.0746978
000340 72 e5 d0 3d 5c cc 22 bd 50 db 0f bc 00 aa 60 bb
       0.10200013 -0.039745674 -0.0087803155 -0.0034281015
000350 14 b5 44 bd 70 3b a9 bc 00 aa 7e 3a 20 5f ee bb
       -0.048024252 -0.020658225 0.0009714663 -0.0072745234
000360 b4 66 2c bd 20 53 91 bd d4 8e 51 bd a0 42 7c bc
       -0.042090133 -0.07095933 -0.051161602 -0.015396744
000370 f0 68 29 bc 78 d7 d5 bc 20 1e 8a bb b4 1d 69 bd
       -0.01033996 -0.02610372 -0.004215017 -0.056913093
000380 08 b5 ca bd f4 4d a6 bd 26 5d 9f bd 19 4e d7 bd
       -0.0989781 -0.08120337 -0.077814385 -0.10512943
000390 bc e1 a4 bd df 62 10 3d 22 f9 c6 3d 85 35 8c 3b
       -0.08050868 0.03525054 0.09715487 0.004278841
0003a0 b4 e6 b2 bd 06 1f 7f bd 10 ec cf 3d 0c 8e 1a bd
       -0.087354094 -0.062285446 0.10152447 -0.037733123
0003b0 87 1d e9 3d d8 23 a1 bd 84 c1 b8 3d 2c 3d 80 3d
       0.11382585 -0.07868165 0.09021285 0.062616676
0003c0 42 3a c6 3d 1c 0b 26 bd 98 53 6c 3d f8 86 d2 3d
       0.096790805 -0.04053794 0.05769691 0.102796495
0003d0 08 e5 f7 3c a0 f7 f1 3d 06 32 e0 3d 24 72 6c bd
       0.030260578 0.11814809 0.10947041 -0.05772604
0003e0 3e fc 89 3d 74 e1 bf bd 68 ee 76 bd ad 85 03 3d
       0.067375645 -0.09369174 -0.060285956 0.032109905
0003f0 1d 00 b0 3d a0 c9 e7 3d 2a c7 22 3d 6d 5b 12 bd
       0.085937716 0.11317754 0.03974072 -0.03573172

model_m.3.bias f4 [16]
000000 8b 1f 8a bd 40 0c 57 bd f6 a9 d2 3d 17 10 01 3c
       -0.067442976 -0.052501917 0.10286324 0.007877371
000010 0c b8 8e bd 08 61 a4 bd d0 16 cb 3c d2 0b 18 3d
       -0.06968698 -0.0802632 0.024791151 0.037120648
000020 88 59 c0 3d 4a 0b ed bd 28 11 fd 3c 76 7b c0 3d
       0.09392077 -0.11574419 0.03089197 0.09398548
000030 f7 b9 3c bc a0 b7 e8 3d 61 83 b2 ba 12 81 ac 3d
       -0.011518947 0.11363149 -0.0013619476 0.08423056

model_m.6.weight f4 [32, 16, 8]
000000 c3 66 a6 bd 2c 9a 46 bd 35 61 c5 3c 4c 84 4c bd
       -0.08125069 -0.048486874 0.024094203 -0.049930856
000010 24 90 c1 bc b8 f3 76 bd a8 1b 54 bd ff f9 fa bc
       -0.023628302 -0.060291022 -0.051784188 -0.030636786
000020 1e 1d 32 3c 1a d5 99 3d 4d 0f 57 3d cb 2d 53 3d
       0.0108712 0.07511349 0.052504826 0.051557343
000030 ab 60 99 bc 13 2a a5 bd ea 66 91 bd 05 ad 6c 3c
       -0.018722853 -0.08064666 -0.070997074 0.014445548
000040 34 86 aa bd bc 12 64 3d 7d 5f 82 bd 69 ee 49 bc
       -0.083263785 0.05568193 -0.06365869 -0.012324908
000050 4b 39 62 bd ed 8b 18 3d 2c 33 83 bd 5e e4 a7 bd
       -0.05523042 0.03724282 -0.06406245 -0.081978545
000060 81 78 9a 3c 64 2b 7e 3c c3 8d 1a bc 92 72 6a 3d
       0.018856289 0.015513275 -0.009433213 0.05723817
000070 d4 e8 9c 3d bc 49 03 bd 5b 41 aa ba 0a 01 fc 3c
       0.07661596 -0.03205274 -0.0012989448 0.030762214
000080 8b 65 55 3d 2b 93 54 bd 18 9c 93 3d 17 0c b0 3d
       0.052098792 -0.051898163 0.07207507 0.08596056
000090 dc da 72 3c ed 97 57 bd 27 42 56 bd fd 2c a0 3d
       0.014822688 -0.052635122 -0.05230918 0.07821081
0000a0 c0 7a 2c 3d 86 97 0a bc 83 03 ad 3d 66 52 57 3d
       0.04210925 -0.008458978 0.084479354 0.052568816
0000b0 c3 25 ab bd 7c b0 3e bc 26 62 75 bd 2d cd ac bd
       -0.08356812 -0.011638757 -0.059908055 -0.08437572
0000c0 9f 1a a0 bd 4f 3c a1 bd 4d 46 18 3d 00 2f 78 3d
       -0.078175776 -0.07872831 0.03717642 0.060591698
0000d0 2b 84 a7 bd 17 6f 14 bd de 9d 77 bd b3 db 9e bd
       -0.08179506 -0.036238756 -0.06045329 -0.07756748
0000e0 31 e2 d1 3c 64 c1 b1 3d d5 21 2c 3d dc 71 9c 3d
       0.025620552 0.086794645 0.042024452 0.076389045
0000f0 af 52 9c bc c0 9e e2 3b d3 31 64 bd 4c c7 e7 bc
       -0.019082395 0.006915897 -0.05571158 -0.028293274
000100 b0 ec 0a bd 43 b7 9e 3c 46 e5 cf bc 1f ae 36 bd
       -0.03391713 0.019374495 -0.02537788 -0.04459965
000110 eb d0 83 bd 98 22 69 3c f8 a5 07 bc 51 be 3c 3d
       -0.06436332 0.014229439 -0.008279316 0.046079937
000120 4a b9 4f bd bd ef a5 bd 7f 14 7c 3d cc 92 cd bc
       -0.050713815 -0.08102367 0.061542984 -0.025094412
000130 ee 7b 99 3d 0f 1f 92 bd b7 3e 2e 3d 05 26 7a 3c
       0.07494341 -0.0713483 0.04254028 0.015267854
000140 2d 8f 2f 3b a7 3e af 3b f0 5e a7 bc 9a f2 a0 bc
       0.002678822 0.005348045 -0.020431012 -0.019646931
000150 6e ba ec 3c d6 e1 45 3a 44 9e 55 bd 4e db 6b 3d
       0.02889749 0.0007548606 -0.052152887 0.057582192
000160 e7 ce 81 3d 69 87 87 3d 26 61 9e ba 4a b4 98 3c
       0.063382916 0.06617624 -0.0012083396 0.018640656
000170 39 cc c1 bc 6a a5 97 bd 88 c4 a8 bd 35 d1 1f 3d
       -0.023656951 -0.07404597 -0.0824061 0.039017875
000180 fb 60 83 bd 88 66 8b 3b 97 e3 4e 3d a0 be a3 3d
       -0.06414982 0.004254166 0.050510015 0.07995343
000190 74 ea ab bd 99 de a9 3d 35 8d 62 bd c6 9b 81 3d
       -0.08394328 0.0829441 -0.055310447 0.063285396
0001a0 a7 7e fa 3c 7c 8c ae 3c 6a b4 fe 3c 1c b7 aa bd
       0.03057797 0.021307223 0.031091888 -0.083357066
0001b0 32 b7 86 bd 4b f8 48 bc ce 99 6a 3d 34 4e 98 3d
       -0.065779105 -0.012266229 0.057275586 0.07436791
0001c0 d1 8a bd bc 48 45 aa 3d dc ea 52 3d 4c 52 94 bd
       -0.023137482 0.083139956 0.05149351 -0.072422594
0001d0 61 9b 67 3d 71 ca 46 bd c0 98 58 3d 9e d8 b1 bc
       0.056544665 -0.048532907 0.05288005 -0.021709736
0001e0 45 6c b2 3a e6 89 2a bd 9a 98 df bc 24 32 95 bd
       0.0013612589 -0.041635416 -0.027294446 -0.07284954
0001f0 89 f2 ad bc d9 8e 04 bc 78 b6 82 bd 83 5f 93 bd
       -0.021233814 -0.008090698 -0.063824594 -0.07195952
000200 c8 9d 80 3d e3 5b 27 3d 8a c1 19 3c 0b bf 69 bc
       0.062800944 0.040859114 0.009384522 -0.01426674
000210 35 d7 5c bd fc 9f e7 bc 98 75 08 3c a6 aa ed 3c
       -0.053916175 -0.028274529 0.008328818 0.029012036
000220 49 b4 0c bd dd 71 01 bd 58 9d 8f bd dc 7d 90 3c
       -0.03435162 -0.03160273 -0.07012433 0.01763814
000230 1b 3e a7 bd 23 6d a5 bd c3 46 62 bd 64 6d 0b 3d
       -0.081661426 -0.08077457 -0.055243265 0.03403987
000240 2b 0e 9c bd ec 6a a7 3d 12 35 98 3d 38 cc 57 bc
       -0.0761989 0.081746906 0.07431997 -0.013171248
000250 0c 2a 25 bd f2 6c 38 bd d6 99 6c bc 3d d2 a3 3b
       -0.040323302 -0.045025773 -0.014440974 0.0049994276
000260 bb 13 8b 3d 6e 03 12 bb 1d d4 f3 bb 93 13 01 bd
       0.06790873 -0.0022279876 -0.0074410574 -0.031512808
000270 2a 7d 8e 3d b7 78 f0 b9 b7 21 a4 bd a6 9b 85 3d
       0.06957467 -0.00045866307 -0.08014243 0.06523828
000280 10 3e a8 3d f7 ae 95 3d bb da 26 bb b0 8c 7d bc
       0.082149625 0.073087625 -0.0025459963 -0.015475437
000290 bf 6d ac 3d 05 c9 11 3d 0d 88 9c 3c 79 ff 12 bc
       0.0841937 0.035592098 0.019107843 -0.008972042
0002a0 af 9d 42 bd 0e 36 58 bd 12 69 22 3d db 2e 61 bd
       -0.04751366 -0.052785926 0.039650984 -0.054976325
0002b0 89 44 90 3d b1 13 41 bc 40 66 c9 bc fb f8 15 bd
       0.07044322 -0.01178448 -0.02458489 -0.0366144
0002c0 43 0d b4 3d 9f 4c f6 3b 30 8b 07 bc 3b 84 67 3c
       0.08791592 0.007516458 -0.008272931 0.014130647
0002d0 e4 b9 f2 bc e2 5e ad bc e0 c7 77 3d 52 8c 23 3b
       -0.029629655 -0.021163408 0.06049335 0.0024955464
0002e0 60 43 f4 bc 8e 75 22 3d 69 4f a3 3d a4 7d 57 3b
       -0.029817283 0.03966289 0.07974131 0.0032881284
0002f0 e2 fb 01 bd 40 ea a1 bd 07 09 bf bc 42 91 9d bd
       -0.031734355 -0.07906008 -0.023319734 -0.07693721
000300 e6 66 8c 3c 67 af 94 3c 7b ff ba 3b d4 1b 96 bd
       0.01713891 0.018150045 0.005706725 -0.073295265
000310 5d 06 2f bd 03 f3 2f bd d8 f8 31 bd 3a eb eb 3c
       -0.042730678 -0.042956363 -0.043450207 0.028798688
000320 6c 66 93 bc 79 0a 35 3d fd 78 91 3d 25 35 ce bb
       -0.017993174 0.04419944 0.07103155 -0.0062929564
000330 f7 08 b0 bd 3d 58 0e bd 4c e3 b3 bd 16 55 19 bb
       -0.0859546 -0.03475212 -0.08783588 -0.0023396662
000340 60 9a a2 3d 0e 17 d9 bb af 85 a5 bd f4 a2 55 3c
       0.07939601 -0.006625063 -0.08082139 0.013039339
000350 fd 3e 3d 3d 52 9a 88 3c 76 36 0a bd 7d ed 37 3d
       0.04620265 0.016675148 -0.033743344 0.04490422
000360 8f 81 1f bd 4b 01 50 bc 14 3a 2b 3b 10 14 48 bd
       -0.038941916 -0.012695621 0.0026127147 -0.048847258
000370 16 e5 3c 3b 8a 5b 94 bd 3e cd 8c bd 40 08 6c bd
       0.002882307 -0.07244022 -0.06875084 -0.057625055
000380 f1 00 43 bd 1c bf 43 3d 53 f9 45 bd 74 dc 99 bd
       -0.04760832 0.047789678 -0.048333477 -0.07512751
000390 ac bb 22 bd ac 95 81 bd fa 51 90 ba da c7 9f bc
       -0.03972976 -0.06327376 -0.0011010759 -0.019504476
0003a0 4a 08 9d 3d 9e 0c 76 bd 29 5a a3 bc bd bc 7b bc
       0.07667597 -0.060070626 -0.019940453 -0.015364823
0003b0 0c 76 9e bd fd a4 00 bd be 70 fc 3c 78 41 d3 bb
       -0.077373594 -0.031407345 0.030815478 -0.0064470135
0003c0 94 ea 7b bd f2 c8 f1 3b 04 95 83 bd f3 aa 3c 3d
       -0.061503008 0.007378691 -0.06424907 0.046061467
0003d0 e9 3c 93 bd 5e 38 16 bd 6c 46 2b bd 52 2e 5e bd
       -0.07189352 -0.03667485 -0.041815206 -0.054243393
0003e0 e5 cc 1e bc f5 2b aa 3d 41 df ab 3d c0 9b 9c 3d
       -0.009692405 0.083091654 0.08392192 0.076468945
0003f0 1c b2 68 bd bc c9 91 3d 7a fd a8 3d 55 10 24 3d
       -0.056810483 0.07118556 0.08251472 0.040054638

model_m.6.bias f4 [32]
000000 7b d3 4c 3d cc 14 bd bc be 08 41 bc d4 01 80 3d
       0.05000637 -0.023081206 -0.011781869 0.06250349
000010 f6 67 bc 3c e0 d4 54 3c b2 9a 74 3d 2c 28 db 3c
       0.022998791 0.0129902065 0.05971784 0.026752554
000020 fe a0 9a 3d f3 87 fb 3c db a4 b3 bd d4 78 75 3d
       0.07550238 0.030704474 -0.08771678 0.059929684
000030 d2 d5 4a bd dc b5 52 bc 5c 70 b2 3c bf fb ad 3c
       -0.04952032 -0.0128607415 0.021782093 0.021238206
000040 3e bb 54 3d 07 1c 4f 3d 60 63 e8 bc 5d e9 68 bc
       0.05193638 0.05056384 -0.028367698 -0.014215794
000050 01 5a b0 bd f6 c4 74 3d d4 c7 ae bc 48 35 5a bd
       -0.08610917 0.05975815 -0.02133552 -0.05327347
000060 b8 2f 8d bd 96 21 6c bd 29 ad 94 3d d3 b2 c6 bc
       -0.06893867 -0.057649218 0.0725959 -0.024255192
000070 b2 58 bd bb 97 f2 ad bd ce 79 9f bd 2b 42 b4 3d
       -0.0057783956 -0.08493536 -0.07786904 0.08801683

fc.weight f4 [1, 6976]
000000 9d fb ef 3b cf 0f 5f bb 3d 25 02 bc e1 5c 2e 3c
       0.007323696 -0.0034036522 -0.007943449 0.010642261
000010 78 dc 07 bc c7 46 c4 3b a7 5b 07 3c e2 96 36 ba
       -0.00829231 0.0059898826 0.008261598 -0.00069652323
000020 4f be 1a bb cf 3a 43 bc 8b 7f b9 3a 82 3a dd 3b
       -0.0023611968 -0.0119158765 0.0014152391 0.0067513594
000030 81 12 84 b9 6a f3 60 3b 42 68 26 bb 6f 36 1e bc
       -0.00025190788 0.0034324774 -0.0025391732 -0.009656533
000040 d6 91 f0 bb ca 29 22 bc ee 6f 3a 3c f8 56 1e 3b
       -0.0073416037 -0.009897659 0.011379225 0.0024160724
000050 9c 85 73 3b 11 d3 20 3c 4f 93 34 3b 1d 77 78 bb
       0.0037158495 0.009815947 0.0027553623 -0.0037912794
000060 8c 59 fa 3b 66 3b 2d 3c 45 fc 35 3c d0 08 4e bb
       0.0076400694 0.010573244 0.011107509 -0.0031438358
000070 44 d8 7a 3b fe 34 c6 3b 2e 16 22 bc 9c 13 31 bc
       0.0038275877 0.0060487976 -0.009892983 -0.010807898
000080 63 85 26 bc 0d 87 a2 bb bd 84 a9 bb 23 27 23 bc
       -0.010163638 -0.004959947 -0.0051732943 -0.009958061
000090 21 c9 10 3c e8 95 0f 3c d9 ef 03 bc fa 68 04 3c
       0.008837015 0.008763768 -0.00805279 0.008081669
0000a0 3d a4 44 bb 18 ae 1f 3c db ab d1 3b a8 99 e4 38
       -0.003000512 0.009746097 0.0063986606 0.00010900508
0000b0 62 fe 13 3c 11 3b 3a 3c 6e f7 4d bb 3c 05 80 bb
       0.009032818 0.011366622 -0.0031427997 -0.003906874
0000c0 39 fa 09 bc a9 1f 00 3b 16 b5 c9 3b a1 56 cc ba
       -0.008421474 0.001955012 0.0061556203 -0.0015589782
0000d0 3e 50 0f bb 18 58 2d 3c 6d 34 fc 3b 7a 4d f1 39
       -0.0021867896 0.010580085 0.0076966793 0.00046024827
0000e0 3b 5d 41 ba 70 db 1c 3c 04 b9 2a 3c ab cd d9 3b
       -0.0007376258 0.009573802 0.010420088 0.006646832
0000f0 c6 42 72 3a 01 6f b3 ba 29 f8 8e 3b 48 f4 e1 3b
       0.00092415174 -0.0013689698 0.004363079 0.0068955757
000100 14 0b 80 bb b9 4d b5 3b 74 9d 1c bc bc 14 33 3c
       -0.0039075706 0.005532947 -0.009559024 0.010930236
000110 a7 89 28 bc 10 f6 ed bb ba f0 36 bc 78 1e 12 bb
       -0.010286725 -0.007261999 -0.011165792 -0.0022295993
000120 d2 da 4f 3b af 2a f2 3a 8f 10 03 3b ef 13 b6 bb
       0.003171612 0.0018475855 0.0019998883 -0.0055565755
000130 13 1f 44 3c 2a d8 1f bc 8e 41 8c 3b fc e4 84 ba
       0.011970299 -0.009756127 0.0042802757 -0.0010139043
000140 30 38 49 ba 7c e8 42 3c 47 7c 42 bc 5b c0 ba 3b
       -0.0007675914 0.011896249 -0.01187045 0.0056992
000150 3f 67 f3 ba f0 e8 5c 3b e2 5c 43 bc 33 99 23 3c
       -0.0018570198 0.0033708178 -0.011924 0.009985256
000160 38 0d 07 3b bd 75 16 3a bf ec e0 3b c4 61 c1 bb
       0.0020607244 0.000573959 0.00686416 -0.005901547
000170 98 a6 21 bc 2e 04 3b 3c a8 d1 ed bb b1 00 31 3c
       -0.009866379 0.011414571 -0.007257659 0.0108033875
000180 42 4f 86 3b 44 90 c8 3b a4 d4 1d 3c e1 c8 1a 3c
       0.0040988037 0.0061207134 0.009633217 0.009447307
000190 c6 1e 0f bb 87 54 aa bb 58 a0 a7 3a 48 b6 a1 3b
       -0.002183841 -0.0051980647 0.0012788875 0.0049350597
0001a0 5d f4 9d 38 de 76 ce 3a 2b 1f af 3b ee 88 09 b9
       7.5318596e-05 0.0015751978 0.0053442917 -0.00013116348
0001b0 14 a8 15 3c 4c 72 ef 3a 30 af c2 bb 30 77 a2 bb
       0.009134311 0.0018268316 -0.005941294 -0.004958056
0001c0 d3 18 3b bb 0d 62 d3 3b 77 36 8f 3b 50 47 31 bc
       -0.0028548732 0.0064508975 0.0043705064 -0.010820225
0001d0 3a 17 1e bc 06 13 a6 3b b3 f4 26 3a c1 a2 c4 bb
       -0.009649092 0.0050681857 0.00063688605 -0.006000847
0001e0 73 de 40 bc e4 ff 50 3a 47 b7 9e 3b ca bb 85 3b
       -0.011771786 0.0007972701 0.0048436257 0.004081224
0001f0 93 3c 3b 3b 21 dc b5 bb 2f 8a 12 bc 59 94 af 3b
       0.002857004 -0.005549923 -0.008944078 0.0053582606
000200 8c 3b 22 bc ab ba 1a bb 7f 53 d1 bb 09 c3 43 bc
       -0.009901892 -0.0023609798 -0.0063881273 -0.0119483555
000210 76 f6 38 3c 64 65 1c bc e3 91 20 bc 42 37 63 39
       0.01128923 -0.009545658 -0.009800407 0.00021668992
000220 01 a5 d0 bb 29 01 1a 3b de c5 f3 3b 4a 1a 81 bb
       -0.0063673262 0.0023499227 0.007439359 -0.0039399015
000230 f8 60 23 3b 4e 5d da 3b f4 5f 17 3b 13 b5 c9 3b
       0.0024929624 0.006663955 0.0023097964 0.006155619
000240 a3 61 1e bc 57 b8 99 ba 70 fd 7c 3a 8a fb 8b 3b
       -0.009666833 -0.0011727911 0.0009650802 0.004271929
000250 bf 15 12 bc ce d4 26 3c 19 85 41 3c a4 41 02 bc
       -0.0089163175 0.0101825725 0.011811518 -0.00795022
000260 aa 44 93 ba 5c a4 01 3c b8 fd de bb 35 6d eb ba
       -0.0011235673 0.0079127215 -0.006805148 -0.0017961623
000270 04 ff 42 3c 9d 1d ff bb 7c c1 00 37 e0 e1 b1 bb
       0.011901621 -0.0077855126 7.674444e-06 -0.0054285377
000280 77 58 41 3c 20 6a 3f 3c f0 5f 9e 3b 48 d1 2f bc
       0.011800877 0.011683017 0.004833214 -0.010731049
000290 09 c3 ae bb 7c c7 10 bc b4 02 11 bc 2d cb 25 3b
       -0.0053333086 -0.008836623 -0.008850742 0.0025298104
0002a0 c6 18 43 bb 7f 74 9a 3b 69 19 10 bc ce b4 ab 3b
       -0.0029769405 0.0047135944 -0.008795121 0.0052400595
0002b0 a0 92 80 bb c8 8b 0e bc 7c 80 98 bb fd bb 33 bc
       -0.003923729 -0.008700319 -0.0046539884 -0.010970113
0002c0 23 9e f9 3b 4b d3 5c 3b 84 12 b8 3b e5 c0 83 3a
       0.0076177283 0.0033695276 0.0056174416 0.0010051994
0002d0 47 89 27 bc 86 3b 4c bb dc 89 b7 bb 35 43 23 3c
       -0.010225601 -0.0031163408 -0.005601151 0.009964754
0002e0 18 9a ff 38 59 4a f8 bb 20 3e 3f 3c 15 e3 cf ba
       0.0001218805 -0.0075772223 0.011672527 -0.0015860522
0002f0 a2 41 1d ba 2a 39 3a 3c b6 a4 b6 3b 9d e6 d3 3b
       -0.0005998855 0.011366168 0.0055738343 0.0064667
000300 09 b2 1e bb f5 ab bb 3b 78 a6 26 bc 46 da e0 bb
       -0.0024215004 0.005727286 -0.010171525 -0.0068619577
000310 a0 56 13 3c 2c 7f 02 bc 90 8b 1d bc 26 47 08 3b
       0.008992821 -0.00796489 -0.009615794 0.002079436
000320 78 4b 14 bb f1 25 1c 3c 11 f2 ce 3b 47 b7 b5 ba
       -0.002262799 0.00953053 0.0063154777 -0.0013863825
000330 ef fb 76 ba 34 10 eb bb ee 31 f3 3b f4 38 00 bc
       -0.00094216963 -0.0071735624 0.0074217236 -0.007826079
000340 fa 7c cb 3b ac 9e dc 3b c8 4e 0f bc 6d f3 c8 bb
       0.0062099667 0.0067327823 -0.00874681 -0.0061325342
000350 7b 3d ea 3b 69 87 2f bc 39 8e 9e bb f6 22 40 3c
       0.0071484423 -0.010713437 -0.0048387316 0.011727085
000360 ce 1c 4d 39 67 09 8c bb 4e 13 10 3b d9 5d 35 bc
       0.00019561054 -0.004273582 0.0021984163 -0.011069738
000370 ae b6 65 3b c7 5e 24 3c 6e 01 54 3b 7c d5 0d 3c
       0.0035051513 0.010032362 0.0032349485 0.008656856
000380 86 94 6a bb 22 7a f5 bb b1 8d a8 39 7a d7 c6 3b
       -0.0035794093 -0.007491366 0.00032149025 0.0060681673
000390 3b ac f2 39 01 f0 15 bc 7f a4 7a ba 82 92 e0 ba
       0.0004628616 -0.00915146 -0.0009561255 -0.0017133506
0003a0 6b c6 00 3c 6e 8c 40 bc 69 25 11 bc f1 4b 21 bb
       0.0078598065 -0.011752231 -0.008859017 -0.0024611915
0003b0 d8 c4 92 3a 6d ea 45 bb 37 a6 23 bc c0 eb 57 bb
       0.001119758 -0.0030199543 -0.009988359 -0.0032946914
0003c0 4c b8 d2 3a 81 cc 01 3b cc 41 40 3c bc f1 de bb
       0.0016076653 0.0019805732 0.011734437 -0.0068037193
0003d0 1b 58 35 3c 34 5e 17 bc 9d bc 01 3c be f2 3e bc
       0.011068369 -0.009238768 0.007918504 -0.011654554
0003e0 60 83 0f 3c 1a fb 09 3b e0 cd e6 3b 4e 75 f4 39
       0.00875935 0.002105421 0.007043585 0.00046626705
0003f0 c9 80 36 3c 97 02 20 bc 4a 2f e0 3b d0 35 f8 ba
       0.011139103 -0.0097662425 0.006841575 -0.0018936936
