checkpoints/run_7/1d_cnn_ckpt_14.pth (torch, 52308 bytes, 7 tensors)

model_m.0.weight f4 [8, 1, 8]
00000000: 9646 31be ad4b 60bd 7a69 80be 4a3c 513e
00000010: 1c8c b1be ffd7 b13d b399 b03e 2148 acbe
00000020: 3c46 f33a 5e77 833e 1a2a 403d 7e8f 913e
00000030: d999 e43d ddf2 97be 8977 33be 3ccf 1bbe
00000040: e788 87be edf2 99bd 56db 313e 06cb a8be
00000050: b292 783b e79c cc3c c41e 6a3e 7fa3 e0bd
00000060: 50a6 2f3e bed0 423e 82ef adbe d6ee c73d
00000070: 5505 96be ba92 05be be78 aabe 09c1 1c3e
00000080: 17d4 d6bd 4adb af3e 42a5 1dbe 5ba2 07be
00000090: 387e 70be 2aed 3c3e 23dc 213e 3bd5 88be
000000a0: f0bc b3be 4282 b0be b118 853e 8c39 83be
000000b0: c9b7 7bbe 85fb 663d a84c 413e c1fa 36bd
000000c0: a100 99be bf15 a43d 814c 8e3e 3e30 55be
000000d0: a9ed d7bc 31e5 4fbe d1f0 09bd 278c 7cbd
000000e0: 0d74 7b3e 4156 abbe 3f95 52bd 4e79 283e
000000f0: 9839 953e d9cd b0be 176a 67be cb8b 23bb
-0.17312083 -0.05475967 -0.25080472 0.20433155 -0.34677207 0.08683776 0.34492263 -0.3364878
0.001856036 0.25677007 0.04691515 0.28429788 0.111621566 -0.29677477 -0.17526068 -0.15215772
-0.26471636 -0.075170375 0.17368826 -0.32967395 0.0037929234 0.02497716 0.22863299 -0.109686844
0.17153287 0.19024941 -0.33971792 0.09762351 -0.29300943 -0.13044253 -0.33295244 0.15308012
-0.10489672 0.34346992 -0.15395072 -0.13245527 -0.23485649 0.18449846 0.15806632 -0.26725182
-0.35105085 -0.3447438 0.259954 -0.25629842 -0.24581827 0.05639221 0.18876898 -0.04467273
-0.29883292 0.0801196 0.27792743 -0.20819184 -0.026358442 -0.20302273 -0.033676926 -0.061657097
0.24555989 -0.33464244 -0.051411863 0.16452524 0.29145503 -0.3453205 -0.22599064 -0.002495515

model_m.0.bias f4 [8]
00000000: 8640 31be 0585 783e b749 fe3d 90f5 8c3c
00000010: 2c23 43be e384 853e 2d2c 253e e255 67be
-0.1730977 0.24269493 0.12416404 0.017206937 -0.19056386 0.26077947 0.16130133 -0.22591355

model_m.3.weight f4 [16, 8, 8]
00000000: 5c73 cfbd a066 8ebc 8cb8 32bd b89a c8bc
00000010: 98ee 893c bec5 fc3d 0077 563c b895 e63c
00000020: 70c7 c0bd ac30 e23d 9468 a13d 6cbf c03d
00000030: 7688 853d d899 bc3d 009e e13b 5041 74bc
00000040: 30db 40bc 3018 3abd d063 963c 8e41 eb3d
00000050: 90ec 52bc fc7a 993d fc34 9ebd daef c63d
00000060: 0c56 933d 52b3 893d 6cb1 fdbd 3009 4ebd
00000070: b02d 71bd ae7d f3bd 8890 c83d 7c54 5dbd
00000080: 7abb cc3d 2457 073d fc6e cf3d 3844 b9bc
00000090: 3814 a0bd 0c70 923d ceb9 d5bd 582d 543d
000000a0: a2e6 89bd 14c3 2d3d 28a4 e33c 8018 463b
000000b0: 2c43 d8bd 4818 923c 9c40 bcbd cc23 ffbd
000000c0: e0d7 db3c 08f8 80bc 9806 80bd 801b 803a
000000d0: 88ea e43d f41f b03d 6cbb a73d 345c f6bd
000000e0: 02dc febd 5c0f 0b3d 78f6 573d 5c49 e63d
000000f0: a0ce babc 9c03 763d d044 4abc 002e bd39
00000100: 9a73 a43d 24b9 2c3d 0000 e1b9 421a c1bd
00000110: 44f6 c73d 403b 933c 9093 513c 08e8 8f3d
00000120: 02b9 b4bd 2482 023d 566c c5bd 48ea bf3c
00000130: c09b 213c 86f5 f83d 187f ac3d 8010 523b
00000140: 301e 0ebc 6078 70bc e0dc de3c 2818 f23c
00000150: f897 e53c 1a70 cf3d 20f1 593c b086 61bc
00000160: d48a c1bd d0d4 073c 80cd bdbc 96d6 9b3d
00000170: 2c7a ff3d 0ebb a63d 8806 483d 0c73 373d
00000180: 4633 edbd 4c84 ca3d 5ce6 fd3d b09d 5ebd
00000190: 4099 2c3c 400d 50bb 60b8 36bc 8e6c ee3d
000001a0: 1059 9c3c 5e51 ccbd a861 b13c 9af1 b53d
000001b0: a2a6 cbbd 0829 863d 2826 9abc 8cb9 e8bd
000001c0: 6299 da3d 1c13 043d 9e28 b13d 301d a23c
000001d0: 6a21 843d a0c5 db3d 4293 e9bd 2c42 5fbd
000001e0: c843 b0bd 40dd 2a3b 589e a53d 22a6 cbbd
000001f0: f03f 773d 20cc 233d e0cf cebb 90b3 bb3c
00000200: fc81 12bd cef4 953d f897 d5bd d85f c3bd
00000210: bad5 d5bd f4b2 163d aa98 f93d e895 d73d
00000220: 3a99 7e3d 3ad6 ef3d e802 63bd 2d1d f2bd
00000230: 3756 db3d a983 77bb b0da ba3c 8bab fdbc
00000240: f075 b73c 49bf e1bc 1feb f1bd 78c5 febc
00000250: 295a 69bd c1a2 9abc 6f09 343d beb3 98bc
00000260: 988a ee3d bc85 c33d ab65 743b 5c5b ef3d
00000270: f05a d83d 14a8 543c dd28 1cbd 22a2 b93c
00000280: 92f4 e83d dc6b d3bd a4f5 4ebd ca5b a43d
00000290: a2b8 b63d a4e9 0fbd c0d9 103c a660 c7bd
000002a0: 37d0 00bc 76fb 91bd 9475 4bbb 7696 8dbd
000002b0: 0eee b43c b1c4 913c a92d 88bd 1110 823c
000002c0: 7f57 d4bd 1dbd 87bc 2df1 e6bd d66b a63d
000002d0: 20a7 a03c 9b95 9cbd cee3 3f3d 9e93 37bd
000002e0: 90d0 1abd 281f 9ebd c8ad 32bd c07b 26bd
000002f0: b808 343d 8401 37bd 4085 c53c a0eb 0bbc
00000300: 945f db3d a00d 893d 1afe 903d 1ccc 5abd
00000310: 4a71 a1bd a0b2 42bc 9cb5 f83d 30d1 dfbd
00000320: 38d8 debc c4ce fe3d 60d9 89bb a26d ccbd
00000330: d032 4ebc 988f 473d cc64 613d 5825 b9bd
00000340: e8ae 58bd 52ad 9b3d c01c 3fbd c2e1 cfbd
00000350: 387c 9abc 1a07 d9bd 9e70 e83d 385a b43d
00000360: 601c fa3c a026 a8bb b6e5 dcbd a8d8 d5bc
00000370: b066 643d 5c6c bdbd 6c56 ea3d 68b0 cabc
00000380: 4c55 d13d dc3c 52bd 1624 8fbd 82b5 e7bd
00000390: cc2b 60bd 4219 913d 6c05 563d 649b 4cbd
000003a0: e824 cfbd 26a5 a6bd 8489 f93d 80fc ed3c
000003b0: 14e4 15bd 187a 1dbd 9c6c d23d e4d9 633d
000003c0: 70f8 44bc 36d4 9bbd 2e6b ee3d ee00 f43d
000003d0: a67c bb3d 24bd 73bd 601c 4fbd 80cd 46bd
000003e0: 1848 15bd 4a92 a5bd b00c 013d 2248 debd
000003f0: 3c2b d63d 3044 8fbd a843 983d 3008 4ebc
-0.10129425 -0.01738292 -0.04363303 -0.024487838 0.016837403 0.12342404 0.013089895 0.028147563
-0.0941304 0.1104444 0.07881275 0.09411511 0.065201685 0.09209031 0.00688529 -0.01490815
-0.011771008 -0.045433223 0.018358141 0.11487113 -0.012873784 0.074941605 -0.0772495 0.09713717
0.071941465 0.06723656 -0.12387356 -0.05030173 -0.05888146 -0.11889206 0.09793192 -0.05403565
0.09996696 0.03304209 0.101285905 -0.022615537 -0.078163564 0.071502775 -0.1043583 0.051801056
-0.06733443 0.04242237 0.027788237 0.0030227005 -0.10559687 0.017833844 -0.09192011 -0.124579996
0.026836336 -0.01574327 -0.06251258 0.0009773821 0.11177546 0.085998446 0.08190045 -0.12029305
-0.12444307 0.033950195 0.052725285 0.11244461 -0.022803605 0.060062036 -0.012345508 0.00036083162
0.08029862 0.04216875 -0.00042915344 -0.094288364 0.09763768 0.017972589 0.012791529 0.07026678
-0.0882435 0.031862393 -0.09639804 0.023427144 0.009863794 0.12156205 0.08422679 0.0032053292
-0.008674189 -0.014677137 0.02720493 0.029552534 0.028026566 0.101288036 0.013302118 -0.013765022
-0.094503075 0.008290485 -0.02316928 0.076092884 0.12474474 0.081411466 0.048834354 0.04478745
-0.11582045 0.09888515 0.12397453 -0.0543496 0.0105345845 -0.003174618 -0.011152357 0.11641799
0.019085437 -0.09976457 0.021653011 0.088839725 -0.09943892 0.06550795 -0.018817022 -0.11363515
0.10673787 0.032244787 0.08650325 0.019789308 0.06451686 0.10731053 -0.1140504 -0.054506466
-0.08606678 0.0026071817 0.08086842 -0.09943797 0.06036371 0.03998959 -0.0063114017 0.02291277
-0.035768494 0.073220834 -0.10429376 -0.09539765 -0.10441156 0.036791757 0.121873215 0.10526639
0.062157847 0.11710782 -0.055422693 -0.11821971 0.107098036 -0.0037767685 0.022809356 -0.030965587
0.022395104 -0.027557032 -0.11812424 -0.03110002 -0.05697075 -0.018876435 0.04395431 -0.018640395
0.116475284 0.09546992 0.0037292044 0.11687347 0.1056422 0.012979526 -0.038124908 0.022660319
0.11374773 -0.10323307 -0.05052723 0.0802532 0.08921935 -0.035134926 0.008840978 -0.09735231
-0.007862142 -0.071280405 -0.0031045424 -0.06913464 0.02208617 0.017793985 -0.06649334 0.015876802
-0.10368251 -0.016569668 -0.112764694 0.08126037 0.019610941 -0.076457225 0.04684811 -0.044818513
-0.037796557 -0.07720786 -0.043622762 -0.04064536 0.043953627 -0.04467918 0.02411139 -0.008540064
0.107115895 0.06692052 0.07079716 -0.05341731 -0.07882936 -0.011883408 0.12144014 -0.10928571
-0.02720271 0.12441781 -0.0042068213 -0.09981848 -0.012585357 0.048720926 0.055027768 -0.09040326
-0.05290118 0.076014176 -0.046658278 -0.10150482 -0.01885806 -0.10597058 0.11349605 0.0880627
0.030531108 -0.0051315576 -0.107860014 -0.026104286 0.055761993 -0.092491835 0.11442265 -0.02474232
0.10221347 -0.05132757 -0.06989305 -0.11313917 -0.054729268 0.07084896 0.052251264 -0.04995288
-0.10114461 -0.08136968 0.12184432 0.029051065 -0.036594465 -0.038446516 0.10274622 0.05562772
-0.012022123 -0.076088354 0.11641537 0.1191424 0.09154634 -0.05950655 -0.05056417 -0.048535824
-0.036445707 -0.08084543 0.03150624 -0.10853602 0.10457465 -0.069954276 0.074347794 -0.012575194

model_m.3.bias f4 [16]
00000000: fc33 63bd 64c6 f5bd 2ff9 e53d b896 36bd
00000010: f01a ab3d ea57 92bd 516e 56bc fa5c 8fbd
00000020: bce8 b9bd 9c29 e9bd 1447 73bd b48d 79bd
00000030: 2256 ffbd 901d 1abd 8839 883c 5081 8fbd
-0.055469498 -0.12000731 0.112291686 -0.04457733 0.08354747 -0.071456745 -0.013087825 -0.07000156
-0.09077594 -0.113848895 -0.059393957 -0.060926154 -0.124676004 -0.03762585 0.016628996 -0.07007086

model_m.6.weight f4 [32, 16, 8]
00000000: a370 163d dba3 363d 30b4 01bd d598 2dbd
00000010: 5062 f83c b9d5 35bc afd0 4abc 4f60 b3bd
00000020: d979 993d 4d9e 573d 472e 8ebd 03d1 3abd
00000030: 6c80 f13c d73e 383d a9a1 8a3d e36e 6fbd
00000040: 0d13 f9ba 7f81 d03c 8c5c d8bc 57ec 7bbd
00000050: 84ca 403d 7db3 3ebd 026a 28bd 0414 2ebc
00000060: 3211 843d 9339 c8bc 8fc8 38bd 6e43 50bd
00000070: ad6f 95bd c39a 493d 402c 4e3d 7c1f f9bc
00000080: 7983 5e3d 6f63 3f3d 51f7 34bc fe7d 4fbd
00000090: 2b05 a1bd f1d4 99bd 3283 7539 00ad 9a3d
000000a0: 9cb7 9bbd 8b2d 7e3d 3a36 b5bc b608 b1bd
000000b0: 3b8e 02bd 5772 a3bd 1e4e d6bb f626 d6bc
000000c0: 583f 30bd ee08 e1bc 904e a83d 9dc1 1ebd
000000d0: 6615 2dbc 6381 2e3d 2f8a d13c 6764 3e3c
000000e0: 00e9 383d 3939 80bd ea39 4e3c d3c6 46bd
000000f0: 29db 8a3d 1e3d 4cbc 59c8 1fbd be92 64bd
00000100: fb22 dfbc e833 0fbc 19a2 c33c 4020 0bbd
00000110: 0093 6e3d 4add b3bc acbb 8dbd e45f d03c
00000120: d65e 233d 1342 8cbd 9c6b 4f3d 9a59 833d
00000130: c4e3 633d 9ec4 31bd d452 33bc 1a82 883c
00000140: 8ec0 483d af6f 9c3d 36bc 243d 7a50 313d
00000150: dfd6 afbd 797c c6bc 1fff 61bd 8ca1 323d
00000160: 0c8c 8b3d c914 8ebb 5bad 0b3d 96f5 35bd
00000170: ac91 b13d 1334 a2bd ee23 393d a117 0cbd
00000180: 98b5 a5bd 2eed 763c 13db f3bc cd21 08bc
00000190: c0a2 32bd e880 aa3b 0a9f 34bd 32aa 19bd
000001a0: f683 6cbc eb91 cc3c 1545 90bd acf5 103a
000001b0: e89d f43c 69d5 a43d 48ba 9dbd 632f 4ebd
000001c0: ad76 4d3d 713f 5b3c f849 933d f3ab a53a
000001d0: 3b7d 883d 730d d9bc 70a5 cebb 0ad8 04bd
000001e0: 125a adbd 3bb1 9fbd a097 0cbd bc4d 033c
000001f0: 86c6 ebbc 5c5b 6ebd f6e8 563d 5670 1b3d
00000200: 5d97 203b 8545 503d 110b a4bd 9d40 a5bd
00000210: c32f 03bd 354d b53c e283 753d 5035 17bd
00000220: a7ae 123d 170e 8abd a650 e4bb 411a ac3c
00000230: a736 64bd 8f52 8e3d 67c9 b3bc 17ab c33b
00000240: 704d 2bbd 74e8 953b 7267 ad3d b77e ad3d
00000250: 9c67 a2bd 5ae1 383c 1464 5dbd f76c 75bd
00000260: f09d ff3c c48b a43d cec5 3bbd 28ec 4bbd
00000270: c013 51bd 4959 993d 7bec 9d3d 6e07 713d
00000280: ca79 953d 2db3 50bc ec89 1fbd 8f6b 653d
00000290: dd9b 223d 5ce3 30bd e865 b2ba 756e 25bd
000002a0: c503 19bc 5b0d 163c 2a30 85bd 9422 cb3c
000002b0: fa34 72bd 8599 703d c481 bb3c 8139 773c
000002c0: 8e6e 933c 8578 c1bc 7dba 80bc 1009 ab3d
000002d0: d32c eebc d5ca 87bd 8763 a53d 3d86 983c
000002e0: dfeb 493d 93ef 72bd 2997 1dbd 71f3 423d
000002f0: ffa2 e2bc f254 71bd b1c5 3dbd 44b2 12bd
00000300: 36c6 a0bd 18ac 39bd 61ef a73d 3da9 46bc
00000310: 24ec 1ebd 06d9 f7bc 7a57 4bbc c37e a8bd
00000320: 15ff 90bd bcee f0bc 5b42 acbd 1c1c acbd
00000330: 239b c33c be5e 913d a324 443d 65f9 7f3c
00000340: f46e 9f3c 125b 573d 7800 923c 9c2d 943d
00000350: a1dc 78bd bf74 ae3d 9080 83bd ddf8 4fbd
00000360: 7bf9 acbd 510f 56bd bd99 b33d e03e 8bbd
00000370: 6773 b3bb 39a3 583c 11ef b23d 4547 ad3d
00000380: bba4 83bd 690e 983d 39bc 93bb e402 7dbd
00000390: 10e0 293d 76cc 99bd 3fce 3fbd d6c6 c9bc
000003a0: 4b92 74bd b1cd 8bbd 2fbe 92bd 4bb5 51bd
000003b0: dea2 1ebc f15c 5f3d 0a1a 66bd bad1 543d
000003c0: 5a65 c3bc 2102 af3c d69b 95bd e715 8fbd
000003d0: 9c50 893d 38c6 093c fb22 b93c 63a1 3fbc
000003e0: 462c 923d 516d 393c fc96 a13c b143 e63c
000003f0: 2449 9fbd 123b 87bd 1bea c03a 5a28 45bc
0.036728512 0.04458986 -0.03166598 -0.04238208 0.030320317 -0.011098319 -0.012378856 -0.08758604
0.07493944 0.0526412 -0.069424205 -0.045609485 0.029480182 0.044981804 0.067691155 -0.05845536
-0.001900287 0.025452374 -0.026411317 -0.061504688 0.047068134 -0.046557892 -0.041116722 -0.010624889
0.06448592 -0.024441516 -0.045113143 -0.050845556 -0.07296691 0.049219858 0.05033517 -0.03041052
0.0543246 0.046725687 -0.011045293 -0.050657265 -0.07862314 -0.075113185 0.00023413895 0.075525284
-0.0760338 0.062055152 -0.022120584 -0.086442396 -0.031873923 -0.07980793 -0.006540074 -0.026141625
-0.04302916 -0.027470078 0.082181096 -0.038758863 -0.010564184 0.04260386 0.025578586 0.0116206175
0.04514408 -0.06260914 0.01258705 -0.048529457 0.06780083 -0.012465743 -0.039009426 -0.055804007
-0.02723836 -0.008740403 0.023881005 -0.033966303 0.05824566 -0.021956105 -0.06920561 0.02543635
0.039885364 -0.0684854 0.050639734 0.064135745 0.055637136 -0.0434004 -0.010945041 0.0166636
0.04901176 0.076384895 0.040218554 0.04328964 -0.08585905 -0.024229275 -0.055174943 0.043611094
0.06813821 -0.004335974 0.03410087 -0.044423662 0.08670363 -0.079200886 0.04520028 -0.03420222
-0.08091277 0.0150711965 -0.029767549 -0.00830884 -0.04361224 0.005203355 -0.044096984 -0.037515827
-0.014435759 0.024971923 -0.07044426 0.0005529772 0.029860452 0.08048517 -0.07701546 -0.05033816
0.050162006 0.013381825 0.07191843 0.0012639746 0.06664511 -0.02649567 -0.006306343 -0.032432593
-0.08464445 -0.07797476 -0.03432429 0.008014139 -0.028781187 -0.058192596 0.052468263 0.03794893
0.0024504282 0.05084755 -0.08009923 -0.08068965 -0.03202797 0.022131542 0.059940226 -0.036916077
0.035811093 -0.06740969 -0.006967622 0.021008613 -0.055716183 0.069493406 -0.021946622 0.0059713232
-0.041821897 0.0045748297 0.08466996 0.084714346 -0.07929918 0.011284197 -0.05405052 -0.05991837
0.03120324 0.08034471 -0.045842938 -0.049785763 -0.051044226 0.07487733 0.07711121 0.058844976
0.0729862 -0.012738031 -0.038949892 0.05601078 0.039699424 -0.043185577 -0.0013610693 -0.040388543
-0.009339278 0.009158458 -0.06503327 0.024796762 -0.059132554 0.058740158 0.022889026 0.015089394
0.017997053 -0.023617039 -0.015713925 0.08351338 -0.029074108 -0.06630484 0.08075624 0.018618697
0.04929721 -0.059310507 -0.038474236 0.047595445 -0.027665613 -0.0589189 -0.04633111 -0.03581454
-0.07850306 -0.045330137 0.08199955 -0.0121253105 -0.03879942 -0.030254852 -0.012410993 -0.08227303
-0.07079903 -0.029410712 -0.08411094 -0.08403799 0.023877686 0.07098149 0.047886502 0.015623425
0.019462086 0.052577086 0.01782249 0.07235262 -0.060757283 0.08518361 -0.06421006 -0.050774444
-0.08446022 -0.0522607 0.087695576 -0.06799102 -0.0054764035 0.013222509 0.087370045 0.08460859
-0.06427904 0.074246235 -0.004508522 -0.061770335 0.04147345 -0.07509701 -0.04682755 -0.024630945
-0.05970983 -0.06826342 -0.07165181 -0.051198285 -0.009682385 0.054531995 -0.056177177 0.051957823
-0.02385204 0.02136332 -0.07305114 -0.069865994 0.06704828 0.008409075 0.022599688 -0.011696192
0.07137351 0.011317567 0.019725315 0.02810845 -0.07777622 -0.06603064 0.0014718206 -0.012033546

model_m.6.bias f4 [32]
00000000: fc65 053d c82b 85bd 1ca9 823d d8bc 123b
00000010: 4c4d cabc 6bc1 ae3d 9cc7 81bd ec0f e6bc
00000020: 1ec9 6c3d b76a 59bc 5f61 723d dee1 87bd
00000030: 5dd2 b4bd c52d 883d aebd 03bd bf93 b03b
00000040: fe65 a63d 1951 423d ca9f 86bd 5dc4 953d
00000050: 8292 883d 5ca5 a9bd 806e 7ebd 7f4a f93c
00000060: e367 05bd fc62 09bd cf8e 203d dc81 a9bd
00000070: 4092 163d 4ea4 2cbd 23b7 7dbd 450f cabc
0.032567963 -0.06502491 0.06379911 0.0022390392 -0.024695061 0.08532985 -0.063369006 -0.028083764
0.057808988 -0.013270072 0.05917489 -0.066348776 -0.08829186 0.06649355 -0.032163315 0.0053887065
0.08124922 0.047440622 -0.06573446 0.07312844 0.06668569 -0.08283493 -0.0621171 0.03043103
-0.032569777 -0.033541664 0.039198693 -0.08276722 0.03676057 -0.04214888 -0.06194223 -0.024665484

fc.weight f4 [1, 6976]
00000000: 8501 573b 078b c03b 2d19 f5bb d566 0dbc
00000010: 6dd6 8d3b 9c05 2abc 2fe9 b03b 8722 103c
00000020: a294 883a 7e90 cb3b c636 0c3c ff0d e8bb
00000030: 8e2c e1bb 200e 1b3a a3f8 fcbb 972b c3bb
00000040: fb83 f13b f077 af3b 3096 90bb 3e51 5f3a
00000050: 843c 293c ce4d 43bb b07b 3d3c b7a3 bf3b
00000060: 3a17 ca3b 7097 913b 8a9f efbb 7c54 a33b
00000070: 850c 12bc 0229 e9bb 2cc4 043c 756e 34bc
00000080: 183f 0bbc 5cde f43b d541 a8ba 59dd 16bc
00000090: dbcd 1eb8 d8b8 133c f6ce 153c 497d 2dbb
000000a0: 34d1 a43a 75f5 123b a672 86bb ec56 ff3b
000000b0: 9a9d 2c3c c435 c93b 3f8f 1fbc 4955 b0bb
000000c0: add6 deba 27ea 11bc 1639 26bc 1b89 1b3c
000000d0: 0627 00bb 7db8 233c 3d99 1fbc 37ac 153c
000000e0: fd5f 7fba 72b3 feba 0801 2cbc 7088 acba
000000f0: 0332 d83b df77 c0b9 ab7b febb 8d47 bfbb
00000100: 6cd0 b2bb d10d a0bb 999e f4ba a665 48bb
00000110: 527d 1fbb 1233 3fbc d294 173c 0458 35bc
00000120: 2ee8 213c 9794 11bc 7461 e23b 1815 f2bb
00000130: 759e e23b 91a3 00bc 9f89 80ba 3a12 7dba
00000140: eb63 c23b 6434 a13b a127 8c3b 125f f3bb
00000150: b1c2 0cbc 2f74 c8bb e791 2cba 99c0 31bc
00000160: 175a 863b 5187 a2bb 78a1 263c 49fd 0cba
00000170: 7204 3c3c 1ae6 ab3b 1070 173c 81ba aa3b
00000180: b3c4 05bb 87dc 3b3c 2c6f c0ba 8302 3c3c
00000190: 4e92 a9bb 0121 20bc 87c3 8dba 23a5 3eb9
000001a0: b392 1b3c f352 9b39 c2b6 f1bb a8ae 64bb
000001b0: 8856 923b 8873 2bbc f374 0dbc 08d6 9ebb
000001c0: cf78 13bc 1c19 b2bb 5b41 b3bb e2e3 5abb
000001d0: cf1a 0e3b 12a5 cebb 6113 ccbb b17a 66b9
000001e0: c3b3 603b 868f 31bc 8e90 68bb 4078 8938
000001f0: e7e9 e9bb feaf 73bb 9b70 bc3b d0fe 37bc
00000200: 8af4 4bba ce76 26bc 1ebd 2a3b 6031 a03b
00000210: 8cb0 f63a cf9a 04bc 7d04 34bc 4fd0 e73b
00000220: 334d ef3b c66b 1e3c a967 aa3a 4546 283c
00000230: b0a8 8b3b 501a 273c d91d c93a 5f8c 2c3c
00000240: bc6e e3bb d9c9 6cbb c2be 2bbb e815 cdbb
00000250: 5484 24bc 7d83 e23b b459 353c ea3a cebb
00000260: 1c67 cf3b a940 d8bb fbf5 f73b ef7c bbbb
00000270: 852d 143c 72a4 ba3b 9a82 2ebc 7dca 4d3b
00000280: 1cdd 933a 1a66 b2ba 0d69 393c 0e8d 593b
00000290: 9560 1b3c 538a bc3b 4f29 afbb 72cf 2ebc
000002a0: 7eab 01bc a093 c0bb 6d58 b13b 6884 c73b
000002b0: 9a82 343c 2bdc 3fba fa40 b4bb 5b4b 9fbb
000002c0: 698e 573a 360f f73b e414 3fbc cdb1 99bb
000002d0: 12f3 07bc dd29 103c 9bee 2abc ccd7 f13b
000002e0: 2f9c c9bb 2927 2bbb 7c70 29bc 9eae 87bb
000002f0: 376b 0ebc a4e8 ddbb c509 0bbc 9e09 093c
00000300: a907 2cbc bf85 1bbc 11bf f03a 7bb5 5dbb
00000310: d686 2bbb 6e5e febb 2f46 edbb f298 1abc
00000320: b749 2ebc d442 c93b 121d 47bb c958 eaba
00000330: 9ecd 37bc d2b0 fb3b 1145 3fbc 0791 9fba
00000340: a633 3bbb d7fc 85bb a6e0 393a 4d5a 683b
00000350: 23dc 0e3c 2e9b 36bc e1c6 0d3c ee96 02bc
00000360: 2d82 14bc 0af6 0439 f3f5 20bc cf85 c23b
00000370: 8871 5fbb eb83 36b9 704f 06bc 6935 02ba
00000380: 66b7 263c 9a16 05bb 2ea3 d23b e6ee 3b3c
00000390: 7e74 17bc 6c55 b83b c46f 71bb 5533 dbbb
000003a0: 0a6b 7e39 6b6b 193c f20b e93b fe0f 5539
000003b0: 45bd 07ba 3fd1 963b 78cb c7bb 13af c13a
000003c0: 679c 9bbb b2cf 37bc e1bf 763a 52b1 143c
000003d0: 4ef7 1ebc 43a3 ea3b ef02 1bba 4d43 1b3a
000003e0: d4d1 98bb 6535 b5bb 0ad3 19bb f982 e6bb
000003f0: 8827 35bc 6f58 b73b 153d 823b d15a 3bbc
0.0032807302 0.0058759484 -0.007479808 -0.008630474 0.00432854 -0.010377314 0.0053988914 0.008797294
0.0010420273 0.006212293 0.008557981 -0.0070817466 -0.0068717664 0.00059148856 -0.0077200695 -0.005956124
0.0073704696 0.005354874 -0.004412435 0.0008518881 0.010329369 -0.0029801014 0.011565134 0.0058483738
0.0061673196 0.0044431016 -0.0073127197 0.0049844366 -0.008914118 -0.007115484 0.008103412 -0.011012663
-0.008498929 0.0074727964 -0.0012837002 -0.009208047 -3.7861853e-05 0.009016238 0.009143582 -0.002647238
0.0012574554 0.0022424136 -0.0041030226 0.0077923443 0.010535622 0.0061404426 -0.009738742 -0.0053812605
-0.0017001234 -0.008905924 -0.010145446 0.009493138 -0.001955451 0.009992716 -0.009741125 0.0091352975
-0.00097417814 -0.0019432141 -0.010498293 -0.001316322 0.0065977587 -0.00036710405 -0.007766207 -0.005837387
-0.0054569747 -0.0048844595 -0.0018662988 -0.0030578165 -0.0024336171 -0.011669891 0.00925179 -0.011068348
0.009882016 -0.008885524 0.00690859 -0.0073877685 0.006915862 -0.007851497 -0.0009806639 -0.00096539
0.0059323213 0.0049195755 0.004277185 -0.0074271047 -0.00859134 -0.006117366 -0.00065830204 -0.0108491415
0.004100095 -0.0049599786 0.010170333 -0.00053783186 0.011475669 0.005245936 0.009243026 0.0052102213
-0.0020411431 0.011466152 -0.0014681569 0.011475208 -0.0051749116 -0.009773494 -0.0010815718 -0.0001818133
0.009495425 0.00029625706 -0.0073765228 -0.0034894142 0.0044658817 -0.0104645565 -0.00863384 -0.004847292
-0.009000971 -0.005435122 -0.0054704375 -0.003339999 0.002168346 -0.006306299 -0.006227896 -0.00021980215
0.0034286834 -0.010837441 -0.0035486552 6.5550674e-05 -0.007138479 -0.0037183757 0.0057507283 -0.011230186
-0.00077802746 -0.010160161 0.0026052664 0.0048886985 0.0018820926 -0.00809355 -0.010987398 0.007074393
0.007302904 0.00966925 0.0013000864 0.01027066 0.0042620525 0.0101991445 0.0015343978 0.010531514
-0.006940691 -0.0036131053 -0.002620623 -0.006258715 -0.010041315 0.0069126473 0.01106875 -0.006293644
0.0063294303 -0.006599505 0.007567165 -0.0057216804 0.009044056 0.005695873 -0.010651255 0.003140121
0.0011281106 -0.0013610751 0.01131655 0.0033195647 0.009483476 0.005753794 -0.0053455005 -0.010669576
-0.007914422 -0.0058769733 0.0054121525 0.006088782 0.011017466 -0.00073188794 -0.00550091 -0.004861278
0.000822282 0.007539655 -0.011662696 -0.004690385 -0.008297699 0.0087990435 -0.010432865 0.0073804613
-0.0061526517 -0.002611587 -0.01034176 -0.004140689 -0.008692554 -0.0067721177 -0.008486216 0.008364109
-0.010499873 -0.009492337 0.0018367489 -0.0033830095 -0.0026172898 -0.0077627217 -0.0072410326 -0.009435879
-0.010637692 0.0061419997 -0.0030382317 -0.0017879243 -0.011218457 0.0076809907 -0.011674182 -0.0012173959
-0.002856472 -0.0040889787 0.0007090665 0.0035454214 0.008719477 -0.011145396 0.008653373 -0.007970555
-0.009064239 0.00012680158 -0.009824264 0.0059363614 -0.003409477 -0.00017406016 -0.00819765 -0.0004967065
0.0101755615 -0.002030766 0.006428144 0.011470532 -0.0092440825 0.0056254175 -0.00368403 -0.006689469
0.00024263203 0.009363989 0.0071120197 0.0002031922 -0.00051780447 0.004602581 -0.0060972534 0.0014776908
-0.004748869 -0.011218952 0.00094127475 0.00907548 -0.009702517 0.0071605756 -0.0005913218 0.00059228094
-0.0046636853 -0.0055300468 -0.0023471736 -0.007034656 -0.011056788 0.005595259 0.0039745667 -0.011435227
