checkpoints/run_7/1d_cnn_ckpt_7.pth (torch, 52296 bytes, 7 tensors)

model_m.0.weight f4 [8, 1, 8]
00000000: f559 0dbe f322 32bd 71da a6bd 08b9 173e
00000010: 4027 753e bd1d 993e 698f 7a3e f138 7bbe
00000020: c4f1 96be b759 41bd cded 953e eeb6 a7be
00000030: c1ab 01be 0526 71bd 3636 71be dd55 80be
00000040: 055c dd3d 45e8 8f3e b384 a7bd 55a2 873e
00000050: beb1 88be a889 2fbe 206f efbd c1ed a9be
00000060: 064e c6bb e550 683e acab 87bc d17d b63d
00000070: 12b6 65be 1c7b 96be a66e 9abd 607b 2f3c
00000080: 3fab 103e fd59 1e3e 7b8a bebd 84b4 413e
00000090: 2264 593e 924d 99be 57c9 a83e 35e3 af3e
000000a0: e1f8 31be 2e29 93be 6f6d 66bd 4c44 babc
000000b0: 1253 033e bf40 20be 9842 80bc c8e2 f23c
000000c0: d4bc 753c 8ed0 87be 47cb 3e3e fc33 9cbe
000000d0: e4be 79be 87e7 abbe d9a7 f0bd f3d7 f0bd
000000e0: 42ae 99bd cc60 97bd 9fe4 3cbd 0077 94be
000000f0: 7dd6 87be 3d16 0fbe 8dda 3c3e f301 a23e
-0.13803847 -0.04349036 -0.08147133 0.14816678 0.23940754 0.299055 0.24468769 -0.2453344
-0.29481328 -0.0472047 0.2928299 -0.32756752 -0.12663175 -0.05887415 -0.23555836 -0.25065508
0.10808567 0.28106895 -0.08179607 0.26491037 -0.26698107 -0.17142355 -0.11691117 -0.33189204
-0.0060517816 0.22687109 -0.016561352 0.08910716 -0.22432736 -0.293908 -0.07540636 0.010710567
0.14127825 0.15464015 -0.09303757 0.18916517 0.21229604 -0.29941994 0.3296611 0.34353033
-0.17380096 -0.28742355 -0.056256708 -0.022737645 0.12824658 -0.15649699 -0.015656754 0.029649153
0.014998633 -0.26526302 0.18632232 -0.3050841 -0.24389225 -0.3357508 -0.117507644 -0.11759939
-0.0750394 -0.073915094 -0.046116468 -0.2899704 -0.2653083 -0.13973327 0.18442746 0.31642112

model_m.0.bias f4 [8]
00000000: facf 35be ed40 533e 3242 233e c36c f4bd
00000010: 691f 9bbe a9da d83d 666a 903d bc3b a43e
-0.17755118 0.20630236 0.1594322 -0.11934807 -0.30297402 0.10588581 0.07051544 0.32076824

model_m.3.weight f4 [16, 8, 8]
00000000: cacb c9bd f2e0 f2bd c44a 973d 44f1 c2bd
00000010: 28b6 1cbd 2086 1cbd 2c1e 733d 4431 263d
00000020: 3605 a1bd 8a4d d63d 75ce cb3d c187 b03d
00000030: 84f9 523c 7937 1f3d c8d9 cfbd adb9 6b3d
00000040: 6e30 4c3d cbc9 913c e13c c33d 0a2c d63d
00000050: 6b02 99bd 2025 463d e271 ea3d cda3 f73d
00000060: 88bc cd3d ac97 4d3d 48b5 d53d 40e5 75bc
00000070: 6c43 283d 4007 e33d ec50 f43d 8029 febc
00000080: b02b cc3c 36a4 a83d 9083 ce3d 56e1 8abd
00000090: 342f 44bd 7c68 4a3d a0ce 983d 0019 ab3a
000000a0: aa54 b73d 2986 5cbd 1be2 cdbc 8767 dcbd
000000b0: b29d 96bd b059 a5bd 76bd 47bd 8eeb 3fbd
000000c0: 110b 453d d35d 773c 8f41 b63d f350 4a3d
000000d0: a8d9 893d d49a b43d db6d 17bb 8efe a73d
000000e0: b3da febd 6428 d83c 4d33 e7bd 7bcf f0bd
000000f0: 45ac d2bd 1c2a 59bd 6c8c 2a3d 7f45 0e3c
00000100: 58c2 823c d870 ebbc 845c 713d d823 f7bc
00000110: ea6c 943d 88dc efbd f887 8d3c 2c48 4d3d
00000120: 7c3b 1fbd f630 803d 90ee 413d b000 38bc
00000130: c040 a5bc 10fc f23d 7cbc 063d b8f7 323d
00000140: 6a6c df3d 269c e73d 64bc 223d 2e29 c53d
00000150: a826 fdbc 4825 913d b48e 8ebd 305a a0bd
00000160: 7893 fcbc d69e 8fbd 20e6 38bc 688f 263d
00000170: ec4e 573d a0c1 8bbd bc60 5d3d 22ce e13d
00000180: 5089 9abd c047 2f3d 6cad 453d e066 ed3c
00000190: d850 f1bc 1c5e a4bd 7c37 94bd 7896 7bbd
000001a0: 9440 f0bd e8a9 02bd 203a a13c 2ac9 e63d
000001b0: 60f9 fcbb c8de 2cbd a8b1 adbd 4cf8 b4bd
000001c0: 7ad9 813d 7232 fb3d c8a1 8e3d 84ce 96bd
000001d0: 1c86 243d 20b3 13bc 2c24 d1bd 2018 003c
000001e0: 88d9 84bd 6619 f7bd 2c23 70bd 4ed6 c9bd
000001f0: f2cc ebbd 0010 4abc 38c6 d2bc 9044 543c
00000200: 4059 723c 24c2 e43d bcae ad3d 60c5 d8bd
00000210: 5492 25bd 2a3e 873d 98d0 9dbc 0004 373a
00000220: 0207 2d3d 22ae a73d c77a babc 9f17 3a3c
00000230: b375 fd3b 84db ffbd 3d59 ccbb 22b1 f63d
00000240: 5575 b6bc 2c50 8dbd e62f 483d dd45 a6bc
00000250: 357f 853d 513d b3bd 3179 94bd 0107 d4bc
00000260: e0c5 91bc ec50 adbd c48a 9bbd d00f 783d
00000270: 90da 55bc 7866 96bc 0044 8bbd 00d9 6dbd
00000280: 088c d63c 2813 9ebc 0020 403d b05c 0dbc
00000290: 94e6 f9bd 1c79 89bd 18c2 abbc 00c4 f039
000002a0: 7bac a8bd 1cc4 6f3d 3a32 d3bd 455d 1c3b
000002b0: 1e4d eb3d 6267 d3bd 88d4 f33d ca97 25bd
000002c0: 495a 2abd 59d8 a3bb 77ef 453d d21f b13d
000002d0: a1d8 bdbc 1659 ea3d 3621 93bd 27fe f63d
000002e0: fc5e ed3d d944 803d 4f42 65bc 0c3b b03d
000002f0: a609 fbbd ca04 61bd 5619 233c d3d9 983d
00000300: a833 453d be1f bc3d 6465 7fbd e80d 49bd
00000310: e8b7 4dbd 189b 6d3d 22b5 de3d a653 eebd
00000320: fbab 9b3b 5b1f ddbd 4b54 fb3d 3863 bf3d
00000330: b8f3 7a3d d908 db3d 8edd 2ebd 2dcc 703d
00000340: c852 243d e5ac f1bd f163 d9bc 50ad abbd
00000350: 1912 b6bb 0c98 f43d 3371 bc3d 1df1 b3bb
00000360: 34be b8bd c813 c63d 9459 5a3d c80c 203d
00000370: 9c0c a9bd b634 e4bd 3039 b2bd 4879 c6bd
00000380: b052 4cbc 00d3 68bc 4cf4 143d 901b febc
00000390: f07a 1bbd 3c24 e9bd fa55 86bd ee08 d93d
000003a0: a2f9 f83d 44dd 973d ec28 e4bd 8502 573d
000003b0: b8dd fdbd f468 e1bd ef20 953c 2ca7 a4bd
000003c0: 9b0c dfbd 4925 cf3d 8525 163d 3d60 b1bc
000003d0: f6ee d93d 9566 85bd 8374 d0bd 0def a13d
000003e0: 5d0a 86bd 6b5f ff3c 482a f6bd 7b25 e6ba
000003f0: bf39 333c b35b c93c b2bc 85bd 83a4 a23c
-0.09853323 -0.11859311 0.07387307 -0.09518674 -0.038259655 -0.03821385 0.059354946 0.040574327
-0.07862322 0.10464008 0.09951488 0.08619643 0.012876872 0.038871262 -0.1014896 0.05755012
0.049850874 0.017796418 0.09533096 0.104576185 -0.07471164 0.04837525 0.11447503 0.120917894
0.10045725 0.050193474 0.10434967 -0.015008271 0.041079924 0.11085367 0.11929497 -0.031025648
0.024923176 0.08234446 0.10083687 -0.06781261 -0.04789658 0.04941605 0.074612856 0.0013053715
0.08951695 -0.053838883 -0.02513223 -0.10761934 -0.07354297 -0.08073747 -0.04876467 -0.0468555
0.048106257 0.015098053 0.08899223 0.049393605 0.06730968 0.088185936 -0.002310625 0.08202849
-0.12444057 0.026386447 -0.11289082 -0.11758324 -0.10286764 -0.053018674 0.041637823 0.008683561
0.015961811 -0.028740332 0.05892612 -0.030168459 0.07247336 -0.11711985 0.017276749 0.050117657
-0.038875088 0.062593386 0.04734665 -0.011230633 -0.020172477 0.11864483 0.032894596 0.043693274
0.1090935 0.1130908 0.039730445 0.09626995 -0.030902222 0.07087189 -0.06960812 -0.07829702
-0.030832037 -0.070127174 -0.011285335 0.040664107 0.0525655 -0.068240404 0.05404733 0.11025645
-0.075457215 0.042793036 0.04826109 0.028979719 -0.029457495 -0.080257624 -0.07237145 -0.061422795
-0.11731067 -0.031900316 0.019681036 0.11268838 -0.0077201575 -0.04220465 -0.08481151 -0.08836421
0.063403085 0.12265481 0.06964451 -0.073636085 0.04016696 -0.009014875 -0.10211977 0.007818252
-0.06486803 -0.12065391 -0.058627293 -0.098553285 -0.115136996 -0.012332916 -0.025729284 0.0129558
0.014791787 0.11169842 0.084805936 -0.10584521 -0.040422752 0.06603654 -0.019264504 0.0006981492
0.04224301 0.0818751 -0.022763623 0.011358171 0.007734978 -0.12493041 -0.006236224 0.12045504
-0.022272745 -0.06900057 0.048873805 -0.020296985 0.065184034 -0.087519296 -0.07249678 -0.025882246
-0.01779455 -0.084627 -0.07594827 0.060561955 -0.013052598 -0.018359408 -0.06800079 -0.058068275
0.026189819 -0.019296244 0.046905518 -0.008628055 -0.122021824 -0.06712553 -0.020966575 0.000459224
-0.08236023 0.058536634 -0.10312314 0.0023859304 0.11489318 -0.10322453 0.119057715 -0.04042796
-0.04159001 -0.005000156 0.048324075 0.08648647 -0.023174586 0.11442773 -0.07184069 0.120601945
0.115903825 0.06263132 -0.01399286 0.08605012 -0.122577 -0.054936208 0.009954771 0.07463422
0.048144966 0.09185742 -0.062352553 -0.049085528 -0.050224215 0.058009237 0.10874392 -0.116370484
0.0047507263 -0.10796996 0.12271937 0.09345096 0.061267585 0.10695047 -0.04269176 0.058788467
0.04011801 -0.11800555 -0.026536914 -0.08382666 -0.0055563566 0.11943063 0.092012785 -0.0054913894
-0.09020653 0.09671742 0.053308085 0.03907469 -0.08254358 -0.11142866 -0.08702314 -0.09691101
-0.012470886 -0.014210463 0.036365792 -0.031019002 -0.03795904 -0.11383864 -0.065593675 0.10597406
0.12156989 0.0741525 -0.11140618 0.052492637 -0.12395805 -0.11006346 0.01820418 -0.08039698
-0.10891076 0.101145335 0.036656875 -0.021652335 0.10641281 -0.065137066 -0.10178473 0.079069234
-0.065449454 0.031173429 -0.12019783 -0.0017558777 0.010939061 0.024579858 -0.065301314 0.019853836

model_m.3.bias f4 [16]
00000000: 4459 933d 3e21 bebd d570 4bbb d246 fd3d
00000010: 64aa e0bd f0ce 91bc ebd5 8b3c 03b1 663d
00000020: 7ae2 f9bd e0dc cfbc 3ea6 d1bd f0f1 e8bd
00000030: 7411 51bd 6a92 223d 7c88 1ebd 1ce4 65bd
0.071947604 -0.09283684 -0.0031042595 0.123670235 -0.109699994 -0.01779887 0.017069777 0.056321155
-0.122014 -0.025373876 -0.10236786 -0.11374271 -0.051042035 0.039690413 -0.03870438 -0.056125745

model_m.6.weight f4 [32, 16, 8]
00000000: 7395 233d a945 113d 6b50 a3bd af83 f3bc
00000010: 3f97 843d 6e1a d2ba 242e 67bd cdc8 87bd
00000020: 5849 49bc c2af 55bd 2a28 6bbd 26e2 c03c
00000030: 7b35 a73c c8d5 7cbd f0ad b33d f227 4fbd
00000040: 597d d83c 93c2 9abd ed96 abbd 14c7 a7bc
00000050: a4bf af3d bc99 753d 6aee 443d fb59 13bc
00000060: 504b a73c 6bbd 913d 75cc 693d 1725 87bd
00000070: b453 9e3d 5699 41bc a946 103c 58a8 1e3d
00000080: de0b 93bc 4a00 11bd f251 ccbc 10eb 583d
00000090: ae4f 403d 819f 903d 366e bfbb cdd0 c5bc
000000a0: 9da9 f5bc 39ad 5cbd 0d3a 5f3d 2a68 033c
000000b0: 861a 27bd b934 353d a580 8cbc 58fa a73c
000000c0: c04d 3dbd 6f0a 343d 6d3d 2dbd 60e0 a6bd
000000d0: 35e8 803d e438 d43c 52c7 b1bd 43ce c0bc
000000e0: b594 1bbd 67f6 acbd e978 8a3d 3c2b 26bd
000000f0: ddec 1fbc 9dd5 17bd 312b 9d3c f7c3 3abd
00000100: 8288 9a3d 02ee a3bd e5d0 073d 92ae 3fbd
00000110: 48ec 803d 90fa 2abd 6d55 f03c 2842 87bd
00000120: 01d1 6e3d cef7 77bc 2df4 3dbc 7077 06bd
00000130: 90ee 043d 3ca2 5dbd b7de b4bd d815 abbd
00000140: d8f2 09bd 9bae 453d aa14 973c 29b8 30bd
00000150: 185c 693c e957 2fbd ac51 28bb beae 1cbd
00000160: 41a9 22bc 7653 a33d ba4d 8cbd 23ff 8e3d
00000170: f19d a7bd 7910 8bbd 323f a93c e2f7 b2bd
00000180: 59fd eb3c 6ad2 36bd 9b19 b6bb d263 6abd
00000190: 583e 3e3d 97c7 adbd 1618 243d f97e 9bbc
000001a0: 9f5a 203d 28a1 813d ca75 173d 0a50 dabb
000001b0: 3d90 59bc 7bd3 0dbd 83dc b8bc 6e2c 433d
000001c0: 2751 283d 1eda 663d 3294 653c 4423 22bd
000001d0: 8ec4 0dbd 9502 4dbd 7e87 0e3d b2bf 9b3c
000001e0: 3dc3 863d 205b cfbb d115 343d 9db2 8a3c
000001f0: 8608 8cbd 6f0d b4bd 0d96 aabd 248b e83c
00000200: cd55 dbbc ff82 adbd aed6 66bd ba7d 9d3b
00000210: 478f 8dbd dfb7 843d 7487 a1bd 04d5 76bd
00000220: 0b04 a03c 5107 9abd e370 d43c 1c59 17bd
00000230: 309d 93bd fc5d 47bd 18be 173d eb67 8bbd
00000240: 3888 65bc 91c1 42bd 2f37 d13c 60c7 58bc
00000250: e643 f93c c17a 1bbd 5a86 eb3c 4811 3d3d
00000260: f8dc 443d 532c 29bd 6491 3fba 6fce 0a3d
00000270: 7764 a7bd 4943 8ebd fe38 5e3c f2d5 67bd
00000280: 8722 b3bd a73b fabc 5bd4 a6bd 0de6 31bd
00000290: 5f7f b43c 5d51 11bd 3003 a43d e387 e1bb
000002a0: 0141 ed3c 420f 09bc 0155 40bd b02f 6bbd
000002b0: f15b 36bd 86e8 cf3c 3821 3cbb 3b01 843c
000002c0: 8881 4a3d b9a8 3fbd 9a6e 733d cfe4 56bd
000002d0: a1e5 803d 23ab 8dbd 9f00 bdbc fa0d 633d
000002e0: 1b78 af3b e576 d4bc daf2 75bd 99eb acbd
000002f0: 3539 313b f457 12bd 647c 64bd 482a 22bc
00000300: cae5 a5bd 68b6 823d a264 863c a699 993d
00000310: 3159 ab3c b881 9d3d 93d3 27bd 4a9e c4bc
00000320: 516e ff3c 1002 12bc bdb6 10bd 3075 0cbd
00000330: 9eba aa3d aa56 57bc 61ee d33c 744c c63c
00000340: 959f 9abd ce55 823b 95c6 ad3d 0740 92bd
00000350: 08be a5bd 5582 47bd 144e 833d 716a 0fbd
00000360: 57ba 90bc 66b0 83bc 1ec5 723c b105 80bd
00000370: 7007 37bd 22f8 d63c a39c bbbc 8cdc 4fbd
00000380: 40f3 8e3c 0b40 d1bc 151e 973d 4306 9e3c
00000390: 4ff3 0b3d 5054 0d3d 13cb ad3d 67b8 b13d
000003a0: 336d 143d 8569 a93d 42ce 303d 9efa 7c3d
000003b0: e6ac 8dbc 286e 433d 1b9c b7bc 4000 c03c
000003c0: 3309 733d b2e4 a7bd 6655 8ebd 7c73 86bb
000003d0: 308a 65bd 1d0e dc3c aa85 863d bb29 50bc
000003e0: 5dc3 0abd 7797 e13c 9a06 e0bc 02f4 11bc
000003f0: a6b4 a13d 759e 903d 6208 ea3c b36c adbd
0.039937448 0.035466824 -0.07974323 -0.029725878 0.064741604 -0.0016029605 -0.056440488 -0.066300966
-0.012285553 -0.05216957 -0.05741135 0.023545336 0.020411244 -0.061727315 0.0877341 -0.050575204
0.026426958 -0.07556643 -0.08378396 -0.02048067 0.085814744 0.059961066 0.048078932 -0.008993621
0.020421654 0.07116207 0.05707975 -0.06598871 0.07730809 -0.011816343 0.008805909 0.038734764
-0.017949995 -0.035400666 -0.024941418 0.052958548 0.04695099 0.07061673 -0.0058419956 -0.024147416
-0.029988104 -0.053876135 0.05449872 0.00802044 -0.04079678 0.044239733 -0.017151186 0.020505115
-0.046216726 0.043955263 -0.04229491 -0.08148265 0.0629429 0.025906034 -0.086805955 -0.023535853
-0.037983615 -0.08445435 0.06761343 -0.040568575 -0.009761062 -0.037068952 0.019185634 -0.045597043
0.07545568 -0.08004381 0.0331582 -0.046797343 0.06295067 -0.04174286 0.02933761 -0.06604415
0.05830479 -0.015134765 -0.011593861 -0.03282875 0.032454073 -0.054109797 -0.08831542 -0.08353776
-0.03367886 0.04826222 0.01844247 -0.04314438 0.014243148 -0.042808447 -0.0025683446 -0.038252585
-0.009928049 0.07974903 -0.06850763 0.06982257 -0.08184422 -0.06790251 0.020660017 -0.08738686
0.028807329 -0.04463426 -0.0055572516 -0.057224102 0.046446174 -0.08485334 0.040062033 -0.018981444
0.039148923 0.06329566 0.036977567 -0.0066623734 -0.013279018 -0.03462551 -0.022566086 0.047649793
0.041093018 0.056360357 0.014012383 -0.039584413 -0.034611277 -0.05005129 0.034797184 0.019012306
0.065802075 -0.0063280016 0.04396612 0.016930873 -0.06837563 -0.08791625 -0.08329401 0.02838666
-0.026774311 -0.08472251 -0.05635708 0.0048062475 -0.069120936 0.06480383 -0.07887164 -0.06026174
0.019533178 -0.07520927 0.025932735 -0.036950216 -0.072077155 -0.048673615 0.037046522 -0.0680693
-0.014009528 -0.04754788 0.025539009 -0.013231128 0.030427884 -0.037958864 0.028750587 0.04615906
0.048062295 -0.041302036 -0.00073077367 0.033888277 -0.08173459 -0.069464274 0.013563393 -0.05660052
-0.0874682 -0.030546023 -0.08145972 -0.043432284 0.022033392 -0.035477985 0.080084205 -0.006882654
0.02896166 -0.008365454 -0.046956066 -0.057418525 -0.044521276 0.02537943 -0.0028706323 0.016113868
0.049439937 -0.046791766 0.05943165 -0.052464303 0.06293798 -0.06917407 -0.023071585 0.05543325
0.005354894 -0.0259356 -0.060046054 -0.08443374 0.0027042155 -0.03572841 -0.05578269 -0.009897776
-0.081004694 0.063824475 0.016405407 0.07500009 0.020916553 0.076907575 -0.040973257 -0.02400126
0.031180533 -0.008911625 -0.035330523 -0.034291446 0.08336376 -0.013143221 0.025870504 0.024206378
-0.07549969 0.003977514 0.08485142 -0.071411185 -0.08092886 -0.04870828 0.064113766 -0.03501362
-0.017666979 -0.016075324 0.014817504 -0.062510855 -0.044684827 0.026241366 -0.022901839 -0.05074744
0.017449975 -0.025543233 0.073787846 0.019290095 0.034167584 0.034504235 0.08485999 0.0867775
0.036236953 0.082720794 0.043165453 0.061762445 -0.017294358 0.047712475 -0.022413304 0.02343762
0.059334945 -0.08197917 -0.06949882 -0.0041031223 -0.05603999 0.026862198 0.06568463 -0.012705262
-0.03387772 0.027538044 -0.027346898 -0.008908274 0.07895784 0.07061473 0.02856845 -0.08467998

model_m.6.bias f4 [32]
00000000: 1649 1ebd df92 65bd 2ddf a33d 8f10 273d
00000010: 9b8c 2cbd e90e 1dbd 979c a13d b3bf 3d3d
00000020: caf7 953d 371b f63a 3711 17bc 1ecc 83bd
00000030: dd4f 973c c3e3 03bd 0552 a03d 7b87 173d
00000040: bc0d 583d e1af 3cbd 6870 31bc 1179 a23d
00000050: bf86 1ebc 8166 3cbd e1ed 8a3c 2536 273d
00000060: e3b8 343d 08fe 49bd 9477 f73c a9f8 8d3d
00000070: e988 493d 641e 3c3d ceea 033d 9237 923d
-0.03864392 -0.05604827 0.08001552 0.040787276 -0.04212628 -0.038344298 0.07891195 0.046325397
0.07322653 0.0018776421 -0.009220413 -0.06435417 0.018470699 -0.032199632 0.07828144 0.03699444
0.052747473 -0.04606617 -0.010830022 0.07933248 -0.009675681 -0.045996193 0.016959133 0.04082312
0.044121634 -0.04931453 0.030208386 0.06932194 0.049202833 0.04592742 0.03220635 0.071395054

fc.weight f4 [1, 6976]
00000000: 7b7e 6dbb 17d2 0cba 1790 f0bb 1757 3a3c
00000010: 4870 0bbc 6a75 993b 99a0 b43b ef76 b03b
00000020: 740a f23b ddd3 633a 1a4a ab3a 6234 a7bb
00000030: 6bb0 383c 13d3 04bc 1f20 14bc a33d 143c
00000040: c838 67bb c3bc 143c 2c5f 383c 49a8 a83b
00000050: a54b 1cbc 095e 273c 41d0 b5bb 02db b2bb
00000060: 6246 11bb 6926 83bb 8b30 7fba 2e8e a33b
00000070: 20e9 62bb 8eff f4bb a3a7 5b3b 01d8 35bc
00000080: d9f5 2dbb f203 03bc da4c e139 6d85 0fbb
00000090: ce81 3dbc 23c3 24bc 0e3f 8cbb 7708 113c
000000a0: 9b15 283c ca73 9a3a acce 023c 46d1 0d3c
000000b0: 9994 623b cf05 1b3a e619 073c 371f 40bc
000000c0: 654a e0bb 9094 983b 57e5 01bc ea8e 29bc
000000d0: 591f 1d3c a1b7 cebb ecf6 a83b c64f 3abb
000000e0: 9f29 26bc 2252 833b d896 2e3c 96ff 433b
000000f0: a56d 2dbb fb8b 2e3c 5c0b e53b f212 34bc
00000100: 2b1c e4bb 4a09 263c 0a2a 833b 019a 3b3c
00000110: 62fc 27bc 6918 adbb 63f9 43bb 392a 7f37
00000120: 7e10 c83b c18e de3b 5f3a d73b fc37 2ebc
00000130: 9a22 8f3b 2b7a 15bb 4530 2f3c 5fe8 dbbb
00000140: c46a 023c 5e37 00bc d29e 293c 18dc 78b9
00000150: b491 dfbb 7164 c2ba 41aa 93bb 0ed6 cf3a
00000160: e1e5 f539 acac 24bc ad89 aebb 507e 4d3b
00000170: 519d 73ba 68da bd3b 4346 c8bb e891 14bc
00000180: 344e 033c e51b 3bbc 654e 1b3c 5573 71bb
00000190: 0556 1d3c c687 b33b 8d2f 95bb a526 ddbb
000001a0: 37c0 093c b658 4bbb dace 03bc 25f1 403c
000001b0: f5a0 103c 5117 3cbc 9e89 f63a e07d 73bb
000001c0: ad72 193c 833f 17bc bd5d 8cbb 6908 013c
000001d0: e51e b4bb 5b2f 29bc 4133 a63b a44c 93bb
000001e0: 7f2d 343c 9490 143c 24f2 c3bb 9904 3a3c
000001f0: 35c7 e6ba ebe3 8cbb ccd9 1a3b 753b d6ba
00000200: 5a68 353b 4c4d 963b b7c5 c43a 92ac 903b
00000210: 14c2 6dbb c775 173c 8b55 10bc deb6 3a3c
00000220: 1053 0d3b 6a78 43bb 263a 70bb f5b5 073c
00000230: 2f14 163c ed2a 6b3b 38cc 38bc 28fc 81bb
00000240: 4e70 863b a7f7 9c3b 334b aa3b 9d66 90bb
00000250: 310f f93a 9d3d b6bb 98c2 18bc ca29 7f3b
00000260: b7ef 2cbb 43ff 113c 10c9 2b3a bd1b 0dbc
00000270: aa9e f93b b96b 023c 28c8 343c 8ab9 c93b
00000280: ee7f 9bba c2fc 2e3c ba7a 36bc acd9 dbbb
00000290: 83f8 ef3b d8c7 d33a c6e5 eabb 88c0 d9ba
000002a0: c12c 003c 3c0a f1b9 5c5f 313b 4f67 dcbb
000002b0: 61ef fbbb 85ea 853b 9156 02bc 7e66 c039
000002c0: 383b f6bb c08e 103c 55ce 26bc 943f 573b
000002d0: e435 393c 9d11 bbbb a10f 313c afbe 31bc
000002e0: b1c6 003c 2519 76bb 8b71 30bc 16a6 ce3b
000002f0: 8477 a33b de13 8cb9 c2c6 273c 1249 f138
00000300: 2506 8c3b f685 313b ef76 d0bb a953 1bbc
00000310: da95 0a3c df9e 0c3b da67 e9bb 9403 29bb
00000320: e114 343c e5e9 0abc 57d7 a13b 5865 12bc
00000330: 5fbd 993a cbfa 0a3c 40a2 903b 5d34 0f3c
00000340: 08f8 b33b 7d57 903b 3f57 f93b 664b 143c
00000350: 863f b4ba 0800 8d3b 4ce4 423c 2a25 0f3c
00000360: 6ee3 223c f43f fcbb 0983 943b f74a f73b
00000370: fd51 3e3c e190 ecbb 240f 093c 7a3f 863a
00000380: 1736 43bc 0339 ddba 3c51 3b3c f603 213a
00000390: 407b c63a 81e1 0d3c 0a91 d23b 4283 e1b9
000003a0: 2dff 083c 91a0 3b3c b461 103c 1e1f 3e3c
000003b0: acd9 0abc ec5b f73b 4047 aa3a 6050 b23b
000003c0: 4950 e8bb 8944 fe39 caeb 4cbb 3551 38b9
000003d0: 5fd6 adbb f330 b83b b65d 9a3a a2ec b73a
000003e0: beed 3bbc 33f5 54bb a149 4cbb 4027 98ba
000003f0: b74d 96bb 02e1 533b 7d15 8ebb ccb0 f7bb
-0.0036238718 -0.0005371882 -0.0073413956 0.011373303 -0.008510657 0.0046831863 0.005512309 0.0053852717
0.0073865 0.0008690933 0.0013068349 -0.00510268 0.01127253 -0.008106965 -0.009040861 0.009047898
-0.0035281647 0.009078207 0.0112531595 0.0051470143 -0.009539519 0.010215291 -0.0055485074 -0.0054582367
-0.0022167196 -0.0040023816 -0.00097347115 0.0049913144 -0.0034623817 -0.0074767536 0.0033516667 -0.011098863
-0.0026544242 -0.007996546 0.00042972603 -0.0021899596 -0.011566592 -0.01005629 -0.0042799776 0.008852116
0.010259057 0.0011783775 0.007983845 0.008655852 0.0034573434 0.00059136463 0.008245921 -0.011726192
-0.006844806 0.004656382 -0.007928214 -0.010349015 0.009589993 -0.0063085114 0.0051563885 -0.0028428896
-0.010141759 0.0040075937 0.010656081 0.002990698 -0.0026463058 0.010653491 0.0069898795 -0.010990845
-0.0069613657 0.010134051 0.004002814 0.011450292 -0.010253044 -0.005282451 -0.0029903285 1.5209015e-05
0.0061054816 0.00679192 0.0065682377 -0.010633465 0.0043681385 -0.0022808413 0.010692661 -0.0067110504
0.007960025 -0.007825701 0.010352807 -0.00023733114 -0.006822789 -0.0014830959 -0.00450638 0.001585664
0.00046901315 -0.010050934 -0.005326471 0.0031355806 -0.00092931563 0.0057938583 -0.0061118915 -0.00906799
0.008014251 -0.011420225 0.00947914 -0.0036842425 0.009603028 0.005478832 -0.0045527876 -0.0067489916
0.008407644 -0.0031028218 -0.008044923 0.011776243 0.008827438 -0.011480168 0.0018809324 -0.0037153885
0.00936572 -0.009231451 -0.0042836354 0.00787554 -0.005496847 -0.010326232 0.005072028 -0.0044952203
0.010997175 0.009067673 -0.005979793 0.011353635 -0.0017606976 -0.004299631 0.0023628352 -0.0016344624
0.0027680607 0.004586851 0.0015012537 0.0044151032 -0.003627901 0.009244389 -0.0088094575 0.011396138
0.0021564402 -0.002982641 -0.0036655753 0.008283128 0.009160086 0.003588374 -0.011279158 -0.003966827
0.004102743 0.0047902646 0.0051969527 -0.0044067637 0.001900172 -0.005561544 -0.0093237385 0.003893482
-0.0026387998 0.008910957 0.0006553093 -0.00861257 0.007617791 0.007960253 0.011034049 0.006156151
-0.0011863688 0.010680379 -0.011137659 -0.006709298 0.007323326 0.001615758 -0.0071685044 -0.0016613165
0.00782317 -0.00045974727 0.0027064895 -0.0067261825 -0.0076884483 0.004086795 -0.007955209 0.00036697456
-0.0075143836 0.008823097 -0.010181029 0.0032844292 0.011304352 -0.005708887 0.010806949 -0.010848685
0.007859872 -0.0037551608 -0.010769258 0.00630642 0.0049886126 -0.00026717683 0.010240259 0.00011505386
0.0042731934 0.0027087904 -0.0063618342 -0.009480395 0.008458579 0.0021457 -0.007122976 -0.0025789486
0.010991306 -0.008478616 0.0049390006 -0.008935295 0.0011729411 0.008482645 0.004413873 0.008740512
0.005492214 0.0044049607 0.0076092775 0.0090511795 -0.0013751842 0.0043029822 0.0118952505 0.008736888
0.009941919 -0.0076980535 0.004532222 0.0075467783 0.011616227 -0.0072194193 0.008365426 0.0010242306
-0.0119147515 -0.0016877953 0.011432942 0.0006142253 0.0015142933 0.008659721 0.0064259814 -0.0004301314
0.00836162 0.011451856 0.008812357 0.011604099 -0.008474749 0.0075487997 0.0012991205 0.0054417104
-0.007089649 0.00048497718 -0.003126847 -0.0001757786 -0.005305096 0.0056210696 0.0011777196 0.0014032314
-0.011470256 -0.0032494783 -0.0031171816 -0.0011608377 -0.004586901 0.003233016 -0.0043360577 -0.0075589176
