checkpoints_avg_on_data/run_2/1d_cnn_ckpt_5.pth (torch, 52296 bytes, 7 tensors)

model_m.0.weight f4 [8, 1, 8]
0	0x3e974bff	0.29550168
1	0x3d905207	0.070468955
2	0xbc9ad92c	-0.018902384
3	0xbe9b9401	-0.30386356
4	0xbd7c0aa7	-0.061533596
5	0xbe99dd67	-0.3005173
6	0xbe6c243b	-0.23060696
7	0xbe0b6a0a	-0.1361467
8	0x3d6c74f0	0.057728708
9	0xbe94cf6f	-0.2906451
10	0xbe89e69d	-0.26933756
11	0x3e2f2119	0.1710247
12	0x3e86a2ba	0.26296026
13	0xbc9bc166	-0.019013118
14	0x3d04058a	0.032231845
15	0xbc9e8fff	-0.019355772
16	0xbd7cc992	-0.06171567
17	0xbe9a5248	-0.301409
18	0xbd714d28	-0.058911473
19	0x3e7fac06	0.24967965
20	0x3e8d725a	0.27626306
21	0xbe82bccd	-0.2553467
22	0xbe13e8f9	-0.14444341
23	0xbe8224b6	-0.25418633
24	0x3e8396b0	0.25700903
25	0x3da6c5df	0.0814321
26	0x3eab11c6	0.33411998
27	0x3e89cb74	0.26913035
28	0xbe8bdf87	-0.27318975
29	0xbda3e094	-0.08001819
30	0x3e8fca8c	0.28084219
31	0x3e143a1f	0.14475296
32	0xbe0800d5	-0.13281567
33	0xbcbe1486	-0.023203146
34	0x3ead6b1a	0.33870775
35	0xbe108486	-0.14113054
36	0xbe9ab14d	-0.30213395
37	0x3dc81f7a	0.09771629
38	0xbe36e0ec	-0.17859238
39	0xbe790a5f	-0.24320363
40	0xbe034f59	-0.12823237
41	0x3e65bd6e	0.22435543
42	0x3e6b78b5	0.22995265
43	0x3e3a3d3a	0.18187419
44	0x3bdcfcc9	0.0067440015
45	0xbe6b4d06	-0.22978601
46	0xbe8a2760	-0.26983166
47	0x3d9ae27b	0.07562729
48	0x3e4a8a9b	0.19779436
49	0xbe449659	-0.19197978
50	0x3eac77aa	0.33685046
51	0x3e3965d9	0.18105258
52	0x3cac344e	0.021021035
53	0x3e90180f	0.28143355
54	0x3dfda70d	0.12385378
55	0x3e8ef740	0.27923012
56	0x3e29f6d5	0.16598065
57	0xbe175de7	-0.14781915
58	0xbea1efa3	-0.3162814
59	0xbdcc2fe5	-0.09970073
60	0xbdf357b7	-0.11881965
61	0xbeae7df5	-0.34080473
62	0xbdb0ebe3	-0.08638742
63	0x3e1c0740	0.1523714

model_m.0.bias f4 [8]
0	0x3d76c799	0.060248945
1	0xbce463eb	-0.027879676
2	0xbe0cb0a9	-0.13739266
3	0xbd42684c	-0.047462747
4	0xbe98d85a	-0.29852563
5	0xbea6c08a	-0.3256877
6	0xbe836bf0	-0.25668287
7	0x3d9f62ad	0.07782493

model_m.3.weight f4 [16, 8, 8]
0	0x3d3404d0	0.043949902
1	0x3d075558	0.033040375
2	0xbd901410	-0.070350766
3	0x3da9b808	0.08287054
4	0x3d9dad72	0.07699098
5	0x3d4df43c	0.05028175
6	0xbdf86e0a	-0.12130363
7	0x3cca4ea8	0.02469571
8	0x3d717efc	0.058958992
9	0xbc10b520	-0.008832246
10	0xbdba4238	-0.090946615
11	0xbd8fee6a	-0.07027896
12	0xbdb2b0f4	-0.087251574
13	0xbdcd52d2	-0.10025562
14	0x3df4f448	0.119606555
15	0xbcf1a5e8	-0.029498056
16	0xbd85e68a	-0.065381125
17	0x3dfe92b0	0.12430322
18	0xbdec03b6	-0.11524145
19	0x3ad33200	0.0016112924
20	0xbcdebb50	-0.027188927
21	0x3c4d1d00	0.012519121
22	0x3c843510	0.016138583
23	0x3de98250	0.11401808
24	0xbd1961e8	-0.037446886
25	0xbdd8d9d2	-0.10588421
26	0x3d4e2354	0.05032666
27	0x3d361d50	0.04446155
28	0xbda249c4	-0.07924226
29	0xbda643a0	-0.08118367
30	0x3c02b4b0	0.00797765
31	0x3cb1c010	0.021698028
32	0xbd89b950	-0.06724799
33	0xbd87433e	-0.06604622
34	0xbd85d122	-0.065340295
35	0x3dace3e6	0.08441906
36	0xbd16d510	-0.036824286
37	0xbd241ab4	-0.04006453
38	0x3d47302c	0.048629925
39	0xbd3f80f8	-0.046753854
40	0x3cdd2e00	0.026999474
41	0x3dccfc2a	0.10009034
42	0xbdcc3254	-0.09970537
43	0x3c94c7e0	0.018161714
44	0x3db33a20	0.08751321
45	0x3c467e50	0.012115076
46	0xbdb1f024	-0.08688381
47	0xbdf93f66	-0.121702954
48	0xbdfad54c	-0.122477144
49	0xbd0ef184	-0.034898296
50	0xbdab9900	-0.08378792
51	0xbd776820	-0.060402036
52	0x3d352bd0	0.044231236
53	0xbdd93810	-0.10606396
54	0xbd21a8f0	-0.039467752
55	0xbdaf08b8	-0.08546585
56	0xbdf5dbba	-0.120048
57	0xbd0ca048	-0.034332544
58	0xbd963b22	-0.073354974
59	0x3cae0348	0.021241799
60	0xbcdbdd90	-0.026839048
61	0x3dd35b9e	0.10320209
62	0xbde271ea	-0.11056884
63	0x3b31bf80	0.00271222
64	0x3dc76768	0.0973652
65	0x3ddc76b0	0.10764825
66	0x3dc27f02	0.09496881
67	0x3d27050c	0.040776297
68	0x3ddc1bfe	0.107475266
69	0xbd255920	-0.0403682
70	0xbc588470	-0.013215169
71	0xbdebe4fc	-0.11518285
72	0xbcc68580	-0.02423358
73	0xbd0b9710	-0.03407961
74	0xbdf24312	-0.11829199
75	0xbcebdbc0	-0.028791308
76	0x3db69c66	0.089165494
77	0xbdc7dc84	-0.09758857
78	0x3d88908e	0.066681966
79	0x3d93f04e	0.07223569
80	0x3decd55c	0.115641326
81	0xbd8097f8	-0.06278986
82	0xbd13c3b0	-0.036075294
83	0xbddde74c	-0.10835132
84	0x3d834854	0.0641028
85	0xbd9a1a8c	-0.07524595
86	0xbcaa3160	-0.020775497
87	0xbd6fab9c	-0.05851327
88	0xbdd923e0	-0.10602546
89	0xbd90ef96	-0.070769474
90	0x3d152914	0.03641613
91	0x3c8816f0	0.0166125
92	0x3d07fa90	0.03319794
93	0x3d10c610	0.035345137
94	0x3dc070f4	0.09396544
95	0x3dc45406	0.09586339
96	0xbcd1d160	-0.025612533
97	0x3d9cd08e	0.07656966
98	0xbdeff6ee	-0.1171702
99	0xbdbf6a44	-0.093464404
100	0x3c0d7dc0	0.008635938
101	0xbd1363e4	-0.035983935
102	0x3df0c99e	0.117572054
103	0x3db5da82	0.08879568
104	0xbda86656	-0.08222644
105	0x3de4faea	0.111806706
106	0x3cbeaa78	0.023274645
107	0x3d04d7f8	0.032432526
108	0xbd4bb95c	-0.04973732
109	0xbd1d68b8	-0.038429946
110	0x3daf8f9e	0.08572315
111	0xbdf89b7e	-0.12139033
112	0x3d507f9c	0.050902948
113	0x3d4e9208	0.050432235
114	0x3d6db860	0.05803716
115	0x3ddd72c8	0.108129084
116	0x3df10516	0.11768548
117	0x3c7c9850	0.0154171735
118	0x3c910068	0.017700389
119	0xbd700d04	-0.058606163
120	0xbdd36abc	-0.10323092
121	0xbd723558	-0.059132904
122	0xbdabcb00	-0.083883286
123	0xbd0f4448	-0.034977227
124	0x3ce05e40	0.027388692
125	0xbda01682	-0.07816793
126	0x3d87130a	0.06595428
127	0xbde0b7fe	-0.10972594
128	0xbd942522	-0.07233645
129	0x3d8a4ab6	0.06752531
130	0xbd0c43e0	-0.03424442
131	0xbca6f3f0	-0.02037999
132	0xbc091630	-0.008367106
133	0x3dfe430c	0.12415132
134	0xbd88f94c	-0.066881746
135	0x3c6d6920	0.014490396
136	0x3da14916	0.07875268
137	0x3cac2568	0.02101393
138	0x3d58a92c	0.05289571
139	0xbca0e2c8	-0.019639388
140	0x3c5d9020	0.013523132
141	0x3cb62aa0	0.022237122
142	0x3dcb2bb6	0.099204466
143	0xbd90f704	-0.070783645
144	0xbd74fc48	-0.059810907
145	0xbdbe33e6	-0.092872426
146	0xbd7dcf04	-0.061965004
147	0x3d9c8f0c	0.076444715
148	0xbdb36a66	-0.08760528
149	0x3d83020e	0.06396876
150	0x3dd50382	0.1040106
151	0xbdab62dc	-0.08368465
152	0x3d5f4c74	0.05451627
153	0x3db51eaa	0.08843739
154	0xbcf6b380	-0.03011489
155	0x3c3cae70	0.0115161985
156	0x3d8cda66	0.06877594
157	0xbd3d66a0	-0.04624045
158	0xbd25bde8	-0.04046431
159	0xbcc9ca40	-0.024632573
160	0x3cfbba38	0.030728444
161	0xbd88c4f8	-0.06678194
162	0xbc332a70	-0.010935411
163	0xbd42b190	-0.047532618
164	0xbb360e00	-0.002777934
165	0x3de95d70	0.11394775
166	0xbda71254	-0.08157793
167	0xbd0a50cc	-0.03376846
168	0x3d643554	0.05571492
169	0xbdc72bb4	-0.097251326
170	0xbdd325ca	-0.10309942
171	0x3d6318bc	0.05544351
172	0x3c962738	0.018329248
173	0x3d845556	0.06461589
174	0x3dd982ec	0.106206745
175	0x3de1a492	0.110177174
176	0xbc93b1e8	-0.018029168
177	0x3dc82f8e	0.09774695
178	0x3d61c848	0.055122644
179	0xbdd108a0	-0.10206723
180	0x3def9640	0.1169858
181	0x3c848c10	0.016180068
182	0xbd890ca0	-0.06691861
183	0x3d6751f0	0.056474626
184	0xbd64ce18	-0.05586061
185	0x3d70fbcc	0.058833882
186	0x3c351090	0.011051312
187	0xbdf9a4be	-0.12189625
188	0xbde1f2b4	-0.1103262
189	0x3d144b40	0.036204576
190	0xbdac55f4	-0.08414832
191	0x3bf5dfe0	0.0075034946
192	0x3da4521c	0.080234736
193	0xbb944920	-0.0045253187
194	0xbdfa05d8	-0.12208146
195	0x3d70c560	0.05878198
196	0xbcf28858	-0.02960603
197	0x3cf41d70	0.029799193
198	0x3d681c8c	0.05666785
199	0xbc0203d0	-0.007935479
200	0x3d92e53a	0.07172628
201	0x3b445fc0	0.0029964298
202	0x3cf8a360	0.03035134
203	0xbc4ce7a0	-0.012506396
204	0xbdd185a4	-0.10230568
205	0x3db06aac	0.08614096
206	0x3d758164	0.05993785
207	0xbdf03bce	-0.11730157
208	0xbdb17d98	-0.08666533
209	0x3d8ca766	0.06867866
210	0x3d99c376	0.07507984
211	0x3d9dbafe	0.077016816
212	0x3cb21be8	0.021741822
213	0xbdecd62a	-0.11564286
214	0x3be2a500	0.006916642
215	0xbc771010	-0.015079513
216	0xbd39ab00	-0.045329094
217	0xbdd3f050	-0.1034857
218	0xbd730750	-0.059333146
219	0x3d62bde0	0.05535686
220	0xbdf7b346	-0.120947406
221	0xbd0b3554	-0.033986405
222	0xbd02caa8	-0.03193155
223	0xbb6e7540	-0.0036385804
224	0xbdf56bfe	-0.119834885
225	0x3ceeb4b8	0.029138908
226	0xbdd25078	-0.102692544
227	0xbc52dd90	-0.012870207
228	0xbdd3d5d0	-0.10343516
229	0xbde71370	-0.11283004
230	0x3dfefbea	0.124503925
231	0x3c0b5180	0.008503318
232	0xbd93f04c	-0.07223567
233	0xbdc45278	-0.09586042
234	0xbdac6318	-0.08417338
235	0x3c14de30	0.009086177
236	0x3da920de	0.08258222
237	0xbdda7cee	-0.1066836
238	0x3c9736b0	0.018458694
239	0x3de89db8	0.113582075
240	0xbd1122f0	-0.03543371
241	0xbde80d60	-0.11330676
242	0xbd8d5d8c	-0.06902608
243	0x3d0bf2a4	0.034166947
244	0xbdba2ede	-0.090909705
245	0x3d328d6c	0.0435919
246	0x3cf9fcd8	0.030516073
247	0xbcbb51e8	-0.022866204
248	0xbdcf22f4	-0.10114089
249	0xbcc36c60	-0.023855388
250	0xbdb9bb0c	-0.090688795
251	0xbcc85b10	-0.024457484
252	0xbde4f33a	-0.11179204
253	0x3dcbc47c	0.09949586
254	0x3cc0ee58	0.023551151
255	0xbc026790	-0.007959262

model_m.3.bias f4 [16]
0	0x3c0deaa0	0.008661896
1	0xbdf186d4	-0.117932945
2	0x3c89e0f8	0.016830906
3	0xbdb89e88	-0.090146124
4	0xbd202cd0	-0.039105237
5	0xbcdb8968	-0.026798919
6	0xbde44e7e	-0.11147784
7	0xbda9ce7a	-0.082913354
8	0xbdf9f3c2	-0.12204696
9	0x3dc98777	0.09840291
10	0xbd67ef54	-0.056624725
11	0xbde30310	-0.110845685
12	0xbbbc14a0	-0.0057397634
13	0xbdbc52ba	-0.09195466
14	0x3dc998e2	0.09843613
15	0x3ccf5a00	0.02531147

model_m.6.weight f4 [32, 16, 8]
0	0xbd1df203	-0.03856088
1	0x3d4cd03b	0.05000327
2	0xbd14ada3	-0.036298405
3	0xbc9c2a18	-0.01906304
4	0xbb0d89eb	-0.0021597098
5	0xbced124a	-0.028939385
6	0xbc09fa48	-0.008421488
7	0x3d9a0e31	0.07522238
8	0x3d3d2a62	0.046182998
9	0x3da1f05e	0.079071745
10	0xbd5eb881	-0.054375175
11	0x3d608f54	0.05482419
12	0xbdaa20ca	-0.08307035
13	0x3d9b84b9	0.07593674
14	0x3b27101e	0.0025491784
15	0x3d006f89	0.03135637
16	0x3d7051a3	0.058671605
17	0xbbe531b0	-0.0069944486
18	0x3d8b1977	0.067919664
19	0x3da3ad1f	0.079920046
20	0xbd60f69c	-0.054922685
21	0x3ce67552	0.028132115
22	0x3daf7143	0.08566525
23	0xbd1da594	-0.038487986
24	0xbd9d0a9b	-0.076680385
25	0xbd4c33f9	-0.049854252
26	0x3cc26786	0.023731004
27	0x3cc59063	0.0241167
28	0xbd959057	-0.07302921
29	0x3c9801c9	0.018555539
30	0x3d95a4a4	0.07306793
31	0x3cb8d489	0.022562282
32	0xbcb1cf89	-0.021705406
33	0xbd253545	-0.040334005
34	0x3d726dec	0.05918686
35	0xbd20cb94	-0.039256647
36	0xbcdff8d0	-0.027340323
37	0x3da48acb	0.08034285
38	0x3d3ccd0f	0.046093997
39	0x3cddcda0	0.027075589
40	0xbcb1fdbd	-0.021727437
41	0xbdac0620	-0.08399606
42	0xbcdcaca9	-0.0269378
43	0x3d13c784	0.036078945
44	0x3d5cf266	0.053942107
45	0xbdb238db	-0.087022506
46	0xbda4b8f3	-0.08043089
47	0xbd848860	-0.06471324
48	0x3d8f5c47	0.070000224
49	0xbdb3e5a6	-0.08784036
50	0xbcb07a99	-0.021542834
51	0xbd607dd9	-0.054807518
52	0x3d2ebeae	0.042662315
53	0x3d994bec	0.07485184
54	0xbd6593ff	-0.056049343
55	0x3c8a6a23	0.016896313
56	0xbd59e4ab	-0.05319659
57	0xbd0581bb	-0.032594424
58	0xbd6f9fc7	-0.058501985
59	0xbd94a32b	-0.07257684
60	0x3d607dcb	0.054807466
61	0x3d734b99	0.059398267
62	0x3d2592ff	0.04042339
63	0xbd3f14dd	-0.046650756
64	0xbc001d29	-0.007819452
65	0xbaf6a574	-0.001881762
66	0x3d2a118c	0.04152064
67	0x3ca568e9	0.020191627
68	0xbd12ded8	-0.03585705
69	0x3da97359	0.08273954
70	0xbcb3c0d4	-0.021942534
71	0xbbcda0eb	-0.0062752864
72	0xbd9b6ccc	-0.07589111
73	0x3d0b2d25	0.0339786
74	0x3d583583	0.052785408
75	0xbd5d4b79	-0.054027054
76	0xbd50dd7b	-0.05099247
77	0x3da84e87	0.08218103
78	0x3d6aed9e	0.057355516
79	0xbd01d9ff	-0.031702038
80	0x3bc11745	0.0058926665
81	0xbd95dec2	-0.07317878
82	0xbd18d00b	-0.03730778
83	0xbcbeadec	-0.023276292
84	0x3ce419a6	0.027844261
85	0xbcc61246	-0.024178635
86	0xbc3ee070	-0.01165019
87	0x3c585ed0	0.013206199
88	0xbc2dac93	-0.010600227
89	0xbc2b8147	-0.010467834
90	0x3c34fe52	0.011046963
91	0x3a4383d8	0.0007458306
92	0xbd879b64	-0.06621435
93	0x3d73f95c	0.05956398
94	0xbda5a87b	-0.08088776
95	0xbcc61a73	-0.024182534
96	0x3c6693c5	0.014073317
97	0xbd6099e4	-0.05483426
98	0x3ccff5ac	0.0253857
99	0xbd6dc245	-0.058046598
100	0x3cee24ab	0.029070219
101	0xbb3d607a	-0.0028896616
102	0xbd7729cb	-0.06034259
103	0xbd8fbd8e	-0.070185766
104	0x3cb56c79	0.02214645
105	0xbd90b78a	-0.07066257
106	0x3d6e5819	0.058189485
107	0xbd7686ac	-0.060187027
108	0x3cab1e59	0.020888494
109	0xbd7015ff	-0.058614727
110	0xbc5d2e31	-0.013499782
111	0xb9992be6	-0.0002921514
112	0xbd803216	-0.06259553
113	0xbd421e5c	-0.047392234
114	0xbb26d4b8	-0.002545638
115	0x3da79ab7	0.081838064
116	0xbc965750	-0.01835218
117	0x3b714e70	0.0036820434
118	0xbca327de	-0.019916471
119	0xbd06cd5d	-0.032910693
120	0xbd101198	-0.03517303
121	0x3cfba01f	0.030716
122	0x3d64b211	0.05583388
123	0x3d6d1e2b	0.0578901
124	0x3cf8a3eb	0.0303516
125	0x3d2969e6	0.04136076
126	0x3da62802	0.081131
127	0x3d838c46	0.064232394
128	0x3d8e884d	0.06959591
129	0x3bb78788	0.0056008734
130	0x3d13da58	0.0360969
131	0xbd053a4d	-0.032526303
132	0x3db31976	0.08745091
133	0xbd7c366d	-0.061575342
134	0x3c9bb259	0.019005941
135	0x3db30c8e	0.08742629
136	0xbda2b716	-0.07945077
137	0xbbc48ec7	-0.0059984657
138	0x3c4be9f0	0.012445912
139	0xbbdcbad9	-0.006736141
140	0xbd4c2f3e	-0.04984974
141	0xbcdf336b	-0.027246198
142	0x3d1873c4	0.037219778
143	0x3b60918c	0.003426644
144	0xbd7b0bf6	-0.061290704
145	0x3c9580af	0.018249838
146	0xbd9f4376	-0.07776539
147	0xbc01c643	-0.007920804
148	0x3d184eff	0.03718471
149	0x3d59b332	0.05314941
150	0x3a3ff737	0.00073229097
151	0xbc9e9c1b	-0.019361546
152	0xbd5ab1da	-0.05339227
153	0x3c9ae698	0.018908784
154	0x3cf23500	0.029566288
155	0xbd9e6dad	-0.07735763
156	0x3d8a75a1	0.06760717
157	0xbd1d5864	-0.038414374
158	0x388c34bd	6.6855435e-05
159	0x3da3cdab	0.079982124
160	0xbda1a124	-0.07892063
161	0xbcaf8cc4	-0.021429427
162	0x3d2b3354	0.041796997
163	0xbca17afd	-0.019711966
164	0xbbc2df44	-0.0059470255
165	0xbd72503f	-0.05915856
166	0xbd57108c	-0.052506015
167	0xbcb563c5	-0.0221423
168	0xbd85c656	-0.0653197
169	0xbc928b0b	-0.017888566
170	0x3cec0fb0	0.028816074
171	0x3d941a7e	0.072316155
172	0xbdb0aace	-0.086263284
173	0xbd4cdb7b	-0.050014
174	0xbb15265a	-0.0022758455
175	0x3d281b86	0.041041873
176	0xbc611211	-0.0137372175
177	0x3bb528bf	0.005528539
178	0xbc22a464	-0.009926889
179	0x3c5f93be	0.013646064
180	0x3d90a003	0.0706177
181	0x3d88571f	0.06657242
182	0x3ca45551	0.020060213
183	0xbce4b0dc	-0.027916364
184	0x3cdfd296	0.027322095
185	0xbc982272	-0.018571112
186	0x3cbc4800	0.022983551
187	0x3c9c66fe	0.01909208
188	0xbba273b0	-0.0049576387
189	0x3d5016b2	0.050802894
190	0xbc83189d	-0.016002947
191	0xbd737935	-0.059441764
192	0x3d2651dc	0.04060541
193	0x3d70ee5f	0.05882108
194	0x3b7b6032	0.0038356897
195	0x3a1fdd38	0.0006098333
196	0x3d9c91e4	0.07645014
197	0xbd7a3f60	-0.061095595
198	0x3d1a7221	0.037706498
199	0xbd54181f	-0.051780816
200	0x3d437763	0.047721278
201	0x3d9b9730	0.07597196
202	0xbd874b50	-0.066061616
203	0xbac894f9	-0.0015303186
204	0x3da7374c	0.08164844
205	0x3da07671	0.07835091
206	0x3dabb3d6	0.0838391
207	0xbd34159e	-0.04396593
208	0x3cabafbf	0.020957826
209	0xbd99283b	-0.074783765
210	0x3d4418a3	0.047875058
211	0x3ca19d81	0.019728424
212	0x399665f7	0.000286862
213	0x3d7e94e5	0.062153716
214	0xbd246c71	-0.04014248
215	0x3c38061b	0.011231924
216	0xbda33760	-0.07969546
217	0x3d954fac	0.07290587
218	0xbc6026bb	-0.013681109
219	0xbc832568	-0.016009048
220	0x3d00aed0	0.031416714
221	0xbd5916a3	-0.053000104
222	0xbda2942d	-0.079384185
223	0xbd559894	-0.052147463
224	0xbd906db8	-0.07052177
225	0xbd5f6852	-0.054542847
226	0x3db2c853	0.08729615
227	0xbda6448a	-0.081185415
228	0x3d94734b	0.07248553
229	0x3d78bc04	0.06072618
230	0x3c032234	0.00800376
231	0x3c61a4f7	0.013772241
232	0x3dacb218	0.08432406
233	0xbcf21819	-0.029552506
234	0xbced0426	-0.028932642
235	0xbda23348	-0.07919937
236	0xbda81c19	-0.08208484
237	0x3d944006	0.07238774
238	0xbd4fc3c1	-0.050723795
239	0x3d474b6c	0.048655912
240	0x3dac75c1	0.08420897
241	0x3a14e1ef	0.00056794187
242	0x3d87c73b	0.06629797
243	0xbd635665	-0.055502314
244	0xbd08faf6	-0.03344246
245	0xbd5bd16e	-0.053666525
246	0x3c52d752	0.012868719
247	0xbce4e440	-0.02794087
248	0xbc8701c0	-0.016480327
249	0xbdb30bd7	-0.08742493
250	0xbd5970eb	-0.053086203
251	0x3d387069	0.045029078
252	0xbd2fd408	-0.042926818
253	0x3da28591	0.07935632
254	0xbd4d1e6a	-0.050077833
255	0xbda61b76	-0.081107065

model_m.6.bias f4 [32]
0	0xbc6b1ea7	-0.01435057
1	0xbc727bbb	-0.014800007
2	0xba79c914	-0.0009528559
3	0xbb2ded19	-0.0026539026
4	0xbd6b078f	-0.057380255
5	0x3cc9f62f	0.024653522
6	0xbdad2bf6	-0.084556505
7	0x3d35df86	0.04440262
8	0x3d1e005b	0.038574558
9	0xbbe22942	-0.006901891
10	0x3d3fbd57	0.046811428
11	0xbd9aa58e	-0.07551108
12	0x3c623bdd	0.013808218
13	0x3d52d73c	0.051474795
14	0xbd91b6a1	-0.07114912
15	0xbd5a4262	-0.053285964
16	0x3d46c530	0.048527896
17	0xbcfae392	-0.030626092
18	0xbaabe8c0	-0.001311563
19	0xbcda8fde	-0.02667993
20	0xbcdee54e	-0.02720895
21	0x3d2ea82f	0.04264086
22	0xbd3cd590	-0.046102107
23	0x3d93306f	0.07186972
24	0xbd202a07	-0.03910258
25	0x3bc5320c	0.006017929
26	0xbbd79fd9	-0.0065803346
27	0xbd9f16ea	-0.077680424
28	0xbce3f602	-0.027827267
29	0xbcf0b532	-0.029383276
30	0xbc7964ef	-0.015221818
31	0xbbbe4096	-0.005806039

fc.weight f4 [1, 6976]
0	0x3c3eb93e	0.011640845
1	0xbc14ed62	-0.0090898
2	0xbb992fc4	-0.0046748836
3	0xbaca439c	-0.0015431526
4	0xbb0e3015	-0.002169614
5	0xbb092987	-0.0020929293
6	0x3c4406fe	0.011964558
7	0x3c07b15c	0.008282032
8	0x3bcf0c34	0.0063185934
9	0xbbe5c755	-0.0070122876
10	0xbb5d47b7	-0.003376467
11	0x3bf2b3bd	0.0074066804
12	0xbc16a695	-0.00919499
13	0xbb1e031d	-0.0024110742
14	0x3bda1498	0.006655287
15	0x3c33a8d8	0.010965548
16	0xbbebb8f3	-0.0071936785
17	0x3bd49bc3	0.006488295
18	0x3bf22540	0.0073896945
19	0x3c01b998	0.007917784
20	0x3b8efeed	0.0043638856
21	0x3a839575	0.0010039049
22	0x3c145cf6	0.009055367
23	0xbb703bf2	-0.0036656824
24	0xbac05470	-0.0014673602
25	0xbc182547	-0.009286231
26	0xbb692fd4	-0.0035581486
27	0xbb83a8aa	-0.004017909
28	0x3b56f882	0.003280193
29	0xbc3efe89	-0.011657366
30	0x3bc4bb46	0.00600377
31	0x3b0bc9ff	0.0021330116
32	0x3c2e2584	0.010629062
33	0x3bbc43a7	0.0057453695
34	0xbc2bffa9	-0.010497966
35	0x3b4e2d7f	0.0031460223
36	0x3b9598a0	0.0045653135
37	0x39a59ca6	0.00031587965
38	0xbbd74d7e	-0.006570517
39	0xbc227664	-0.009915922
40	0x3c00c38a	0.00785912
41	0x3c161048	0.009159155
42	0x3c0fa5a7	0.008767522
43	0xbbcc595f	-0.00623624
44	0xbab70856	-0.0013964276
45	0x3a2725ef	0.0006376197
46	0x3c224fd5	0.009906729
47	0x39a6c2b4	0.00031807052
48	0xbba19039	-0.0049305228
49	0xb9ecdad0	-0.00045176456
50	0x3aa016fe	0.0012213883
51	0x3bb329ab	0.0054676137
52	0x3ba5b98d	0.00505752
53	0xbb183fb3	-0.0023231327
54	0x3c21d3d6	0.009877166
55	0xbb175c3e	-0.0023095752
56	0xbbbf58c8	-0.005839441
57	0x3b1c25a9	0.0023826158
58	0xbbe45a73	-0.00696879
59	0xbb0840d9	-0.0020790605
60	0x3ba65a2b	0.005076667
61	0xbbaef4d8	-0.0053392462
62	0x3ba476e2	0.0050190547
63	0x3a6aa54f	0.00089510245
64	0xbc2bb2c6	-0.010479635
65	0xbb297e90	-0.002586279
66	0xbc00dbf0	-0.007864937
67	0xbc423eec	-0.011855822
68	0x3ad0e017	0.0015935925
69	0x3b379a80	0.0028015673
70	0xbc2e90a9	-0.010654607
71	0xbc086313	-0.008324402
72	0x3c0ddd9d	0.008658794
73	0x3ae4095c	0.0017397809
74	0x3c15558f	0.009114637
75	0xbb909c52	-0.004413166
76	0xba9f6fff	-0.0012164115
77	0xbc2f8304	-0.010712389
78	0xbbfbded5	-0.0076864758
79	0x38807e0e	6.126995e-05
80	0x3a1a1fee	0.00058793917
81	0xbc1278ff	-0.0089399805
82	0x3c0409e9	0.008059003
83	0xbb895eb9	-0.0041922
84	0xbaa870e9	-0.0012851033
85	0xbad92d38	-0.0016569262
86	0x3bd6b065	0.0065517896
87	0xbbd96a2c	-0.006634971
88	0xbbdcc96d	-0.006737879
89	0x3c0b6cc3	0.0085098175
90	0xbb120852	-0.0022282791
91	0xbc186631	-0.009301708
92	0x3c2137ec	0.009839993
93	0xbb41db04	-0.0029580006
94	0xbc057e92	-0.0081478525
95	0xbb26f0a7	-0.002547303
96	0xbc05a59f	-0.008157163
97	0x39ee4f68	0.0004545406
98	0x3c06ea93	0.008234638
99	0x3b447efa	0.002998291
100	0x3a881d6f	0.0010384748
101	0xbc27d1fa	-0.010242933
102	0xbc0cc2fe	-0.008591412
103	0xbc0de22b	-0.00865988
104	0xbc1e54cf	-0.009663775
105	0xbc0a9c24	-0.008460078
106	0xbc43e4dd	-0.011956421
107	0xbae1dda1	-0.0017232188
108	0xb81dde24	-3.76386e-05
109	0x3c144b4f	0.009051158
110	0x3c034f0c	0.008014452
111	0xbbfa6ed9	-0.0076426086
112	0x3b9b0736	0.004731084
113	0x3b1a60ae	0.002355616
114	0xbbe2e8d9	-0.0069247303
115	0xbb6fc2e6	-0.0036584674
116	0x3c22de1a	0.009940648
117	0x3bde39f0	0.006781809
118	0xbc1373da	-0.008999789
119	0xb8cd284c	-9.7826676e-05
120	0xbbaabc74	-0.0052104536
121	0x3bcc6ed7	0.006238799
122	0x3c2bc7cb	0.010484646
123	0xbb14ab4d	-0.002268511
124	0x3b7da641	0.0038703831
125	0x3aebd76e	0.001799328
126	0x3c00b5b9	0.007855826
127	0xba5edde2	-0.0008501691
128	0xbc1771ba	-0.009243423
129	0x3b529430	0.0032131784
130	0xbbecfdc2	-0.0072323987
131	0xbb951616	-0.004549752
132	0xba4a2d64	-0.0007712452
133	0x3bdea6e7	0.0067947987
134	0x3bb7ba87	0.0056069526
135	0xbc1ec192	-0.009689705
136	0xbb8e2f7f	-0.004339158
137	0xbc11e230	-0.008904025
138	0x3c17a30c	0.009255182
139	0x3b8feaec	0.0043920185
140	0xb9cd3027	-0.00039136523
141	0x3b710d5f	0.0036781651
142	0xbbcddd51	-0.0062824865
143	0xbbe4956e	-0.006975821
144	0x3c30b8c4	0.010786239
145	0x3c0ab8b1	0.008466885
146	0xbc0d9f75	-0.008643975
147	0xbbb848ec	-0.0056239273
148	0xbc005dba	-0.007834846
149	0xbb154a2e	-0.002277981
150	0x3c2306e3	0.009950372
151	0x3b7b3d33	0.0038336038
152	0x3b957fbc	0.0045623463
153	0x3bce7804	0.006300928
154	0xbc0b3184	-0.008495692
155	0xbbb0eff7	-0.0053997
156	0x3c0d67b9	0.008630686
157	0xbbe86054	-0.0070915613
158	0xbb140cec	-0.002259071
159	0x3b7c1b39	0.0038468374
160	0xbbc12c7a	-0.0058951946
161	0x3a980977	0.00115995
162	0x3c3d61a7	0.011558927
163	0xbc2fbded	-0.010726434
164	0xba1b3dbf	-0.00059219816
165	0xbc101b49	-0.008795568
166	0xbc21611a	-0.009849811
167	0x3b21825e	0.0024644355
168	0xba3f2f64	-0.00072931335
169	0xbc41ea0b	-0.011835585
170	0xbc3ba5cf	-0.011453106
171	0x3b69403c	0.0035591265
172	0xbc1ee8ae	-0.00969903
173	0x3b8e7d73	0.004348451
174	0xbab17f48	-0.0013541961
175	0xbc1910f3	-0.00934242
176	0x3c00d305	0.007862811
177	0xbb35f94c	-0.0027767
178	0xbc2c2e7f	-0.010509132
179	0xb9865443	-0.00025621252
180	0x3a1c8a1d	0.0005971508
181	0x3c1374be	0.0090000015
182	0xbb8461b1	-0.004039966
183	0x3c2ababa	0.010420496
184	0xbbcab1ba	-0.0061857374
185	0x3c131cc0	0.0089790225
186	0x3c0f4ead	0.008746785
187	0xbbe0ab66	-0.00685637
188	0x3c124b15	0.008929034
189	0xbc258c6a	-0.010104278
190	0xbbed66f4	-0.007244939
191	0xbc0a7f1d	-0.008453158
192	0x3c07aa80	0.008280396
193	0x3b94600a	0.0045280503
194	0x3ac12f4d	0.0014738828
195	0xbb6b986e	-0.003594901
196	0xb68a5ba6	-4.1233898e-06
197	0x3affbd27	0.0019511328
198	0x3bd2558c	0.0064188894
199	0xbbea1725	-0.0071438723
200	0xbacb9c55	-0.0015534261
201	0x3c36e28e	0.011162413
202	0x3c345b18	0.011008047
203	0x3c1cfbf5	0.009581556
204	0xbb1176fe	-0.002219617
205	0x3ba05ddc	0.0048940014
206	0x3ac8f28d	0.0015331075
207	0xbc24851e	-0.010041503
208	0x3aef2d0c	0.0018247678
209	0x3bd741f6	0.0065691425
210	0x3c00fe79	0.007873171
211	0x3c412c07	0.011790282
212	0x3a508abf	0.0007955245
213	0xbbd0d8df	-0.0063735093
214	0x3c3bc05c	0.011459436
215	0xbc09be3e	-0.008407174
216	0xbc1ba7c5	-0.009500449
217	0xbb8c8159	-0.0042878804
218	0xbbff327a	-0.0077879997
219	0xbbeaf69d	-0.007170512
220	0xba8f8d82	-0.0010952207
221	0x3c062be2	0.008189173
222	0x3c043a6b	0.008070569
223	0x39a8fd5d	0.00032232227
224	0x3b7335b1	0.003711086
225	0xbaa11114	-0.0012288415
226	0x3c0544ce	0.00813408
227	0xbb9c2d9d	-0.0047661797
228	0xbb984d0b	-0.004647856
229	0xbc134123	-0.008987698
230	0xba503a6b	-0.0007943275
231	0x3c313f9f	0.010818391
232	0xbb1f7121	-0.0024328905
233	0x3c2cb76f	0.010541781
234	0xbc3d9f72	-0.011573659
235	0x3bc8c2c0	0.0061267316
236	0xbc0f17bd	-0.008733687
237	0x3c341b4b	0.010992835
238	0xbc04988c	-0.008093011
239	0xbad26e5d	-0.0016054619
240	0xbc03b3ef	-0.008038505
241	0x3c43eb07	0.01195789
242	0xbbde3f38	-0.0067824386
243	0xbc115089	-0.008869299
244	0xbaea4f23	-0.0017876368
245	0xbb98a8e5	-0.0046588057
246	0xb9a67f26	-0.0003175672
247	0x3bec12b1	0.0072043766
248	0xbc167d3e	-0.0091851335
249	0xbbd9fed7	-0.0066526937
250	0x3b5aa040	0.0033359677
251	0x3a1df0e3	0.00060249696
252	0x3c2b66b8	0.010461502
253	0xbadedae1	-0.0017002487
254	0xbbc52942	-0.006016881
255	0x3b019ada	0.0019776137
