checkpoints_multihead/run_2/1d_cnn_ckpt_4.pth (torch, 836640 bytes, 38 tensors)

model.0.0.weight f4 [8, 1, 8]
000000 48 73 bd bd 06 bc 42 3e d1 8e ac 3e a7 6a a1 3e
       -0.09250504 0.19017038 0.3370271 0.31526682
000010 8f 9e 54 3d 1f 3d 35 bd 1b 6d b7 3d 34 1a e4 bd
       0.051909026 -0.044247743 0.08956357 -0.1113781
000020 48 34 b3 bd c9 fb 94 be 89 0e b3 be 2c db a9 3d
       -0.08750206 -0.29098347 -0.34972027 0.08293757
000030 8b 22 31 3d 0a 96 a3 3e 17 36 9a 3e bc 6a 85 be
       0.043245833 0.31950408 0.30119392 -0.26057994
000040 3a 6a ab 3d b0 41 83 3e af 1f cf bd 64 d8 a5 3e
       0.083698705 0.25636053 -0.10113465 0.32391655
000050 59 6d 3b bd 11 8c af 3e c2 ac f8 3d 19 fb 0b 3e
       -0.04575858 0.3428655 0.12142326 0.13670005
000060 cc ee 86 be ab 97 3b bd f7 8b b4 3e 04 7b 88 bd
       -0.26354063 -0.04579894 0.35263035 -0.06664088
000070 17 74 e8 bd a5 8f 19 be aa b1 68 be 72 1a 24 3d
       -0.113502674 -0.14996202 -0.22724023 0.040064283
000080 cd 88 8c be 5b b1 90 be ed c6 79 3e 90 65 8a bd
       -0.2744812 -0.2826031 0.2439229 -0.06757653
000090 65 e3 58 3d 25 dd ec bc e7 76 87 3e 95 e0 46 be
       0.052951235 -0.028914044 0.26457903 -0.19421609
0000a0 15 bc b2 3c 61 02 3a bd ac 29 a6 3e a7 db 4d be
       0.0218182 -0.045412425 0.32453668 -0.20103322
0000b0 ca 77 8b 3d fb d4 8d bc 08 1d 76 3e f6 f9 ac 3e
       0.06809957 -0.017313471 0.24034512 0.33784455
0000c0 57 c6 e7 39 b1 09 c1 3d 1c f9 ac be 9e 79 38 bd
       0.00044207528 0.094256766 -0.33783805 -0.04503786
0000d0 c1 a6 10 be 88 a1 4c 3c e7 c4 5a be da 22 5b 3e
       -0.14126112 0.012489684 -0.21364175 0.21400014
0000e0 bb 7c 1f be 8a cf 49 be 1c 77 2b be a0 20 ee bd
       -0.15574925 -0.19708076 -0.16744655 -0.116273165
0000f0 69 15 35 3e 48 6f 11 3e 27 33 be 3d 00 c0 0b be
       0.17683949 0.14202607 0.092871 -0.13647461

model.0.0.bias f4 [8]
000000 e9 bc 06 be 60 0e 38 3d 65 88 a6 bd b7 35 b4 3d
       -0.13158001 0.044935584 -0.08131484 0.08799308
000010 f2 35 a7 be 2b bd 4f 3e 44 f4 47 3d 4b f2 8e be
       -0.32658345 0.20287006 0.048816934 -0.2791923

model.0.3.weight f4 [16, 8, 8]
000000 9a 94 c5 3d 72 2b f4 bd 70 29 25 bd 00 af 77 bc
       0.09647484 -0.11922349 -0.04032272 -0.015117407
000010 ee dd ec 3d f4 be dc bd c8 0c 2c 3d 38 31 fc bd
       0.11565767 -0.10778609 0.042004377 -0.12314075
000020 72 a4 f9 bd ae 7e e7 bd b2 a1 63 bd 60 5d d9 bd
       -0.121895686 -0.11303459 -0.055574127 -0.10613513
000030 c4 c9 65 3c 31 5e ac 3a 05 19 85 3c 0f 84 e8 3d
       0.014025155 0.001315063 0.016247282 0.11353313
000040 d0 75 69 bd 3c ef 83 3d 54 be 2e bd 70 17 91 bc
       -0.05699712 0.06442115 -0.04266198 -0.017711371
000050 ae 93 b1 3d 9e 39 a6 bd c6 5b 9a 3d d4 c3 1d bd
       0.08670746 -0.08116458 0.07537036 -0.038516834
000060 11 fe 81 3d fe c7 cf bd 96 da f5 3d 2c 3f ba 3d
       0.063472874 -0.10145567 0.120045826 0.0909408
000070 ff aa d4 3d 75 e4 75 3d e1 87 69 bd 19 30 cf bd
       0.103841774 0.060032327 -0.05701435 -0.10116596
000080 d0 81 e3 bc a8 64 4f bd 02 d1 a7 bd ae 07 c2 3d
       -0.02777186 -0.050633103 -0.08194162 0.09474121
000090 9a 44 c1 bd ac d7 35 3d f4 2d 42 bd a6 95 f7 3d
       -0.09436913 0.044395134 -0.047407106 0.1208909
0000a0 50 05 ba 3d 11 7b 7d bb 46 50 4e 3d 0e b0 9b bd
       0.090830445 -0.003867809 0.050369523 -0.07601939
0000b0 f4 8e de 3c 20 a0 66 3d 01 d7 ba 3d 60 71 96 bd
       0.027167775 0.05630505 0.0912304 -0.07345843
0000c0 06 89 15 bd 90 fe b8 3c 18 b6 ef 3a a7 3a e7 3d
       -0.03650763 0.022582322 0.0018288521 0.11290484
0000d0 4b 1c d0 bd 14 7c cd bc fd 72 b8 bc ce 50 1e bc
       -0.101616465 -0.02508358 -0.022515768 -0.00966282
0000e0 0e a6 ad bd b0 9c 15 3d 40 b3 a2 bc 94 cb e2 bd
       -0.08478938 0.036526382 -0.019860864 -0.11073986
0000f0 d8 b9 60 bd d8 ff b3 bc 92 39 90 3d 44 5e 9e 3d
       -0.054864734 -0.021972582 0.07042231 0.077328235
000100 3c 3e 00 bd 70 e9 54 3c d4 f5 0d bd 5c df 40 3d
       -0.03130935 0.012995109 -0.034658268 0.047088012
000110 98 ee 8b bd 88 80 e7 3c 60 f8 14 bc ee 89 a2 3d
       -0.068326175 0.02825953 -0.00909242 0.07936464
000120 40 4c 88 bc a0 9d a0 bd 48 f7 e0 bd fc 36 e2 3d
       -0.016637921 -0.078425646 -0.10984665 0.11045644
000130 a0 1a f0 3c 30 94 cf 3d 54 c9 54 3d 00 f6 d7 bd
       0.02930957 0.101356864 0.051949814 -0.10544968
000140 d4 f9 99 bd fc 11 07 3d 3c 89 29 bd f2 93 cc bd
       -0.07518354 0.032976136 -0.041390643 -0.09989156
000150 f2 5b 9f 3d 70 de 33 3c 22 fe c2 bd 7e d9 9a bd
       0.07781209 0.010978326 -0.09521128 -0.075610146
000160 70 36 3e 3d b4 95 d3 3d a0 d8 84 bd c0 76 e6 bc
       0.046438634 0.10331288 -0.064866304 -0.028132796
000170 26 89 b4 3d f4 7e a5 bd 36 68 e5 3d 4e b5 88 bd
       0.088152215 -0.08080855 0.11201517 -0.06675206
000180 40 c4 45 bc d4 a3 21 3d f8 d3 cd 3c b4 ec 9a bd
       -0.012070715 0.03946288 0.025125489 -0.07564679
000190 00 e8 77 3c e0 dd d3 3b 28 da 3b bd 88 e7 d2 3c
       0.015130997 0.0064656585 -0.045862347 0.025745168
0001a0 80 34 3e bc 28 08 6f 3d 7c 41 ab bd d6 c3 ca 3d
       -0.011609197 0.058357388 -0.083620995 0.09900634
0001b0 74 80 c9 bd 4a ed c0 3d c4 02 00 bd fc 83 ee bd
       -0.098389536 0.09420259 -0.031252638 -0.11646268
0001c0 92 3a fd bd 34 ee b5 3d 1e 35 d9 bd f0 a6 f8 3c
       -0.12364687 0.08883324 -0.106058344 0.03035304
0001d0 8c b3 19 3d 60 ef c7 3d e0 e4 65 3d c0 13 48 bd
       0.037524745 0.09762454 0.056126475 -0.04884696
0001e0 e8 a6 9e bd 50 01 30 bc 7a 04 bd 3d 8c 32 bf 3d
       -0.077466786 -0.0107425 0.092293695 0.09335813
0001f0 88 19 43 3d 78 36 f5 3d b8 4c 0d bd fc 33 bc bd
       0.04763177 0.1197328 -0.034496993 -0.09189603
000200 0a ac 8e bd 98 eb c1 3d b8 a6 c4 3d 2c 7e 50 3d
       -0.069664076 0.09468764 0.096021116 0.050901577
000210 80 a8 59 3b 28 a5 f0 3c 8c 56 32 3d 00 07 df 3c
       0.0033212006 0.029375628 0.04353957 0.027225018
000220 7d 97 08 3d 19 59 c2 38 92 f6 01 b7 35 93 95 3d
       0.033347595 9.2672366e-05 -7.746408e-06 0.07303468
000230 f7 6d 8a 3d 7a 08 b9 bd 85 52 a9 bd 18 d9 b0 bc
       0.067592554 -0.0903482 -0.082676925 -0.021587893
000240 10 5b 86 bd 8c ee b8 bd 80 e7 9f 3d d4 1b 5c 3d
       -0.065603375 -0.09029874 0.07807827 0.053737476
000250 a2 6d 81 bd e0 ba ee 3b 9a 79 8c bd a0 58 9d bc
       -0.06319739 0.007285461 -0.06859131 -0.019207299
000260 55 7a e0 3d 9c a5 43 bd 9c a2 60 3a 98 b8 a4 3d
       0.10960833 -0.04776536 0.00085691526 0.08043021
000270 f8 40 93 bc dc 32 fb 3d d6 d5 be 3c a6 5a 1d bd
       -0.017975315 0.1226556 0.023295324 -0.038416527
000280 8c f5 ab 3d a4 c4 59 3d f0 2c ab bd b2 f4 91 bd
       0.08396444 0.053166047 -0.083581805 -0.0712675
000290 1c db af 3d 98 d3 ac 3d 08 c6 bc bc c8 81 f4 3c
       0.08586714 0.08438796 -0.023043647 0.02984704
0002a0 4d 13 8c 3d 12 de 7f bd 1a 61 bf bc a6 36 cc 3d
       0.06839619 -0.062467642 -0.023361731 0.09971361
0002b0 ff 5f cb 3d a8 ec 7d 3d 71 89 ec bd 17 a6 74 3d
       0.09930419 0.06199327 -0.11549652 0.059728708
0002c0 67 84 ee bd 60 c6 dd bd fb d8 58 3c 79 aa d3 bd
       -0.116463475 -0.10828853 0.013235326 -0.103352495
0002d0 1f cf 69 3d 71 e6 65 3d 7f fb bf 3d df 04 86 3c
       0.05708229 0.05612797 0.09374141 0.016359745
0002e0 a0 e6 a6 bb da cc ca 3d b6 5d b1 3d fa 7d ef 3d
       -0.0050934106 0.099023536 0.08660452 0.1169395
0002f0 44 4a 8e bd c4 e1 9e 3d 98 96 29 bd a8 16 1d 3d
       -0.06947759 0.07757905 -0.041403383 0.038351685
000300 b2 e3 a4 bd d4 25 07 bd 2c db 3e bd fa 6c b1 bd
       -0.08051242 -0.03299506 -0.046595737 -0.08663364
000310 3e 3a 93 3d ec fe 0c 3d 90 d9 56 3d ac 42 4b 3d
       0.07188843 0.0344228 0.052453578 0.04962413
000320 a4 e0 df 3d df 74 ac 3d 3d 2b f7 bd 6c 6f d3 bb
       0.10931519 0.08420729 -0.12068794 -0.0064524915
000330 52 17 bc 3d d2 9b ac 3d 2c f8 14 3d b5 da f2 bd
       0.091841355 0.08428158 0.036369488 -0.11858121
000340 50 39 f3 bd 30 3b f2 3c 50 20 a6 bc 70 ce 62 bc
       -0.11876166 0.029569238 -0.02027908 -0.013843164
000350 f0 b1 ea 3c 00 5a 8c 3c 44 1c 7b bd 80 bc ab 3d
       0.0286493 0.01713276 -0.061306253 0.08385563
000360 5b 00 c3 bc 82 03 30 bd 65 45 f7 bd ca bc 05 bd
       -0.02380388 -0.042972095 -0.12073783 -0.032650746
000370 dd 65 2b 3d 02 69 37 bd bc 3e c7 bc 3c a6 b3 bd
       0.04184519 -0.044777878 -0.024321906 -0.08771941
000380 b0 2a 45 bc 34 32 54 3d 00 50 28 3c 54 9a 78 bd
       -0.012034103 0.05180569 0.01027298 -0.060694054
000390 38 4d f3 3d ec c5 3e 3d 8c 9c 14 3d d8 2a a1 3c
       0.11879963 0.04657547 0.036282107 0.01967375
0003a0 07 d2 91 bd c3 8a d8 bd 71 12 44 3d 67 e5 08 bd
       -0.07120138 -0.10573342 0.04786915 -0.0334219
0003b0 cc bc 76 bd bc e4 e5 bd f2 0c fd 3c 4f df f9 3d
       -0.060238644 -0.11225268 0.030889962 0.12200796
0003c0 b7 e4 47 bd 59 ca dd bb 4f 44 ee 3d e8 6d 16 bd
       -0.048802104 -0.0067685065 0.116341226 -0.03672591
0003d0 65 9c bf 3d d3 10 b8 3c 7d 98 b5 bd 0a d1 ec 3d
       0.09356002 0.02246896 -0.088669755 0.115633085
0003e0 d8 05 34 bd b4 0d ac bd 18 f5 8d bd ba e9 d1 3d
       -0.043950886 -0.08401051 -0.069315135 0.10249658
0003f0 60 96 81 bd 0c dd d1 bd b0 10 37 bd 92 71 f5 3d
       -0.0632751 -0.102472395 -0.04469365 0.119845524

model.0.3.bias f4 [16]
000000 f8 ab 47 ba fa 05 83 bd 19 af 27 3d e8 fb cd 3d
       -0.0007616873 -0.06397624 0.04093847 0.10057813
000010 70 d9 7f bc 00 c6 99 39 10 a2 58 bd 47 25 9c 3a
       -0.015615806 0.00029329956 -0.05288893 0.0011912965
000020 9e 66 c9 bd a8 0b 21 3d 8e 72 d1 bd a8 52 bf bc
       -0.09834026 0.039317757 -0.10226928 -0.023354843
000030 ce 3b 18 3d ac 26 cc bd 09 cb a2 3d 82 f7 cf bd
       0.03716641 -0.099683136 0.07948882 -0.1015463

model.0.6.weight f4 [32, 16, 8]
000000 57 57 19 3d dc 9c fe bc 97 9c 90 3d 25 f6 5e bc
       0.03743681 -0.031080656 0.07061117 -0.01360849
000010 0a d0 3e 3d 37 b3 4d 3d c2 f4 9e bc 6e 56 9c bd
       0.04658512 0.05021974 -0.019403819 -0.07633673
000020 8f 2e e3 bb 8b c6 f4 bc 37 ba 6b 3c e6 db f2 bc
       -0.0069330405 -0.029879829 0.014387659 -0.029645871
000030 91 0d 91 bd 68 0e 7f bd 87 8d a4 bd 65 81 b3 3d
       -0.07082666 -0.0622696 -0.08034807 0.087649144
000040 5d d4 20 bd 4e 2e 09 3d 51 5e cd bc 51 ab 94 bc
       -0.039265025 0.033491425 -0.025069388 -0.018148096
000050 1a 63 42 3d 81 a9 27 bd 52 6f e0 bc 8a 5c 3a 3d
       0.047457792 -0.040933136 -0.027396832 0.04549841
000060 85 4c a9 bc 6b 20 6b 3c 85 6c 61 3d 71 2d b7 3c
       -0.02066637 0.014350991 0.055035133 0.022360535
000070 cb 77 a5 3d 1d 5d 64 bd e1 7e ad bc f7 ed 7c bd
       0.08079489 -0.055752862 -0.021178665 -0.06175038
000080 e5 d7 4b bd 3f ee 98 bc 7c 1b f5 3c 58 2a c9 3c
       -0.04976644 -0.018668292 0.029920332 0.024556324
000090 98 f5 a4 bd 32 05 b0 bd 6d 59 1c 3b e7 23 21 bd
       -0.08054656 -0.08594741 0.0023857013 -0.03934088
0000a0 64 e1 b3 bd 05 5a 90 3b de 39 47 3d 35 26 20 3d
       -0.08783224 0.0044052624 0.04863917 0.039098937
0000b0 01 5f 96 3d f7 69 8f bd 0f 2a ab bc fe ba f7 3c
       0.07342339 -0.07002633 -0.020894079 0.030240532
0000c0 42 b6 8b 3b 31 2c ad 3d a3 e1 a8 3d c1 79 57 bb
       0.00426367 0.084556945 0.08246162 -0.0032878967
0000d0 10 2b dc 3c 27 9c 7a 3b 70 d4 55 3d cf fa a9 3d
       0.026876003 0.0038240047 0.05220455 0.08299791
0000e0 44 ce a0 3d f9 03 cf 3c f7 15 5d bd d6 44 56 3d
       0.07851842 0.025270449 -0.053976025 0.05231174
0000f0 12 64 aa 3d 3d b3 1a bd 34 c9 29 3d 5e b8 89 bc
       0.08319868 -0.03776859 0.041451648 -0.016811546
000100 24 3c bf 3c 2b fb a5 bd f9 a0 a5 bd bd 8f 94 ba
       0.023344107 -0.08104547 -0.08087344 -0.0011334341
000110 ed 4a 4b 3c da 5c 91 3d 40 83 73 bd f8 20 a8 3c
       0.012408 0.07097788 -0.05945134 0.020523533
000120 bb a0 77 3d a1 8b a8 3d 53 ad 21 bd 2c cd a4 bb
       0.06045602 0.08229757 -0.039471935 -0.005029341
000130 e5 20 95 bc aa 15 6c bd 54 88 0d bd 16 ef f5 3c
       -0.018204162 -0.057637848 -0.03455384 0.030021232
000140 7e 67 3f bc c0 0f a1 bb 24 97 4f bc 28 c8 13 3d
       -0.011682389 -0.0049152076 -0.012670312 0.036079556
000150 28 07 03 3d c0 fb 3e bd e0 7e 6f bd 3e 00 44 bd
       0.031989247 -0.046626806 -0.058470607 -0.047851793
000160 56 1a ae 3d 2c ab a4 bd cc 63 a0 bd 4a c6 e9 bc
       0.08501117 -0.08040461 -0.07831535 -0.028536934
000170 d7 d0 48 3d 8c 4b 83 3c bf 1a 33 3d c6 d7 38 3d
       0.04902729 0.016027234 0.04372668 0.045127653
000180 35 f5 62 bd bc e3 69 3d 27 dd a5 bd 88 90 58 3b
       -0.05540963 0.05710195 -0.08098822 0.0033045132
000190 09 51 6d 3d 0d 82 05 bd 10 27 9d 3c d3 8c 78 bc
       0.05793861 -0.03259473 0.019183666 -0.015170294
0001a0 3d 5c 79 3d 8f ce 6f bd fa 1f fc bc dc 62 d3 3c
       0.06087898 -0.0585466 -0.030776966 0.025803976
0001b0 76 f6 bf bc 3c 0a 88 bd c1 1b b0 bd 93 7d 60 3b
       -0.023432951 -0.06642577 -0.08599044 0.0034254536
0001c0 7f df 66 bd 91 cd 7d bb 54 de 8d bb a5 7d 28 3c
       -0.056365486 -0.0038727263 -0.004329482 0.010283862
0001d0 f8 7e 70 3d 65 b2 f7 3c de 28 4c 3d 73 47 42 bd
       0.058714837 0.030236432 0.04984366 -0.04743142
0001e0 bb a7 a9 bd 6c a8 ec bc f2 d6 de bc 0e 9a 0e bd
       -0.08283945 -0.028888904 -0.027202103 -0.034814887
0001f0 78 74 8d 3d 4c 5a 9c bd fd e4 62 bd 31 4e 4a bd
       0.0690698 -0.0763441 -0.05539416 -0.049390975
000200 33 4f 9d bb af f0 0a 3d 75 35 c5 bc 62 e6 9f bd
       -0.004800701 0.03392094 -0.024073342 -0.07807614
000210 3c 95 33 3d cb 13 90 bc 0e 68 6a 3d 2b d0 22 bd
       0.043843493 -0.017587563 0.05722814 -0.039749306
000220 70 54 1d bd 4b 3d c2 bc 3a a1 8e bb a1 1a 26 bd
       -0.038410604 -0.023710867 -0.004352716 -0.04055274
000230 ce 77 79 bd 26 44 13 bd b7 74 b2 bd 32 7a 87 bd
       -0.06090527 -0.035953663 -0.08713668 -0.06615104
000240 81 65 66 3c f7 c1 e6 bc e6 0a 89 bd d3 96 d4 3c
       0.014062286 -0.028168662 -0.06691532 0.025950825
000250 c2 43 96 3d 0c 92 22 bd ee e2 1f 3d 5f 4c 06 bd
       0.073371425 -0.039690062 0.039034776 -0.032787677
000260 fa df f6 3c 54 ac ad bc c1 a7 6b bd e1 12 2b bd
       0.030136097 -0.021200337 -0.05753303 -0.04176605
000270 fe 91 9d 3d 19 e3 78 3d 5b 22 3a 3c 9a 05 9f bd
       0.076938614 0.060763452 0.01136073 -0.0776474
000280 f4 3d a2 3d b0 ac a2 3d 8d b8 1a 3d b6 43 b2 bd
       0.07921973 0.07943094 0.037773658 -0.08704321
000290 c6 82 6d 3d ad 4c 88 bd 63 32 6f 3b 06 af 5e 3d
       0.057986043 -0.0665525 0.0036498539 0.054366134
0002a0 b7 fb 1a 3d 7c 5d 5a bd 14 9c 98 bd b4 0e aa bd
       0.03783771 -0.05331181 -0.074516445 -0.08303586
0002b0 93 50 84 3d 24 44 87 bd eb d9 92 bd 21 15 85 3d
       0.06460681 -0.06604794 -0.07170471 0.06498171
0002c0 ca f7 89 bd 74 e4 52 bd 89 8b 3f bd f1 c4 2c 3d
       -0.06736715 -0.0514874 -0.04676393 0.042180005
0002d0 97 37 a5 bc dc c2 4d bb c8 7e b7 bb 8a 19 2b bd
       -0.020168109 -0.0031396663 -0.0055998303 -0.041772403
0002e0 3f 25 00 bd 25 4b 97 3d 6e d6 11 bc e6 97 10 bb
       -0.03128552 0.073873796 -0.008901222 -0.0022063195
0002f0 4b fa 76 bd 99 b9 b0 3d 44 f0 7b bc 5c 5c ea bc
       -0.06029729 0.0862915 -0.015377108 -0.028608494
000300 ef 65 24 bd 05 53 a4 3c bc 2b 83 3d 4b ad 55 3d
       -0.040136274 0.020059118 0.06404826 0.05216722
000310 ee 54 f6 3b 43 e0 33 bd a2 c9 87 3d da ae 98 bc
       0.0075174486 -0.043915045 0.06630255 -0.018638063
000320 41 03 47 3d 31 77 c5 ba de 7c 82 bd 3f 44 e3 bb
       0.048587088 -0.0015065429 -0.06371473 -0.006935626
000330 50 0b a9 bd 35 50 93 3d 0d 5f d6 bc 04 38 29 3d
       -0.08254111 0.07193033 -0.02616837 0.041313186
000340 3a 6c 90 bc 07 64 4b bc b4 05 39 bd 34 e9 fe bc
       -0.017629731 -0.012413985 -0.045171455 -0.03111706
000350 19 fd 7b 3d 83 8f a6 3c fc 2a 34 bb 5b 9c 44 3d
       0.06152067 0.020332104 -0.002749144 0.048000675
000360 49 a8 87 bd 77 c1 62 bd f1 4a 76 3b 02 4d 72 3d
       -0.06623895 -0.055360284 0.003758129 0.05915547
000370 4d 5e e1 bc e9 66 9e bd 6b 7a 5f bb 62 81 32 bd
       -0.027510786 -0.07734472 -0.0034100066 -0.04358042
000380 7f d4 7a bd a9 67 47 3d 85 81 5d bd d6 b3 37 3c
       -0.06123781 0.048682842 -0.054078598 0.01121231
000390 eb c6 88 bd a0 71 20 bd 44 fc a9 3d d3 87 53 3b
       -0.066785656 -0.03917086 0.08300069 0.0032277002
0003a0 32 41 b3 3b fc 0e ef bc e8 5e ec bc 28 f6 f9 bb
       0.0054704184 -0.02918195 -0.028853849 -0.007628221
0003b0 7a 64 a4 bd ec 93 7c bc d2 4e a6 3d df 7b a7 3d
       -0.08026977 -0.015416127 0.081205025 0.081779234
0003c0 ad 99 e1 3c a0 c0 aa 3d 1c f4 0a bb 60 be 97 3c
       0.027539099 0.083375216 -0.002120263 0.018523395
0003d0 9b c1 51 bc b3 03 aa 3d dd a2 43 3d 7e a0 91 3d
       -0.012802507 0.08301487 0.04776274 0.071106896
0003e0 80 89 50 bc 4b 01 11 3c 04 df 84 3d 39 b7 b2 b9
       -0.012728095 0.008850406 0.06487849 -0.00034087317
0003f0 d6 a4 b1 3d 15 08 25 3c 57 fc 96 bd a5 f5 5a 3d
       0.08674018 0.010072728 -0.07372349 0.05345692

model.0.6.bias f4 [32]
000000 7b 0d 92 bd 48 d2 6e 3d d0 d4 85 3d b1 12 71 3d
       -0.071314774 0.05830601 0.065347314 0.058855716
000010 f9 49 54 3c eb 40 9e 3d 48 5f e8 bc 91 4e 15 3d
       0.01295709 0.07727226 -0.028365746 0.03645188
000020 73 96 65 bc b0 de 64 3d e7 a8 9e bd 48 90 37 3c
       -0.014012921 0.055876434 -0.07747059 0.011203833
000030 11 9e 92 bd c6 1a 5a 3d 3d 07 95 bb 93 40 ea bb
       -0.07159055 0.05324819 -0.004547982 -0.007148811
000040 06 b8 93 3d 8e 4d 4f bd ae 35 73 3c 8d 2d 87 bd
       0.07212834 -0.05061107 0.014844341 -0.06600485
000050 39 8f 94 3d 86 29 a1 3c ec a5 12 bd 83 d0 17 3d
       0.0725388 0.01967312 -0.035802767 0.037064087
000060 a1 3c 89 bd 24 b4 9b 3c 15 9f a4 3c 51 d2 a7 bd
       -0.06701017 0.019006796 0.020095387 -0.081944115
000070 c0 20 a6 bd c1 83 59 bd c7 4f 55 3d 60 5f 27 3d
       -0.08111715 -0.053104166 0.052078035 0.04086244

model.1.0.weight f4 [8, 1, 8]
000000 7e 60 ae bd 8d 1b f4 3d b2 0c 84 be ff 70 34 be
       -0.08514498 0.119193174 -0.25790936 -0.1762123
000010 0a 97 89 3d fd 06 6d bd c5 92 d6 bd aa c0 a8 3d
       0.067182615 -0.057867993 -0.10477213 0.08239873
000020 35 f9 7b be 60 d6 b4 be 74 63 43 bd 74 f4 ad 3e
       -0.24606784 -0.35319805 -0.047702268 0.33975565
000030 73 d4 e6 3d 53 cd 5f bd 5d ba d7 3d 13 94 3b 3e
       0.1127099 -0.05463917 0.10533593 0.18318205
000040 82 a2 7e bd 51 c6 b3 3e 52 44 0f bd 1c b8 4d 3e
       -0.0621667 0.3511224 -0.034977265 0.20089763
000050 60 c7 a4 be fd 40 df 3d 1c 19 7c be 3b fc dc bd
       -0.3218336 0.109010674 -0.24618953 -0.10790297
000060 59 b6 93 3d 87 75 9f 3e 15 db 04 bc c7 0f 78 bd
       0.072125144 0.31144354 -0.008108874 -0.06056192
000070 ed e8 0c be 34 f9 88 3e 3b 6e 14 bd eb 39 0e 3e
       -0.13760729 0.26752627 -0.036237936 0.13889281
000080 79 72 b4 be dc 50 56 bc 87 4f 62 be bd 8f 4f be
       -0.35243586 -0.013080802 -0.2210065 -0.20269676
000090 ad c0 a0 be 04 a5 8d be 6d 2c 93 bd bc 89 29 be
       -0.31397 -0.2766496 -0.07186208 -0.16556448
0000a0 db dd 8e 3e 82 b3 f6 3c 7b dc 8c 3d b7 47 f6 bd
       0.27903637 0.030114893 0.06877991 -0.12025397
0000b0 59 b7 42 be 4a 46 1a be 4e 75 02 3e 4c 4b 0d 3e
       -0.19015254 -0.15065876 0.1274006 0.13798255
0000c0 41 e1 50 3e b1 65 9c be 9e 2a b1 be ad 1a b0 be
       0.20398428 -0.30546334 -0.34602827 -0.34395352
0000d0 98 81 6c 3e b8 78 e6 bd 05 31 8c 3e e4 c9 1f bd
       0.23096311 -0.11253494 0.2738115 -0.039010897
0000e0 6c e1 59 be 50 fa 9b 3e 6c 8b a2 bd a5 be 9c 3e
       -0.21277398 0.3046441 -0.07936749 0.306142
0000f0 1e db ef bc 98 3e 2a 3e 41 c0 59 3e 7c 4b 9f 3e
       -0.029279288 0.1662544 0.21264745 0.31112278

model.1.0.bias f4 [8]
000000 96 00 29 3e 48 9e b9 bb f3 fd 9d 3e f8 8c f6 3d
       0.1650413 -0.0056646205 0.3085781 0.120386064
000010 f8 fd 53 3b 30 1a eb bd 7a 10 84 3d da 9f a0 be
       0.0032347422 -0.11479604 0.06448455 -0.31371957

model.1.3.weight f4 [16, 8, 8]
000000 20 8f 32 3c 3e 95 85 bd b0 df 55 3d 08 81 17 bd
       0.0108983815 -0.06522606 0.05221528 -0.03698829
000010 50 f4 c5 bd 94 11 06 3d 74 7e 87 bd a0 ca 11 bd
       -0.096657395 0.032731608 -0.06615916 -0.03559363
000020 18 3a 80 bc 78 28 90 3d e0 48 49 3c 4a 2d d9 bd
       -0.015652701 0.07038969 0.012285441 -0.10604341
000030 66 43 e4 bd 90 22 7f 3d 1c 3a 51 bd 74 48 66 bd
       -0.11145668 0.06228882 -0.051080808 -0.05622144
000040 02 91 d4 bd 50 1f 49 3d e0 2b e7 bc b8 24 04 bd
       -0.103792205 0.049102128 -0.028219163 -0.03226158
000050 a4 2c f5 3d 10 dd 0b 3d ec ab 4e bd 06 a2 d8 3d
       0.11971405 0.03414637 -0.050456926 0.105777785
000060 9e 7d a4 3d f8 b4 87 bc c0 54 da 3d ca 67 e7 3d
       0.08031772 -0.016565785 0.10660696 0.11299093
000070 68 2e 35 bd 48 9f 7e 3d e0 1c e8 3d 26 b1 9a bd
       -0.04423371 0.06216362 0.113336325 -0.0755332
000080 40 90 08 bc e0 8b ca bd 70 fa fd bd 40 fe d3 3d
       -0.008335173 -0.0988996 -0.12401283 0.10351229
000090 48 5f e9 3c 22 3a da 3d 6e 81 8e bd 3e aa d4 3d
       0.028487816 0.10655619 -0.069582805 0.103840336
0000a0 6c b8 d6 3d ee 8d d1 3d e4 46 41 3d 18 b2 14 3d
       0.104843944 0.10232149 0.047186747 0.036302656
0000b0 a2 4a f2 bd e0 1d 23 3d 10 6c 11 bd a6 57 fd 3d
       -0.11830641 0.039823413 -0.035503447 0.12370233
0000c0 c0 18 35 3b 32 82 d7 3d 1a fd dc 3d a8 07 c7 3c
       0.002763316 0.1052288 0.10790463 0.024295643
0000d0 c0 fe 03 bd 08 78 e4 bd 4e 7d 9b 3d 80 86 3c 3d
       -0.03222537 -0.11155707 0.07592259 0.046026707
0000e0 80 98 aa bd c0 87 3d bc 3c 64 6c 3d 68 3a a9 3d
       -0.08329868 -0.01156801 0.05771278 0.08263093
0000f0 40 00 3c 3c 42 40 d6 bd 0a b3 dd bd 56 d1 dc bd
       0.011474669 -0.10461475 -0.108251646 -0.10782115
000100 4c 5d e1 3d ee 5d 66 3c 92 62 5b bd d2 8d 86 3b
       0.11004123 0.0140604805 -0.0535608 0.004106262
000110 44 69 45 3d 96 d3 a2 bd 92 b9 7d 3d d9 e9 e7 3d
       0.048196092 -0.07950513 0.06194455 0.113239
000120 2e a3 d0 bd 22 f7 e2 3d 2e 46 a6 bd 1c b2 ee bd
       -0.10187374 0.11082293 -0.081188545 -0.116550654
000130 40 06 fc 3d c8 0a 94 3c d0 3c 6d bc 64 b9 34 bd
       0.123058796 0.018071547 -0.014479831 -0.044122115
000140 99 9e d2 3d 12 11 73 3c 0c 75 e3 3d 35 f7 ca 3d
       0.10284156 0.014835613 0.11106309 0.09910432
000150 bc 93 1b bd cb 71 e8 3d aa 3d 97 bd 62 36 03 bc
       -0.037982687 0.11349829 -0.07384808 -0.008008571
000160 8b 15 b8 3a 83 01 26 3d 69 e9 fa 3c 06 4a da 3d
       0.0014044506 0.040528785 0.030628877 0.1065865
000170 f7 9d ab bd f9 b6 c3 bd 9a 49 aa bd 1d 33 8f 3d
       -0.08379739 -0.09556384 -0.0831482 0.06992171
000180 52 26 9e 39 d7 c4 2f 3d 09 a2 cd bd ab 5f 8f 3d
       0.0003016466 0.04291233 -0.100406714 0.07000669
000190 91 80 c4 3d 95 dd 8f bd 98 bd 65 bc 3b 6d 67 3d
       0.095948346 -0.07024685 -0.014022253 0.056500655
0001a0 20 cb dc bd 0c 67 97 bd a0 57 ba bc 8e 54 c4 bd
       -0.107809305 -0.073927015 -0.022746861 -0.0958644
0001b0 80 df d9 bb cc d4 60 3d 68 8e e6 bd b0 07 2b bd
       -0.0066489577 0.05489044 -0.112576306 -0.04175538
0001c0 07 65 57 bc 2e 59 77 bd e7 46 af 3d 92 19 5a bd
       -0.013146645 -0.060387783 0.085584454 -0.053247042
0001d0 ea 28 7e bd cf ed c3 bd 70 a2 39 3d 16 af 91 bd
       -0.062050737 -0.09566843 0.045320928 -0.07113473
0001e0 44 0c 6c bd 28 9e 2a 3d a0 22 37 3c a2 ea c3 bd
       -0.057628885 0.041654736 0.011177689 -0.09566237
0001f0 c8 24 c3 3d ec 89 50 3d 10 02 b1 bd 60 b8 6b 3c
       0.095285 0.050912783 -0.086429715 0.01438722
000200 c2 f4 45 bd d4 19 e4 bd bb 4c f8 3d 09 f7 c0 3c
       -0.048329122 -0.11137739 0.1212401 0.023555296
000210 2e 81 b5 3d 04 7c 4e 3d 86 64 9d 3d b3 ba 78 3d
       0.0886253 0.05041124 0.07685189 0.060724925
000220 88 fa f4 bc 68 cd 82 3c 80 d1 93 bd 3a c2 f1 3d
       -0.029904619 0.015967086 -0.07217693 0.11804624
000230 bc 34 17 3d 6e 48 f0 bd c0 9c c3 bb 28 fd a3 bd
       0.036915526 -0.11732565 -0.005969614 -0.0800727
000240 32 14 1d 3d a5 0b c6 bd e5 fa 34 bd 58 76 9c bd
       0.038349338 -0.0967019 -0.044184584 -0.0763976
000250 55 22 da 3d 69 2a 9d bd 33 99 fa 3a cf 23 fc bd
       0.106510796 -0.07674105 0.0019119143 -0.123115174
000260 91 ab 84 3c 19 ba 37 bd 93 3c fb 3b 34 48 e6 3d
       0.01619509 -0.04485521 0.007667133 0.112442404
000270 72 6e 1b 3d 83 52 a3 3c 04 2b 8f 3d 4a 48 5a bd
       0.037947126 0.019936806 0.069906265 -0.053291596
000280 b1 51 a0 bd b9 b5 98 3d 8e 44 d9 bd 56 69 e3 3d
       -0.078280814 0.07456536 -0.10608779 0.111040756
000290 17 36 f1 3a b2 5f b5 3d cc 28 5a bd 53 99 10 3d
       0.0018402961 0.08856143 -0.053261563 0.03530247
0002a0 12 53 b3 bd 20 eb 82 3b 64 6c 99 3d 20 40 99 3d
       -0.08756079 0.0039953142 0.07491377 0.07482934
0002b0 30 b3 a6 3c fc 5a c9 3d 1c a8 39 3d 44 5c c4 3d
       0.020349115 0.09831807 0.045326337 0.09587911
0002c0 8d b5 c9 3d 9b 17 51 bd eb ac eb bc 7d 4c c9 3d
       0.09849081 -0.051047903 -0.028768977 0.09829042
0002d0 c0 a5 d6 3d 1d eb eb bc 29 5d d1 bd f8 d7 f8 bd
       0.10480833 -0.028798634 -0.10222847 -0.12150568
0002e0 24 a0 83 3d 12 21 a0 bd 36 ea 9e bd 5c 63 2a bd
       0.06427029 -0.07818808 -0.07759516 -0.041598663
0002f0 8e b8 bc bd d0 8e 75 bc 44 2a 80 3d 20 34 9a bc
       -0.092148885 -0.014987662 0.062580615 -0.018823683
000300 14 93 37 bd 8c c9 29 bd d0 25 18 bd 86 71 84 3d
       -0.044818 -0.041451976 -0.037145436 0.064669654
000310 a4 4f 49 bd 36 cf ef bd 30 a9 f7 3d bc 3f 0d bd
       -0.049148217 -0.11709444 0.12092817 -0.03448461
000320 10 c3 f9 3d 60 34 97 3d 68 2c 5b bd 7e 31 f2 bd
       0.12195408 0.073830366 -0.053509146 -0.11825846
000330 00 4b a1 3c 08 24 d3 3c 24 97 56 bd e6 c9 fd bd
       0.019689083 0.025774017 -0.052390233 -0.12392025
000340 e8 2c 95 3d f4 40 4e 3d be 5e db 3d 74 ff 33 bd
       0.07283956 0.050354913 0.1071143 -0.04394479
000350 28 2a 50 bd a2 30 f3 bd 1c cf 81 3d dc 50 c6 bd
       -0.050821453 -0.1187451 0.06338331 -0.096833915
000360 20 fe 46 bc f0 27 0d bc 20 83 9d bb 60 63 7f 3d
       -0.012145549 -0.008615479 -0.004806891 0.06235063
000370 30 13 10 3c 18 38 dd bd e0 83 96 3d c6 f1 ef bd
       0.008793637 -0.10801715 0.07349372 -0.117160365
000380 30 09 42 3d e6 59 ef 3d 74 bb 26 3d 52 45 c6 bd
       0.047372043 0.11687069 0.040706113 -0.096811906
000390 2c 4b 6c bd 1c ed a9 bd da da 8c bd 76 50 d8 3d
       -0.057688877 -0.08297178 -0.0687768 0.10562222
0003a0 46 ab d9 3d 7a ef c7 bd d8 b5 95 3d fe 8e ae bd
       0.10628371 -0.097624734 0.073100746 -0.08523367
0003b0 cc 87 0a bd 86 b3 9c bd b0 a1 35 bd 4c fb 38 bd
       -0.033820912 -0.07651429 -0.04434365 -0.04516153
0003c0 1e a9 d0 3d 0c a1 e5 bd 70 d9 38 3c f0 29 45 bd
       0.101885065 -0.11212358 0.01128231 -0.048135698
0003d0 f0 13 42 bd 00 26 f1 3d 04 da 9b 3d 30 f3 15 3d
       -0.047382295 0.11774826 0.076099426 0.036608875
0003e0 c2 cd d3 bd a4 34 e6 bd 88 a6 60 3d b0 c9 89 3d
       -0.103419796 -0.11240509 0.054846317 0.06727922
0003f0 00 46 25 bd c6 a7 88 bd 38 2b fe 3d c0 be 1a 3b
       -0.04034996 -0.06672625 0.12410587 0.002361223

model.1.3.bias f4 [16]
000000 86 a1 cb bd c1 7d 84 bd cf 98 42 3d 88 7b be bd
       -0.099429175 -0.06469298 0.04750901 -0.093009055
000010 60 ab 68 3c 2c d3 fd 3d 1c 71 4f bd 5c 57 28 bd
       0.014201015 0.123937935 -0.05064498 -0.041098937
000020 24 60 3d bd 0e df 8b bc 5c 9e 28 3d 28 1c f2 3d
       -0.046234265 -0.017074134 0.04116665 0.11821777
000030 3c 9a df bd 74 9a a9 3d 69 57 ec 3d f9 2d 97 bc
       -0.1091809 0.08281413 0.1154011 -0.018454539

model.1.6.weight f4 [32, 16, 8]
000000 1d 7a 9a bd 82 d2 65 3c d5 65 03 3d 07 8f 06 3d
       -0.075428225 0.01402724 0.032079536 0.032851245
000010 ca f0 9c bc 98 93 1a bd 0e 40 ac bd 74 14 08 bc
       -0.019157786 -0.037738413 -0.08410655 -0.008305658
000020 8e b9 ef bc bd 40 12 bd 6d e1 06 3d de 9f 66 3c
       -0.029263284 -0.03570627 0.032929827 0.014076201
000030 87 8b 53 bd c3 73 15 bd b0 dd 9c bd 68 10 30 3d
       -0.051646736 -0.036487352 -0.07659471 0.042984396
000040 c0 90 62 bc 29 ce 85 3b 3d e4 68 3d 3c 4c 13 3d
       -0.013828456 0.004083414 0.05685829 0.035961375
000050 ce db e0 3c 18 e2 a8 bc 23 da 5a 3d a0 75 75 bb
       0.027448561 -0.020615622 0.053430688 -0.0037454143
000060 2d a5 a0 bd 5d 3c 93 bd 4c 89 fb 3c b5 74 26 bd
       -0.07844005 -0.07189248 0.030705117 -0.040638644
000070 95 ad 5f bd c5 a9 94 bd 4d dd 53 3d 1d ca 1b 3d
       -0.0546089 -0.072589435 0.05172472 0.038034547
000080 82 39 5f 3d 58 7d 08 3c 96 ca a9 3d 67 69 90 3c
       0.054498203 0.0083306655 0.08290593 0.017628385
000090 2b 6a 96 bd e3 2e 28 bd 9a be a2 bb 78 7f 3a bd
       -0.07344469 -0.04106034 -0.004966569 -0.04553172
0000a0 dd 02 7e 3c 40 5a 92 bd 0e 3f 8e 3d 28 75 2b bd
       0.015503612 -0.0714612 0.069456205 -0.041859776
0000b0 a2 d5 9b bd 8c 25 b4 bc 10 80 6e 3d 28 22 60 3d
       -0.076091066 -0.02199056 0.0582276 0.054720074
0000c0 63 7c 93 3c 9e e4 93 bc 44 d9 91 3d d7 b2 07 bd
       0.018003648 -0.01805335 0.07121518 -0.03312954
0000d0 02 23 0e 3b 6b e8 93 3b 38 aa 9e bd 17 6e ae bd
       0.0021688347 0.0045137904 -0.077473104 -0.08517092
0000e0 43 b9 b3 bd 35 91 05 3c c8 0f 34 3d 83 0d 61 bd
       -0.0877557 0.008152296 0.043960363 -0.054944526
0000f0 d3 a5 ee 3c 2c aa ce bc 92 ff 53 3d 18 b4 86 bc
       0.029131806 -0.025227629 0.051757403 -0.016443297
000100 a2 68 30 bd 98 55 cc 3c 51 ef 8e 3c c3 12 26 bd
       -0.043068536 0.024943158 0.0174481 -0.040545236
000110 00 d8 56 bc 7b 58 56 bd 73 3e 96 3d 2f 38 65 bd
       -0.013113022 -0.052330475 0.0733613 -0.055961784
000120 66 3d 55 3d 7b eb 51 3d 12 ef 01 3d 84 a0 6f 3c
       0.052060507 0.051249962 0.031722136 0.014625672
000130 fb 5c 1d 3d a4 85 7c bd 14 cc b3 3c 77 35 6f 3d
       0.03841875 -0.061650887 0.021947898 0.058400597
000140 33 03 68 3b f4 bd 90 3d 58 44 3e bc 0d 3f 92 bd
       0.0035402298 0.07067481 -0.011612974 -0.07140932
000150 61 24 99 3d 24 e6 0f bb ba 54 38 3d 5d 11 92 bd
       0.07477642 -0.0021957243 0.045002677 -0.07132218
000160 d7 18 91 3d be 2b 8f 3d 1b 33 2f bd 73 ab f6 bc
       0.07084816 0.06990765 -0.042773347 -0.03011105
000170 13 ff 7d bd 22 8c e9 39 03 4a 01 3c f7 5f 8d bd
       -0.062010836 0.0004454563 0.007891181 -0.069030695
000180 f9 9f 81 bd 91 24 2d bd 41 99 a1 3d 6a 5c 0e bd
       -0.063293405 -0.0422712 0.07890559 -0.0347561
000190 03 fe 34 3d 5c 68 8e 3d 5c eb 08 3d 2b 1a 8a bd
       0.044187557 0.06953499 0.03342758 -0.067432724
0001a0 75 9a 26 3d 47 46 7c bd 58 e7 5d bd 24 8c 73 3c
       0.040674645 -0.06159046 -0.054175705 0.014864955
0001b0 1d c9 73 bd 40 52 f1 3c 56 cd 96 3d 35 4d 11 bd
       -0.05951797 0.029458165 0.073633835 -0.03547402
0001c0 56 81 e5 bc 96 22 91 bc 96 bc 98 3d 67 b5 18 bd
       -0.028015774 -0.017716687 0.07457845 -0.037282374
0001d0 0e 93 94 bd 68 93 29 bd b4 64 8c bc 51 3d b3 3b
       -0.07254611 -0.041400343 -0.017137863 0.005469956
0001e0 b5 d1 06 bd d7 49 ae 3c f4 40 9f 3d 60 dd e1 3c
       -0.032914836 0.021275444 0.07776061 0.02757138
0001f0 3f 25 0f 3c 15 3c 30 3d 4c b7 04 bb ab 1f 3c bd
       0.0087369075 0.04302605 -0.0020250855 -0.04592864
000200 0e af e3 3c 26 b6 67 bd 42 77 5b 3d 9d 94 70 bd
       0.027793434 -0.056570195 0.05358053 -0.05873548
000210 90 5a 8a bd 9d 1c ae bd 33 a1 56 3d cd 67 0d 3d
       -0.06755555 -0.08501551 0.052399825 0.03452282
000220 8d 7b 8f bc 17 58 85 3d b8 c3 80 bd 42 ec c7 3c
       -0.017514968 0.065109424 -0.062873304 0.024404649
000230 5e e2 92 bb 42 11 82 3d 3f b2 a3 bd 1e 01 d9 3c
       -0.0044825515 0.06350948 -0.07992982 0.02648979
000240 31 11 24 3d 41 c0 af bd d1 d6 d4 bc 46 7b af 3c
       0.040055458 -0.085815914 -0.025981339 0.021421086
000250 be 5b 32 3d d5 a2 63 3d fc a3 71 bb 94 e2 8e bd
       0.043544523 0.05557521 -0.0036871424 -0.0697681
000260 49 c7 9b 3d e6 e6 de 3b 46 f2 d6 bc 4f 8e 69 bd
       0.0760637 0.0068024276 -0.026238572 -0.05702048
000270 d0 b0 52 bd ec b2 7c 3d 2c 1a c4 bc da ba 5f bd
       -0.051438153 0.06169407 -0.023938261 -0.054621555
000280 00 17 0c bd ae 6e 5e bc 37 b8 3d bb 90 68 39 3d
       -0.034201622 -0.013576193 -0.0028948912 0.045265734
000290 24 a0 da bc f8 f6 a9 bd 1e 05 47 bd 9a 17 a4 3d
       -0.02668769 -0.08299059 -0.048588865 0.08012314
0002a0 2b 88 5a ba bb a0 ad 39 60 8a aa 3d e9 d5 9c 3d
       -0.00083363306 0.00033116885 0.08327174 0.076579876
0002b0 dd 9e 16 3d f3 da 9d bd 4c a6 71 3b 6e 80 a6 bd
       0.036772598 -0.07707777 0.0036872802 -0.08129965
0002c0 37 29 30 bd 22 a9 ac 3d 73 85 c9 ba 8b fd fc bc
       -0.043008056 0.08430697 -0.0015374854 -0.030882617
0002d0 c5 11 8c bd cf ab 96 3d 63 9a 29 bd 9c 54 8b bd
       -0.06839327 0.07356989 -0.041407 -0.06803247
0002e0 f9 0e 84 3d 7b 4c eb 3c 62 c7 2c bd 64 3d 27 3d
       0.06448168 0.028722992 -0.042182334 0.04083003
0002f0 4f 84 13 bd 52 f2 9c bd 6c 12 b1 bd f9 73 6a bd
       -0.03601485 -0.076634064 -0.08646092 -0.057239506
000300 01 4f 9a bc e8 ee 52 3d 80 06 7e bd 02 58 8a 3d
       -0.0188365 0.05149737 -0.062017918 0.067550674
000310 8e 44 59 bd f4 7d 63 3d 0c d4 00 3d 56 2c 09 bc
       -0.053043894 0.05554004 0.031452224 -0.008372387
000320 fb 14 10 3d a3 bf ae 3d 3a a1 12 3c 0e c9 34 3c
       0.03517626 0.085326456 0.008949572 0.011034263
000330 ef 0a 33 bd be 2b 33 bc 0f 9e 65 3d 2f 03 94 bd
       -0.0437116 -0.010935722 0.05605894 -0.0722717
000340 25 77 89 3d 9f 3a a8 bd cc 29 8f 3d e3 21 a8 3d
       0.06712178 -0.08214306 0.06990394 0.082095884
000350 29 30 35 3d cb c3 91 3a bc 86 7b bd 1f 93 74 3c
       0.044235382 0.0011120973 -0.06140779 0.0149276545
000360 80 57 52 bd fb 08 d6 bc 2d e2 4b 3d 2e 1a 06 3d
       -0.051352978 -0.02612733 0.049776245 0.03273981
000370 c3 1b 12 3d 13 db 8c 3d 22 7b c3 3c db 13 a0 3d
       0.035671007 0.068777226 0.023862425 0.07816287
000380 5b 76 3d 3c ca 2f dc bc ba 57 67 3a 18 83 97 3d
       0.011563863 -0.026878256 0.0008825023 0.07398051
000390 4e e1 43 3d ee 55 45 bd 6e 66 1a 3d 45 97 cb 3c
       0.04782229 -0.048177652 0.03769534 0.024852404
0003a0 d0 42 dc 3c 37 75 3d bd ca 5a 41 3d 68 b9 69 bd
       0.026887327 -0.046254363 0.047205724 -0.057061583
0003b0 ff ee a6 3b 7e 76 80 bb 81 d7 a7 3d ac ac 07 3d
       0.0050944085 -0.0039203754 0.08195401 0.033123657
0003c0 c5 82 ed 3c 0c 76 e9 3a f0 db 3c 3d 72 d3 23 3d
       0.02899302 0.001781167 0.046108186 0.03999657
0003d0 f4 78 ab 3c 02 b2 e4 bc 93 5f 84 3d e5 35 4b bd
       0.020931698 -0.027916912 0.06463542 -0.049611945
0003e0 bf de a7 3c e0 45 ae bd d8 ee a8 bd 73 be aa 3d
       0.020491956 -0.08509421 -0.08248681 0.083371066
0003f0 ed 95 99 bd 4e 17 93 bd dc 72 8c 3d bd 76 9b 3d
       -0.07499299 -0.071821794 0.06857845 0.07591007

model.1.6.bias f4 [32]
000000 ec 89 a6 3d ce bc 73 3d 90 b9 97 3d 8d e3 a1 bd
       0.08131775 0.05950623 0.0740844 -0.0790473
000010 0a d6 81 3d 91 5c b9 bc 24 03 2a 3d c3 a2 73 3d
       0.06339653 -0.022627147 0.0415069 0.059481394
000020 3c 0e 05 3d a8 96 3f 3d 3b 35 2d bd aa e2 87 3d
       0.032484278 0.046774536 -0.042287093 0.066350296
000030 3f 4a 88 3d 7e d4 54 3d a3 e7 a7 3d f6 e0 df 3c
       0.06654786 0.05196046 0.08198478 0.02732895
000040 c9 7e 45 3d 4c 56 74 bb f9 dc 2c bd ab 32 92 3d
       0.048216615 -0.0037282882 -0.042202923 0.071385704
000050 44 f6 19 bd 89 d8 08 3d 3b 45 a2 bd 8e 88 b2 3b
       -0.037588373 0.03340963 -0.07923361 0.0054484075
000060 79 1e a8 bd be 72 2c bd 26 75 47 3d 47 a4 c0 bb
       -0.08208937 -0.042101614 0.048695706 -0.0058789584
000070 f9 28 20 3d 72 03 a0 3d 96 98 9f 3c e3 9c 9e bd
       0.039101575 0.07813157 0.019481938 -0.077447675

model.2.0.weight f4 [8, 1, 8]
000000 c9 f7 02 3e be ee 94 bb f1 65 49 3d 7e 4f ad 3e
       0.12789835 -0.004545062 0.049169485 0.3384971
000010 ef 9e 58 3e 53 d3 64 3e 9f 88 a1 be 7f 80 5d 3e
       0.21154378 0.22346239 -0.31549546 0.21631049
000020 fa bf b1 bd 29 8d 83 be ef b1 87 3e 06 10 88 be
       -0.08679195 -0.25693634 0.2650294 -0.26574725
000030 63 6d 77 bc 47 fe 9f 3c 35 55 4a 3d c8 db 86 3d
       -0.015101763 0.019530429 0.049397666 0.06584889
000040 ab 03 64 3e 7e 9d fb 3d b3 a9 9a be 18 8f 42 be
       0.22267024 0.122858986 -0.30207595 -0.18999898
000050 b3 5c 78 3e 57 28 a3 be ce 5d 4c be d4 93 d1 3d
       0.24254112 -0.31866714 -0.19957659 0.10233274
000060 c7 5b 40 3d da 03 9d be 54 11 28 3e 7a f5 ed bd
       0.046962526 -0.30667 0.1641286 -0.116190866
000070 76 0f 3f 3e eb e1 8b be 39 a5 c3 3d 3c 1d 7f be
       0.18658242 -0.273208 0.09552998 -0.24913496
000080 de 0b 4e be f0 31 a6 be 11 af 9d 3e 4e 4e a1 be
       -0.20121714 -0.32459974 0.30797628 -0.31505054
000090 d4 ec eb 3c 9d 3a 9a be 99 e9 10 3e ed 24 4d be
       0.028799452 -0.30122843 0.1415161 -0.20033617
0000a0 ea 25 a7 be 8b ee c5 bd d6 35 56 be bd d1 87 be
       -0.32646114 -0.09664639 -0.20918974 -0.26527205
0000b0 b3 e5 92 3e 99 45 8f be 6c 3b a2 be 2e f6 04 3d
       0.28690872 -0.27982786 -0.3168596 0.032461338
0000c0 d2 e5 4e 3e 6c 37 3c bc 48 f1 e3 3d cf 51 c1 bc
       0.20204857 -0.011487823 0.11130005 -0.02359858
0000d0 c7 2b a7 be 1d b1 90 be 6c bd e5 3c bd af ad 3d
       -0.32650587 -0.28260127 0.028044425 0.08480785
0000e0 31 06 2b 3e 18 e6 80 3e 10 41 8b be 0d 6d 72 bd
       0.1670158 0.25175548 -0.27198076 -0.05918603
0000f0 8d 37 38 be 8b 4d 90 be 1f 50 22 bd 41 94 91 be
       -0.17989941 -0.2818416 -0.03962719 -0.2843342

model.2.0.bias f4 [8]
000000 53 00 60 3e 8c b8 bf bd ed 8b e8 3c ff 3b 77 bb
       0.21875124 -0.093613714 0.028387034 -0.003772497
000010 43 2e 21 3e eb 7d b0 3d 93 d7 7d 3e 76 a1 44 b9
       0.15740304 0.08617767 0.24789266 -0.00018752165

model.2.3.weight f4 [16, 8, 8]
000000 5d af b4 bc e4 9c 4c 3d 16 75 d7 3d 81 51 ee bd
       -0.022056276 0.04995431 0.10520379 -0.116366394
000010 4a 1b 78 3d 8b ba bf bd 48 08 3e 3c 42 95 e6 bc
       0.0605729 -0.09361752 0.011598654 -0.028147344
000020 1c 75 64 3d a0 7d 4a 3c 78 62 9b 3c 76 2b 9a bd
       0.055775747 0.012359053 0.018967852 -0.07527821
000030 90 f6 70 bd 98 48 04 3d 50 48 99 bc d8 4b 4e bd
       -0.05882889 0.032295793 -0.01871124 -0.0503653
000040 95 50 93 bc f1 8e 34 3c 11 5f 47 3d 28 08 2e bd
       -0.01798276 0.011020408 0.048674647 -0.042488247
000050 1f dc 9a bd e2 c2 c0 3d e2 9d 63 bd 5d 44 1e 3d
       -0.07561516 0.09412171 -0.05557049 0.038639415
000060 c7 fc 96 bc a3 f8 b4 3d 2c 8e ef bd 6b b4 30 bd
       -0.01843108 0.08836486 -0.11697039 -0.04314081
000070 69 c1 5f 3d 07 8a 3a bc 57 fd 4c bd 65 2c 91 bb
       0.05462781 -0.011385447 -0.05004629 -0.004430341
000080 a3 5b be 3d af e6 a4 3d 66 9e 7f 3d cb 35 d3 bd
       0.09294822 0.08051812 0.06240692 -0.103129946
000090 dd 3b b4 3d 8f d6 e8 3c b7 2b 98 bd 27 99 9a 3d
       0.088004805 0.028422622 -0.07430213 0.07548743
0000a0 d5 18 e3 3d 75 49 e2 3d 3e 20 40 3d 40 bb aa 3d
       0.11088721 0.11049167 0.04690575 0.08336496
0000b0 2d cd e4 bc 15 ad 7f 3c c3 46 d7 bb 5d 97 28 3d
       -0.027929867 0.015605231 -0.0065697148 0.041159976
0000c0 4f 9f 9c 3d 75 00 a1 3d 74 65 d5 3d 41 a8 eb 3d
       0.07647573 0.07861415 0.10419741 0.11506701
0000d0 1f 04 bd bd 94 c8 b6 3c 66 4e a0 bd c9 58 67 3d
       -0.09229302 0.02231244 -0.07827453 0.056481156
0000e0 8f 66 5f 3d d4 7e eb bd 92 9e d1 3c 13 a7 99 bd
       0.054541167 -0.114988 0.025588308 -0.0750257
0000f0 35 fc 93 bc b0 61 07 bc 89 fb 9b bd be 07 65 bc
       -0.018064598 -0.008263037 -0.07616336 -0.013978897
000100 8c d5 88 bd 00 48 77 bd a2 87 90 bd 48 bc 99 bd
       -0.06681356 -0.0603714 -0.0705712 -0.07506615
000110 46 37 dd 3d f0 7a fc 3d 48 e3 67 3d a0 6f d9 3c
       0.10801558 0.12328136 0.056613237 0.026542485
000120 54 94 3f 3d 3c cb 52 3d 70 13 ee bd c0 44 39 3d
       0.046772316 0.05146335 -0.11624801 0.04523158
000130 e8 a3 d9 bd e4 c0 25 bd 38 6f 80 bd 58 ad 57 3d
       -0.10626966 -0.040467158 -0.06271213 0.052655548
000140 60 c7 da bc 54 b9 ac 3d 94 78 84 3d 58 76 b1 bc
       -0.026706398 0.08433786 0.06468311 -0.021662876
000150 80 42 e2 3c 5c 30 02 bd d0 bd d5 bd f8 7c af bc
       0.0276196 -0.0317844 -0.104365945 -0.021421894
000160 60 37 f4 3d e0 43 43 bc 96 55 d9 bd d8 d0 8f 3c
       0.119246244 -0.011918038 -0.10612027 0.01755564
000170 fa 1f 82 3d d4 c4 a1 3d dc 88 1e 3d 98 bb 80 bd
       0.06353755 0.0789887 0.038704738 -0.06285781
000180 38 5b b8 bc ba db f2 3d 84 7c a7 bd ce b2 eb 3d
       -0.022504434 0.11858316 -0.08178046 0.11508714
000190 40 3a 83 bd d0 b6 8a bc 4c c7 98 bd ca 69 ae bd
       -0.06407595 -0.016932875 -0.07459888 -0.085162714
0001a0 28 d1 49 3d da 1e e1 bd a8 07 ed 3d c4 da 88 3d
       0.049271733 -0.109922126 0.11573726 0.06682351
0001b0 bc 04 bc 3d 9e d4 8a bd 0a f8 c9 bd 6c 58 f4 bd
       0.091805905 -0.06778835 -0.09861763 -0.11930928
0001c0 e6 b9 8d bd b0 ed 91 bc 4c dc f3 bd b0 c1 d8 3d
       -0.06920223 -0.017813534 -0.11907253 0.10583818
0001d0 38 4b 64 3d 08 05 c0 bd ec 5c 46 3d 64 65 a2 bd
       0.055735797 -0.0937596 0.04842846 -0.07929495
0001e0 d0 4a a4 3d 88 68 2d 3d 30 ab 29 bc 10 90 ea 3d
       0.08022082 0.042336017 -0.010355756 0.11453259
0001f0 fe 86 c0 bd 64 0e 48 bd b0 d2 03 3c c8 5d 61 3d
       -0.09400748 -0.04884185 0.008045837 0.055021077
000200 8b ab e7 3d c0 7f ba 3d 8e b2 9d 3c ad e6 b7 3c
       0.11312016 0.09106398 0.01925018 0.022448862
000210 a7 a1 ff 3d 44 5d 08 bc 37 8d fe 3d 62 aa c7 3d
       0.124820046 -0.0083230175 0.12429278 0.09749295
000220 46 de a8 3d 04 8e 3e bd 80 7b 9a 3b d4 6c 22 3d
       0.0824552 -0.046522155 0.0047144294 0.039654568
000230 96 ea c5 bd 26 0a ab 3d 3a 30 f6 bd 90 c9 bb 3c
       -0.09663884 0.08351545 -0.12020917 0.02292326
000240 76 0b 93 bd 6f fc 76 bb 69 0b b9 3d 80 ba e6 bc
       -0.071799204 -0.0037687083 0.090353794 -0.028165102
000250 d7 27 5f bd 42 ab a7 bb 50 cb fe bd 97 07 88 3d
       -0.054481354 -0.005116851 -0.124411225 0.06642073
000260 08 5b c7 3d ba 69 72 3d f4 b0 c7 3d 48 e7 d4 3c
       0.0973416 0.05918286 0.09750548 0.02598919
000270 85 d7 fe 3d f6 e0 96 3d 98 a7 b9 bd 69 71 e6 3d
       0.12443451 0.07367127 -0.09065169 0.112521
000280 7e a7 4e bc 93 3a fb 3d 97 b3 e8 bd bd 4c b9 bd
       -0.012613175 0.122670315 -0.11362379 -0.0904784
000290 43 b4 fa 3d 1b 14 99 bd f2 01 93 3d 50 19 0a 3d
       0.122414134 -0.07474538 0.071781054 0.033715546
0002a0 1a 9a bc 3d 5a 8d 84 bc 45 ed e7 bd 72 76 aa 3a
       0.0920908 -0.016180683 -0.113245524 0.001300527
0002b0 e7 09 45 3c b4 08 a4 3d 19 91 96 bd a6 9d 6c bb
       0.012026287 0.080094725 -0.07351894 -0.0036104708
0002c0 93 fc f8 bd ca 96 3e bd da 60 6d bd a7 43 6a bd
       -0.1215755 -0.046530522 -0.057953693 -0.057193425
0002d0 f4 a8 b7 3d b8 ed 14 3d 8f 56 01 3d 78 bb b9 bc
       0.08967772 0.03635952 0.03157669 -0.0226724
0002e0 33 bc 8f 39 e0 63 d2 3d be e1 a7 bd 8c 1d c4 3d
       0.00027415305 0.10272956 -0.08197354 0.09575948
0002f0 59 8c 4e 3d 21 51 0d bd 93 44 47 bd 70 64 1d bd
       0.050426815 -0.0345012 -0.04864938 -0.038425863
000300 ea c1 b4 3d 78 eb 1a bd 7c 57 82 bd 9e 4a fd bd
       0.08826049 -0.037822217 -0.063643426 -0.12367748
000310 48 16 39 bd fc 84 53 bd c4 26 06 bd f4 32 43 3d
       -0.045187265 -0.051640496 -0.032751814 0.047656015
000320 68 49 a7 bd 72 1b f4 3d 48 3f 96 3c cc 09 2e 3d
       -0.08168298 0.11919297 0.018340722 0.04248981
000330 26 65 ef bd f0 92 8d 3c 6e 47 cb bd 98 5c f2 bc
       -0.116892144 0.01728198 -0.099257335 -0.029585168
000340 88 30 63 bd e4 d7 6e bd ce 82 e7 bd 74 42 38 bd
       -0.055466205 -0.058311358 -0.11304246 -0.04498525
000350 10 26 39 3c 2c 0e 8d 3d 60 db 10 3d 78 3b e2 3d
       0.011300579 0.06887469 0.035365462 0.11046499
000360 fa 13 a5 3d 26 2e f9 bd 66 9f 80 bd ca 54 b5 3d
       0.08060451 -0.12167005 -0.06280403 0.08854063
000370 42 82 c2 3d 1c 22 e6 bd 7c 60 18 3d 16 a8 89 3d
       0.09497501 -0.112369746 0.03720139 0.06721513
000380 ce 11 e0 3d fa 0b c4 bd 7e 3f c2 3d 4c 1c dd 3d
       0.10940896 -0.09572597 0.094847664 0.10796413
000390 b2 54 8a bd 66 0d bb 3d c0 f1 78 3b e0 39 22 3c
       -0.067544356 0.09133415 0.003798589 0.009901494
0003a0 f2 05 c7 3d f8 11 8c 3c f8 7c eb 3d a0 fe 31 3c
       0.09717931 0.017098412 0.11498445 0.01086393
0003b0 ac 1f a7 bd e2 a9 f7 3d 20 91 dd 3b d6 38 ad bd
       -0.08160338 0.120929495 0.006761685 -0.08458106
0003c0 70 6c b6 3c 00 a3 e7 3c 80 3d ae ba f2 94 fe 3d
       0.022268504 0.028275967 -0.0013293475 0.12430753
0003d0 34 a9 c4 bd 7c 32 bf bd 40 6d 7b bc d8 33 a5 bc
       -0.096025854 -0.09335801 -0.015345871 -0.020166323
0003e0 f4 e3 54 bd e0 a8 16 3c 06 ec c0 3d 00 7a 71 3b
       -0.051975206 0.009195536 0.09420018 0.00368464
0003f0 ae e7 94 bd 60 05 d2 3b 60 55 88 3c da 03 d6 3d
       -0.07270752 0.006409332 0.016642272 0.104499534

model.2.3.bias f4 [16]
000000 85 27 d7 bc 54 fa 42 bd ca 1e fa 3d 80 78 f7 bc
       -0.026263962 -0.047602013 0.12212904 -0.030208826
000010 c0 b8 dd 3b d0 08 62 bd f0 94 61 3d 60 57 21 3c
       0.0067664087 -0.055184186 0.05507368 0.009847492
000020 ca 1f f9 bd 2b c8 28 3d ef 81 42 bb ad bf 22 bc
       -0.121642664 0.04120652 -0.0029679497 -0.009933394
000030 35 0b ba 3d 3e 11 a8 bd f0 af 0b 3d 1b db b5 3d
       0.09084169 -0.08206414 0.034103334 0.08879682
