checkpoints/run_4/1d_cnn_ckpt_6.pth (torch, 52296 bytes, 7 tensors)

model_m.0.weight f4 [8, 1, 8]
00000000: 475e 993b 32e4 eabd f384 90bd 0d25 99bd
00000010: a2a7 80be a18d 96be c099 333e 6993 0bbe
00000020: 4d1b 823e b058 2fbd 9113 b93c 2621 05be
00000030: e157 343e 70f1 14be df86 933e 52d2 98be
00000040: 0f51 813d e9db 9ebe 842e 0f3d 1a33 933e
00000050: 8248 983e ec27 453e efab 363e 9a5f cc3d
00000060: f6a1 6cbd 42f9 80be 1d2f dbbc a86a 2a3c
00000070: 974c b9bd fd15 5a3e 077b 70be 11af f53c
00000080: 537e 783e 93c3 a2be 7990 1ebd b9e7 9f3e
00000090: e05b 1abe 3ccf a63e 3433 263e 9335 ce3d
000000a0: 1b0b 813e 38e2 b3bd 12ed 433e 84be 3cbe
000000b0: 2e6b 723e 320c b1be fcd9 a43e 74d4 983e
000000c0: 52a1 443d dcb7 4abe 90d5 1a3c b1a4 b43e
000000d0: 8b77 2c3e e339 b1bd 63ee 293e 51f6 07be
000000e0: 293c a63d 149f 173d 07d5 a3be db02 85be
000000f0: 13ac cdbd 3cd9 bebd 89ca cb3d 2f36 973d
0.004680428 -0.11469306 -0.07056608 -0.0747777 -0.25127894 -0.2940493 0.1753912 -0.13630451
0.25411454 -0.04280919 0.022592338 -0.13000926 0.17611648 -0.14545226 0.28813836 -0.29847962
0.06314289 -0.31027153 0.03495647 0.28749925 0.2974282 0.1925351 0.17839025 0.09979172
-0.057771645 -0.2519017 -0.026755864 0.010401405 -0.090478115 0.2129745 -0.23484431 0.029990705
0.24266939 -0.31789836 -0.038712 0.31231478 -0.1507411 0.32579982 0.1623047 0.10068812
0.25203785 -0.08783382 0.19133404 -0.18432051 0.23673698 -0.34579617 0.3219756 0.2984959
0.04800541 -0.197967 0.009450331 0.352819 0.16842477 -0.08653619 0.16594844 -0.13277556
0.081169434 0.037016943 -0.31998464 -0.2597874 -0.10042586 -0.09318778 0.0995074 0.073833816

model_m.0.bias f4 [8]
00000000: fff0 973e bdfd 893c 0d54 89be 9992 593e
00000010: 2b86 d33d 9c2d 52be 80bc a43e f67b 18bd
0.29676053 0.016844625 -0.26821938 0.21247329 0.10328325 -0.20525211 0.32175064 -0.037227593

model_m.3.weight f4 [16, 8, 8]
00000000: 2650 a73d 428d f5bd 4c22 afbd 90ce fabd
00000010: d853 2bbd 66be 80bd 0aba 93bd a0d4 70bd
00000020: 02b7 863d ec8a 87bd 149b 903d 00c5 84bb
00000030: 90a9 f0bd 087d 263d a0f2 ee3d e891 f33d
00000040: 1891 5d3d 58dd 64bd e22b e93d 14e7 1a3d
00000050: e88b d2bc 5eb1 b0bd 0866 de3c 18e9 e73c
00000060: d892 dcbd 4042 7cbc ae76 c83d d8b9 923d
00000070: 30c8 a33d 60aa 8f3c 647e b2bd a411 553d
00000080: a4ba fe3d 0805 9e3d 3450 33bd 72dc cbbd
00000090: b0a9 95bd ecf6 073d eefb fbbd c0ba 9abb
000000a0: b44c f3bd 00d2 e63c 40d1 703b 001a da3b
000000b0: d8f6 a4bc ac8a 4d3d 30f2 553c 50c5 d73c
000000c0: b28f febd 366f cdbd 00a4 dbbd b4d6 143d
000000d0: 76b8 ec3d 5607 983d 90ed 52bc 5e39 8d3d
000000e0: 3a96 b6bd d097 a5bc 8ccd 763d b4c4 afbd
000000f0: 70b3 6ebc e866 e6bd 54ee 4d3d 1c34 dd3d
00000100: 3329 00be 155d 813d 6b5e 09bd c338 18bc
00000110: d824 f23c db2e 1d3d f882 c6bd b2f2 43bd
00000120: d0e8 cbbd e314 a3bc 5b0b e2bc 6396 0bbd
00000130: 0427 04bd 384c abbd bbae 083d 927c ccbd
00000140: 5820 b73d 7a80 be3d 186b 923d c064 ccbb
00000150: 6c13 6c3d f0ab 7b3c c084 a83d 1407 7b3d
00000160: e3dc f93d 9568 563d d262 2e3c d7e1 383d
00000170: ed87 a03c fd13 163d d43a b63d a4d3 ce3d
00000180: edef 05bd 931b 223d 0fb4 bc3c 1390 373d
00000190: d170 1abd ae8c f2bd 245e b5bd 14c1 33bd
000001a0: bc6b 78bd ea2e 9a3d 0ca8 ad3d 583d 94bd
000001b0: 3609 ddbd a802 f93d 6087 b4bd ac27 54bd
000001c0: 7bb2 c23d 9989 c9bd ce09 283d 718d 93bc
000001d0: bf57 ec3d c9e2 e73d 8848 6bbd a44c a93c
000001e0: ac98 f8bd 4cea dfbd 7014 293d 00c0 6fb9
000001f0: 00f7 0aba 009c ab3d a412 033d 0c0d a6bd
00000200: 8419 793d 66f8 803d b8da fa3c 64f6 0c3d
00000210: 0c57 71bd 98ac 8cbd 402e 13bd c80a 0dbd
00000220: d25e aebd f8b1 903c 74c7 d53d 30ab c23c
00000230: b02b 563c 40d8 493c 5086 e83d a47e 0a3d
00000240: 100f a43c 3082 3cbd bedb e4bd 0069 963d
00000250: 404b da3c 24b5 52bd 80c1 a03d 5a2b 9dbd
00000260: 4a1e 813d c001 01bd 6e5f f6bd d2c9 de3d
00000270: 009b ee3d 6017 10bd e88d f7bd e08e d93d
00000280: 62a5 84bd 6455 74bd d03c 62bc c84a 58bd
00000290: fa5f b03d 7ac9 d8bd 8094 55bd fc89 463d
000002a0: 4e1a fabd 2083 233c f889 32bd 0035 88bc
000002b0: 5edb e2bd 1013 8f3c 9e09 953d 8080 0f3d
000002c0: 3087 35bd d6ae ad3d 884d b8bc baa4 b5bd
000002d0: 2c76 9abd 3431 f0bd e227 843d 6860 9ebd
000002e0: 92e8 e33d 9c74 5cbd a004 0b3c 1802 c9bd
000002f0: a8e6 56bd 5c1e e0bd d048 d73c 8648 9abd
00000300: 208d 043d c22b cebd 24b6 8e3d 56e3 d1bd
00000310: d09e 94bd b03b 553d 7c63 0fbd 4cb2 2cbd
00000320: 2074 d23c e26a a6bd 30df 0cbc d0a1 a03d
00000330: c69e dcbd 006d 86bc 6835 403d 7022 7e3d
00000340: 6ac3 d4bd 100e 46bc 808b 84bd 74e8 7a3d
00000350: 904a 4f3c 00cd 663b 0059 45ba 0407 44bd
00000360: a831 83bc 9c78 5dbd 8876 bbbc 70b4 c33c
00000370: 2099 f4bc b834 08bd 22a2 a2bd 68fe f5bc
00000380: 0ad2 eabd 08f1 3b3d c488 98bd 082b 15bd
00000390: 20c8 71bd 30a0 ef3d f6e0 a63d d495 ee3d
000003a0: 5acd 953d 8018 6dbd 3016 d03c 8a49 fe3d
000003b0: 18b7 ab3c d4ff 2a3d f084 f0bc 1845 1b3d
000003c0: 1abe ecbd 80dd b63a 5670 ce3d 746c bb3d
000003d0: 603d bf3d 7cd0 0bbd 00ce 203d c20e 993d
000003e0: 74c9 2fbd c01c 2abc 4067 013d 9cd5 1fbd
000003f0: e82f 4a3d d8c2 e23d 7093 4fbd 90cd 3cbc
0.08169584 -0.119898334 -0.085514635 -0.1224643 -0.041828007 -0.062863156 -0.072132185 -0.058796525
0.06577875 -0.06618294 0.07060829 -0.0040518045 -0.117510915 0.040646583 0.11667371 0.11893064
0.05409345 -0.055875152 0.11385323 0.03781803 -0.025701478 -0.0862758 0.027148262 0.02830939
-0.10770196 -0.015396655 0.09788261 0.07164353 0.07997167 0.017537296 -0.08715513 0.052018777
0.124379426 0.077158034 -0.04377766 -0.09954156 -0.07307756 0.033194467 -0.12303911 -0.0047219694
-0.11879864 0.028176308 0.0036745816 0.0066559315 -0.020137236 0.050181076 0.01305823 0.026339203
-0.124297515 -0.100309774 -0.1072464 0.03633757 0.11558621 0.07423274 -0.012874022 0.068957075
-0.08915372 -0.020213991 0.06025462 -0.0858244 -0.014569148 -0.112500966 0.050276116 0.10800955
-0.12515716 0.06316582 -0.03353731 -0.009290877 0.029558584 0.038374763 -0.09692949 -0.047838874
-0.09956515 -0.01990742 -0.027593305 -0.034078967 -0.03226377 -0.08364147 0.03336976 -0.099846974
0.08941716 0.09301849 0.07149333 -0.0062375963 0.05763571 0.015360817 0.08228445 0.061286047
0.12200334 0.05234583 0.010643678 0.045137253 0.019596064 0.036640156 0.08897939 0.10098961
-0.032699514 0.039577078 0.023035077 0.044815134 -0.037705246 -0.11843239 -0.088558465 -0.043885306
-0.06064962 0.075284794 0.08479318 -0.07238263 -0.107927725 0.1215871 -0.08814883 -0.051795647
0.09506699 -0.09840698 0.041024975 -0.01801178 0.11540174 0.11322553 -0.057442218 0.020666428
-0.12138495 -0.109333605 0.041279256 -0.00022864342 -0.0005301088 0.08379364 0.0320002 -0.08107957
0.06081535 0.06297378 0.030621871 0.034414664 -0.058920905 -0.06868857 -0.03593278 -0.03443411
-0.08514179 0.017662987 0.10438433 0.02376327 0.013071939 0.012319624 0.11353743 0.03381218
0.020026714 -0.046022594 -0.11174725 0.07344246 0.02664721 -0.05144228 0.07849407 -0.07674284
0.06304605 -0.03149581 -0.120299205 0.10878338 0.11650658 -0.035178542 -0.12087613 0.10622954
-0.06476857 -0.059651747 -0.013808444 -0.052805692 0.08612056 -0.105853036 -0.052143574 0.048471436
-0.122120485 0.009979993 -0.04358861 -0.016626835 -0.11076997 0.017465144 0.07277225 0.035034657
-0.044318378 0.08480613 -0.022497907 -0.0886931 -0.07542071 -0.11728135 0.064529195 -0.07733232
0.11128344 -0.053822145 0.008484989 -0.098148525 -0.052466065 -0.109432906 0.026279837 -0.07533364
0.03236115 -0.1006694 0.06968334 -0.10248439 -0.072568536 0.052058876 -0.035006985 -0.042162225
0.025690138 -0.08125855 -0.008598134 0.07843363 -0.10772471 -0.016409397 0.046925932 0.06204456
-0.10388835 -0.012088314 -0.0647192 0.06125684 0.012652054 0.0035217404 -0.00075282156 -0.047858253
-0.016014889 -0.0540701 -0.022883669 0.02388975 -0.029858172 -0.0332534 -0.07941081 -0.030028537
-0.11465843 0.045884162 -0.07447961 -0.03641799 -0.059028745 0.11700475 0.08148377 0.11649671
0.07314558 -0.057884693 0.025401205 0.1241637 0.02096133 0.041747883 -0.029360265 0.03790769
-0.115596965 0.001395151 0.1008002 0.09151545 0.09337878 -0.034134373 0.039258957 0.07473518
-0.04291673 -0.010382831 0.031592607 -0.039022073 0.049362093 0.1107232 -0.050677717 -0.011523619

model_m.3.bias f4 [16]
00000000: fc41 55bd 1644 833d 32b9 8dbd 40f3 33bc
00000010: a814 99bd abc0 8d3d a733 cd3d 7041 0ebd
00000020: e019 13bc 5820 f83c 6e99 eb3d b198 a03d
00000030: d5ed 463a de0a fe3d b248 8abd f18f c93d
-0.05206488 0.06409471 -0.06920089 -0.010983288 -0.07474643 0.06921514 0.100196175 -0.034730375
-0.008978337 0.03028886 0.11503874 0.078416236 0.00075885403 0.124044165 -0.06752147 0.09841908

model_m.6.weight f4 [32, 16, 8]
00000000: 4910 48bd ff4f 8ebb 5ac7 78bd e542 123d
00000010: f6f5 53ba 682b 2bba 2946 8fbd 9683 31bd
00000020: 3b15 793d fa1c 943d 9138 b53b 3830 8a3d
00000030: 4e70 2d3d 67bf 18bc b048 6e3b 45c1 8abd
00000040: 7b21 85bd 8a2f 403d c17f 593d a62e f43c
00000050: cb15 a1bd 41b4 7bbd fc17 03bd e7db e939
00000060: c159 38bd 03f3 a43d 83ea a5bd d81e ab3d
00000070: 59a7 cdbc 6c33 9a3d b60c c5bc 26d0 62bd
00000080: 25dc 3bbd 18be 813d 6dd7 04bd cd40 bb3b
00000090: 63b8 033d 0c87 f63b 1ee4 7bbd cbac b3bd
000000a0: b821 983c 652a d0bc 92b3 9c3d 07e5 3fbd
000000b0: 0628 8a3d 9b56 293d 2dba 81bd 7a10 d4bc
000000c0: db63 05bd ef15 563d c2a5 643d c331 573d
000000d0: 0bc2 953d 4f39 a73d 7420 aabd 6e9f 24bd
000000e0: 4a7c e9bc a936 b03d 9ef6 1dbd 4f65 4b3d
000000f0: 69fa e23c d7af adbd 127d e7bc ef09 e93c
00000100: 656c 1e3d b11e ae3d d019 69bd 9a7b 13bd
00000110: 5c47 973d 66ac 663d 3f2c 013c 0de1 6d3d
00000120: 7a91 0dbc 3d40 a53d a543 a83d bb9a 18bd
00000130: 4fab a63d 75a9 10bd 5c9d f73c 9dc6 af3d
00000140: 7f13 8ebd ea47 a23c a624 26bb c0a5 263d
00000150: 17f7 b1bd f84f 1ebd 0d7c 9b3d 6860 903c
00000160: b843 aabc bfbc 47bd 55cd ef3c 1448 0b3c
00000170: b3dc 5ebd 7c50 0ebd 7b18 f9bb 5c78 3c3d
00000180: 89f3 6b3c caca ad3d d645 483b eefd 4a3d
00000190: c708 8a3c e080 62bd f918 93bd 3662 f23b
000001a0: e8ad 933c e114 db3b 72d7 1a3d 94cd 4a3d
000001b0: abde 343d e9b0 d23c 454c bfbb d2bd 7739
000001c0: c1d9 72bd 3d4b 48bd 5985 043c c41f a6bd
000001d0: 2426 7cbd b413 5c3d 35b1 2f3c 0a95 643d
000001e0: d21f b5b9 a284 343d 09ea 91bd 3174 9cbd
000001f0: e6d9 983d 9217 d8bc 766d 50bd 557a 943d
00000200: 016c 36bd dbda a0bd 34d6 8b3d cf2a 833d
00000210: 8d55 e939 659f 123d 6133 86bd 3f3d 3f3a
00000220: 726d 86bd 2dbf d03c aca6 9ebd 568d 2abd
00000230: de81 93bd 9e9c b1bd 8a2d 89bd 51b5 b33d
00000240: 9367 923c 689f 98bd fa7c abbd 25fb 1cbd
00000250: 5fdd 06bd 5ad7 1d3c e82c 8ebd fd73 7c3d
00000260: cb84 72bd b9f3 28bd 0d09 8fbd b0d7 e8b9
00000270: aaa3 cc3c 727b 783d 6ca3 71bc 17bb 1b3d
00000280: 89f9 0cbd e39d 3b3d 0e87 ad3d baa4 58bc
00000290: 11d1 8dbd 2cf4 1e3d e405 84bd 66f0 c9bb
000002a0: 696e 9dbc 6e9c 9bbc 17c5 5ebc 4384 8d3b
000002b0: 2669 91bd 21ef b4bd f630 903d 96b8 fb3b
000002c0: d5d2 963d 22b1 9abd 7f16 f4bb 2b4d 063c
000002d0: c40d 843d 63c7 883d f617 2bbb 0acd 72bd
000002e0: 1f99 503d 11a8 d7bc 0da9 2bbc 6526 813d
000002f0: e8d1 8fbd 6c10 8abd 2e7a 85bd 4621 8c3c
00000300: 52a0 14bd 3f3d 9dbc 444a 88bd 2e6e 1b3c
00000310: f25d 9d3d d0bc 8d3d d659 813d eb6b 8cbc
00000320: 0e14 3f3d 0020 433d 6bf9 9f3d db86 9d3d
00000330: 72f0 60bd 3478 3e3d e695 2c3d 5bee 80bd
00000340: 0579 99bc 5170 d33b 9288 a3bd f89b 4dbc
00000350: 9ed1 06bd c0d4 4c3d 0758 8abd 168a 3dbd
00000360: fe10 b0bd 788a 7b3d ab81 b93c d9d8 7f3d
00000370: 83ec 73bc 3e05 643d b606 a3bd 9004 b23d
00000380: 0023 9ebd 1e40 06bd 08c5 6d3c e8e9 b13d
00000390: 239a 353d 163c 493c d0f8 70bd feea c8bc
000003a0: e9a0 373d e5a2 94bd 54d5 3d3d 4a3d 7ebd
000003b0: a008 013d 365e cc3b 844a 413d 2dc6 2bbc
000003c0: 98b5 b3bd 5ee4 12bd c00e 8d3c 0aae 853d
000003d0: 49c4 98bd c325 403d 3490 87bc e15f 9b3d
000003e0: 65e9 8a3c 3d93 bcbc 3c4b af3d 6710 96bd
000003f0: 39d8 973b 2226 cb3c 259a 5cbd 9c0f afbc
-0.048843656 -0.0043430324 -0.06073699 0.035708327 -0.0008085662 -0.00065296004 -0.06995804 -0.04333838
0.060811263 0.07232089 0.005530425 0.06747478 0.04234343 -0.009322978 0.0036359243 -0.067751445
-0.065005265 0.046920337 0.05310035 0.0298074 -0.07865485 -0.0614512 -0.032005295 0.00044605063
-0.04500747 0.08054163 -0.0810137 0.08355492 -0.025104212 0.07529339 -0.024053913 -0.055374287
-0.045864243 0.06335086 -0.03243201 0.005714512 0.032158267 0.007523423 -0.061496846 -0.08773192
0.018570766 -0.02541084 0.07651438 -0.046849277 0.06745915 0.04134236 -0.06334338 -0.025886763
-0.032565933 0.05226701 0.05582214 0.05253769 0.073124014 0.081652276 -0.08306971 -0.040191106
-0.028501648 0.086041756 -0.03856527 0.049657162 0.027707295 -0.084808044 -0.02825788 0.02844712
0.03867759 0.08501948 -0.056909382 -0.036006548 0.073866576 0.056316756 0.007884084 0.058075953
-0.008640641 0.08068893 0.08216027 -0.037256937 0.08138143 -0.035317857 0.030226402 0.08582804
-0.06937312 0.019809682 -0.0025351434 0.040685415 -0.08689707 -0.038650483 0.0759202 0.017624095
-0.020784244 -0.048763987 0.029272715 0.0085010715 -0.054409694 -0.034744725 -0.0076017953 0.04601322
0.014401325 0.084859446 0.0030559204 0.049558572 0.016849888 -0.055298686 -0.071824975 0.0073969616
0.01802726 0.0066858386 0.03780312 0.04951246 0.044157665 0.025719123 -0.0058379495 0.00023626469
-0.059289698 -0.048899878 0.008088433 -0.081115276 -0.06155981 0.053729728 0.010723402 0.055806197
-0.00034546718 0.0440718 -0.07124717 -0.07639349 0.07463436 -0.026378427 -0.05088564 0.072498955
-0.044536594 -0.07854243 0.068279654 0.064046495 0.00044504963 0.03579654 -0.065527685 0.0007295198
-0.06563844 0.025481785 -0.07746634 -0.041638695 -0.072025046 -0.086724505 -0.06698139 0.08774818
0.017871654 -0.07452279 -0.08373447 -0.038325448 -0.03292596 0.009633863 -0.06942159 0.061634053
-0.059208672 -0.041248057 -0.06984148 -0.00044411188 0.024980385 0.0606646 -0.0147484355 0.03802022
-0.034417663 0.04580487 0.08473025 -0.013222868 -0.06924642 0.03880708 -0.06446436 -0.006162691
-0.019217687 -0.01899549 -0.013596795 0.0043187453 -0.071001336 -0.08834673 0.070405886 0.0076819165
0.07364432 -0.07553317 -0.007448971 0.008197109 0.06447938 0.06678655 -0.002610681 -0.05927757
0.050927278 -0.026325257 -0.010477317 0.06306151 -0.07022458 -0.067414135 -0.065174446 0.01710571
-0.036285706 -0.019194243 -0.0665479 0.009486718 0.07683934 0.06920779 0.06315963 -0.017141303
0.046649985 0.04763794 0.078112446 0.07691737 -0.054916807 0.046501353 0.04213514 -0.06295463
-0.018734464 0.006452598 -0.07985033 -0.012549393 -0.03291475 0.05000758 -0.06755071 -0.046274267
-0.08596991 0.06141135 0.022644838 0.06246266 -0.014887932 0.05566906 -0.079602644 0.086922765
-0.077215195 -0.03277599 0.014512308 0.08687192 0.04433645 0.012282392 -0.058831036 -0.024526116
0.04483119 -0.07257632 0.046346024 -0.06207017 0.031502366 0.0062368168 0.047190204 -0.0104842605
-0.08774871 -0.03586232 0.017218947 0.06527336 -0.074593134 0.046911012 -0.016548254 0.07586647
0.016956994 -0.023019427 0.08559272 -0.07327347 0.00463393 0.024798457 -0.05385794 -0.021369748

model_m.6.bias f4 [32]
00000000: d725 99bd 6f56 37bc bd39 46bd 578d 01bd
00000010: 95c2 063b f177 22bd 9c20 64bc 2133 2cbb
00000020: 93e8 f53b 8965 a93d 9454 763d 6c85 8abc
00000030: 89fc 92bc 2f91 a93d 5e7a 0ebd a63f 35bd
00000040: bc6f 893d 3799 71ba 1a93 ce3b 403d 80bd
00000050: bc98 993d b965 23bd 69d2 2d3c 3d45 14bd
00000060: 64f2 6c3d f966 993d 66be 2fbd 9dfe fcbc
00000070: d983 6fbd 9797 65bb cc35 54bd aa35 63bd
-0.074779205 -0.011190041 -0.048394907 -0.031628933 0.0020562757 -0.039665166 -0.01392379 -0.0026275592
0.0075045316 0.082713194 0.060139254 -0.016909324 -0.017942684 0.08279645 -0.034784667 -0.044250153
0.06710765 -0.0009216251 0.006304157 -0.062616825 0.07499835 -0.039891932 0.010609248 -0.036198843
0.05784835 0.074903436 -0.042906187 -0.030883128 -0.05847535 -0.0035032982 -0.051809117 -0.0554711

fc.weight f4 [1, 6976]
00000000: 713e 1bbc a816 33bc b8f9 29bc efb9 1b3c
00000010: aae4 42bc dd25 013c 8d8c 533a fc2c eabb
00000020: 6184 09bb 9958 363b eb43 a5bb 0e1d 073c
00000030: 3462 e63a 567e d539 5ecf 2fbc 8617 11bb
00000040: 82e7 f6bb 9cd7 c3bb de04 7f3b 768a fcbb
00000050: 0869 eb3b c305 9b3a 5638 88bb 6a93 94bb
00000060: 6303 adbb 3c20 f73b d16f 3338 8a4c 0c3c
00000070: e585 2fbc 2dec 02bc e7ff b43b fed5 bb3a
00000080: a604 bfbb a2fd 9ebb 7d3a 23bc d733 a63b
00000090: b670 edbb 7654 47bb ba01 023c bdb0 1dbb
000000a0: e2cd 30bc ce59 613b e922 19bc 51fc 763b
000000b0: 87c4 163c 8a85 17bc 9171 26bc ad5a 8dbb
000000c0: 287e 3f3c eddc 0fbb e740 51bb 01c8 59ba
000000d0: d01e 11bc 2aec 9e3b c237 03bc 6ac1 98bb
000000e0: cfc5 16bc 2556 1a3b 93d4 0abc 8218 0e3c
000000f0: da3e 42bc 689c 3abc ebfc b7bb 22ac f938
00000100: 9a6d f6bb d885 ce3b 5cb4 f63b 8eeb 7639
00000110: 4307 ecbb ffdc 333c 43fd 423c 54ff 033c
00000120: 5029 b83b 1308 efb8 1122 0a3c 37db 7b3b
00000130: 5798 8a3b ab8e 3ebb 4176 12bc 2378 bebb
00000140: 8190 2a3c 074e f93a 8644 05bc 5420 2fbc
00000150: 1efd 383c adc1 fe3a 6ce6 fb3a 3b29 29bc
00000160: e5b8 713b 04d0 0a3c 5591 6839 8b32 943b
00000170: c117 8fbb 4a06 d33b c663 34bb a12f 0fba
00000180: b4e6 02ba c628 073c dc83 9fbb 8300 3f3c
00000190: ef43 d93b cd77 153c 623a 16bc 8f28 25bc
000001a0: 67c6 32bc a91c 1abc 7161 193c 1df9 013c
000001b0: 4bd6 ffba be6e b43b 91a2 ed3a 2be1 013b
000001c0: cda0 603b e70d 403c 3000 553a e0ae 07bc
000001d0: baac ffba 47f0 053c d98b ac3b 9642 413c
000001e0: 7c5c c8bb f687 25ba 9647 0fbc cc6a 3ebb
000001f0: 8330 b63b e9e9 ddbb e8d4 583b 5d0c c03a
00000200: b2be 273c 648e a93b 6888 da3b 0418 14bc
00000210: 1d98 0c3c afa9 a83b ef4b 233c e0ad 3cbc
00000220: 6335 2ebc 3323 ce3a a958 273c 49b2 413a
00000230: 4dd8 383c 1bf6 04bc 9d13 c2bb 8a22 a5bb
00000240: 819d afbb 13f9 223c 923e 3639 e4f7 94bb
00000250: 2015 203b f48b b7bb d506 49bb 7bf9 dfbb
00000260: 4062 203c 6e69 3fbc fe02 403c 8832 40bc
00000270: 8da2 d03b 0894 0e3c b843 753b 3bb5 a6bb
00000280: b501 343c 458e f0bb b682 0ebc dc17 82ba
00000290: 3279 48ba ddcf 183c f1d7 03bc de01 d5ba
000002a0: 40e8 1d3c cab3 32bc 971e e13b c359 053c
000002b0: 7a56 e13b 46c5 f0b8 64a3 1a3c 542c d0bb
000002c0: 46ec de3b 8447 5a3b 2e29 1a3c 94ac 2fbc
000002d0: 4f21 1fba 551d 553b 1e2d 8cbb 03b4 20bc
000002e0: 2656 38bc 57a6 b2bb bce0 6f3a 8b67 b3bb
000002f0: 9ec6 8b3a 3eeb 093c f75b 7a3b 53b8 0dbc
00000300: a209 3a3c 8b48 833b 1fec 8439 336f fc3a
00000310: f240 30bb 499e 1039 6293 0cbc 72b0 52ba
00000320: 24e4 143c 42ec 12bb 07a8 093c 4665 e8ba
00000330: e9e4 eab9 7935 413c b8bc 143c 0c70 c7bb
00000340: 1ec6 0d3c 97ad 39bb 81a8 183c 2903 9e3b
00000350: e57d 42bc 0550 08bc a2a6 74bb 353c 09bc
00000360: c60e 45bb fe46 04ba 9929 e33b a791 9bb8
00000370: 8df6 32bc 3a19 263c 2bbb 313c 0b80 3cbc
00000380: ebfc 103a 3e2b 29bc 3f3a be3b 5e0e ce3a
00000390: 4047 f1ba de33 2ebb 9bc8 b3ba 2bc7 133b
000003a0: 6c24 0f3b 60eb ba3b 0038 163c 53c2 10bb
000003b0: c1d1 153c ed45 c7bb f6d6 4ebb b103 47bb
000003c0: 17c1 9cba f97f 3f3c eba6 efbb 7826 3abc
000003d0: ce29 34bb 80cc 2a3c 16d4 96ba 48c3 183b
000003e0: b3cd fcbb 9d88 08bc c556 133b 5d5b bd3b
000003f0: 737a e33a 33b1 ce39 86ff 103c 9de9 3e3b
-0.009475336 -0.010930695 -0.010374479 0.009504779 -0.011895338 0.0078825625 0.0008069955 -0.007146476
-0.0020983445 0.0027823804 -0.005043497 0.008246673 0.0017576874 0.00040720653 -0.0107305925 -0.0022139265
-0.007534922 -0.0059766304 0.0038912813 -0.0077069355 0.0071841516 0.0011827279 -0.0041571064 -0.0045341747
-0.0052799447 0.0075416844 4.2781063e-05 0.00856317 -0.010713075 -0.007990879 0.00552367 0.0014330742
-0.0058294116 -0.0048520127 -0.009962675 0.0050720978 -0.007246102 -0.0030415333 0.007934982 -0.0024061643
-0.010791274 0.0034385803 -0.009346702 0.0037687013 0.009202129 -0.009248147 -0.010158912 -0.004313788
0.011687793 -0.002195175 -0.0031929554 -0.0008307696 -0.008857444 0.0048499303 -0.008008899 -0.0046617286
-0.009202435 0.0023549881 -0.008473533 0.008672835 -0.011855805 -0.011389829 -0.005614867 0.000119053075
-0.0075203897 0.0063025765 0.0075288247 0.00023548139 -0.007203014 0.010977983 0.011901203 0.00805648
0.005620159 -0.00011397912 0.008430974 0.0038430223 0.004229586 -0.0029076736 -0.008939327 -0.0058126613
0.010410429 0.0019020446 -0.008134013 -0.01068886 0.011290817 0.0019436382 0.0019218451 -0.0103247715
0.0036883887 0.008472446 0.00022179385 0.0045226268 -0.0043668454 0.0064399587 -0.002752529 -0.00054621143
-0.0004993484 0.008249467 -0.004868014 0.011657837 0.006630413 0.009122801 -0.009169193 -0.010080471
-0.010911561 -0.009406247 0.009361611 0.007932928 -0.001951882 0.0055063656 0.0018130114 0.0019818048
0.0034275532 0.011722065 0.0008125333 -0.00828144 -0.0019506433 0.008174962 0.0052656946 0.0117956605
-0.0061145406 -0.000631451 -0.008745095 -0.0029055355 0.0055599823 -0.006772269 0.0033085886 0.0014652122
0.010238336 0.005174445 0.006669093 -0.009038929 0.0085811885 0.005147181 0.009966834 -0.011516064
-0.010632846 0.0015727043 0.010214009 0.0007388932 0.011282039 -0.008115317 -0.0059227482 -0.005039518
-0.005359352 0.009947079 0.00017380182 -0.0045461524 0.0024426654 -0.0056014005 -0.0030674238 -0.0068351603
0.00978905 -0.011682851 0.011719463 -0.011730798 0.006367034 0.008702286 0.0037424397 -0.0050875223
0.010986735 -0.0073411786 -0.008698156 -0.0009925324 -0.0007647454 0.009326902 -0.00804709 -0.0016251167
0.009637892 -0.010907123 0.0068701017 0.008139077 0.006876764 -0.00011480837 0.009438369 -0.0063529406
0.0068030683 0.0033306787 0.009409232 -0.010722298 -0.0006070332 0.0032518704 -0.0042778393 -0.009808543
-0.011251008 -0.005451958 0.00091506145 -0.00547499 0.0010664051 0.0084179025 0.0038201788 -0.008649903
0.011354836 0.0040064505 0.00025352926 0.0019259214 -0.002689418 0.00013791876 -0.008580061 -0.00080371567
0.009087596 -0.0022418653 0.008401877 -0.0017730377 -0.0004480251 0.011792534 0.009078197 -0.006086355
0.008653192 -0.0028332227 0.009317518 0.004822154 -0.011870836 -0.008319859 -0.0037330766 -0.008376171
-0.003006862 -0.0005045979 0.006932449 -7.418106e-05 -0.01092304 0.01013785 0.010847847 -0.011505137
0.0005530852 -0.010325251 0.0058052833 0.0015720834 -0.0018408075 -0.0026581208 -0.0013716401 0.0022549133
0.0021841777 0.0057043284 0.009168625 -0.0022088483 0.0091442475 -0.006081334 -0.0031561232 -0.003036719
-0.0011959401 0.011688226 -0.0073135993 -0.011361711 -0.0027490738 0.010424733 -0.0011507298 0.0023309756
-0.007714951 -0.008333352 0.0022482139 0.0057787136 0.0017355218 0.00039423406 0.008849984 0.0029130944
