checkpoints_avg_on_data/run_0/1d_cnn_ckpt_2.pth (torch, 52296 bytes, 7 tensors)

model_m.0.weight f4 [8, 1, 8]
0	0xbe8f836c	-0.28029954
1	0x3e9a56a7	0.30144235
2	0xbea1a993	-0.31574687
3	0x3e843375	0.2582051
4	0xbc5a6694	-0.013330121
5	0x3e29b98e	0.1657469
6	0x3d1ba687	0.03800061
7	0x3e1e075b	0.15432493
8	0xbdcbb0dc	-0.099458426
9	0xbe159336	-0.14606938
10	0x3eb3d6ab	0.35124716
11	0xbe4a10f0	-0.19733024
12	0x3c65e972	0.0140327085
13	0x3d4e3b28	0.050349385
14	0xbe8490fd	-0.25891867
15	0xbd15b985	-0.03655388
16	0x3daa1eb8	0.083066404
17	0x3d3dd8a4	0.046349183
18	0x3e9e33e6	0.3089897
19	0x3e2ece51	0.17070891
20	0x3e1be528	0.15224135
21	0xbe22bab1	-0.1589153
22	0xbe0cf268	-0.13764346
23	0x3ea98cc1	0.331152
24	0x3dde43ba	0.108527616
25	0xbda601b1	-0.08105791
26	0x3dc1c207	0.09460836
27	0x3d92e2fd	0.07172201
28	0xbe929aec	-0.2863382
29	0xbe44f383	-0.19233517
30	0xbe2a1dcf	-0.16612934
31	0xbdea12ca	-0.11429365
32	0x3e9f14d9	0.31070593
33	0xbdbd5b8e	-0.09245978
34	0x3e76fae4	0.24119145
35	0xbe0dcd9c	-0.13847965
36	0x3d93d45b	0.07218238
37	0xbea92f99	-0.33044127
38	0x3e630a27	0.22171842
39	0xbe7db9eb	-0.24777953
40	0xbdef5040	-0.11685228
41	0x3e99ee8f	0.30064818
42	0xbd9248bc	-0.07142779
43	0xbea92a3a	-0.3304003
44	0xbe4a2f84	-0.19744688
45	0x3daae280	0.08343983
46	0xbe04c8d9	-0.12967242
47	0xbe61cf74	-0.22051793
48	0x3d02f68a	0.0319734
49	0xbdab1d00	-0.08355141
50	0xbe14df03	-0.14538197
51	0xbe560551	-0.20900466
52	0x3db4ed32	0.08834304
53	0xbeacc771	-0.33745912
54	0x3cfd9d7c	0.030958883
55	0x3e4d4a71	0.20047928
56	0xbea70827	-0.32623407
57	0x3e006353	0.12537889
58	0xbba719a3	-0.0050994917
59	0xbb19c366	-0.0023462414
60	0xbe003ed2	-0.12523964
61	0xbe02fb79	-0.12791242
62	0x3de19063	0.11013868
63	0x3e923c20	0.28561497

model_m.0.bias f4 [8]
0	0xbe0049a4	-0.12528092
1	0xbdc811d2	-0.09769024
2	0x3d0dcfd4	0.03462203
3	0x3d605576	0.054769002
4	0x3d0f84d6	0.03503879
5	0x3eaf9c0c	0.34298742
6	0xbe2be4fd	-0.16786571
7	0x3da9debe	0.08294438

model_m.3.weight f4 [16, 8, 8]
0	0x3d297e30	0.041380107
1	0x3c0fc860	0.0087758005
2	0x3cbf3410	0.023340255
3	0x3b901b60	0.0043977946
4	0x3de52cc0	0.11190176
5	0x3d33d170	0.043900907
6	0x3de1058c	0.10987386
7	0x3d852d38	0.065027654
8	0x3c9add58	0.018904373
9	0xbd9dfa8c	-0.07713804
10	0xbcffd968	-0.031231597
11	0xbc3e6560	-0.011620849
12	0xbd493b48	-0.0491288
13	0xbbcf94a0	-0.006334856
14	0xbd4833d0	-0.048877537
15	0x3d84cd2e	0.064844474
16	0x3d917622	0.0710261
17	0x3d3e4237	0.046449866
18	0x3d3a2735	0.045447547
19	0x3dca3000	0.098724365
20	0xbd8f30d6	-0.069917366
21	0x3da94cd7	0.08266609
22	0xbdac97b8	-0.084273756
23	0x3dc40a10	0.09572232
24	0x3dd195f8	0.102336824
25	0xbdf13e46	-0.11779456
26	0x3cc2de4a	0.023787636
27	0xbdbe1632	-0.09281577
28	0x3d45f8ba	0.048332907
29	0xbdfbef1d	-0.123014666
30	0x3cc2149d	0.02369147
31	0xbd81238f	-0.063056104
32	0x3d5e84c5	0.054325838
33	0xbdc65296	-0.09683721
34	0x3d906395	0.07050244
35	0x3dfb2ceb	0.12264427
36	0xbdea300b	-0.11434945
37	0xbde20bb8	-0.110373914
38	0xbdf5c90f	-0.120012395
39	0x3c5f39c4	0.013624612
40	0x3d65c80c	0.056098983
41	0x39960f25	0.00028621513
42	0x3d201f55	0.03909238
43	0x3d002015	0.031280596
44	0x3d560a2b	0.05225579
45	0x3dc587a5	0.09645013
46	0x3dfa08b3	0.122086905
47	0xbcd521b5	-0.02601705
48	0x3df507f2	0.11964406
49	0xbda781b4	-0.08179036
50	0x3d6a6dec	0.057233736
51	0x3d1ec580	0.03876257
52	0x3d1cd810	0.03829199
53	0xbdbf0a86	-0.09328179
54	0x3ce58bc8	0.028020754
55	0xbdb69cf6	-0.08916657
56	0xbc0af5be	-0.008481441
57	0x3ded2176	0.11578648
58	0xbd815d35	-0.06316606
59	0x3d545a03	0.051843654
60	0xbd4369be	-0.047708265
61	0xbd621ad3	-0.055201363
62	0xbdfb6d9a	-0.12276764
63	0x3c0a6f09	0.008449324
64	0xbbdd0180	-0.0067445636
65	0xbd57ff6c	-0.052733824
66	0x3c6a9360	0.0143173635
67	0xbc3d5490	-0.011555806
68	0x3d91a6c4	0.07111886
69	0xbb7a4c80	-0.003819257
70	0x3d84838e	0.064704046
71	0x3de91750	0.113814
72	0x3c0587b0	0.008150026
73	0x3cccf3e8	0.025018647
74	0xbcc857a8	-0.02445586
75	0x3d35dcbc	0.04439996
76	0x3d615380	0.055011272
77	0xbdb9da56	-0.090748474
78	0x3d944956	0.0724055
79	0x3c1dc760	0.009630054
80	0x3d79334a	0.06083993
81	0xbd4e3022	-0.05033887
82	0xbdfb99d8	-0.12285203
83	0xbd010f7f	-0.03150892
84	0xbdb8ea0d	-0.09029017
85	0xbcc8813e	-0.02447569
86	0xbcbdc4a5	-0.023165056
87	0xbd371704	-0.044699684
88	0xbd75cd0c	-0.06001
89	0x3cd65991	0.026165755
90	0x3decf171	0.11569489
91	0xbd698153	-0.0570081
92	0x3d38170e	0.04494386
93	0x3d74be53	0.05975182
94	0xbd502724	-0.050818577
95	0x3ddba029	0.107239075
96	0xbddb6a34	-0.10713616
97	0xbded6805	-0.11592106
98	0x3d90f745	0.07078413
99	0x3c36c04a	0.011154244
100	0xbd0fe397	-0.035129156
101	0x3db0f48a	0.08640392
102	0x3d1373e9	0.035999212
103	0x3cf693de	0.030099805
104	0x3d53d721	0.051718835
105	0x3dfe2393	0.12409129
106	0xbdedd885	-0.116135634
107	0x3de5b6e9	0.11216528
108	0xbdc3989b	-0.095505916
109	0xbd535719	-0.051596735
110	0xbdb4923b	-0.08816954
111	0x3d65eea0	0.056135774
112	0x3d95f55c	0.07322189
113	0x3de735a0	0.11289525
114	0xbdcf1c62	-0.101128355
115	0xba04c500	-0.00050647557
116	0xbdf1c2e6	-0.11804752
117	0x3dd92744	0.106031924
118	0x3d010740	0.031501055
119	0x3d904fa0	0.07046437
120	0xbdcee979	-0.10103125
121	0x3c05af5d	0.008159486
122	0xbdef8505	-0.11695293
123	0xbd7ac4ab	-0.061222713
124	0x3c58e907	0.013239152
125	0x3dac38f5	0.08409301
126	0xbd9caea4	-0.076504976
127	0xbdb3881d	-0.08766196
128	0xbd0ea55c	-0.034825668
129	0xbd916b72	-0.07100572
130	0x3dcbf390	0.09958565
131	0xbddb9808	-0.10722357
132	0x3dcea56e	0.10090147
133	0xbb01ffc0	-0.0019836277
134	0x3db98e9a	0.09060402
135	0xbddabe54	-0.106808335
136	0x3d7866fc	0.06064509
137	0x3d99fa8a	0.0751849
138	0x3cb88058	0.022522137
139	0xbc842af0	-0.016133755
140	0x3cec6d40	0.028860688
141	0xbcf11fa0	-0.029434025
142	0xbd960b50	-0.073263764
143	0xbdb23578	-0.087016046
144	0xbc7765ec	-0.015099984
145	0xbd319619	-0.043356035
146	0x3deb4205	0.114872016
147	0xbd3d17a2	-0.046165116
148	0xbcdd077e	-0.026981112
149	0x3c1f9a58	0.009741388
150	0x3d188efa	0.037245728
151	0xbd679c5b	-0.056545597
152	0x3d45741b	0.04820643
153	0x3da95c7d	0.08269594
154	0xbd22c6fb	-0.039740544
155	0x3cf43685	0.029811153
156	0x3db8d016	0.09024064
157	0x3d13a66f	0.036047395
158	0xbd4aaa2d	-0.0494787
159	0xbd7d6360	-0.06186235
160	0x3d45d1ca	0.048295774
161	0x3d925cff	0.07146644
162	0xbd8956f8	-0.06706041
163	0xbca0c2a8	-0.01962407
164	0x3d99bb00	0.075063705
165	0x3cb287d9	0.021793293
166	0xbd9400f6	-0.07226746
167	0xbd2bde62	-0.041960128
168	0x3d21e977	0.03952929
169	0x3dc9d3d6	0.098548576
170	0xbd85d110	-0.06534016
171	0x3d87908a	0.066193655
172	0xbd9ee735	-0.07758943
173	0xbcb3bc68	-0.021940425
174	0x3dd4554f	0.10367834
175	0x3debeaf3	0.115194224
176	0xbdb0c448	-0.08631188
177	0xbd40858c	-0.04700236
178	0x3d97df0e	0.07415591
179	0xbd6ad8d8	-0.057335705
180	0x3d408a2c	0.04700677
181	0x3d80d8e2	0.06291367
182	0xbc6d7780	-0.014493823
183	0x3c794c50	0.015215948
184	0x3ce1baa8	0.027554825
185	0x3b443ac4	0.0029942254
186	0x3df7a306	0.12091641
187	0x3c952504	0.018206127
188	0xbcd9ad3e	-0.026571866
189	0xbd8210e4	-0.06350878
190	0xbdb8bdbe	-0.090205655
191	0x3d254642	0.040350206
192	0xbc8fbef8	-0.017547116
193	0xbd96ae10	-0.073574185
194	0x3d0095c4	0.031392828
195	0x3c974520	0.018465579
196	0xbdecfa68	-0.11571199
197	0x3d8bdde6	0.06829433
198	0x3ce9e568	0.028551772
199	0xbc340a90	-0.010988846
200	0x39da4000	0.00041627884
201	0xbcb3ccb8	-0.021948203
202	0x3cee8a70	0.029118747
203	0x3d95bbb8	0.07311195
204	0x3ccf5060	0.02530688
205	0xbdbe5464	-0.0929344
206	0xbde3c4da	-0.11121531
207	0x3dbdec7e	0.09273623
208	0xbde53992	-0.11192621
209	0x3dfd1e73	0.12359323
210	0x3d87d0b2	0.06631602
211	0xbdfaa165	-0.12237815
212	0x3dfb8b8b	0.12282475
213	0x3d0e05e4	0.034673586
214	0x3d865083	0.06558325
215	0x3daa4768	0.08314401
216	0xbdca70dd	-0.09884808
217	0x3dd20f88	0.102568686
218	0xbd8a13c9	-0.06742055
219	0xbd352356	-0.044223152
220	0x3db8b730	0.09019315
221	0xbdbc1750	-0.09184134
222	0x3de067d3	0.10957303
223	0xbd7f268d	-0.062292624
224	0x3d90d6e6	0.070722386
225	0x3cab825f	0.02093619
226	0x3daad999	0.08342285
227	0x3dd4024e	0.10352002
228	0xbdfc7efe	-0.12328909
229	0x3de8f041	0.1137395
230	0x3dcb1aca	0.09917219
231	0x3d80e23e	0.06293152
232	0x3da3b510	0.07993519
233	0x3b2c3b9a	0.0026280642
234	0x3c3f4f86	0.011676675
235	0x3b1796e0	0.00231307
236	0x3c8eac76	0.01741622
237	0xbde3c3d4	-0.111213356
238	0x3d9e224c	0.07721385
239	0xbdbf989b	-0.09355279
240	0xbc80a438	-0.015703306
241	0xbda439b4	-0.080188185
242	0x3c9c9cd8	0.019117758
243	0x3dda0a90	0.10646546
244	0xbda72f50	-0.08163321
245	0x3ddeb75c	0.10874817
246	0xbdb06b0c	-0.086141676
247	0xbda04f3c	-0.07827613
248	0x3c9d2f6c	0.019187652
249	0x3d5d37a8	0.054008156
250	0xbd422a34	-0.04740353
251	0xbd4476df	-0.047964927
252	0x3d3648e8	0.044503123
253	0x3dfa0b1c	0.1220915
254	0xbc0aedf9	-0.008479589
255	0x3dbae48c	0.09125623

model_m.3.bias f4 [16]
0	0xbc318c97	-0.010836742
1	0x3de6efac	0.112761825
2	0x3baecc90	0.0053344443
3	0x3c3feb25	0.011713778
4	0x3deafa35	0.114735045
5	0x3dbed328	0.093176186
6	0x3c86a6b3	0.01643691
7	0x3d7155f2	0.058919854
8	0x3d8580c6	0.06518702
9	0x3de36bd3	0.1110455
10	0x3dbbf42e	0.09177433
11	0x3d9c81e0	0.07641959
12	0x3d724e71	0.05915684
13	0x3d28d35e	0.0412172
14	0xbc6ba860	-0.014383405
15	0xbdb60d3c	-0.08889243

model_m.6.weight f4 [32, 16, 8]
0	0x3d95d380	0.07315731
1	0x3cc95cdb	0.02458041
2	0x3d1e9859	0.03871951
3	0xbcc11d8c	-0.02357366
4	0x3c8ea3fd	0.01741218
5	0x3cce1c76	0.025160056
6	0x3d611a87	0.05495694
7	0x3d654790	0.05597645
8	0xbd1a5bf2	-0.037685342
9	0x3a606c6d	0.00085610786
10	0x3c00ee82	0.007869365
11	0x3c8e62bc	0.017381065
12	0xb984020c	-0.00025178527
13	0xbdb02d64	-0.086024076
14	0x3c190436	0.009339383
15	0xbd0f0fde	-0.03492724
16	0xbb9b0a2b	-0.0047314367
17	0x3d6bfb18	0.05761251
18	0xbd84b00e	-0.06478892
19	0xbd864427	-0.06555968
20	0x3d62fb57	0.055415478
21	0x3d64a07d	0.055817116
22	0x3d33daba	0.043909766
23	0xbd233c6b	-0.03985254
24	0x3a903337	0.0011001591
25	0xbd9a5bd7	-0.07537048
26	0xbc1e9147	-0.0096781915
27	0xbc8fe74a	-0.017566342
28	0x3d06dd8c	0.032926127
29	0x3da26c31	0.07930792
30	0xbce105ab	-0.027468523
31	0xbba67816	-0.0050802333
32	0x3da0f9be	0.078601345
33	0x3d932531	0.07184828
34	0x3c6af42e	0.014340444
35	0x3c7be763	0.015374991
36	0xbc984d78	-0.018591627
37	0xbd4bc648	-0.049749643
38	0xbc2267ab	-0.009912412
39	0x3c9decad	0.019277895
40	0xbac70256	-0.0015183191
41	0xbd9c87ff	-0.07643127
42	0x3d5a46a0	0.05329001
43	0x3d9b145b	0.07572242
44	0x3d190dbc	0.037366614
45	0xbd5cb75e	-0.05388581
46	0x3ca8ca9c	0.020604424
47	0xbd8e1a42	-0.06938602
48	0xbda29240	-0.07938051
49	0xbcc76f5d	-0.024345094
50	0xbd16407d	-0.036682595
51	0x3d9051c2	0.07046844
52	0xbd429e20	-0.04751408
53	0x3d782d7d	0.060590256
54	0x3d105ee4	0.035246745
55	0x3db30482	0.08741094
56	0xbd723924	-0.059136525
57	0x3d6805cc	0.056646153
58	0xbdb4e136	-0.08832018
59	0xbd95a830	-0.0730747
60	0x3cc25eaf	0.02372679
61	0x3d477ff5	0.048706014
62	0x3dae1d58	0.085016906
63	0x3d1d4cb4	0.038403228
64	0x3d7aa6d3	0.061194252
65	0x3d721dee	0.059110574
66	0x3d2ac527	0.041691925
67	0xbd5cf7fa	-0.053947426
68	0xbcf93096	-0.030418675
69	0xbc534b97	-0.01289644
70	0x3af0cf56	0.0018372338
71	0x3dafba5c	0.08580467
72	0xbd170dcd	-0.036878396
73	0x3bab1018	0.0052204244
74	0xbd9ef75c	-0.07762024
75	0xbc837068	-0.01604481
76	0xbc96db14	-0.018415011
77	0x3d916f6a	0.07101329
78	0xbd3ca3d6	-0.046054684
79	0xbcc9b1bb	-0.024620881
80	0x3d49851e	0.049199216
81	0x3cafca32	0.021458719
82	0x3c97e175	0.018540123
83	0x3d148198	0.036256403
84	0x3da37f61	0.0798328
85	0xbc195cd2	-0.009360509
86	0xbc87b8a4	-0.016567536
87	0x3d2c2772	0.042029805
88	0x3b71949e	0.0036862264
89	0xbcb91b0c	-0.022595905
90	0x3d3c846c	0.046024725
91	0x3d317c54	0.04333146
92	0x3d03ccdf	0.032177802
93	0xbae8b236	-0.0017753306
94	0xbcafe287	-0.021470321
95	0x3ccc06af	0.02490553
96	0xbd3568cb	-0.04428939
97	0xbd843d50	-0.06457007
98	0xbdb10d94	-0.08645168
99	0x3d73d253	0.059526753
100	0x3d67079d	0.056403745
101	0x3d823a02	0.0635872
102	0xbda9cd53	-0.082911156
103	0x3bfeba18	0.007773649
104	0xbd6730a3	-0.056442868
105	0xbca139d2	-0.019680891
106	0x3da59350	0.08084738
107	0xbdb3b00c	-0.08773813
108	0x3d9e0f9e	0.077178225
109	0xbd922954	-0.07136789
110	0x3d764ebe	0.06013369
111	0x3d733534	0.05937691
112	0xbcb7be8e	-0.02242973
113	0xbc487ab1	-0.012236283
114	0x3ba65c55	0.005076925
115	0x3d43903e	0.047744982
116	0x3db1abe4	0.08675364
117	0xbcfa160b	-0.030528089
118	0x3ce46e54	0.02788464
119	0x3b87ceac	0.0041445103
120	0xbd41fc9b	-0.047360044
121	0x3d86cb84	0.06581786
122	0x3ab9ee2f	0.0014185364
123	0xbce0b11a	-0.027428199
124	0xbcfa8c71	-0.030584546
125	0x3cf25521	0.029581608
126	0x37a01240	1.9081985e-05
127	0xbdb2cbbc	-0.087302655
128	0xbd9c81d9	-0.07641954
129	0xbd8736ca	-0.06602247
130	0x3d746ea7	0.05967584
131	0xbd0d385f	-0.034477588
132	0xbd8e2bda	-0.06941958
133	0x3d3df4ed	0.046376158
134	0xbd929433	-0.07157173
135	0xbc02a073	-0.007972824
136	0x3d81c76e	0.06336866
137	0xbc4c30f5	-0.012462844
138	0xbd24f1a2	-0.0402695
139	0x3cd6ddba	0.026228774
140	0x3ccb9f67	0.024856282
141	0xbd7ea5c1	-0.062169794
142	0xbd4b0607	-0.049566295
143	0xbd2e9aaf	-0.042627987
144	0x3d3b84a4	0.045780793
145	0xbcdc4f63	-0.026893323
146	0xbd765d79	-0.060147736
147	0x3c31cd15	0.010852118
148	0x37fd0e4b	3.0166606e-05
149	0x3c9154c7	0.01774062
150	0xbd4c99cf	-0.04995137
151	0x3d8dbd98	0.06920928
152	0x3d523b22	0.051325925
153	0x3d429bd9	0.04751191
154	0x3b934f54	0.0044955406
155	0x3d8dbb52	0.06920494
156	0x3d9415ab	0.07230695
157	0xbc60e41a	-0.013726259
158	0x3c702e29	0.014659443
159	0x3d1696eb	0.03676502
160	0x3d07f92a	0.033196606
161	0xbd8d7856	-0.06907718
162	0x3c7e0e17	0.015506289
163	0xbd460d28	-0.04835239
164	0xbd612bcc	-0.05497341
165	0x3cc318eb	0.023815593
166	0x3daf8c04	0.08571628
167	0xbd0ad96e	-0.033898763
168	0x3d223478	0.03960082
169	0x3cc185d3	0.023623383
170	0xbdabd5e7	-0.08390408
171	0xbd72ebf4	-0.059307054
172	0xbd744226	-0.059633397
173	0xbc93758f	-0.018000392
174	0xbd884032	-0.06652869
175	0x3dad98ac	0.084763855
176	0x3d51d34f	0.05122691
177	0x3c8f6de9	0.017508464
178	0x3d6359d1	0.055505577
179	0x3d20b6b0	0.039236724
180	0xbc97c37f	-0.018525837
181	0xbcf09ca0	-0.02937156
182	0xbdaadc26	-0.08342771
183	0xbd2a7e27	-0.041624215
184	0xbda76714	-0.081739575
185	0x3da6d7ec	0.081466526
186	0xbd986dbf	-0.074428074
187	0xbad90835	-0.0016558232
188	0x3cc454a4	0.023966141
189	0x3da588e7	0.08082753
190	0x3d699aba	0.057032324
191	0xbc98bccb	-0.018644711
192	0x3d1512f9	0.036395047
193	0xbdad4a5d	-0.08461449
194	0xbce3fb94	-0.027829923
195	0x3d9427cc	0.07234153
196	0xbd28f1e6	-0.041246317
197	0x3d84acd4	0.06478277
198	0xbd8ebc27	-0.06969481
199	0xbc56941f	-0.013096838
200	0xbd93cb6d	-0.07216535
201	0x3daa24f6	0.08307831
202	0x3ccbb75b	0.024867704
203	0x3da113e4	0.07865122
204	0xbdb227b5	-0.0869898
205	0x3d1bfd45	0.038083334
206	0x3d8efe00	0.069820404
207	0xbd3058a8	-0.0430533
208	0x3cb02e46	0.02150644
209	0xbcc1cf19	-0.023658322
210	0xbb05c7a8	-0.0020413194
211	0x3d98a94b	0.07454165
212	0xbd15a7aa	-0.03653685
213	0x3d9143ce	0.07093011
214	0x3b37b004	0.0028028497
215	0x3c4e34bf	0.012585818
216	0xbce95303	-0.028481966
217	0xbd97422c	-0.07385668
218	0x3bf7e42e	0.007565043
219	0x3d2b309f	0.041794416
220	0x3d799831	0.060936157
221	0xbb998997	-0.0046855914
222	0x3cf61ed1	0.030043991
223	0x3ca5b2c3	0.020226842
224	0xbbf134fc	-0.0073610526
225	0xbc3afd73	-0.011412966
226	0xbd932849	-0.07185418
227	0xbd1d829c	-0.038454637
228	0xbdad0d6c	-0.08449826
229	0xbd15d1f5	-0.036577184
230	0x3c946194	0.018112935
231	0xbc757fea	-0.01498411
232	0x3d66c049	0.05633572
233	0xbcccc2d7	-0.02499525
234	0x3b90aef6	0.004415388
235	0x3db1d28d	0.086827375
236	0x3da3eb46	0.08003859
237	0xbd7b680a	-0.061378516
238	0x3d64142e	0.055683307
239	0xb910a5c4	-0.00013794663
240	0x3d0f41af	0.03497475
241	0x3d1d79ac	0.038446113
242	0xbc9967fb	-0.01872634
243	0xbd954eef	-0.07290446
244	0xbd7bdfa1	-0.061492566
245	0xbc8c730e	-0.017144706
246	0xbd4da6c3	-0.050207864
247	0x3cc86307	0.024461282
248	0x3d64c64e	0.05585318
249	0xbbae7c8e	-0.0053249067
250	0xbd388154	-0.045045212
251	0x3d88b252	0.06674637
252	0x3db1fb5a	0.0869052
253	0x3d52d6e8	0.05147448
254	0x3c35908f	0.011081829
255	0xbba03020	-0.0048885494

model_m.6.bias f4 [32]
0	0xbd8dad50	-0.06917822
1	0xbd273d75	-0.040830094
2	0x3d0dee71	0.034651224
3	0x3cf31285	0.029671917
4	0xbca2b2ca	-0.019860644
5	0x3d2f5775	0.042808015
6	0x3beaed77	0.0071694213
7	0xbda5099d	-0.08058474
8	0x3d2c668d	0.042089988
9	0xbc9255a2	-0.017863099
10	0x3d91c72a	0.07118066
11	0x3cd56c41	0.026052596
12	0xbb376c0d	-0.0027987987
13	0x3d0cd16b	0.034379404
14	0x3ccadf97	0.02476482
15	0x3cbbfb5c	0.022947006
16	0x3c3aba6e	0.011396987
17	0xbdabe2b8	-0.083928525
18	0xbd984005	-0.07434086
19	0xbd91d947	-0.071215205
20	0x3cb420d3	0.021988308
21	0x3d6e70b3	0.058212947
22	0xbd888b81	-0.06667233
23	0x3cf21d78	0.029555067
24	0xbc8306fb	-0.01599454
25	0xbd7708fa	-0.060311295
26	0x3d09bc69	0.033626948
27	0xbb8fa544	-0.004383715
28	0xbcae1ec6	-0.021254908
29	0x3ca35c8c	0.01994159
30	0xbda753ea	-0.08170302
31	0xbc344e1f	-0.011004954

fc.weight f4 [1, 6976]
0	0x3b4499ad	0.0029998824
1	0xbc3c6b2d	-0.011500162
2	0xbb039a21	-0.0020080882
3	0x3a40692d	0.0007339891
4	0x3b673c6b	0.0035283815
5	0xbb8e5665	-0.004343795
6	0x3c408670	0.011750802
7	0xbc09d3b1	-0.008412288
8	0xbc3ff997	-0.011717222
9	0xbc298424	-0.010346446
10	0x3bece78a	0.00722975
11	0xbb223de3	-0.0024756126
12	0xbc094d7d	-0.008380291
13	0xbc1f553b	-0.00972491
14	0xbc2bcc8a	-0.010485778
15	0x3c422df1	0.011851774
16	0xba160080	-0.00057221204
17	0xbbae1e60	-0.0053136796
18	0x3994eea9	0.00028406575
19	0x3bea1f25	0.007144826
20	0xbc1137e9	-0.008863428
21	0xbbae5f97	-0.005321454
22	0xbbc1348c	-0.0058961567
23	0xbaa9a726	-0.0012943491
24	0xbb66c728	-0.0035213921
25	0x3c1043db	0.0088052405
26	0xbb3eb323	-0.0029098473
27	0xbc345007	-0.011005408
28	0xbbc83c84	-0.0061107296
29	0x3b6fcf22	0.0036591967
30	0x3bf841f4	0.0075762216
31	0xbbca5238	-0.006174352
32	0x3b8bfe35	0.004272247
33	0x3c096a02	0.008387091
34	0x3c06fcb2	0.008238958
35	0xbc43aa6a	-0.011942485
36	0x3b9e9030	0.004838966
37	0x3ab918f6	0.0014121819
38	0xbc30965e	-0.010778038
39	0xbc1ad476	-0.009450069
40	0xbc3df0cb	-0.011593054
41	0xbb957406	-0.00456095
42	0xbbcf8730	-0.0063332543
43	0xbb126617	-0.0022338682
44	0xbc0ef7b3	-0.008726048
45	0x3bb0c2be	0.005394309
46	0xba106564	-0.00055082724
47	0xbae879a1	-0.0017736444
48	0x3c33bdd5	0.010970552
49	0x3b85bd52	0.0040814066
50	0x3bee1f90	0.007266946
51	0xbbb7f763	-0.0056142076
52	0xbb645208	-0.0034838933
53	0x3b22f08c	0.0024862615
54	0xba91866a	-0.0011102681
55	0x3bd3109c	0.006441189
56	0xbb2e3090	-0.0026579238
57	0xb9d4a0e3	-0.0004055566
58	0x3b6cdb87	0.003614159
59	0xbc099283	-0.0083967475
60	0xbac5ca32	-0.0015090166
61	0xbb1792b1	-0.0023128206
62	0x3c0f059f	0.0087293675
63	0xbc2af7e9	-0.010435083
64	0xbc2c41a4	-0.010513697
65	0x3adb02cb	0.0016709206
66	0xbbb067c9	-0.005383466
67	0x3c071ff2	0.008247362
68	0xbbe3a679	-0.0069473353
69	0xbb2e2998	-0.0026575085
70	0x3b7a6307	0.0038205998
71	0xbb20a415	-0.0024511863
72	0xbbd73097	-0.0065670717
73	0x3bdd04df	0.0067449654
74	0xbc02407d	-0.0079499455
75	0xbaed5901	-0.001810819
76	0xbc2dcdf4	-0.010608185
77	0xbc3e4625	-0.011613403
78	0xbb870eeb	-0.0041216514
79	0x3b7c3c19	0.003848797
80	0xbb91f564	-0.0044543017
81	0xbbfb39ee	-0.007666818
82	0xbadc4665	-0.0016805647
83	0x3babc8fe	0.005242466
84	0xbc2164bf	-0.00985068
85	0xbba57f4e	-0.0050505763
86	0x3c352972	0.011057245
87	0xba1b0770	-0.0005913889
88	0x3b694733	0.0035595417
89	0xbbafd5d3	-0.005366066
90	0xbc001cf7	-0.007819406
91	0xbc3ce062	-0.011528106
92	0x3b59b674	0.0033220323
93	0x3b80ff03	0.0039366498
94	0x3c170361	0.009217114
95	0x3be5f3d9	0.0070175943
96	0x3a822cbe	0.0009931547
97	0x3c30273c	0.010751542
98	0x3c221487	0.009892589
99	0xbaa7e472	-0.0012809171
100	0xbc26457f	-0.010148405
101	0xbb183980	-0.0023227632
102	0x3b0547fa	0.002033709
103	0xbb99d46e	-0.004694513
104	0x3c24c0e9	0.010055759
105	0x3b2525ff	0.002519965
106	0x3c2f3646	0.010694092
107	0x3adf9d66	0.0017060458
108	0xbc120374	-0.008911956
109	0xbbd165e6	-0.006390321
110	0x3a6205b6	0.0008622067
111	0x3ba65403	0.005075933
112	0x3be4e14a	0.0069848644
113	0x3c25071d	0.010072497
114	0xbc074c62	-0.008257957
115	0xbc14386a	-0.009046653
116	0xbc0c8de7	-0.008578754
117	0xbb20758e	-0.002448413
118	0x3bb44628	0.0055015273
119	0x3c131355	0.008976777
120	0xbc051304	-0.008122209
121	0xbbc7edad	-0.006101331
122	0xba4f897a	-0.0007916909
123	0xbc332a51	-0.010935382
124	0xbc2dea3c	-0.010614928
125	0x3bf172e4	0.0073684324
126	0xbc26b7cb	-0.010175656
127	0x3c2ce54c	0.0105527155
128	0xbbb05402	-0.0053811083
129	0x3bb2c04f	0.005455054
130	0x3bd094c8	0.0063653924
131	0x3a0c6d3c	0.00053568534
132	0xbb5b5125	-0.0033465114
133	0x3bd289b6	0.006425108
134	0xbb5d9636	-0.0033811457
135	0x3bedcffe	0.0072574606
136	0xbb5f78c3	-0.003409908
137	0xbc413a9e	-0.011793761
138	0xbc16133f	-0.009159862
139	0xbbcc2394	-0.006229827
140	0x3c01477c	0.007890578
141	0x3bd9fab9	0.006652203
142	0xbc2bbe73	-0.010482418
143	0xba363dff	-0.0006951987
144	0xbc423b3c	-0.011854943
145	0x3bbd91d7	0.0057852077
146	0xbc07662a	-0.008264104
147	0x3b94c1a1	0.004539684
148	0xba35275d	-0.00069104676
149	0xbbedd2fc	-0.0072578173
150	0x3b40e6b3	0.0029434382
151	0xbbe9749d	-0.007124497
152	0x3c34c623	0.011033568
153	0xb9ba0d41	-0.0003548656
154	0xbc2071d9	-0.009792768
155	0xbb93eeca	-0.00451455
156	0xbb509a4a	-0.0031830245
157	0x3b723cee	0.0036962586
158	0x3b311438	0.0027020108
159	0xbc2c39bf	-0.010511815
160	0xbc20abf7	-0.009806625
161	0x3c2b00b2	0.0104371775
162	0x3c37b28b	0.011212002
163	0x3bb8c0af	0.005638204
164	0xbba18a0e	-0.0049297875
165	0xbba70302	-0.005096794
166	0xbab481f2	-0.0013771637
167	0xbb3e3a86	-0.0029026582
168	0x3b4ab428	0.0030930135
169	0xbbdce2c0	-0.006740898
170	0x3c0b24ed	0.0084926905
171	0xbc3efdd6	-0.011657199
172	0xbab8ee63	-0.0014109131
173	0xbb9369c8	-0.004498694
174	0x3c04fc2d	0.008116764
175	0xbc04bf76	-0.0081022885
176	0xbad40a5d	-0.0016177405
177	0xbb1cbfd2	-0.0023918045
178	0xbb9e08d0	-0.004822828
179	0xbc3c814b	-0.011505435
180	0x3b13471c	0.0022472804
181	0xbc282896	-0.010263583
182	0x3c30bc64	0.010787103
183	0x3c0ef648	0.00872571
184	0xbbceed66	-0.006314921
185	0xbb18dea7	-0.002332607
186	0xbbb7124c	-0.005586898
187	0x3bbb9e24	0.005725639
188	0xbc2a5a8b	-0.010397564
189	0x3bc49cbe	0.0060001304
190	0xbc0fbc28	-0.008772887
191	0x3b98af71	0.004659586
192	0xba5497fa	-0.00081098045
193	0x3afae01f	0.001914028
194	0xbbbddbb6	-0.005794014
195	0xbb97c2f8	-0.0046313964
196	0xbba261ac	-0.004955491
197	0x3aaba35f	0.0013094953
198	0x3a24fb5a	0.0006293558
199	0xbc3525d2	-0.01105638
200	0xbb649ffa	-0.0034885393
201	0xbc0f8741	-0.008760274
202	0xb9aa49bd	-0.00032479866
203	0xb80541f1	-3.1771084e-05
204	0x3b1e9273	0.0024196177
205	0xbc3606a7	-0.0111099845
206	0x3c3def4b	0.011592696
207	0x3b2a5bea	0.0025994726
208	0x3aca5c90	0.0015438963
209	0x3b1a2628	0.0023521278
210	0x3c007766	0.007840967
211	0xbb5f14f5	-0.003403959
212	0xbbf15f5a	-0.007366103
213	0x3990aec3	0.00027596028
214	0xbc0b43d5	-0.008500059
215	0xbc15a663	-0.009133908
216	0xbb33e27e	-0.0027448232
217	0x3bd1b535	0.0063997754
218	0xbc1734e9	-0.009228923
219	0x39a0daad	0.00030680504
220	0x3bf89801	0.0075864797
221	0x3a9bbafb	0.0011881286
222	0x3bc8e40e	0.006130702
223	0x3881b9c1	6.185799e-05
224	0x3b9697ef	0.0045957486
225	0xbb0bd426	-0.0021336167
226	0xbc25f467	-0.010129071
227	0xbadca538	-0.0016833907
228	0xbbfe6693	-0.0077636926
229	0xbc426c25	-0.011866604
230	0xbc0cd12f	-0.008594795
231	0xbc08284e	-0.008310391
232	0x3b8ef28b	0.0043624095
233	0x3b56d1fb	0.0032778967
234	0x3a398602	0.00070771587
235	0xbb97f439	-0.004637268
236	0xbbc4cbcc	-0.00600574
237	0x3bcc44be	0.0062337806
238	0x3bc13a8e	0.005896873
239	0xbb94e6a3	-0.0045440956
240	0x3c1469fb	0.009058471
241	0x3bffad4a	0.00780264
242	0xbc1284d9	-0.008942806
243	0x3bb3861f	0.005478635
244	0x3baff5d4	0.005369881
245	0x3bd989a9	0.006638725
246	0x3bec2689	0.007206742
247	0x3b0970f5	0.0020971869
248	0xbb3956bd	-0.002828046
249	0x3b228d38	0.0024803411
250	0x3b945ac2	0.0045274207
251	0x3c0f6a5d	0.008753386
252	0x3b466c5b	0.0030276987
253	0x3ad1f872	0.0016019477
254	0xbac8ea75	-0.0015328663
255	0xbbf9e2b7	-0.0076259035
