checkpoints_avg_on_data/run_0/1d_cnn_ckpt_3.pth (torch, 52296 bytes, 7 tensors)

model_m.0.weight f4 [8, 1, 8]
00000000: af90 adbd 73da 463e 5ec5 9fbe fa8c 7f3e
00000010: 426a 6fbe 71c3 413e 7282 9d3e 3e0b 01bd
00000020: a0d3 22be f709 113e 41a4 96bd fb54 b6bd
00000030: 8234 ef3d 681f 0c3e 3cef bb3d 3445 3abe
00000040: 0372 a73e 15f8 b4be b29d ee3d af97 8a3e
00000050: 2d33 87be 4225 85be 853b 4a3e c2d0 a7be
00000060: 1c03 3e3e 211e 89be 7454 453e 6ad9 863e
00000070: 9d08 293e fd27 83be 9cc8 8a3e c1a4 89be
00000080: ffe9 593d a245 433e 975b 40be 0055 febd
00000090: 31ed f8bd d157 b1be 657e 61be 768e 82bb
000000a0: c187 1ebe 9a8c 8abe 38fc a83d 38f2 78be
000000b0: 4d67 afbe 5874 84be 50a4 ecbb c46a aebe
000000c0: 7995 253e b9d8 81be bed8 a33d af7e 1ebe
000000d0: 1ae8 8e3d 92e0 e53d b093 3dbc 62dc 273e
000000e0: 138c f8bd 65db 673e 4703 18be 430e 5d3e
000000f0: 9c08 08bd 406b 063e 9e32 193e 9f1e f1bd
-0.08474862 0.1941927 -0.31205267 0.24956122 -0.23380378 0.18922211 0.30763584 -0.031504862
-0.15901041 0.14163958 -0.07355548 -0.089029275 0.11679937 0.13683856 0.0917649 -0.18190461
0.32704172 -0.35345522 0.11651172 0.2706885 -0.26406232 -0.26004988 0.19749267 -0.32776457
0.18555874 -0.267808 0.19270498 0.2633775 0.16507192 -0.25616446 0.27106178 -0.2688351
0.05320167 0.19069532 -0.18784939 -0.12418556 -0.12154616 -0.3463731 -0.22020872 -0.003984268
-0.15481474 -0.27060395 0.08251232 -0.24311149 -0.342585 -0.25870013 -0.007221736 -0.3406583
0.161703 -0.2536066 0.08000325 -0.15478013 0.069778636 0.11224474 -0.011570856 0.16392663
-0.12136092 0.22642286 -0.14845 0.21587472 -0.033211336 0.1312685 0.14960715 -0.11773419

model_m.0.bias f4 [8]
00000000: 7e3e f03d 958e f2bd 50d3 afbe e6a1 7a3e
00000010: aa41 b2be d179 90bd b1a9 e23d 14cc 3bbe
0.117306694 -0.118436016 -0.34340906 0.24475822 -0.34815723 -0.07054485 0.11067522 -0.18339568

model_m.3.weight f4 [16, 8, 8]
00000000: a03e 13bc 12a7 d0bd a0f5 cb3b 80a8 5dbb
00000010: 70b9 3e3c 78ce 623d 7070 33bc c084 f6bc
00000020: cccd e3bd 408a 8dbb 3c5a ecbd f0db 13bc
00000030: 4016 173c ba21 cc3d d650 9a3d 34d2 92bd
00000040: 883d 293d fefb ce3d 56fd cebd 0008 db3a
00000050: 102a 383d 843c 8b3d d8a2 a5bc eab3 9d3d
00000060: 5895 cfbd 6e4f c6bd 242c 1e3d 80b1 fd3b
00000070: 6448 52bd 02ef c63d 1800 443d 588a 4b3d
00000080: b285 b33d e030 663c a0bd d5bc 0606 8d3d
00000090: 105b e2bc 7ec6 bc3d 90c4 24bc 5c74 b1bd
000000a0: 8071 433b d0fe c63c 7238 9ebd fc7a 573d
000000b0: e012 d73c a649 e9bd 361b 87bd 904e 72bd
000000c0: 30be 613c 16f4 a4bd 1089 46bd a6a7 febd
000000d0: 64f0 aabd 28f7 51bd 4830 ccbd 80c4 193b
000000e0: a0ca 98bd c8b1 203d 1077 ef3d 40b3 d7bb
000000f0: ac0d a03d 30fd f23d e0fa 2d3c 72fc f23d
00000100: 1c1f 95bd 38b5 dcbc 205e 613d 926a f33d
00000110: 4049 9d3b 8623 a53d b88a f4bd a653 a73d
00000120: a4e8 9dbd c868 abbd f099 c7bd 0064 ee3a
00000130: 5c1c 0cbd 9614 89bd 8809 9abc 5a6a d7bd
00000140: a402 ffbd 3454 3cbd beb2 eabd 001b b0bd
00000150: 08c7 e2bc 78b7 213d 0028 953a 0af3 81bd
00000160: 50f2 ad3c f8af c5bd 34a1 dbbd 9047 523c
00000170: 4cf7 de3d a68f f1bd 8097 7f3b 103f c4bd
00000180: be1a c4bd 409d 2ebb 5af5 e4bd b001 c8bc
00000190: c03f 3f3b d4af e2bd 42a4 c3bd 049b b6bd
000001a0: e857 80bc fa7e e13d 4446 47bd e83c 94bc
000001b0: 201a c5bb 4c72 6a3d ee2f 8a3d f6a8 df3d
000001c0: 3853 a0bd 60c5 e6bd 2c0a f53d e822 ffbd
000001d0: d25a fdbd e4a7 913d 48fd 893c 6800 303d
000001e0: 505c cfbc a068 793d fabd aabd 2a30 e8bd
000001f0: e8ec c83c e040 173c eaa8 c23d 36c2 b63d
00000200: 2ac3 a83d 14b0 f4bd 8ad6 bcbd cc17 273d
00000210: fa20 833d dc30 d6bd 88e6 43bd 384a 193d
00000220: 122f ccbd 7ec0 c33d 702b 103c 4476 a9bd
00000230: 068e c2bd 8497 453d 1c13 e0bd 0452 32bd
00000240: c0b0 a43d c05a 3d3b 5646 9ebd 70ea 4abc
00000250: 0465 983d 9273 f5bd cc61 163d 8ade bc3d
00000260: d4c1 253d 2849 203d a0b3 69bd 9e7e 813d
00000270: 88f2 5dbd 769b f0bd 34e9 f7bd e0aa 1bbd
00000280: 741c 1fbd f2c7 8d3d 2432 383d 12df bbbd
00000290: 9895 633d 6eaa ee3d 30f9 353c b82f 5d3d
000002a0: 5c31 6cbd 80f4 7ebd f0a8 593d 20b3 8b3d
000002b0: aa1d cd3d 0c4b 95bd 700d 5c3c f8e9 bfbd
000002c0: 2c0d 15bd 900f 773c d026 823d 0876 d6bc
000002d0: be33 e93d 0869 78bd 3872 d03d 923e acbd
000002e0: b010 86bd b871 953c 109c 15bd 5426 653d
000002f0: 185d 49bd 8433 c73d f492 233d 20aa f9bc
00000300: 0092 6f3a fce7 0ebd 28be f6bc b82e e83d
00000310: f8a5 07bd 3cb9 92bd 047a 313d 6cff d83d
00000320: 587c b53d 3c25 c83d 10ee 33bc 9861 93bc
00000330: 1c09 d73d e06a 0bbc 2063 acbb ec01 61bd
00000340: fe80 e63d 22b4 f83d 8038 ccba 90dc 19bc
00000350: d490 e03d 8861 a7bc a04d 783d 3853 343d
00000360: 06d0 a1bd 8001 95bd a04a 9d3b daa0 80bd
00000370: a835 753d 9a8a a43d c0a2 81bd 0466 153d
00000380: fee0 d3bd 3801 f93c e8f2 74bd c0fe 1ebb
00000390: 9617 b3bd 841b 5d3d 0083 9cbd 007c fc39
000003a0: b0c6 27bd ec4e 363d 08e1 c5bc d0ff 2c3c
000003b0: 00f4 223a b216 e73d 74ca 1cbd 808c 263c
000003c0: 500b b2bc 50fc b7bd ea17 e63d 908c 8c3c
000003d0: 2c3e 03bd 6090 f3bc e8e7 b1bd de07 9e3d
000003e0: 10d7 4fbd 24f2 14bd 7c92 bcbd e0a9 0dbc
000003f0: ca72 c8bd b8a5 3cbd 9a09 8dbd dc89 4f3d
-0.008987099 -0.10188116 0.006224349 -0.0033822358 0.011640891 0.055372685 -0.0109521 -0.030092597
-0.11123237 -0.004319459 -0.11540648 -0.009024605 0.009221613 0.0996737 0.075349495 -0.07168999
0.041318446 0.101066574 -0.10106914 0.0016710758 0.04496199 0.06798652 -0.020219252 0.077003315
-0.10135907 -0.09683119 0.038616315 0.007742107 -0.05133857 0.09713556 0.047851652 0.04969248
0.08765735 0.014049739 -0.026091397 0.068859145 -0.027631313 0.09217547 -0.01005663 -0.08664772
0.002982229 0.024291426 -0.0772561 0.05260752 0.026254117 -0.113910004 -0.06596987 -0.059156954
0.013778254 -0.08054368 -0.048470557 -0.1243432 -0.08346632 -0.051261097 -0.099701464 0.002346307
-0.07460523 0.039232045 0.11692631 -0.0065826476 0.07815108 0.11864698 0.010618895 0.11864556
-0.07281324 -0.02694188 0.055021405 0.11885561 0.004799992 0.08063416 -0.11940521 0.081702515
-0.07710388 -0.08369595 -0.09746158 0.0018187761 -0.034206733 -0.066933796 -0.018803373 -0.10518332
-0.124516755 -0.04597874 -0.114598736 -0.085989 -0.027682796 0.03948161 0.0011379719 -0.06345184
0.021233708 -0.09652704 -0.107241064 0.012834445 0.10887012 -0.11794977 0.0039000213 -0.09582341
-0.09575413 -0.0026644021 -0.111796096 -0.024414867 0.0029182285 -0.11068693 -0.09552814 -0.08916286
-0.015666917 0.11010547 -0.048650995 -0.018095449 -0.0060150772 0.05723791 0.06747423 0.109208986
-0.07828373 -0.11268115 0.11964831 -0.1245783 -0.12370838 0.07112101 0.016844407 0.042969137
-0.025312573 0.060890794 -0.083370164 -0.113373116 0.024527028 0.009231776 0.09504874 0.089237615
0.082403496 -0.11947647 -0.092206076 0.04079418 0.06402774 -0.10458538 -0.047827274 0.037424296
-0.099699154 0.09558199 0.008799419 -0.082745105 -0.09499745 0.0482402 -0.10941145 -0.043535247
0.08041525 0.0028893203 -0.07728259 -0.012384996 0.07441142 -0.11984934 0.03671436 0.092221335
0.040468052 0.039132267 -0.05705607 0.063229784 -0.054186374 -0.11748402 -0.12105027 -0.038004756
-0.038845494 0.06922902 0.044969693 -0.09173407 0.055562586 0.11653601 0.011106774 0.054000586
-0.05766426 -0.062244892 0.053139627 0.06821275 0.100154236 -0.07289705 0.013430938 -0.09370798
-0.036389515 0.015079394 0.06355059 -0.026179329 0.11386822 -0.06064704 0.101780355 -0.08410372
-0.06546152 0.018242702 -0.036525786 0.055944756 -0.049161047 0.09726623 0.039935067 -0.03047663
0.0009138882 -0.034889206 -0.03011997 0.11337036 -0.033117265 -0.07164237 0.043329254 0.10595593
0.08861607 0.09772727 -0.0109820515 -0.017990872 0.10499784 -0.008509368 -0.00526084 -0.054933473
0.11255072 0.121437326 -0.0015580803 -0.009390965 0.10965124 -0.020432249 0.060620904 0.044024676
-0.079010054 -0.07275677 0.0048001558 -0.0628068 0.059865624 0.08034249 -0.0632987 0.036474243
-0.10345648 0.030396089 -0.059801966 -0.002426073 -0.08744733 0.05398132 -0.07642174 0.00048157573
-0.040960968 0.04450886 -0.024155155 0.010559037 0.00062161684 0.11283626 -0.03827901 0.010165334
-0.02173391 -0.08983672 0.1123503 0.01715687 -0.032041714 -0.02973193 -0.08686811 0.07716344
-0.05074221 -0.036363736 -0.09207627 -0.008646458 -0.09787519 -0.04605648 -0.06886597 0.050668582

model_m.3.bias f4 [16]
00000000: a038 503c 68df 013d 2028 a8bc f23d dabd
00000010: a6a7 ccbd a471 cabd 789d b83d 8344 15bd
00000020: 20ea cb3d 1277 3a3d 18e3 8d3d 54f5 76bd
00000030: 71db 543b 66d8 e33d 53db 883d 3303 cc3d
0.012708813 0.031707197 -0.020526946 -0.106563464 -0.09992914 -0.098849565 0.0901441 -0.03644229
0.09956765 0.04552371 0.0692808 -0.060292557 0.003247943 0.11125259 0.06682458 0.09961548

model_m.6.weight f4 [32, 16, 8]
00000000: cfb2 743c c791 8abd d0ce cd3c fdb8 7e3c
00000010: 02b7 a6bd 23dd 593d 69cb 8b3d 9e10 a839
00000020: b8d3 033d f5e8 5d39 82b2 143d 4919 6fbc
00000030: 95ac b2bd ccad b13d 12e1 a1bd 7b4f 46bd
00000040: bfb5 403d 3f29 583d 7b1e 3c3c 7318 ea3b
00000050: 4c01 19bb b5ab 82bd 8d81 cfbc d8c1 253d
00000060: 630e ce3c 3fdf 9c3b b97c a33d 60ad 993d
00000070: 70f5 93bd 3f3b 9ebd 707e 35bc 3f0c 8a3c
00000080: 0e25 293c e8a2 55bc 5d5a 6cbd a54c aabc
00000090: 3265 a9bd 4a4c d53c 2ceb abbd bd90 083d
000000a0: 89ee 53bc 9886 63bc 182f 9fbb 0040 c9bc
000000b0: 0d23 daba 4f27 afbd 3db1 a83d c808 c03c
000000c0: de7d a93d d304 77bc 3116 a23d a8e7 9a3d
000000d0: 1cf1 3cbc 8654 9cbd 3c0e 67bd d4ba fdbc
000000e0: f086 fabc 8afd 2b3d b05f bcbc 663e 593d
000000f0: f02b 9abd cc2f aa3d 5008 413d 4725 573d
00000100: d3af be39 ba96 2abd 93e7 ba3c aef7 0e3d
00000110: 4d2e 38bd cf6b 8abd bf88 403c bf2f 08bd
00000120: b021 9ebd 1b7c 42bd bcb7 533d 5691 893d
00000130: 63c5 69bd a478 9bbd 7a42 a73d 1ab3 8a3c
00000140: 2f05 523d 5c1c 163d 3a5a ebbc 4c27 533d
00000150: af3f 203d 8b57 0c3d d68b e23b c8fb aabd
00000160: d0eb 88bc d6af 8fbd d68b 453d eff8 1cbd
00000170: 3a62 1bbd 4918 b93a 2af3 4dbc 9b1b a23d
00000180: 4f4d c3bb e28d 70bd 5884 0abd eece 843d
00000190: 6e90 b43d f953 493d f183 873d 8592 f53c
000001a0: af81 573d 74f4 6fbd e21b 12bd 623d 89bd
000001b0: 5a63 84bd 0b4e adbc c822 90bd e1be 8e3c
000001c0: 81f5 4b3d f964 11bd 33b3 95bc 5d10 8fbd
000001d0: c604 80bd c78f 873d 76e9 b0bc 5261 23bc
000001e0: 75c8 82bd bcd1 95bc 89d1 d9bc e4b2 713c
000001f0: 4b9b 953d 55fe 47bd ada3 da3c af7f 4b3d
00000200: cee4 93bd 2c6a 8bbd e2f9 6abd 4e01 02bd
00000210: 39d3 ad3c 6ac8 453d 1339 9ebd 67d6 ed3b
00000220: 7289 7cbd b4e1 30ba c3a6 7b3d 1034 a9bd
00000230: a3af 99bd 9484 903c 2fe9 543d 92f1 9fbd
00000240: 202c 703d 88df 013d 7da8 9dbd b01a 8d3d
00000250: 5ae7 64ba a1c6 013d 0665 983b 1943 723b
00000260: 69f0 10bd c8ec 613d 5563 12bc f322 5abd
00000270: 946e c5bc 4c92 6fbd b7f8 2a3c d978 24bd
00000280: 28eb 853d d52a a73d ac0d 0cbc e38b aa3d
00000290: a600 c4bb 5ae3 9fbd e8ba 313d 4645 ce3c
000002a0: 9aed 19bd 764f a4bd 66b2 14bd c20b 853d
000002b0: 071f 65bd b7d2 aa3d 1b25 1b3d 4e37 2b3d
000002c0: 3883 983d 7a42 d5bb d1df 5c3d 35a8 86bd
000002d0: e75d aa3b 5c90 633c c05e abbd a3b1 b1bc
000002e0: 3c06 a8bd ffa8 073d 617e 9e3d 4e8a 0f3d
000002f0: c3e1 a73d 6fc4 8f3d ee22 88bd 0233 ff3c
00000300: 3e81 873b 164d 243d 0ac8 43bd d038 043d
00000310: b718 72bd 200b 763c be0c 82bd 8409 343d
00000320: c1fc ea3b 7f95 1a3d 0740 803c f3e5 6a3d
00000330: 53c6 453d 0006 aa3d d211 7fbd c054 aabd
00000340: 26b0 3fbd ab5e 8dbd c903 123b 6380 9f3d
00000350: eb12 453d 8b2d a43c 49e1 cd3c a45d 903c
00000360: 9f59 1f3d 8e51 a83d fc7b 973d 518d 013d
00000370: 83d4 433d a7c2 6ebd 9e82 f83c c21e 483d
00000380: 835c ed3c 5708 873d d2d2 1f3d ab7b bf3c
00000390: 6805 8a3d 3275 15bc 9e85 60bc cc6f 85bd
000003a0: 5b6c 503d 5782 113d c33a 9ebd 6f95 173d
000003b0: 265b 89bd c442 333d 40f2 8e3d 7b2e b33c
000003c0: c875 5abd d895 b03c ef15 043c 19c4 27bd
000003d0: f4fe 53bd f0fe 32bd ecaa 503d 4657 8d3c
000003e0: 37ef 973d c562 983c dcd1 b23d d0a1 0ebd
000003f0: 1f79 1a3d fe1a e1bc 8002 b4bd 57e7 a3bd
0.014935209 -0.06766086 0.02512303 0.015547034 -0.08140375 0.053189408 0.06825907 0.00032055838
0.032184333 0.00021162986 0.03630305 -0.014593431 -0.08724324 0.08675727 -0.07904257 -0.048415642
0.047048327 0.05277371 0.0114818765 0.007144028 -0.002334672 -0.06380407 -0.02533033 0.040468067
0.025153344 0.004787355 0.07982773 0.07503772 -0.07224548 -0.07726144 -0.011077508 0.016851543
0.010323776 -0.013039328 -0.057703365 -0.0207885 -0.082712546 0.026037354 -0.08394465 0.03334116
-0.012935289 -0.01388707 -0.004857909 -0.02456665 -0.0016642526 -0.085524194 0.082369305 0.023441687
0.082759604 -0.015076834 0.07914389 0.07563716 -0.011532094 -0.07633309 -0.05641006 -0.030972876
-0.030581921 0.04198984 -0.022994846 0.053038023 -0.07527912 0.08309898 0.047127068 0.052525785
0.00036370623 -0.04164765 0.022815501 0.034904175 -0.04496603 -0.06758844 0.011751353 -0.03324866
-0.07721269 -0.047481637 0.051688895 0.06717174 -0.05707301 -0.0759137 0.08166976 0.016931105
0.051274475 0.03664814 -0.028729547 0.05155115 0.039123233 0.034263175 0.0069136424 -0.08348805
-0.016714007 -0.0701596 0.04822906 -0.03832334 -0.037935473 0.0014121617 -0.012570182 0.079154216
-0.0059601436 -0.05872906 -0.03381762 0.06484781 0.0881661 0.04915235 0.06616963 0.029977093
0.05261391 -0.058582738 -0.035671122 -0.06701161 -0.06464262 -0.021155378 -0.07037884 0.017425003
0.049794678 -0.035496686 -0.018273925 -0.06985543 -0.062509105 0.0661922 -0.021595698 -0.009971933
-0.063858904 -0.018288486 -0.026589172 0.0147521235 0.073050104 -0.048826534 0.026689375 0.049682315
-0.072213754 -0.0680736 -0.057367213 -0.031739525 0.021218883 0.048286833 -0.0772573 0.0072582248
-0.061654516 -0.00067474996 0.061438333 -0.08261883 -0.07504203 0.017641343 0.051980194 -0.07809748
0.05863583 0.031707317 -0.07698152 0.06889856 -0.0008731984 0.031683568 0.004650715 0.0036966263
-0.035385523 0.055157453 -0.008934815 -0.053255986 -0.02410058 -0.05848913 0.010435275 -0.04015431
0.06538993 0.081624664 -0.0085481815 0.083274625 -0.0059815226 -0.07807036 0.04339114 0.025179517
-0.03758011 -0.080229685 -0.036302947 0.06496383 -0.055937793 0.08340972 0.037877183 0.04180079
0.07446903 -0.0065081688 0.053924385 -0.06575052 0.0051991823 0.013889398 -0.083676815 -0.02169115
-0.08204314 0.03312015 0.077389486 0.035044007 0.081973575 0.070198886 -0.06647287 0.031152252
0.00413528 0.040112577 -0.047798194 0.032280743 -0.0591056 0.015017301 -0.06350087 0.043954387
0.007171244 0.037740227 0.01565553 0.057348203 0.04828484 0.08301926 -0.062272854 -0.08316946
-0.046798848 -0.06902822 0.0022280088 0.0778816 0.048113745 0.020041248 0.025131838 0.017622776
0.03890383 0.0821868 0.07396695 0.03162891 0.04781009 -0.058291104 0.03033572 0.048857458
0.028974777 0.065933876 0.039019413 0.0233744 0.067393124 -0.00912218 -0.013703732 -0.06515464
0.050884586 0.035524692 -0.07726052 0.037007745 -0.06706838 0.043764845 0.06979799 0.02187275
-0.05333498 0.021555826 0.00806187 -0.040958498 -0.051756814 -0.04370016 0.050944254 0.01725353
0.074186735 0.018601784 0.08731434 -0.034822285 0.037713166 -0.027478691 -0.08789539 -0.08003109

model_m.6.bias f4 [32]
00000000: 7dfc acbd c4d7 afbd e09a 833d 3817 763d
00000010: c95b b23d 6d8d aebd ccc9 9a3d 39f7 35bd
00000020: 1aea a2bc fe75 143d ba14 c1bc c426 7f3d
00000030: 1dbb 933c 72bb 513d 1d80 383d 46f1 343d
00000040: ac9d 133d 50e2 323c a0ca a3bd 7708 823a
00000050: e89a ddbb e5f0 adbc d933 a23d 9300 b13d
00000060: 0384 f2bc d935 3c3d 51d4 87bb 47cb 45ba
00000070: 51cf 41bd 706b 8e3d 828b 9ebd bd85 80bd
-0.08446596 -0.08586076 0.064260244 0.060080737 0.08708913 -0.085230686 0.07558021 -0.044425223
-0.019887019 0.03624534 -0.023569454 0.06229283 0.018033559 0.051204152 0.045044053 0.04417541
0.03603904 0.010918215 -0.07997632 0.0009920736 -0.006762851 -0.021233032 0.079200454 0.08642688
-0.029603964 0.04594979 -0.004145183 -0.00075452443 -0.047316853 0.06954086 -0.07741453 -0.062755086

fc.weight f4 [1, 6976]
00000000: 17e2 acbb 34be 333c 72e7 613a ae51 463b
00000010: 47af 2e3c bc61 793b f19a bebb 66aa 27bc
00000020: bab1 11bc 1a11 413c 4fae 61bb f3c9 15bc
00000030: 4613 3dbb 8df2 db3b db33 833b bb5a 16bc
00000040: 907b 37bb aeff 713b 16b2 f639 b0cc 1a3c
00000050: 3455 103a a491 313c c741 1abc 7e1b e63b
00000060: f79f ad3b 2cd8 b33b c055 14bc 021c 9f3b
00000070: 751d 30bc e54d 1e3b 0f65 35bc 664e a2bb
00000080: b0bb cabb 6c6e c1bb 0fc5 fcbb 3e54 debb
00000090: 6bd9 8f3b 333c 243c b3b9 1dbc b7a4 20bc
000000a0: 5482 b73b 95f7 783b ed90 ac3b e6e5 353b
000000b0: b3d1 ac3b 8d68 2abc 339d 433c 35c2 c13b
000000c0: 8321 243c c20a 1d3c ae53 4abb feda edbb
000000d0: c3f1 b83b d4a3 383c 5d12 653b 7946 173b
000000e0: 8cb1 533b d895 2bbc 320d a73b 8fd8 20bc
000000f0: f993 1e3c 296b 17bc 6f76 d53b b1d0 183a
00000100: 9c47 fdbb b60f 00bb 5fd7 a03a f897 aebb
00000110: 269e 30bc 187d b33b d9ed f43a ee23 d23a
00000120: 834a 9c3a aa49 783b e100 6b3b ff3a dfbb
00000130: 0c3f 433c 3a59 bc3b b580 f93b 5c53 ac3b
00000140: 056e 33bc 512a 0cbc 88ae 803b bdf9 333c
00000150: 304f 823b 6c8f 02bb b629 0e3b c848 bdbb
00000160: 08de c03a 06b1 cbb9 48af 023c ef63 583b
00000170: e2a3 1cbc ec5d 91bb a827 053c bfa6 cebb
00000180: 3d37 0dbb f770 3a3b 7f80 98bb 0318 34bc
00000190: 38fa e5bb 63ef 76b9 f587 543b c842 1dbb
000001a0: 80c5 b53a 316b 413c 5991 d53a 6096 f03b
000001b0: 8c83 e6bb 4a21 a03a 081d e8bb 2b32 47bb
000001c0: c94b 64bb bd8f cb3a e19a 3dbb 653d a53a
000001d0: d3a4 9c3b 2b31 033c ea72 203c 6357 143c
000001e0: 43e6 303c 99ea 17bc f7bb 94bb a91c 04bc
000001f0: 21cd 00bc c9ca 3c3c 43e5 f83b d34a eb3a
00000200: 63da eabb 81c2 54bb fb88 edbb b2fa d83a
00000210: 7cc8 3abc c580 87bb 32d4 27bc fced c2b8
00000220: ce68 28bc 53f9 ab3b f391 9fba dca1 d53b
00000230: 9b45 b0bb 6249 25bc 8bbf c7bb bf48 f5ba
00000240: b645 01bb 5e58 3fbc 6218 c03b 36c4 873b
00000250: 89ef 773b 4fb6 c23b 4829 923b 5215 8dbb
00000260: c2bc 743a ef6e d8bb dd7f 80bb 1149 273c
00000270: 3a4b 3a3a 8a09 0a3b f1e5 a3bb a5c7 953b
00000280: 32d3 ec3a f3f3 f3ba b174 40bb be0d d9bb
00000290: 068d dcbb 658f 433c 3885 1a3b 600a 85bb
000002a0: 4419 94bb 5973 a7bb 5df6 423c 1047 343c
000002b0: 4376 e4bb 09f8 42bc 9b37 d33b a822 28bc
000002c0: d451 dfbb becd 073c 7828 273c 9d06 bbbb
000002d0: 3bed 2b3c e813 423c 7628 c4bb b9ac 27bb
000002e0: e3db 03bc 4080 003c 9cf0 e73b f3b7 0cbc
000002f0: 0164 703b c7c7 55bb b45d f73b e024 f1bb
00000300: 1fb5 3d3b 17bf d3bb 9b77 0dbc e5db 0b3c
00000310: 859c 413b 6c29 85bb 9ce3 c0bb 5d4c a63a
00000320: 7251 8c3b d133 333c ae2f 37bb d5d8 333c
00000330: e7b6 57bb 0e4d 7c3b a14d 553b 4042 5b3a
00000340: f702 43bc 7852 fdbb 2acb 1d3c 5087 813b
00000350: 8910 263c 84a7 23ba 7db9 1a3c f6ad 37bc
00000360: bede 87bb 94d6 27bb b0ce 83ba e72c 7f3b
00000370: ccdb 2ebc 06ce f43b 7568 11bb 10df 433c
00000380: 12c6 80bb 2638 44bb c022 77bb 4859 1e3c
00000390: a26f 8a3b cfaf 3ebc 1fee dfbb c748 203c
000003a0: 9709 013c 2108 9a3b 81dd ad3b 7236 bfbb
000003b0: 231a 96bb ef72 0d3c 7101 0ebc 55a8 903b
000003c0: aaec 313a 506e 21bc eeb0 c43a 3ad8 413c
000003d0: 34be b7bb 5a0f 19bc a1f7 42bc 48dd 5637
000003e0: 5399 28bc 3fd1 963b 8401 f03b 7e7c 4dba
000003f0: b61a 59bb 375f c83b 67b2 09ba dd2d 113a
-0.0052759754 0.010970641 0.0008617557 0.0030261087 0.010661907 0.003805264 -0.0058168103 -0.010233497
-0.008892471 0.0117838625 -0.0034436171 -0.009142387 -0.00288506 0.006712264 0.0040039844 -0.009176905
-0.0027997233 0.0036926079 0.0004705346 0.009448215 0.00055058603 0.010837946 -0.009415097 0.0070223203
0.0052986103 0.005488416 -0.0090536475 0.0048556337 -0.010749211 0.0024155315 -0.0110714575 -0.0049531935
-0.006186925 -0.005903056 -0.007713921 -0.006784945 0.004389932 0.010024118 -0.009626794 -0.009804896
0.005600253 0.0037989367 0.0052663 0.0027755438 0.0052740215 -0.010400903 0.011939335 0.005913044
0.010017755 0.009585084 -0.003087263 -0.007258772 0.0056440546 0.011269528 0.0034953572 0.0023082776
0.003230187 -0.010472737 0.0050980086 -0.009817257 0.009678834 -0.009241858 0.0065143625 0.0005829437
-0.007729484 -0.0019540614 0.0012271217 -0.0053281747 -0.010779893 0.005477559 0.0018686607 0.0016032436
0.0011924062 0.0037885704 0.0035858678 -0.006812453 0.011916887 0.0057479413 0.00761422 0.0052589606
-0.010951524 -0.008555011 0.0039270557 0.010984835 0.003976725 -0.0019921912 0.0021692342 -0.0057764985
0.0014714608 -0.0003885107 0.007976361 0.003301855 -0.009560557 -0.004436245 0.008127131 -0.006306499
-0.0021547817 0.002844868 -0.00465399 -0.010992053 -0.007018354 -0.00023549567 0.003242967 -0.0023996104
0.0013868064 0.011805342 0.0016293927 0.007342145 -0.0070347246 0.0012216952 -0.007083539 -0.0030394893
-0.003483521 0.0015530508 -0.0028931426 0.0012606798 0.0047803908 0.008007328 0.009793023 0.009054038
0.010797086 -0.009272241 -0.0045390087 -0.008063474 -0.007861407 0.011522957 0.0075956895 0.0017951377
-0.007167147 -0.0032464566 -0.0072489954 0.0016554205 -0.011400338 -0.0041352236 -0.010243462 -9.294969e-05
-0.010278894 0.0052482276 -0.0012174234 0.0065195393 -0.0053793914 -0.010088297 -0.0060958317 -0.0018713697
-0.001972539 -0.011678783 0.0058622817 0.004143263 0.0037831983 0.005942143 0.0044604875 -0.00430552
0.00093359884 -0.006605021 -0.0039214925 0.0102102915 0.00071065465 0.0021062815 -0.0050017764 0.0045709186
0.0018068312 -0.0018612131 -0.0029366428 -0.0066239526 -0.0067306785 0.011936043 0.002357794 -0.0040600747
-0.0045196135 -0.005110186 0.011899558 0.011003271 -0.0069721057 -0.0118999565 0.0064458377 -0.010262169
-0.0068151746 0.008288799 0.01020252 -0.0057075755 0.010493572 0.011845566 -0.0059862686 -0.0025585128
-0.008048031 0.007843077 0.0070782434 -0.008588779 0.00366807 -0.0032620297 0.007549012 -0.007359132
0.0028947068 -0.0064619887 -0.008634473 0.008536314 0.0029542756 -0.0040637758 -0.005886508 0.0012687553
0.00428217 0.010937647 -0.0027952003 0.01097699 -0.0032915415 0.0038498077 0.003254749 0.0008364059
-0.011902562 -0.0077307783 0.009630958 0.003952898 0.010135778 -0.00062429183 0.009443638 -0.011210909
-0.004146426 -0.0025610076 -0.0010056105 0.0038936676 -0.010672521 0.007470849 -0.0022187505 0.011955038
-0.003929862 -0.0029940694 -0.0037709922 0.009664841 0.0042247334 -0.011638596 -0.006833806 0.0097829765
0.007875822 0.004700676 0.0053059463 -0.005835348 -0.0045807525 0.008633359 -0.008667336 0.004414598
0.000678728 -0.009852961 0.0015006342 0.011831338 -0.005607391 -0.009342039 -0.01189986 1.2806915e-05
-0.010290462 0.004602581 0.0073243994 -0.000783868 -0.0033127493 0.006114866 -0.0005252719 0.0005538145
