checkpoints/run_3/1d_cnn_ckpt_1.pth (torch, 52296 bytes, 7 tensors)

model_m.0.weight f4 [8, 1, 8]
-0.028431335 0.19781454 0.23786792 0.32247603 -0.030846225 -0.061898842 -0.31889856 0.059788465
0.34780338 0.040351808 -0.22858308 0.16526695 0.09051071 0.29335436 -0.20794986 0.13675873
0.103321314 -0.24310137 -0.2814459 0.24077891 -0.043367885 0.2778284 -0.24138498 -0.13134858
0.10130235 0.13467406 -0.2864966 0.13565877 0.098183066 -0.043288227 -0.15266107 0.18316393
0.008824749 -0.11334939 -0.33767977 0.23219407 0.2344147 -0.34835157 0.065900855 0.21069825
-0.060667057 0.15733026 -0.18473579 -0.1639676 -0.1365323 0.19951218 -0.33633044 0.20615739
-0.10225571 0.062991075 0.13590318 -0.028838474 -0.22906369 0.16506653 0.030397572 0.33925676
-0.04926954 -0.14199239 -0.028906247 -0.28615057 0.18802476 -0.30682847 0.17435174 0.15868373
00000000: d5e8 e8bc e58f 4a3e a693 733e 941b a53e
00000010: 39b1 fcbc a489 7dbd ac46 a3be c0e4 743d
00000020: 4913 b23e f047 253d af11 6abe bd3b 293e
00000030: ae5d b93d 8b32 963e cff0 54be 7b0a 0c3e
00000040: 209a d33d 91ef 78be ad19 90be bf8e 763e
00000050: 86a2 31bd 863f 8e3e a02d 77be 3e80 06be
00000060: 9b77 cf3d ffe7 093e afaf 92be 22ea 0a3e
00000070: 3414 c93d ff4e 31bd 2f53 1cbe 538f 3b3e
00000080: ae95 103c ba23 e8bd 5de4 acbe 48c4 6d3e
00000090: 680a 703e 235b b2be 07f7 863d 48c1 573e
000000a0: 057e 78bd 2f1b 213e 612b 3dbe 1fe7 27be
000000b0: 20cf 0bbe ec4c 4c3e 8133 acbe ec1a 533e
000000c0: 716b d1bd 7701 813d 342a 0b3e aa3e ecbc
000000d0: ac8f 6abe 3307 293e 5404 f93c 10b3 ad3e
000000e0: dbce 49bd 7466 11be cbcc ecbc 5482 92be
000000f0: 9089 403e 9f18 9dbe 4389 323e fd7d 223e

model_m.0.bias f4 [8]
-0.1883833 0.22685975 -0.049976002 -0.19950214 -0.29873514 -0.021560388 -0.23888682 -0.042778544
00000000: 8de7 40be ec4d 683e a3b3 4cbd 4a4a 4cbe
00000010: d0f3 98be 699f b0bc bf9e 74be 8e38 2fbd

model_m.3.weight f4 [16, 8, 8]
-0.10929787 -0.0988822 0.033795133 0.033605874 -0.10204776 -0.11521675 -0.06344527 -0.07207951
-0.09055911 0.040968135 0.0805227 -0.0024179965 0.114212826 0.07032433 -0.051710024 0.05238433
0.08546309 0.06695452 0.075835735 -0.012192607 -0.10035184 -0.11275272 0.0088171065 0.11037034
-0.0069953054 0.1157638 -0.005436182 -0.06578274 0.08253172 0.037102878 -0.036007002 -0.11743243
-0.09337084 0.10323423 0.06600936 -0.045144096 -0.048841447 -0.028773278 -0.071918875 0.08465162
0.05048658 -0.057240233 0.03763476 0.016895667 0.09949528 0.03834638 0.057572484 0.112922505
0.008411601 0.02702494 -0.0656133 -0.02377744 -0.013142198 0.014222354 -0.102556884 -0.020138532
-0.010933295 -0.12475021 -0.059698045 0.030902326 -0.004299119 0.11035922 -0.005054489 -0.08668679
0.043637305 -0.117189676 0.108554065 -0.0126980245 -0.017060697 -0.01972948 -0.04025121 0.122610524
-0.07322267 0.09570344 0.07729633 -0.088467106 0.12150799 0.024517044 0.10091162 0.08664945
-0.04276532 -0.08767685 0.105510265 -0.072285324 -0.06489101 0.017813146 0.08720827 0.055091232
0.0641177 -0.12067108 0.1014 0.08576976 -0.05839376 0.013839707 -0.08529481 -0.12471722
0.02619034 -0.11855774 0.046664 -0.11143947 -0.06055434 -0.0025055408 -0.065481395 0.055210352
-0.07563476 0.023019746 -0.07846649 -0.028516889 0.018359363 -0.048718393 -0.08939274 -0.06593607
-0.018003955 -0.022688717 0.09810676 -0.07466282 0.032491148 -0.04506862 -0.07782543 0.025636896
0.07357116 0.11285627 0.027730227 0.02711378 0.008619115 0.058760554 0.057899922 -0.040800154
-0.057411075 0.11429913 -0.0417372 0.09357028 -0.04343772 0.0064937472 0.12327342 0.08204396
0.09073271 0.10265387 0.12056933 -0.031033915 0.111724675 0.06819197 0.086644664 0.008455881
0.07111417 -0.114261895 -0.09935489 -0.07463637 -0.031890467 -0.0996979 0.03446208 -0.119101435
-0.10228048 -0.002290681 -0.00604482 0.031334847 0.011462271 0.058110535 -0.038310647 0.08345334
0.059285 0.052042246 -0.033269957 0.060653314 -0.046188504 -0.06849362 0.10205364 -0.068360746
-0.09242895 -0.11437836 -0.11132307 -0.026327714 0.040098727 0.08317743 -0.1015902 -0.0719161
0.08052038 0.105624184 0.05373457 -0.06318842 -0.06133291 -0.025241703 0.03804624 0.06733738
-0.11798237 -0.012345567 0.056839094 0.05469595 0.052993476 0.11776891 0.09532097 0.049146086
0.063076764 -0.089090616 0.075091094 0.106682554 -0.0084617585 -0.0046118647 -0.008415893 0.05055608
0.088658825 0.09317761 0.07899342 0.04876887 -0.07172623 -0.038786985 0.12127563 0.088973776
0.06930542 0.11134137 -0.012438238 0.09053168 -0.032943532 -0.09378037 -0.053078517 -0.11356971
0.019855902 -0.016614154 -0.1094462 0.100457385 0.08679491 -0.060131416 0.07547037 -0.0035043359
-0.1011817 0.1040626 0.12226148 0.124454945 0.11159384 -0.10645066 -0.0977463 -0.003763944
0.08119035 -0.0947133 -0.054966092 -0.11174004 -0.032026798 -0.12489571 -0.03212425 0.052287206
-0.10141146 0.04217121 0.034486204 -0.04060279 -0.030378446 -0.113343626 0.10452992 -0.062419638
0.095445976 -0.07440123 0.06889653 -0.099855736 0.00994724 -0.095555276 0.015987173 0.01692973
00000000: 90d7 dfbd c082 cabd c46c 0a3d 50a6 093d
00000010: 6afe d0bd c2f6 ebbd 98ef 81bd 6c9e 93bd
00000020: 0e77 b9bd 34ce 273d 16e9 a43d 4077 1ebb
00000030: 6ae8 e93d 3406 903d e4cd 53bd f490 563d
00000040: 4607 af3d 741f 893d c44f 9b3d 80c3 47bc
00000050: 4485 cdbd e6ea e6bd a075 103c d809 e23d
00000060: e038 e5bb 9215 ed3d 0022 b2bb 1ab9 86bd
00000070: 6406 a93d 30f9 173d 147c 13bd 6a80 f0bd
00000080: 3639 bfbd 786c d33d ea2f 873d 04e9 38bd
00000090: f80d 48bd f0b5 ebbc 344a 93bd d45d ad3d
000000a0: 04cb 4e3d bc74 6abd e826 1a3d c868 8a3c
000000b0: 2ec4 cb3d 1811 1d3d 20d1 6b3d ea43 e73d
000000c0: d0d0 093c 6863 dd3c 4460 86bd e8c8 c2bc
000000d0: 6052 57bc e004 693c 5809 d2bd 90f9 a4bc
000000e0: 9021 33bc 0a7d ffbd f085 74bd e026 fd3c
000000f0: a0df 8cbb 0404 e23d 20a0 a5bb d888 b1bd
00000100: 08bd 323d 2401 f0bd 9851 de3d 600b 50bc
00000110: e0c2 8bbc b89f a1bc 74de 24bd 3a1b fb3d
00000120: c4f5 95bd 2a00 c43d 8a4d 9e3d 3e2e b5bd
00000130: 2ed9 f83d f8d7 c83c c0aa ce3d 4475 b13d
00000140: b02a 2fbd ec8f b3bd c415 d83d 540a 94bd
00000150: 94e5 84bd e0ec 913c 409a b23d 58a7 613d
00000160: 2450 833d 6622 f7bd ceaa cf3d 0ea8 af3d
00000170: 4c2e 6fbd f0bf 623c 0caf aebd be6b ffbd
00000180: 208d d63c 66ce f2bd c022 3f3d 603a e4bd
00000190: d407 78bd 0034 24bb 1c1b 86bd 4024 623d
000001a0: 66e6 9abd e893 bc3c 0ab3 a0bd 409c e9bc
000001b0: 6066 963c f08c 47bd 8a13 b7bd 7e09 87bd
000001c0: 087d 93bc b0dd b9bc 32ec c83d d2e8 98bd
000001d0: 7015 053d e099 38bd f062 9fbd 7804 d23c
000001e0: 7aac 963d 3021 e73d 802a e33c b81d de3c
000001f0: 3037 0d3c e8ae 703d 7828 6d3d 101e 27bd
00000200: e027 6bbd aa15 ea3d a0f4 2abd c6a1 bf3d
00000210: c0eb 31bd 80c9 d43b c676 fc3d aa06 a83d
00000220: 12d2 b93d 313c d23d 0eed f63d d63a febc
00000230: e8cf e43d 3ba8 8b3d c272 b13d 898a 0a3c
00000240: 4ea4 913d 2402 eabd 947a cbbd f4da 98bd
00000250: 949f 02bd 6a2e ccbd 1c28 0d3d 74eb f3bd
00000260: 6e78 d1bd 401f 16bb a013 c6bb f858 003d
00000270: 40cc 3b3c 5005 6e3d a0eb 1cbd 96e9 aa3d
00000280: d4d4 723d 402a 553d 1446 08bd 9c6f 783d
00000290: 2830 3dbd 6246 8cbd 8001 d13d b800 8cbd
000002a0: 644b bdbd 343f eabd 5afd e3bd 38ad d7bc
000002b0: 903e 243d ee58 aa3d 860e d0bd c048 93bd
000002c0: dee7 a43d 7e51 d83d c818 5c3d ee68 81bd
000002d0: 3838 7bbd b0c7 cebc 60d6 1b3d 2ee8 893d
000002e0: bea0 f1bd 1045 4abc 1cd0 683d dc08 603d
000002f0: b00f 593d d430 f13d a437 c33d 684d 493d
00000300: 642e 813d 2475 b6bd 5cc9 993d 627c da3d
00000310: 30a3 0abc 201f 97bb d0e2 09bc e413 4f3d
00000320: c292 b53d e7d3 be3d 4dc7 a13d dec1 473d
00000330: 34e5 92bd 1adf 1ebd 5c5f f83d e237 b63d
00000340: 00f0 8d3d f206 e43d c0c9 4bbc ac68 b93d
00000350: ccef 06bd ec0f c0bd dc68 59bd 3c97 e8bd
00000360: d8a8 a23c 681a 88bc 5425 e0bd 9abc cd3d
00000370: 88c1 b13d 5c4c 76bd 3690 9a3d 00a9 65bb
00000380: 5a38 cfbd c61e d53d 3a64 fa3d 3ce2 fe3d
00000390: 508b e43d ce02 dabd 362f c8bd 80ac 76bb
000003a0: 2047 a63d 0cf9 c1bd 2024 61bd f6d7 e4bd
000003b0: 882e 03bd 52c9 ffbd b894 03bd 1c2b 563d
000003c0: d0b0 cfbd b8bb 2c3d 6841 0d3d 1c4f 26bd
000003d0: 38dc f8bc b420 e8bd c813 d63d bcab 7fbd
000003e0: 2e79 c33d ac5f 98bd a019 8d3d 2a81 ccbd
000003f0: c0f9 223c 7cb2 c3bd 88f7 823c 38b0 8a3c

model_m.3.bias f4 [16]
-0.070476204 -0.12417962 -0.016895687 -0.05086927 0.014393063 0.025909062 0.11014987 -0.059314385
0.086921416 0.059813585 0.035820793 -0.024654582 -0.05573985 0.118731335 -0.086920485 -0.08750039
00000000: d455 90bd e251 febd d368 8abc 4c5c 50bd
00000010: e2d0 6b3c 3e3f d43c 4196 e13d a4f3 72bd
00000020: db03 b23d 17ff 743d d3b8 123d 68f8 c9bc
00000030: 784f 64bd 6a29 f33d 5e03 b2bd 6833 b3bd

model_m.6.weight f4 [32, 16, 8]
-0.032813627 0.030261183 -0.022012372 0.018745285 -0.02448362 0.073850416 0.01906107 0.061861005
0.0043327278 0.056047775 0.040807854 0.07906315 -0.0752872 0.02965547 -0.0754841 0.0015638167
-0.010043149 0.027321085 0.06742472 -0.0022396382 -0.0015607671 -0.07198075 0.0013337941 0.05040284
0.025603337 0.009760198 0.06939361 -0.0550551 0.053738 -0.025759079 0.014572512 0.064001575
-0.019576272 0.01668667 0.023268096 0.041718263 -0.05285965 -0.07964607 -0.02003908 0.013411922
0.08675685 0.0041473066 -0.016069833 -0.044427346 -0.01646 -0.055120073 0.057964552 -0.079676576
-0.045529235 0.05396146 -0.078202024 -0.07875639 -0.027850531 0.05647886 -0.039646916 0.008748239
-0.040231485 0.029944493 0.041175354 -0.065994896 -0.031070298 -0.05650968 -0.058522522 -0.0055668927
0.07712393 -0.02002348 -0.038824737 -0.010813303 0.05739634 0.07996547 -0.056822807 -0.06968049
-0.04197447 -0.06117526 0.06322823 0.03293092 0.043996986 0.05632104 0.05469899 -0.08669453
-0.015757632 0.077733 0.041432198 0.015917871 0.085003376 -0.013096815 -0.043962196 -0.043797627
0.053043325 0.0868795 0.07734851 -0.036730304 0.01728931 -0.053986244 -0.059072465 0.080049306
0.034641325 0.052270267 0.046917535 0.03245775 0.08503977 0.015885537 0.054622345 0.06372201
-0.0740332 0.080377035 -0.003880378 0.054056086 0.04349643 0.050441626 -0.03940877 0.00031102457
-0.082181305 -0.060491778 0.08681249 0.0032493533 0.07500817 -0.04481843 0.03562221 -0.07452355
0.019405937 0.055205848 0.026574768 0.012039342 -0.086573 -0.031504717 -0.049447365 -0.021026304
0.059022076 0.05004604 0.08048949 0.07722016 -0.061727863 0.028792629 -0.07865106 0.056835044
-0.016325222 0.05707422 -0.08417769 -0.03828646 -0.036361117 -0.03660031 0.055645168 -0.05033209
0.0677241 -0.060472254 0.07838228 -0.06845676 0.004225021 -0.05979763 0.05225696 -0.028860917
-0.02104682 0.019304015 -0.075091004 -0.019189259 -0.08790261 -0.07290828 0.08038299 -0.01736624
-0.053053893 -0.03400554 0.029148845 -0.019733513 -0.018078132 -0.027478069 -0.022018008 0.084444374
0.0569822 0.041372042 0.0121448245 0.07392712 0.07098579 0.020900674 0.060985573 -0.0027355729
0.0053788126 -0.039517444 0.0038906704 -0.07422159 0.049999945 -0.082771845 0.007652266 -0.053929295
0.052448347 -0.06979684 0.060190283 -0.041877415 0.04869729 0.050061468 0.025756791 0.08048596
0.0051460564 0.047383487 -0.08660973 0.08748288 -0.004061597 0.060247432 -0.019646078 -0.012207824
0.009876861 0.015342632 0.044837143 0.010748363 0.08327137 0.06842758 0.0352331 0.054584645
-0.005013357 -0.07559243 0.040586308 -0.010195407 -0.026985426 -0.06815569 -0.05127063 -0.04637403
-0.055955905 -0.08065481 -0.028238451 -0.057789154 -0.02026744 0.075862385 -0.042031154 0.078708135
0.060628157 -0.066724226 -0.05494656 -0.040928625 -0.041838426 -0.048044004 0.082007736 0.05967177
0.040110093 0.04745377 0.087803684 0.07525627 -0.085581176 0.069802485 -0.07432969 0.009647308
-0.0033221832 0.045160707 0.015041863 0.011241576 -0.039550688 -0.07716414 0.036296222 -0.054796822
0.0067532104 -0.0035176603 0.0055357357 0.07998985 -0.015474605 0.043858916 0.012856127 0.050080087
00000000: 9567 06bd 4de6 f73c 4a53 b4bc b68f 993c
00000010: df91 c8bc e33e 973d f625 9c3c f761 7d3d
00000020: 8ef9 8d3b 5a92 653d 2326 273d dceb a13d
00000030: 2d30 9abd 07f0 f23c 6897 9abd fbf8 cc3a
00000040: 058c 24bc 78d0 df3c f915 8a3d e5c6 12bb
00000050: a792 ccba a56a 93bd b4d2 ae3a 3573 4e3d
00000060: 17be d13c 3de9 1f3c 3d1e 8e3d 7581 61bd
00000070: 611c 5c3d b404 d3bc 8cc1 6e3c 4213 833d
00000080: 6b5e a0bc 7cb2 883c bc9c be3c c5e0 2a3d
00000090: 5c83 58bd 7b1d a3bd ff28 a4bc aebd 5b3c
000000a0: 93ad b13d 21e6 873b e2a4 83bc 73f9 35bd
000000b0: 1fd7 86bc 96c5 61bd 3d6c 6d3d 792d a3bd
000000c0: dd7c 3abd b106 5d3d 6228 a0bd 084b a1bd
000000d0: cc26 e4bc 6156 673d ce64 22bd c654 0f3c
000000e0: c5c9 24bd 274e f53c 7da7 283d 5528 87bd
000000f0: 2387 febc b276 67bd 50b5 6fbd 7b6a b6bb
00000100: 27f3 9d3d 4808 a4bc b006 1fbd 482a 31bc
00000110: 6d18 6b3d f0c4 a33d 08bf 68bd a5b4 8ebd
00000120: 6ced 2bbd e992 7abd cd7d 813d 93e2 063d
00000130: 2f36 343d e4b0 663d 0c0c 603d e78c b1bd
00000140: 2616 81bc 7b32 9f3d cfb4 293d 3266 823c
00000150: 4016 ae3d 0694 56bc b411 34bd 2465 33bd
00000160: f543 593d e1ed b13d e568 9e3d 8472 16bd
00000170: 50a2 8d3c ae20 5dbd f8f5 71bd e4f0 a33d
00000180: 10e4 0d3d 5919 563d 9a2c 403d 6bf2 043d
00000190: 5529 ae3d 6322 823c aebb 5f3d af80 823d
000001a0: b89e 97bd b79c a43d f14d 7ebb ea69 5d3d
000001b0: 5029 323d e19b 4e3d 176b 21bd 0311 a339
000001c0: ac4e a8bd 3ac6 77bd bfca b13d 1af3 543b
000001d0: e29d 993d 8893 37bd 98e8 113d ce9f 98bd
000001e0: 33f9 9e3c 871f 623d 54b3 d93c a940 453c
000001f0: 2f4d b1bd 170b 01bd 5289 4abd 5b3f acbc
00000200: 22c1 713d 14fd 4c3d acd7 a43d 9a25 9e3d
00000210: 5bd6 7cbd 85de eb3c cf13 a1bd ddcb 683d
00000220: 79bc 85bc a8c6 693d 5a65 acbd 43d2 1cbd
00000230: 65ef 14bd 35ea 15bd 30ec 633d 0629 4ebd
00000240: efb2 8a3d c1b1 77bd e486 a03d 0f33 8cbd
00000250: 0c72 8a3b 5cee 74bd 650b 563d bb6d ecbc
00000260: 616a acbc 7423 9e3c 50c9 99bd cb32 9dbc
00000270: 4906 b4bd f050 95bd d69f a43d a543 8ebc
00000280: 0a4f 59bd 6549 0bbd 8fc9 ee3c 2da8 a1bc
00000290: 9718 94bc b019 e1bc 1c5f b4bc 2cf1 ac3d
000002a0: 2b66 693d bb75 293d 16fb 463c 1a67 973d
000002b0: ff60 913d e437 ab3c 02cc 793d 4c47 33bb
000002c0: c040 b03b 0bdd 21bd 9efa 7e3b 7d01 98bd
000002d0: becc 4c3d 4984 a9bd dcbf fa3b f7e4 5cbd
000002e0: 14d4 563d a5f1 8ebd 168a 763d a787 2bbd
000002f0: cf76 473d 410d 4d3d e8ff d23c d3d5 a43d
00000300: 40a0 a83b 3015 423d 7160 b1bd 392a b33d
00000310: 2517 85bb 03c6 763d d0f0 a0bc 5303 48bc
00000320: 8fd2 213c aa5f 7b3c 27a7 373d e719 303c
00000330: 2e8a aa3d c223 8c3d 9550 103d 2694 5f3d
00000340: 1647 a4bb 34d0 9abd d43d 263d a30a 27bc
00000350: 8a10 ddbc 3695 8bbd 2701 52bd b2f2 3dbd
00000360: 0532 65bd 592e a5bd 5354 e7bc 52b4 6cbd
00000370: e707 a6bc bd5d 9b3d dc28 2cbd bb31 a13d
00000380: 3b55 783d b6a6 88bd a50f 61bd c6a4 27bd
00000390: c55e 2bbd cac9 44bd acf3 a73d 636a 743d
000003a0: 7b4a 243d e25e 423d 6bd2 b33d f61f 9a3d
000003b0: 2f45 afbd 9bf4 8e3d 2a3a 98bd be0f 1e3c
000003c0: fcb8 59bb 6ffa 383d 2572 763c 962e 383c
000003d0: e7ff 21bd 3c08 9ebd 59ab 143d a272 60bd
000003e0: 094a dd3b 8c88 66bb 1e65 b53b b8d1 a33d
000003f0: 3389 7dbc 68a5 333d 81a2 523c c720 4d3d

model_m.6.bias f4 [32]
0.0364704 -0.07796131 0.045063514 0.05027042 0.06609384 -0.038664285 -0.072485015 0.05667999
-0.0034842168 -0.0063607213 0.0070772353 0.015122237 -0.06441801 0.078655794 0.03299169 0.0319813
-0.07787391 0.024542049 0.008113244 0.053504214 0.054120727 0.028829962 0.056012385 -0.004313635
-0.039873563 0.049469784 -0.030956702 -0.049089327 0.048045773 -0.04943369 0.020316385 -0.010302998
00000000: fc61 153d 2eaa 9fbd 8594 383d 5be8 4d3d
00000010: 355c 873d 715e 1ebd 0673 94bd 4729 683d
00000020: 7557 64bb 996d d0bb 27e8 e73b 42c3 773c
00000030: 97ed 83bd 4a16 a13d 4b22 073d d3fe 023d
00000040: 5b7c 9fbd 680c c93c 69ed 043c 3c27 5b3d
00000050: b2ad 5d3d d02c ec3c 3e6d 653d 6559 8dbb
00000060: 7652 23bd d4a0 4a3d e998 fdbc e411 49bd
00000070: a5cb 443d fb7a 4abd 8c6e a63c e8cd 28bc

fc.weight f4 [1, 6976]
-0.0036516276 0.011082744 0.011304779 -0.001736219 0.0048657455 -0.0074741654 -0.0056364024 -0.008213998
0.005208915 0.009244541 0.004726554 0.010656473 0.001539832 0.0017402254 -0.0019903984 0.008757479
0.004040476 -0.010312226 0.005220861 0.011080164 -0.002210739 0.0018072109 0.008268315 -0.00040185667
-0.010198965 0.009039195 -0.004660909 -0.003421421 0.0050768293 -0.008589315 -0.004557841 0.000753811
-0.0002010009 0.0050920793 -0.0034359207 -0.009930518 0.0023377175 0.0013001193 -0.00654054 0.0060635223
0.008392419 0.00013081833 -0.0059495815 -0.0029686815 -0.009115354 0.011447794 0.0013223789 0.009947682
-0.008213825 0.0044382373 -0.00872983 -0.0035493101 -0.00124861 0.008179243 0.0052099284 -0.00584809
-0.008234214 -0.008370979 0.0047008097 -0.0073330887 0.011063999 0.0037217434 0.0038514647 0.00029095128
0.005843055 -0.012089538 0.0008690383 0.006824781 -0.0026621486 0.008322758 0.008180266 -0.0024247388
0.008101261 0.00637591 -0.011508395 0.0076776547 -0.0009334312 -0.009494107 0.0016982193 0.00771015
-0.0040875925 -0.009279046 -0.01219222 0.009263048 -0.010247362 0.00428512 0.0034642178 -0.0005474812
0.009276741 -0.0038346364 0.003350445 -0.011215745 0.010853448 0.0042024474 0.0005772527 0.004288956
0.008733922 0.00047707895 -0.0037705086 -0.0109395515 -0.00044034407 0.0047861882 -0.0029530749 0.003537198
0.0078831725 0.009993694 -0.004636027 -0.0076804245 0.0071283136 -0.005568019 -0.0035337335 0.005883194
0.00049227464 -0.002674203 -0.010339083 0.008265322 0.007654622 0.0044798735 -0.01138858 0.0023915803
-0.0021388906 -0.0014051324 0.0068116705 -0.0051047136 0.0055856537 0.01133296 -0.008880333 -0.010522913
0.0046458393 0.00706146 0.008604253 -0.0017527888 -0.008606317 -0.007849804 0.0019016282 -0.00051693985
-0.010062978 0.00648968 -0.0064846673 -0.0057140198 -0.00965907 -0.008727783 -0.009442028 0.009496558
0.0073416675 -0.011980214 0.009828409 0.005468992 -0.0018005804 0.009561926 -0.0027632143 -0.006886013
-0.0034671952 2.9932367e-05 -0.005069482 -0.006146685 -0.00367565 0.0024798652 -0.010105848 -0.0116244955
0.0056424956 0.00035493882 -0.00018585456 -0.0017374597 0.0014782513 0.011003461 0.011305851 -0.008297242
-0.004146218 0.008670579 0.008532764 0.011357064 -0.002496698 -0.0006060752 -0.0068190177 -0.0058897464
0.009105233 0.0051245615 0.011456702 -0.0047878213 0.007174035 -0.00407757 0.009182631 -0.011955758
0.010477506 0.001036479 -0.0008114842 -0.0074422504 0.0074509038 -0.0028010935 0.0064977696 -0.00070586073
0.0031153879 0.00071607303 0.0021873629 1.5053958e-05 0.010583657 0.0017276786 -0.0014437005 0.01164688
0.0034388236 -0.0031880746 -0.010093229 -0.0017117797 -0.0026393037 0.0037929025 0.00654647 -0.009840752
-0.0065314816 0.004476105 0.0062987655 -0.0051712217 -0.0044721356 0.0061907847 0.003848897 0.0018331859
0.008215661 0.004008769 -0.011839033 -0.010234 0.003108191 0.009775127 -0.006112868 -0.010690948
-0.0035868327 -0.0074049933 0.009746846 0.010087594 0.0096013155 -0.0045987545 -0.0040549794 0.0029593864
-0.0034899665 -0.00012653199 0.0034608901 -0.0044396124 -0.0058546457 -0.010156009 -0.002502885 -0.009124194
0.006865941 -0.0031824491 -0.0068956013 0.0011614772 -0.010567448 0.010905333 -0.0030485098 0.0017326416
0.011687992 -0.010466117 -0.00065529504 0.004634869 -0.00011862917 0.009880178 -0.011502838 -0.0051286495
00000000: 2550 6fbb 6694 353c ae37 393c d891 e3ba
00000010: d570 9f3b d8e9 f4bb 92b1 b8bb 0194 06bc
00000020: 8caf aa3b 6a76 173c 35e1 9a3b 7d98 2e3c
00000030: 30d4 c93a 4618 e43a 5871 02bb 877b 0f3c
00000040: f865 843b 9cf4 28bc c213 ab3b 9489 353c
00000050: 0ce2 10bb efdf ec3a d477 073c 4ab0 d2b9
00000060: 8f19 27bc 2219 143c 8aba 98bb eb39 60bb
00000070: 885b a63b 33ba 0cbc f159 95bb 669b 453a
00000080: c5c3 52b9 75db a63b 2f2d 61bb 9db3 22bc
00000090: 6434 193b c468 aa3a 0752 d6bb 83b0 c63b
000000a0: 5b80 093c 472c 0939 b5f4 c2bb 368e 42bb
000000b0: 9158 15bc 878f 3b3c ac53 ad3a 9afb 223c
000000c0: 4793 06bc a26e 913b 9007 0fbc 8b9b 68bb
000000d0: 66a8 a3ba 3b02 063c 0cb8 aa3b 56a1 bfbb
000000e0: cce8 06bc 6e26 09bc 4009 9a3b 684a f0bb
000000f0: c645 353c 7ee8 733b db68 7c3b d28a 9839
00000100: 1977 bf3b 3313 46bc 2cd0 633a 6aa2 df3b
00000110: 7177 2ebb 2d5c 083c 8606 063c 5ee8 1ebb
00000120: 27bb 043c 02ed d03b b58d 3cbc d694 fb3b
00000130: 82b1 74ba 2c8d 1bbc c996 de3a 6da5 fc3b
00000140: 36f1 85bb 2407 18bc e1c1 47bc 0ac4 173c
00000150: 8de4 27bc 316a 8c3b ee07 633b d784 0fba
00000160: 79fd 173c 864e 7bbb 2493 5b3b 3ec2 37bc
00000170: a9d2 313c afb4 893b c652 173a 5f8a 8c3b
00000180: b918 0f3c 7420 fa39 a31a 77bb ce3b 33bc
00000190: fbdd e6b9 75d5 9c3b 6088 41bb 56d0 673b
000001a0: 6c28 013c 97bc 233c d0e9 97bb 12ac fbbb
000001b0: a194 e93b ee73 b6bb 3696 67bb cfc7 c03b
000001c0: fe0b 013a ae41 2fbb 4265 29bc 466b 073c
000001d0: a0d3 fa3b e7cb 923b 2b97 3abc 0fbc 1c3b
000001e0: a12c 0cbb 6b2c b8ba 6f34 df3b 7145 a7bb
000001f0: dc07 b73b e1ad 393c d17e 11bc 4c68 2cbc
00000200: 203c 983b d263 e73b daf8 0c3c d5bd e5ba
00000210: 8301 0dbc 779c 00bc 0e40 f93a 3f83 07ba
00000220: 30df 24bc 62a7 d43b 557d d4bb ac3c bbbb
00000230: 1341 1ebc fafe 0ebc bcb2 1abc 7497 1b3c
00000240: 5f92 f03b a948 44bc 5607 213c 3b35 b33b
00000250: 7401 ecba a0a9 1c3c 0b17 35bb 10a4 e1bb
00000260: e239 63bb 4517 fb37 e61d a6bb 226a c9bb
00000270: 2de3 70bb 3c85 223b 0093 25bc ab74 3ebc
00000280: afe4 b83b 1517 ba39 f4e1 42b9 79bb e3ba
00000290: e2c1 c13a dc47 343c 2d3c 393c 28f1 07bc
000002a0: ffdc 87bb 0b0f 0e3c 02cd 0b3c fb12 3a3c
000002b0: a49f 23bb 05e1 1eba 1172 dfbb c6fe c0bb
000002c0: 1d2e 153c f0eb a73b e4b4 3b3c 28e3 9cbb
000002d0: 2b14 eb3b 239d 85bb bf72 163c 15e2 43bc
000002e0: d8a9 2b3c 77da 873a c8b9 54ba 1fde f3bb
000002f0: b626 f43b 8d92 37bb 3eeb d43b 8309 39ba
00000300: 892b 4c3b d9b6 3b3a dc59 0f3b 4290 7c37
00000310: 1367 2d3c 4673 e23a 8d3a bdba 8ed2 3e3c
00000320: e35d 613b 04ef 50bb 125e 25bc cc5d e0ba
00000330: 2bf8 2cbb 5892 783b c583 d63b 1b3b 21bc
00000340: 0a06 d6bb 4aac 923b e065 ce3b 5a73 a9bb
00000350: fe8a 92bb 11dc ca3b c73d 7c3b 8347 f03a
00000360: fb9a 063c fe5b 833b 81f8 41bc 82ac 27bc
00000370: cbb2 4b3b db27 203c 744e c8bb 1629 2fbc
00000380: 1111 6bbb 96a5 f2bb 3cb1 1f3c 7046 253c
00000390: d64e 1d3c 26b1 96bb a2df 84bb 44f2 413b
000003a0: ecb7 64bb acad 04b9 1ad0 623b 2b7a 91bb
000003b0: 54d8 bfbb 6465 26bc 7107 24bb a57d 15bc
000003c0: b0fb e03b a390 50bb 7ff4 e1bb b53c 983a
000003d0: 1723 2dbc 48ac 323c 82c9 47bb ce19 e33a
000003e0: fe7e 3f3c 147a 2bbc 1bc8 2bba 19e0 973b
000003f0: 8dc8 f8b8 78e0 213c 6676 3cbc 3b0e a8bb
